…
I0504 13:47:13.799906 72624 net.cpp:322] The NetState phase (0) differed from the phase (1) specified by a rule in layer accuracy
I0504 13:47:13.801275 72624 net.cpp:49] Initializing net from parameters: 
name: "ResNet-50"
state {
  phase: TRAIN
}
layer {
  name: "data"
  type: "Data"
  top: "data"
  top: "label"
  include {
    phase: TRAIN
  }
  transform_param {
    mirror: true
    crop_size: 224
    mean_file: "/home/hzhang57/NEW_WORLD/Project_4_ROOT/CODES/RC_497/Param/mean.binaryproto"
  }
  data_param {
    source: "/home/hzhang57/NEW_WORLD/Project_4_ROOT/CODES/RC_497/Param/RC-train.leveldb"
    batch_size: 20
    backend: LMDB
  }
}
layer {
  name: "conv1"
  type: "Convolution"
  bottom: "data"
  top: "conv1"
  convolution_param {
    num_output: 64
    pad: 3
    kernel_size: 7
    stride: 2
  }
}
layer {
  name: "bn_conv1"
  type: "BatchNorm"
  bottom: "conv1"
  top: "conv1"
  batch_norm_param {
    use_global_stats: true
  }
}
layer {
  name: "scale_conv1"
  type: "Scale"
  bottom: "conv1"
  top: "conv1"
  scale_param {
    bias_term: true
  }
}
layer {
  name: "conv1_relu"
  type: "ReLU"
  bottom: "conv1"
  top: "conv1"
}
layer {
  name: "pool1"
  type: "Pooling"
  bottom: "conv1"
  top: "pool1"
  pooling_param {
    pool: MAX
    kernel_size: 3
    stride: 2
  }
}
layer {
  name: "res2a_branch1"
  type: "Convolution"
  bottom: "pool1"
  top: "res2a_branch1"
  convolution_param {
    num_output: 256
    bias_term: false
    pad: 0
    kernel_size: 1
    stride: 1
  }
}
layer {
  name: "bn2a_branch1"
  type: "BatchNorm"
  bottom: "res2a_branch1"
  top: "res2a_branch1"
  batch_norm_param {
    use_global_stats: true
  }
}
layer {
  name: "scale2a_branch1"
  type: "Scale"
  bottom: "res2a_branch1"
  top: "res2a_branch1"
  scale_param {
    bias_term: true
  }
}
layer {
  name: "res2a_branch2a"
  type: "Convolution"
  bottom: "pool1"
  top: "res2a_branch2a"
  convolution_param {
    num_output: 64
    bias_term: false
    pad: 0
    kernel_size: 1
    stride: 1
  }
}
layer {
  name: "bn2a_branch2a"
  type: "BatchNorm"
  bottom: "res2a_branch2a"
  top: "res2a_branch2a"
  batch_norm_param {
    use_global_stats: true
  }
}
layer {
  name: "scale2a_branch2a"
  type: "Scale"
  bottom: "res2a_branch2a"
  top: "res2a_branch2a"
  scale_param {
    bias_term: true
  }
}
layer {
  name: "res2a_branch2a_relu"
  type: "ReLU"
  bottom: "res2a_branch2a"
  top: "res2a_branch2a"
}
layer {
  name: "res2a_branch2b"
  type: "Convolution"
  bottom: "res2a_branch2a"
  top: "res2a_branch2b"
  convolution_param {
    num_output: 64
    bias_term: false
    pad: 1
    kernel_size: 3
    stride: 1
  }
}
layer {
  name: "bn2a_branch2b"
  type: "BatchNorm"
  bottom: "res2a_branch2b"
  top: "res2a_branch2b"
  batch_norm_param {
    use_global_stats: true
  }
}
layer {
  name: "scale2a_branch2b"
  type: "Scale"
  bottom: "res2a_branch2b"
  top: "res2a_branch2b"
  scale_param {
    bias_term: true
  }
}
layer {
  name: "res2a_branch2b_relu"
  type: "ReLU"
  bottom: "res2a_branch2b"
  top: "res2a_branch2b"
}
layer {
  name: "res2a_branch2c"
  type: "Convolution"
  bottom: "res2a_branch2b"
  top: "res2a_branch2c"
  convolution_param {
    num_output: 256
    bias_term: false
    pad: 0
    kernel_size: 1
    stride: 1
  }
}
layer {
  name: "bn2a_branch2c"
  type: "BatchNorm"
  bottom: "res2a_branch2c"
  top: "res2a_branch2c"
  batch_norm_param {
    use_global_stats: true
  }
}
layer {
  name: "scale2a_branch2c"
  type: "Scale"
  bottom: "res2a_branch2c"
  top: "res2a_branch2c"
  scale_param {
    bias_term: true
  }
}
layer {
  name: "res2a"
  type: "Eltwise"
  bottom: "res2a_branch1"
  bottom: "res2a_branch2c"
  top: "res2a"
}
layer {
  name: "res2a_relu"
  type: "ReLU"
  bottom: "res2a"
  top: "res2a"
}
layer {
  name: "res2b_branch2a"
  type: "Convolution"
  bottom: "res2a"
  top: "res2b_branch2a"
  convolution_param {
    num_output: 64
    bias_term: false
    pad: 0
    kernel_size: 1
    stride: 1
  }
}
layer {
  name: "bn2b_branch2a"
  type: "BatchNorm"
  bottom: "res2b_branch2a"
  top: "res2b_branch2a"
  batch_norm_param {
    use_global_stats: true
  }
}
layer {
  name: "scale2b_branch2a"
  type: "Scale"
  bottom: "res2b_branch2a"
  top: "res2b_branch2a"
  scale_param {
    bias_term: true
  }
}
layer {
  name: "res2b_branch2a_relu"
  type: "ReLU"
  bottom: "res2b_branch2a"
  top: "res2b_branch2a"
}
layer {
  name: "res2b_branch2b"
  type: "Convolution"
  bottom: "res2b_branch2a"
  top: "res2b_branch2b"
  convolution_param {
    num_output: 64
    bias_term: false
    pad: 1
    kernel_size: 3
    stride: 1
  }
}
layer {
  name: "bn2b_branch2b"
  type: "BatchNorm"
  bottom: "res2b_branch2b"
  top: "res2b_branch2b"
  batch_norm_param {
    use_global_stats: true
  }
}
layer {
  name: "scale2b_branch2b"
  type: "Scale"
  bottom: "res2b_branch2b"
  top: "res2b_branch2b"
  scale_param {
    bias_term: true
  }
}
layer {
  name: "res2b_branch2b_relu"
  type: "ReLU"
  bottom: "res2b_branch2b"
  top: "res2b_branch2b"
}
layer {
  name: "res2b_branch2c"
  type: "Convolution"
  bottom: "res2b_branch2b"
  top: "res2b_branch2c"
  convolution_param {
    num_output: 256
    bias_term: false
    pad: 0
    kernel_size: 1
    stride: 1
  }
}
layer {
  name: "bn2b_branch2c"
  type: "BatchNorm"
  bottom: "res2b_branch2c"
  top: "res2b_branch2c"
  batch_norm_param {
    use_global_stats: true
  }
}
layer {
  name: "scale2b_branch2c"
  type: "Scale"
  bottom: "res2b_branch2c"
  top: "res2b_branch2c"
  scale_param {
    bias_term: true
  }
}
layer {
  name: "res2b"
  type: "Eltwise"
  bottom: "res2a"
  bottom: "res2b_branch2c"
  top: "res2b"
}
layer {
  name: "res2b_relu"
  type: "ReLU"
  bottom: "res2b"
  top: "res2b"
}
layer {
  name: "res2c_branch2a"
  type: "Convolution"
  bottom: "res2b"
  top: "res2c_branch2a"
  convolution_param {
    num_output: 64
    bias_term: false
    pad: 0
    kernel_size: 1
    stride: 1
  }
}
layer {
  name: "bn2c_branch2a"
  type: "BatchNorm"
  bottom: "res2c_branch2a"
  top: "res2c_branch2a"
  batch_norm_param {
    use_global_stats: true
  }
}
layer {
  name: "scale2c_branch2a"
  type: "Scale"
  bottom: "res2c_branch2a"
  top: "res2c_branch2a"
  scale_param {
    bias_term: true
  }
}
layer {
  name: "res2c_branch2a_relu"
  type: "ReLU"
  bottom: "res2c_branch2a"
  top: "res2c_branch2a"
}
layer {
  name: "res2c_branch2b"
  type: "Convolution"
  bottom: "res2c_branch2a"
  top: "res2c_branch2b"
  convolution_param {
    num_output: 64
    bias_term: false
    pad: 1
    kernel_size: 3
    stride: 1
  }
}
layer {
  name: "bn2c_branch2b"
  type: "BatchNorm"
  bottom: "res2c_branch2b"
  top: "res2c_branch2b"
  batch_norm_param {
    use_global_stats: true
  }
}
layer {
  name: "scale2c_branch2b"
  type: "Scale"
  bottom: "res2c_branch2b"
  top: "res2c_branch2b"
  scale_param {
    bias_term: true
  }
}
layer {
  name: "res2c_branch2b_relu"
  type: "ReLU"
  bottom: "res2c_branch2b"
  top: "res2c_branch2b"
}
layer {
  name: "res2c_branch2c"
  type: "Convolution"
  bottom: "res2c_branch2b"
  top: "res2c_branch2c"
  convolution_param {
    num_output: 256
    bias_term: false
    pad: 0
    kernel_size: 1
    stride: 1
  }
}
layer {
  name: "bn2c_branch2c"
  type: "BatchNorm"
  bottom: "res2c_branch2c"
  top: "res2c_branch2c"
  batch_norm_param {
    use_global_stats: true
  }
}
layer {
  name: "scale2c_branch2c"
  type: "Scale"
  bottom: "res2c_branch2c"
  top: "res2c_branch2c"
  scale_param {
    bias_term: true
  }
}
layer {
  name: "res2c"
  type: "Eltwise"
  bottom: "res2b"
  bottom: "res2c_branch2c"
  top: "res2c"
}
layer {
  name: "res2c_relu"
  type: "ReLU"
  bottom: "res2c"
  top: "res2c"
}
layer {
  name: "res3a_branch1"
  type: "Convolution"
  bottom: "res2c"
  top: "res3a_branch1"
  convolution_param {
    num_output: 512
    bias_term: false
    pad: 0
    kernel_size: 1
    stride: 2
  }
}
layer {
  name: "bn3a_branch1"
  type: "BatchNorm"
  bottom: "res3a_branch1"
  top: "res3a_branch1"
  batch_norm_param {
    use_global_stats: true
  }
}
layer {
  name: "scale3a_branch1"
  type: "Scale"
  bottom: "res3a_branch1"
  top: "res3a_branch1"
  scale_param {
    bias_term: true
  }
}
layer {
  name: "res3a_branch2a"
  type: "Convolution"
  bottom: "res2c"
  top: "res3a_branch2a"
  convolution_param {
    num_output: 128
    bias_term: false
    pad: 0
    kernel_size: 1
    stride: 2
  }
}
layer {
  name: "bn3a_branch2a"
  type: "BatchNorm"
  bottom: "res3a_branch2a"
  top: "res3a_branch2a"
  batch_norm_param {
    use_global_stats: true
  }
}
layer {
  name: "scale3a_branch2a"
  type: "Scale"
  bottom: "res3a_branch2a"
  top: "res3a_branch2a"
  scale_param {
    bias_term: true
  }
}
layer {
  name: "res3a_branch2a_relu"
  type: "ReLU"
  bottom: "res3a_branch2a"
  top: "res3a_branch2a"
}
layer {
  name: "res3a_branch2b"
  type: "Convolution"
  bottom: "res3a_branch2a"
  top: "res3a_branch2b"
  convolution_param {
    num_output: 128
    bias_term: false
    pad: 1
    kernel_size: 3
    stride: 1
  }
}
layer {
  name: "bn3a_branch2b"
  type: "BatchNorm"
  bottom: "res3a_branch2b"
  top: "res3a_branch2b"
  batch_norm_param {
    use_global_stats: true
  }
}
layer {
  name: "scale3a_branch2b"
  type: "Scale"
  bottom: "res3a_branch2b"
  top: "res3a_branch2b"
  scale_param {
    bias_term: true
  }
}
layer {
  name: "res3a_branch2b_relu"
  type: "ReLU"
  bottom: "res3a_branch2b"
  top: "res3a_branch2b"
}
layer {
  name: "res3a_branch2c"
  type: "Convolution"
  bottom: "res3a_branch2b"
  top: "res3a_branch2c"
  convolution_param {
    num_output: 512
    bias_term: false
    pad: 0
    kernel_size: 1
    stride: 1
  }
}
layer {
  name: "bn3a_branch2c"
  type: "BatchNorm"
  bottom: "res3a_branch2c"
  top: "res3a_branch2c"
  batch_norm_param {
    use_global_stats: true
  }
}
layer {
  name: "scale3a_branch2c"
  type: "Scale"
  bottom: "res3a_branch2c"
  top: "res3a_branch2c"
  scale_param {
    bias_term: true
  }
}
layer {
  name: "res3a"
  type: "Eltwise"
  bottom: "res3a_branch1"
  bottom: "res3a_branch2c"
  top: "res3a"
}
layer {
  name: "res3a_relu"
  type: "ReLU"
  bottom: "res3a"
  top: "res3a"
}
layer {
  name: "res3b_branch2a"
  type: "Convolution"
  bottom: "res3a"
  top: "res3b_branch2a"
  convolution_param {
    num_output: 128
    bias_term: false
    pad: 0
    kernel_size: 1
    stride: 1
  }
}
layer {
  name: "bn3b_branch2a"
  type: "BatchNorm"
  bottom: "res3b_branch2a"
  top: "res3b_branch2a"
  batch_norm_param {
    use_global_stats: true
  }
}
layer {
  name: "scale3b_branch2a"
  type: "Scale"
  bottom: "res3b_branch2a"
  top: "res3b_branch2a"
  scale_param {
    bias_term: true
  }
}
layer {
  name: "res3b_branch2a_relu"
  type: "ReLU"
  bottom: "res3b_branch2a"
  top: "res3b_branch2a"
}
layer {
  name: "res3b_branch2b"
  type: "Convolution"
  bottom: "res3b_branch2a"
  top: "res3b_branch2b"
  convolution_param {
    num_output: 128
    bias_term: false
    pad: 1
    kernel_size: 3
    stride: 1
  }
}
layer {
  name: "bn3b_branch2b"
  type: "BatchNorm"
  bottom: "res3b_branch2b"
  top: "res3b_branch2b"
  batch_norm_param {
    use_global_stats: true
  }
}
layer {
  name: "scale3b_branch2b"
  type: "Scale"
  bottom: "res3b_branch2b"
  top: "res3b_branch2b"
  scale_param {
    bias_term: true
  }
}
layer {
  name: "res3b_branch2b_relu"
  type: "ReLU"
  bottom: "res3b_branch2b"
  top: "res3b_branch2b"
}
layer {
  name: "res3b_branch2c"
  type: "Convolution"
  bottom: "res3b_branch2b"
  top: "res3b_branch2c"
  convolution_param {
    num_output: 512
    bias_term: false
    pad: 0
    kernel_size: 1
    stride: 1
  }
}
layer {
  name: "bn3b_branch2c"
  type: "BatchNorm"
  bottom: "res3b_branch2c"
  top: "res3b_branch2c"
  batch_norm_param {
    use_global_stats: true
  }
}
layer {
  name: "scale3b_branch2c"
  type: "Scale"
  bottom: "res3b_branch2c"
  top: "res3b_branch2c"
  scale_param {
    bias_term: true
  }
}
layer {
  name: "res3b"
  type: "Eltwise"
  bottom: "res3a"
  bottom: "res3b_branch2c"
  top: "res3b"
}
layer {
  name: "res3b_relu"
  type: "ReLU"
  bottom: "res3b"
  top: "res3b"
}
layer {
  name: "res3c_branch2a"
  type: "Convolution"
  bottom: "res3b"
  top: "res3c_branch2a"
  convolution_param {
    num_output: 128
    bias_term: false
    pad: 0
    kernel_size: 1
    stride: 1
  }
}
layer {
  name: "bn3c_branch2a"
  type: "BatchNorm"
  bottom: "res3c_branch2a"
  top: "res3c_branch2a"
  batch_norm_param {
    use_global_stats: true
  }
}
layer {
  name: "scale3c_branch2a"
  type: "Scale"
  bottom: "res3c_branch2a"
  top: "res3c_branch2a"
  scale_param {
    bias_term: true
  }
}
layer {
  name: "res3c_branch2a_relu"
  type: "ReLU"
  bottom: "res3c_branch2a"
  top: "res3c_branch2a"
}
layer {
  name: "res3c_branch2b"
  type: "Convolution"
  bottom: "res3c_branch2a"
  top: "res3c_branch2b"
  convolution_param {
    num_output: 128
    bias_term: false
    pad: 1
    kernel_size: 3
    stride: 1
  }
}
layer {
  name: "bn3c_branch2b"
  type: "BatchNorm"
  bottom: "res3c_branch2b"
  top: "res3c_branch2b"
  batch_norm_param {
    use_global_stats: true
  }
}
layer {
  name: "scale3c_branch2b"
  type: "Scale"
  bottom: "res3c_branch2b"
  top: "res3c_branch2b"
  scale_param {
    bias_term: true
  }
}
layer {
  name: "res3c_branch2b_relu"
  type: "ReLU"
  bottom: "res3c_branch2b"
  top: "res3c_branch2b"
}
layer {
  name: "res3c_branch2c"
  type: "Convolution"
  bottom: "res3c_branch2b"
  top: "res3c_branch2c"
  convolution_param {
    num_output: 512
    bias_term: false
    pad: 0
    kernel_size: 1
    stride: 1
  }
}
layer {
  name: "bn3c_branch2c"
  type: "BatchNorm"
  bottom: "res3c_branch2c"
  top: "res3c_branch2c"
  batch_norm_param {
    use_global_stats: true
  }
}
layer {
  name: "scale3c_branch2c"
  type: "Scale"
  bottom: "res3c_branch2c"
  top: "res3c_branch2c"
  scale_param {
    bias_term: true
  }
}
layer {
  name: "res3c"
  type: "Eltwise"
  bottom: "res3b"
  bottom: "res3c_branch2c"
  top: "res3c"
}
layer {
  name: "res3c_relu"
  type: "ReLU"
  bottom: "res3c"
  top: "res3c"
}
layer {
  name: "res3d_branch2a"
  type: "Convolution"
  bottom: "res3c"
  top: "res3d_branch2a"
  convolution_param {
    num_output: 128
    bias_term: false
    pad: 0
    kernel_size: 1
    stride: 1
  }
}
layer {
  name: "bn3d_branch2a"
  type: "BatchNorm"
  bottom: "res3d_branch2a"
  top: "res3d_branch2a"
  batch_norm_param {
    use_global_stats: true
  }
}
layer {
  name: "scale3d_branch2a"
  type: "Scale"
  bottom: "res3d_branch2a"
  top: "res3d_branch2a"
  scale_param {
    bias_term: true
  }
}
layer {
  name: "res3d_branch2a_relu"
  type: "ReLU"
  bottom: "res3d_branch2a"
  top: "res3d_branch2a"
}
layer {
  name: "res3d_branch2b"
  type: "Convolution"
  bottom: "res3d_branch2a"
  top: "res3d_branch2b"
  convolution_param {
    num_output: 128
    bias_term: false
    pad: 1
    kernel_size: 3
    stride: 1
  }
}
layer {
  name: "bn3d_branch2b"
  type: "BatchNorm"
  bottom: "res3d_branch2b"
  top: "res3d_branch2b"
  batch_norm_param {
    use_global_stats: true
  }
}
layer {
  name: "scale3d_branch2b"
  type: "Scale"
  bottom: "res3d_branch2b"
  top: "res3d_branch2b"
  scale_param {
    bias_term: true
  }
}
layer {
  name: "res3d_branch2b_relu"
  type: "ReLU"
  bottom: "res3d_branch2b"
  top: "res3d_branch2b"
}
layer {
  name: "res3d_branch2c"
  type: "Convolution"
  bottom: "res3d_branch2b"
  top: "res3d_branch2c"
  convolution_param {
    num_output: 512
    bias_term: false
    pad: 0
    kernel_size: 1
    stride: 1
  }
}
layer {
  name: "bn3d_branch2c"
  type: "BatchNorm"
  bottom: "res3d_branch2c"
  top: "res3d_branch2c"
  batch_norm_param {
    use_global_stats: true
  }
}
layer {
  name: "scale3d_branch2c"
  type: "Scale"
  bottom: "res3d_branch2c"
  top: "res3d_branch2c"
  scale_param {
    bias_term: true
  }
}
layer {
  name: "res3d"
  type: "Eltwise"
  bottom: "res3c"
  bottom: "res3d_branch2c"
  top: "res3d"
}
layer {
  name: "res3d_relu"
  type: "ReLU"
  bottom: "res3d"
  top: "res3d"
}
layer {
  name: "res4a_branch1"
  type: "Convolution"
  bottom: "res3d"
  top: "res4a_branch1"
  convolution_param {
    num_output: 1024
    bias_term: false
    pad: 0
    kernel_size: 1
    stride: 2
  }
}
layer {
  name: "bn4a_branch1"
  type: "BatchNorm"
  bottom: "res4a_branch1"
  top: "res4a_branch1"
  batch_norm_param {
    use_global_stats: true
  }
}
layer {
  name: "scale4a_branch1"
  type: "Scale"
  bottom: "res4a_branch1"
  top: "res4a_branch1"
  scale_param {
    bias_term: true
  }
}
layer {
  name: "res4a_branch2a"
  type: "Convolution"
  bottom: "res3d"
  top: "res4a_branch2a"
  convolution_param {
    num_output: 256
    bias_term: false
    pad: 0
    kernel_size: 1
    stride: 2
  }
}
layer {
  name: "bn4a_branch2a"
  type: "BatchNorm"
  bottom: "res4a_branch2a"
  top: "res4a_branch2a"
  batch_norm_param {
    use_global_stats: true
  }
}
layer {
  name: "scale4a_branch2a"
  type: "Scale"
  bottom: "res4a_branch2a"
  top: "res4a_branch2a"
  scale_param {
    bias_term: true
  }
}
layer {
  name: "res4a_branch2a_relu"
  type: "ReLU"
  bottom: "res4a_branch2a"
  top: "res4a_branch2a"
}
layer {
  name: "res4a_branch2b"
  type: "Convolution"
  bottom: "res4a_branch2a"
  top: "res4a_branch2b"
  convolution_param {
    num_output: 256
    bias_term: false
    pad: 1
    kernel_size: 3
    stride: 1
  }
}
layer {
  name: "bn4a_branch2b"
  type: "BatchNorm"
  bottom: "res4a_branch2b"
  top: "res4a_branch2b"
  batch_norm_param {
    use_global_stats: true
  }
}
layer {
  name: "scale4a_branch2b"
  type: "Scale"
  bottom: "res4a_branch2b"
  top: "res4a_branch2b"
  scale_param {
    bias_term: true
  }
}
layer {
  name: "res4a_branch2b_relu"
  type: "ReLU"
  bottom: "res4a_branch2b"
  top: "res4a_branch2b"
}
layer {
  name: "res4a_branch2c"
  type: "Convolution"
  bottom: "res4a_branch2b"
  top: "res4a_branch2c"
  convolution_param {
    num_output: 1024
    bias_term: false
    pad: 0
    kernel_size: 1
    stride: 1
  }
}
layer {
  name: "bn4a_branch2c"
  type: "BatchNorm"
  bottom: "res4a_branch2c"
  top: "res4a_branch2c"
  batch_norm_param {
    use_global_stats: true
  }
}
layer {
  name: "scale4a_branch2c"
  type: "Scale"
  bottom: "res4a_branch2c"
  top: "res4a_branch2c"
  scale_param {
    bias_term: true
  }
}
layer {
  name: "res4a"
  type: "Eltwise"
  bottom: "res4a_branch1"
  bottom: "res4a_branch2c"
  top: "res4a"
}
layer {
  name: "res4a_relu"
  type: "ReLU"
  bottom: "res4a"
  top: "res4a"
}
layer {
  name: "res4b_branch2a"
  type: "Convolution"
  bottom: "res4a"
  top: "res4b_branch2a"
  convolution_param {
    num_output: 256
    bias_term: false
    pad: 0
    kernel_size: 1
    stride: 1
  }
}
layer {
  name: "bn4b_branch2a"
  type: "BatchNorm"
  bottom: "res4b_branch2a"
  top: "res4b_branch2a"
  batch_norm_param {
    use_global_stats: true
  }
}
layer {
  name: "scale4b_branch2a"
  type: "Scale"
  bottom: "res4b_branch2a"
  top: "res4b_branch2a"
  scale_param {
    bias_term: true
  }
}
layer {
  name: "res4b_branch2a_relu"
  type: "ReLU"
  bottom: "res4b_branch2a"
  top: "res4b_branch2a"
}
layer {
  name: "res4b_branch2b"
  type: "Convolution"
  bottom: "res4b_branch2a"
  top: "res4b_branch2b"
  convolution_param {
    num_output: 256
    bias_term: false
    pad: 1
    kernel_size: 3
    stride: 1
  }
}
layer {
  name: "bn4b_branch2b"
  type: "BatchNorm"
  bottom: "res4b_branch2b"
  top: "res4b_branch2b"
  batch_norm_param {
    use_global_stats: true
  }
}
layer {
  name: "scale4b_branch2b"
  type: "Scale"
  bottom: "res4b_branch2b"
  top: "res4b_branch2b"
  scale_param {
    bias_term: true
  }
}
layer {
  name: "res4b_branch2b_relu"
  type: "ReLU"
  bottom: "res4b_branch2b"
  top: "res4b_branch2b"
}
layer {
  name: "res4b_branch2c"
  type: "Convolution"
  bottom: "res4b_branch2b"
  top: "res4b_branch2c"
  convolution_param {
    num_output: 1024
    bias_term: false
    pad: 0
    kernel_size: 1
    stride: 1
  }
}
layer {
  name: "bn4b_branch2c"
  type: "BatchNorm"
  bottom: "res4b_branch2c"
  top: "res4b_branch2c"
  batch_norm_param {
    use_global_stats: true
  }
}
layer {
  name: "scale4b_branch2c"
  type: "Scale"
  bottom: "res4b_branch2c"
  top: "res4b_branch2c"
  scale_param {
    bias_term: true
  }
}
layer {
  name: "res4b"
  type: "Eltwise"
  bottom: "res4a"
  bottom: "res4b_branch2c"
  top: "res4b"
}
layer {
  name: "res4b_relu"
  type: "ReLU"
  bottom: "res4b"
  top: "res4b"
}
layer {
  name: "res4c_branch2a"
  type: "Convolution"
  bottom: "res4b"
  top: "res4c_branch2a"
  convolution_param {
    num_output: 256
    bias_term: false
    pad: 0
    kernel_size: 1
    stride: 1
  }
}
layer {
  name: "bn4c_branch2a"
  type: "BatchNorm"
  bottom: "res4c_branch2a"
  top: "res4c_branch2a"
  batch_norm_param {
    use_global_stats: true
  }
}
layer {
  name: "scale4c_branch2a"
  type: "Scale"
  bottom: "res4c_branch2a"
  top: "res4c_branch2a"
  scale_param {
    bias_term: true
  }
}
layer {
  name: "res4c_branch2a_relu"
  type: "ReLU"
  bottom: "res4c_branch2a"
  top: "res4c_branch2a"
}
layer {
  name: "res4c_branch2b"
  type: "Convolution"
  bottom: "res4c_branch2a"
  top: "res4c_branch2b"
  convolution_param {
    num_output: 256
    bias_term: false
    pad: 1
    kernel_size: 3
    stride: 1
  }
}
layer {
  name: "bn4c_branch2b"
  type: "BatchNorm"
  bottom: "res4c_branch2b"
  top: "res4c_branch2b"
  batch_norm_param {
    use_global_stats: true
  }
}
layer {
  name: "scale4c_branch2b"
  type: "Scale"
  bottom: "res4c_branch2b"
  top: "res4c_branch2b"
  scale_param {
    bias_term: true
  }
}
layer {
  name: "res4c_branch2b_relu"
  type: "ReLU"
  bottom: "res4c_branch2b"
  top: "res4c_branch2b"
}
layer {
  name: "res4c_branch2c"
  type: "Convolution"
  bottom: "res4c_branch2b"
  top: "res4c_branch2c"
  convolution_param {
    num_output: 1024
    bias_term: false
    pad: 0
    kernel_size: 1
    stride: 1
  }
}
layer {
  name: "bn4c_branch2c"
  type: "BatchNorm"
  bottom: "res4c_branch2c"
  top: "res4c_branch2c"
  batch_norm_param {
    use_global_stats: true
  }
}
layer {
  name: "scale4c_branch2c"
  type: "Scale"
  bottom: "res4c_branch2c"
  top: "res4c_branch2c"
  scale_param {
    bias_term: true
  }
}
layer {
  name: "res4c"
  type: "Eltwise"
  bottom: "res4b"
  bottom: "res4c_branch2c"
  top: "res4c"
}
layer {
  name: "res4c_relu"
  type: "ReLU"
  bottom: "res4c"
  top: "res4c"
}
layer {
  name: "res4d_branch2a"
  type: "Convolution"
  bottom: "res4c"
  top: "res4d_branch2a"
  convolution_param {
    num_output: 256
    bias_term: false
    pad: 0
    kernel_size: 1
    stride: 1
  }
}
layer {
  name: "bn4d_branch2a"
  type: "BatchNorm"
  bottom: "res4d_branch2a"
  top: "res4d_branch2a"
  batch_norm_param {
    use_global_stats: true
  }
}
layer {
  name: "scale4d_branch2a"
  type: "Scale"
  bottom: "res4d_branch2a"
  top: "res4d_branch2a"
  scale_param {
    bias_term: true
  }
}
layer {
  name: "res4d_branch2a_relu"
  type: "ReLU"
  bottom: "res4d_branch2a"
  top: "res4d_branch2a"
}
layer {
  name: "res4d_branch2b"
  type: "Convolution"
  bottom: "res4d_branch2a"
  top: "res4d_branch2b"
  convolution_param {
    num_output: 256
    bias_term: false
    pad: 1
    kernel_size: 3
    stride: 1
  }
}
layer {
  name: "bn4d_branch2b"
  type: "BatchNorm"
  bottom: "res4d_branch2b"
  top: "res4d_branch2b"
  batch_norm_param {
    use_global_stats: true
  }
}
layer {
  name: "scale4d_branch2b"
  type: "Scale"
  bottom: "res4d_branch2b"
  top: "res4d_branch2b"
  scale_param {
    bias_term: true
  }
}
layer {
  name: "res4d_branch2b_relu"
  type: "ReLU"
  bottom: "res4d_branch2b"
  top: "res4d_branch2b"
}
layer {
  name: "res4d_branch2c"
  type: "Convolution"
  bottom: "res4d_branch2b"
  top: "res4d_branch2c"
  convolution_param {
    num_output: 1024
    bias_term: false
    pad: 0
    kernel_size: 1
    stride: 1
  }
}
layer {
  name: "bn4d_branch2c"
  type: "BatchNorm"
  bottom: "res4d_branch2c"
  top: "res4d_branch2c"
  batch_norm_param {
    use_global_stats: true
  }
}
layer {
  name: "scale4d_branch2c"
  type: "Scale"
  bottom: "res4d_branch2c"
  top: "res4d_branch2c"
  scale_param {
    bias_term: true
  }
}
layer {
  name: "res4d"
  type: "Eltwise"
  bottom: "res4c"
  bottom: "res4d_branch2c"
  top: "res4d"
}
layer {
  name: "res4d_relu"
  type: "ReLU"
  bottom: "res4d"
  top: "res4d"
}
layer {
  name: "res4e_branch2a"
  type: "Convolution"
  bottom: "res4d"
  top: "res4e_branch2a"
  convolution_param {
    num_output: 256
    bias_term: false
    pad: 0
    kernel_size: 1
    stride: 1
  }
}
layer {
  name: "bn4e_branch2a"
  type: "BatchNorm"
  bottom: "res4e_branch2a"
  top: "res4e_branch2a"
  batch_norm_param {
    use_global_stats: true
  }
}
layer {
  name: "scale4e_branch2a"
  type: "Scale"
  bottom: "res4e_branch2a"
  top: "res4e_branch2a"
  scale_param {
    bias_term: true
  }
}
layer {
  name: "res4e_branch2a_relu"
  type: "ReLU"
  bottom: "res4e_branch2a"
  top: "res4e_branch2a"
}
layer {
  name: "res4e_branch2b"
  type: "Convolution"
  bottom: "res4e_branch2a"
  top: "res4e_branch2b"
  convolution_param {
    num_output: 256
    bias_term: false
    pad: 1
    kernel_size: 3
    stride: 1
  }
}
layer {
  name: "bn4e_branch2b"
  type: "BatchNorm"
  bottom: "res4e_branch2b"
  top: "res4e_branch2b"
  batch_norm_param {
    use_global_stats: true
  }
}
layer {
  name: "scale4e_branch2b"
  type: "Scale"
  bottom: "res4e_branch2b"
  top: "res4e_branch2b"
  scale_param {
    bias_term: true
  }
}
layer {
  name: "res4e_branch2b_relu"
  type: "ReLU"
  bottom: "res4e_branch2b"
  top: "res4e_branch2b"
}
layer {
  name: "res4e_branch2c"
  type: "Convolution"
  bottom: "res4e_branch2b"
  top: "res4e_branch2c"
  convolution_param {
    num_output: 1024
    bias_term: false
    pad: 0
    kernel_size: 1
    stride: 1
  }
}
layer {
  name: "bn4e_branch2c"
  type: "BatchNorm"
  bottom: "res4e_branch2c"
  top: "res4e_branch2c"
  batch_norm_param {
    use_global_stats: true
  }
}
layer {
  name: "scale4e_branch2c"
  type: "Scale"
  bottom: "res4e_branch2c"
  top: "res4e_branch2c"
  scale_param {
    bias_term: true
  }
}
layer {
  name: "res4e"
  type: "Eltwise"
  bottom: "res4d"
  bottom: "res4e_branch2c"
  top: "res4e"
}
layer {
  name: "res4e_relu"
  type: "ReLU"
  bottom: "res4e"
  top: "res4e"
}
layer {
  name: "res4f_branch2a"
  type: "Convolution"
  bottom: "res4e"
  top: "res4f_branch2a"
  convolution_param {
    num_output: 256
    bias_term: false
    pad: 0
    kernel_size: 1
    stride: 1
  }
}
layer {
  name: "bn4f_branch2a"
  type: "BatchNorm"
  bottom: "res4f_branch2a"
  top: "res4f_branch2a"
  batch_norm_param {
    use_global_stats: true
  }
}
layer {
  name: "scale4f_branch2a"
  type: "Scale"
  bottom: "res4f_branch2a"
  top: "res4f_branch2a"
  scale_param {
    bias_term: true
  }
}
layer {
  name: "res4f_branch2a_relu"
  type: "ReLU"
  bottom: "res4f_branch2a"
  top: "res4f_branch2a"
}
layer {
  name: "res4f_branch2b"
  type: "Convolution"
  bottom: "res4f_branch2a"
  top: "res4f_branch2b"
  convolution_param {
    num_output: 256
    bias_term: false
    pad: 1
    kernel_size: 3
    stride: 1
  }
}
layer {
  name: "bn4f_branch2b"
  type: "BatchNorm"
  bottom: "res4f_branch2b"
  top: "res4f_branch2b"
  batch_norm_param {
    use_global_stats: true
  }
}
layer {
  name: "scale4f_branch2b"
  type: "Scale"
  bottom: "res4f_branch2b"
  top: "res4f_branch2b"
  scale_param {
    bias_term: true
  }
}
layer {
  name: "res4f_branch2b_relu"
  type: "ReLU"
  bottom: "res4f_branch2b"
  top: "res4f_branch2b"
}
layer {
  name: "res4f_branch2c"
  type: "Convolution"
  bottom: "res4f_branch2b"
  top: "res4f_branch2c"
  convolution_param {
    num_output: 1024
    bias_term: false
    pad: 0
    kernel_size: 1
    stride: 1
  }
}
layer {
  name: "bn4f_branch2c"
  type: "BatchNorm"
  bottom: "res4f_branch2c"
  top: "res4f_branch2c"
  batch_norm_param {
    use_global_stats: true
  }
}
layer {
  name: "scale4f_branch2c"
  type: "Scale"
  bottom: "res4f_branch2c"
  top: "res4f_branch2c"
  scale_param {
    bias_term: true
  }
}
layer {
  name: "res4f"
  type: "Eltwise"
  bottom: "res4e"
  bottom: "res4f_branch2c"
  top: "res4f"
}
layer {
  name: "res4f_relu"
  type: "ReLU"
  bottom: "res4f"
  top: "res4f"
}
layer {
  name: "res5a_branch1"
  type: "Convolution"
  bottom: "res4f"
  top: "res5a_branch1"
  convolution_param {
    num_output: 2048
    bias_term: false
    pad: 0
    kernel_size: 1
    stride: 2
  }
}
layer {
  name: "bn5a_branch1"
  type: "BatchNorm"
  bottom: "res5a_branch1"
  top: "res5a_branch1"
  batch_norm_param {
    use_global_stats: true
  }
}
layer {
  name: "scale5a_branch1"
  type: "Scale"
  bottom: "res5a_branch1"
  top: "res5a_branch1"
  scale_param {
    bias_term: true
  }
}
layer {
  name: "res5a_branch2a"
  type: "Convolution"
  bottom: "res4f"
  top: "res5a_branch2a"
  convolution_param {
    num_output: 512
    bias_term: false
    pad: 0
    kernel_size: 1
    stride: 2
  }
}
layer {
  name: "bn5a_branch2a"
  type: "BatchNorm"
  bottom: "res5a_branch2a"
  top: "res5a_branch2a"
  batch_norm_param {
    use_global_stats: true
  }
}
layer {
  name: "scale5a_branch2a"
  type: "Scale"
  bottom: "res5a_branch2a"
  top: "res5a_branch2a"
  scale_param {
    bias_term: true
  }
}
layer {
  name: "res5a_branch2a_relu"
  type: "ReLU"
  bottom: "res5a_branch2a"
  top: "res5a_branch2a"
}
layer {
  name: "res5a_branch2b"
  type: "Convolution"
  bottom: "res5a_branch2a"
  top: "res5a_branch2b"
  convolution_param {
    num_output: 512
    bias_term: false
    pad: 1
    kernel_size: 3
    stride: 1
  }
}
layer {
  name: "bn5a_branch2b"
  type: "BatchNorm"
  bottom: "res5a_branch2b"
  top: "res5a_branch2b"
  batch_norm_param {
    use_global_stats: true
  }
}
layer {
  name: "scale5a_branch2b"
  type: "Scale"
  bottom: "res5a_branch2b"
  top: "res5a_branch2b"
  scale_param {
    bias_term: true
  }
}
layer {
  name: "res5a_branch2b_relu"
  type: "ReLU"
  bottom: "res5a_branch2b"
  top: "res5a_branch2b"
}
layer {
  name: "res5a_branch2c"
  type: "Convolution"
  bottom: "res5a_branch2b"
  top: "res5a_branch2c"
  convolution_param {
    num_output: 2048
    bias_term: false
    pad: 0
    kernel_size: 1
    stride: 1
  }
}
layer {
  name: "bn5a_branch2c"
I0504 13:47:13.802654 72624 layer_factory.hpp:77] Creating layer data
I0504 13:47:13.833123 72624 net.cpp:106] Creating Layer data
I0504 13:47:13.833189 72624 net.cpp:411] data -> data
I0504 13:47:13.833237 72624 net.cpp:411] data -> label
I0504 13:47:13.833264 72624 data_transformer.cpp:25] Loading mean file from: /home/hzhang57/NEW_WORLD/Project_4_ROOT/CODES/RC_497/Param/mean.binaryproto
I0504 13:47:13.834323 72913 db_lmdb.cpp:38] Opened lmdb /home/hzhang57/NEW_WORLD/Project_4_ROOT/CODES/RC_497/Param/RC-train.leveldb
I0504 13:47:13.863328 72624 data_layer.cpp:41] output data size: 20,3,224,224
I0504 13:47:13.890686 72624 net.cpp:150] Setting up data
I0504 13:47:13.890753 72624 net.cpp:157] Top shape: 20 3 224 224 (3010560)
I0504 13:47:13.890765 72624 net.cpp:157] Top shape: 20 (20)
I0504 13:47:13.890774 72624 net.cpp:165] Memory required for data: 12042320
I0504 13:47:13.890794 72624 layer_factory.hpp:77] Creating layer conv1
I0504 13:47:13.890831 72624 net.cpp:106] Creating Layer conv1
I0504 13:47:13.890842 72624 net.cpp:454] conv1 <- data
I0504 13:47:13.890863 72624 net.cpp:411] conv1 -> conv1
I0504 13:47:13.891844 72624 net.cpp:150] Setting up conv1
I0504 13:47:13.891865 72624 net.cpp:157] Top shape: 20 64 112 112 (16056320)
I0504 13:47:13.891875 72624 net.cpp:165] Memory required for data: 76267600
I0504 13:47:13.891897 72624 layer_factory.hpp:77] Creating layer bn_conv1
I0504 13:47:13.891919 72624 net.cpp:106] Creating Layer bn_conv1
I0504 13:47:13.891927 72624 net.cpp:454] bn_conv1 <- conv1
I0504 13:47:13.891938 72624 net.cpp:397] bn_conv1 -> conv1 (in-place)
I0504 13:47:13.893529 72624 net.cpp:150] Setting up bn_conv1
I0504 13:47:13.893555 72624 net.cpp:157] Top shape: 20 64 112 112 (16056320)
I0504 13:47:13.893565 72624 net.cpp:165] Memory required for data: 140492880
I0504 13:47:13.893602 72624 layer_factory.hpp:77] Creating layer scale_conv1
I0504 13:47:13.893625 72624 net.cpp:106] Creating Layer scale_conv1
I0504 13:47:13.893633 72624 net.cpp:454] scale_conv1 <- conv1
I0504 13:47:13.893645 72624 net.cpp:397] scale_conv1 -> conv1 (in-place)
I0504 13:47:13.893707 72624 layer_factory.hpp:77] Creating layer scale_conv1
I0504 13:47:13.893874 72624 net.cpp:150] Setting up scale_conv1
I0504 13:47:13.893889 72624 net.cpp:157] Top shape: 20 64 112 112 (16056320)
I0504 13:47:13.893898 72624 net.cpp:165] Memory required for data: 204718160
I0504 13:47:13.893909 72624 layer_factory.hpp:77] Creating layer conv1_relu
I0504 13:47:13.893923 72624 net.cpp:106] Creating Layer conv1_relu
I0504 13:47:13.893930 72624 net.cpp:454] conv1_relu <- conv1
I0504 13:47:13.893940 72624 net.cpp:397] conv1_relu -> conv1 (in-place)
I0504 13:47:13.893952 72624 net.cpp:150] Setting up conv1_relu
I0504 13:47:13.893962 72624 net.cpp:157] Top shape: 20 64 112 112 (16056320)
I0504 13:47:13.893970 72624 net.cpp:165] Memory required for data: 268943440
I0504 13:47:13.893976 72624 layer_factory.hpp:77] Creating layer pool1
I0504 13:47:13.893988 72624 net.cpp:106] Creating Layer pool1
I0504 13:47:13.893996 72624 net.cpp:454] pool1 <- conv1
I0504 13:47:13.894006 72624 net.cpp:411] pool1 -> pool1
I0504 13:47:13.894076 72624 net.cpp:150] Setting up pool1
I0504 13:47:13.894089 72624 net.cpp:157] Top shape: 20 64 56 56 (4014080)
I0504 13:47:13.894098 72624 net.cpp:165] Memory required for data: 284999760
I0504 13:47:13.894110 72624 layer_factory.hpp:77] Creating layer pool1_pool1_0_split
I0504 13:47:13.894121 72624 net.cpp:106] Creating Layer pool1_pool1_0_split
I0504 13:47:13.894129 72624 net.cpp:454] pool1_pool1_0_split <- pool1
I0504 13:47:13.894140 72624 net.cpp:411] pool1_pool1_0_split -> pool1_pool1_0_split_0
I0504 13:47:13.894152 72624 net.cpp:411] pool1_pool1_0_split -> pool1_pool1_0_split_1
I0504 13:47:13.894196 72624 net.cpp:150] Setting up pool1_pool1_0_split
I0504 13:47:13.894208 72624 net.cpp:157] Top shape: 20 64 56 56 (4014080)
I0504 13:47:13.894217 72624 net.cpp:157] Top shape: 20 64 56 56 (4014080)
I0504 13:47:13.894224 72624 net.cpp:165] Memory required for data: 317112400
I0504 13:47:13.894232 72624 layer_factory.hpp:77] Creating layer res2a_branch1
I0504 13:47:13.894246 72624 net.cpp:106] Creating Layer res2a_branch1
I0504 13:47:13.894253 72624 net.cpp:454] res2a_branch1 <- pool1_pool1_0_split_0
I0504 13:47:13.894264 72624 net.cpp:411] res2a_branch1 -> res2a_branch1
I0504 13:47:13.894482 72624 net.cpp:150] Setting up res2a_branch1
I0504 13:47:13.894497 72624 net.cpp:157] Top shape: 20 256 56 56 (16056320)
I0504 13:47:13.894505 72624 net.cpp:165] Memory required for data: 381337680
I0504 13:47:13.894515 72624 layer_factory.hpp:77] Creating layer bn2a_branch1
I0504 13:47:13.894528 72624 net.cpp:106] Creating Layer bn2a_branch1
I0504 13:47:13.894536 72624 net.cpp:454] bn2a_branch1 <- res2a_branch1
I0504 13:47:13.894547 72624 net.cpp:397] bn2a_branch1 -> res2a_branch1 (in-place)
I0504 13:47:13.895463 72624 net.cpp:150] Setting up bn2a_branch1
I0504 13:47:13.895483 72624 net.cpp:157] Top shape: 20 256 56 56 (16056320)
I0504 13:47:13.895493 72624 net.cpp:165] Memory required for data: 445562960
I0504 13:47:13.895514 72624 layer_factory.hpp:77] Creating layer scale2a_branch1
I0504 13:47:13.895526 72624 net.cpp:106] Creating Layer scale2a_branch1
I0504 13:47:13.895534 72624 net.cpp:454] scale2a_branch1 <- res2a_branch1
I0504 13:47:13.895545 72624 net.cpp:397] scale2a_branch1 -> res2a_branch1 (in-place)
I0504 13:47:13.895597 72624 layer_factory.hpp:77] Creating layer scale2a_branch1
I0504 13:47:13.895732 72624 net.cpp:150] Setting up scale2a_branch1
I0504 13:47:13.895746 72624 net.cpp:157] Top shape: 20 256 56 56 (16056320)
I0504 13:47:13.895755 72624 net.cpp:165] Memory required for data: 509788240
I0504 13:47:13.895766 72624 layer_factory.hpp:77] Creating layer res2a_branch2a
I0504 13:47:13.895781 72624 net.cpp:106] Creating Layer res2a_branch2a
I0504 13:47:13.895787 72624 net.cpp:454] res2a_branch2a <- pool1_pool1_0_split_1
I0504 13:47:13.895807 72624 net.cpp:411] res2a_branch2a -> res2a_branch2a
I0504 13:47:13.896023 72624 net.cpp:150] Setting up res2a_branch2a
I0504 13:47:13.896036 72624 net.cpp:157] Top shape: 20 64 56 56 (4014080)
I0504 13:47:13.896044 72624 net.cpp:165] Memory required for data: 525844560
I0504 13:47:13.896055 72624 layer_factory.hpp:77] Creating layer bn2a_branch2a
I0504 13:47:13.896067 72624 net.cpp:106] Creating Layer bn2a_branch2a
I0504 13:47:13.896075 72624 net.cpp:454] bn2a_branch2a <- res2a_branch2a
I0504 13:47:13.896085 72624 net.cpp:397] bn2a_branch2a -> res2a_branch2a (in-place)
I0504 13:47:13.896299 72624 net.cpp:150] Setting up bn2a_branch2a
I0504 13:47:13.896313 72624 net.cpp:157] Top shape: 20 64 56 56 (4014080)
I0504 13:47:13.896320 72624 net.cpp:165] Memory required for data: 541900880
I0504 13:47:13.896340 72624 layer_factory.hpp:77] Creating layer scale2a_branch2a
I0504 13:47:13.896352 72624 net.cpp:106] Creating Layer scale2a_branch2a
I0504 13:47:13.896359 72624 net.cpp:454] scale2a_branch2a <- res2a_branch2a
I0504 13:47:13.896369 72624 net.cpp:397] scale2a_branch2a -> res2a_branch2a (in-place)
I0504 13:47:13.896420 72624 layer_factory.hpp:77] Creating layer scale2a_branch2a
I0504 13:47:13.896600 72624 net.cpp:150] Setting up scale2a_branch2a
I0504 13:47:13.896618 72624 net.cpp:157] Top shape: 20 64 56 56 (4014080)
I0504 13:47:13.896626 72624 net.cpp:165] Memory required for data: 557957200
I0504 13:47:13.896638 72624 layer_factory.hpp:77] Creating layer res2a_branch2a_relu
I0504 13:47:13.896651 72624 net.cpp:106] Creating Layer res2a_branch2a_relu
I0504 13:47:13.896658 72624 net.cpp:454] res2a_branch2a_relu <- res2a_branch2a
I0504 13:47:13.896668 72624 net.cpp:397] res2a_branch2a_relu -> res2a_branch2a (in-place)
I0504 13:47:13.896679 72624 net.cpp:150] Setting up res2a_branch2a_relu
I0504 13:47:13.896689 72624 net.cpp:157] Top shape: 20 64 56 56 (4014080)
I0504 13:47:13.896697 72624 net.cpp:165] Memory required for data: 574013520
I0504 13:47:13.896703 72624 layer_factory.hpp:77] Creating layer res2a_branch2b
I0504 13:47:13.896716 72624 net.cpp:106] Creating Layer res2a_branch2b
I0504 13:47:13.896723 72624 net.cpp:454] res2a_branch2b <- res2a_branch2a
I0504 13:47:13.896734 72624 net.cpp:411] res2a_branch2b -> res2a_branch2b
I0504 13:47:13.897707 72624 net.cpp:150] Setting up res2a_branch2b
I0504 13:47:13.897728 72624 net.cpp:157] Top shape: 20 64 56 56 (4014080)
I0504 13:47:13.897737 72624 net.cpp:165] Memory required for data: 590069840
I0504 13:47:13.897748 72624 layer_factory.hpp:77] Creating layer bn2a_branch2b
I0504 13:47:13.897760 72624 net.cpp:106] Creating Layer bn2a_branch2b
I0504 13:47:13.897768 72624 net.cpp:454] bn2a_branch2b <- res2a_branch2b
I0504 13:47:13.897778 72624 net.cpp:397] bn2a_branch2b -> res2a_branch2b (in-place)
I0504 13:47:13.898005 72624 net.cpp:150] Setting up bn2a_branch2b
I0504 13:47:13.898017 72624 net.cpp:157] Top shape: 20 64 56 56 (4014080)
I0504 13:47:13.898025 72624 net.cpp:165] Memory required for data: 606126160
I0504 13:47:13.898039 72624 layer_factory.hpp:77] Creating layer scale2a_branch2b
I0504 13:47:13.898054 72624 net.cpp:106] Creating Layer scale2a_branch2b
I0504 13:47:13.898062 72624 net.cpp:454] scale2a_branch2b <- res2a_branch2b
I0504 13:47:13.898073 72624 net.cpp:397] scale2a_branch2b -> res2a_branch2b (in-place)
I0504 13:47:13.898124 72624 layer_factory.hpp:77] Creating layer scale2a_branch2b
I0504 13:47:13.898272 72624 net.cpp:150] Setting up scale2a_branch2b
I0504 13:47:13.898284 72624 net.cpp:157] Top shape: 20 64 56 56 (4014080)
I0504 13:47:13.898293 72624 net.cpp:165] Memory required for data: 622182480
I0504 13:47:13.898304 72624 layer_factory.hpp:77] Creating layer res2a_branch2b_relu
I0504 13:47:13.898315 72624 net.cpp:106] Creating Layer res2a_branch2b_relu
I0504 13:47:13.898322 72624 net.cpp:454] res2a_branch2b_relu <- res2a_branch2b
I0504 13:47:13.898334 72624 net.cpp:397] res2a_branch2b_relu -> res2a_branch2b (in-place)
I0504 13:47:13.898344 72624 net.cpp:150] Setting up res2a_branch2b_relu
I0504 13:47:13.898360 72624 net.cpp:157] Top shape: 20 64 56 56 (4014080)
I0504 13:47:13.898368 72624 net.cpp:165] Memory required for data: 638238800
I0504 13:47:13.898375 72624 layer_factory.hpp:77] Creating layer res2a_branch2c
I0504 13:47:13.898388 72624 net.cpp:106] Creating Layer res2a_branch2c
I0504 13:47:13.898396 72624 net.cpp:454] res2a_branch2c <- res2a_branch2b
I0504 13:47:13.898407 72624 net.cpp:411] res2a_branch2c -> res2a_branch2c
I0504 13:47:13.898634 72624 net.cpp:150] Setting up res2a_branch2c
I0504 13:47:13.898649 72624 net.cpp:157] Top shape: 20 256 56 56 (16056320)
I0504 13:47:13.898658 72624 net.cpp:165] Memory required for data: 702464080
I0504 13:47:13.898666 72624 layer_factory.hpp:77] Creating layer bn2a_branch2c
I0504 13:47:13.898679 72624 net.cpp:106] Creating Layer bn2a_branch2c
I0504 13:47:13.898686 72624 net.cpp:454] bn2a_branch2c <- res2a_branch2c
I0504 13:47:13.898695 72624 net.cpp:397] bn2a_branch2c -> res2a_branch2c (in-place)
I0504 13:47:13.898908 72624 net.cpp:150] Setting up bn2a_branch2c
I0504 13:47:13.898921 72624 net.cpp:157] Top shape: 20 256 56 56 (16056320)
I0504 13:47:13.898929 72624 net.cpp:165] Memory required for data: 766689360
I0504 13:47:13.898942 72624 layer_factory.hpp:77] Creating layer scale2a_branch2c
I0504 13:47:13.898954 72624 net.cpp:106] Creating Layer scale2a_branch2c
I0504 13:47:13.898962 72624 net.cpp:454] scale2a_branch2c <- res2a_branch2c
I0504 13:47:13.898972 72624 net.cpp:397] scale2a_branch2c -> res2a_branch2c (in-place)
I0504 13:47:13.899021 72624 layer_factory.hpp:77] Creating layer scale2a_branch2c
I0504 13:47:13.899155 72624 net.cpp:150] Setting up scale2a_branch2c
I0504 13:47:13.899168 72624 net.cpp:157] Top shape: 20 256 56 56 (16056320)
I0504 13:47:13.899175 72624 net.cpp:165] Memory required for data: 830914640
I0504 13:47:13.899188 72624 layer_factory.hpp:77] Creating layer res2a
I0504 13:47:13.899199 72624 net.cpp:106] Creating Layer res2a
I0504 13:47:13.899207 72624 net.cpp:454] res2a <- res2a_branch1
I0504 13:47:13.899216 72624 net.cpp:454] res2a <- res2a_branch2c
I0504 13:47:13.899226 72624 net.cpp:411] res2a -> res2a
I0504 13:47:13.899260 72624 net.cpp:150] Setting up res2a
I0504 13:47:13.899271 72624 net.cpp:157] Top shape: 20 256 56 56 (16056320)
I0504 13:47:13.899278 72624 net.cpp:165] Memory required for data: 895139920
I0504 13:47:13.899286 72624 layer_factory.hpp:77] Creating layer res2a_relu
I0504 13:47:13.899296 72624 net.cpp:106] Creating Layer res2a_relu
I0504 13:47:13.899303 72624 net.cpp:454] res2a_relu <- res2a
I0504 13:47:13.899314 72624 net.cpp:397] res2a_relu -> res2a (in-place)
I0504 13:47:13.899324 72624 net.cpp:150] Setting up res2a_relu
I0504 13:47:13.899333 72624 net.cpp:157] Top shape: 20 256 56 56 (16056320)
I0504 13:47:13.899340 72624 net.cpp:165] Memory required for data: 959365200
I0504 13:47:13.899348 72624 layer_factory.hpp:77] Creating layer res2a_res2a_relu_0_split
I0504 13:47:13.899358 72624 net.cpp:106] Creating Layer res2a_res2a_relu_0_split
I0504 13:47:13.899366 72624 net.cpp:454] res2a_res2a_relu_0_split <- res2a
I0504 13:47:13.899376 72624 net.cpp:411] res2a_res2a_relu_0_split -> res2a_res2a_relu_0_split_0
I0504 13:47:13.899389 72624 net.cpp:411] res2a_res2a_relu_0_split -> res2a_res2a_relu_0_split_1
I0504 13:47:13.899432 72624 net.cpp:150] Setting up res2a_res2a_relu_0_split
I0504 13:47:13.899444 72624 net.cpp:157] Top shape: 20 256 56 56 (16056320)
I0504 13:47:13.899453 72624 net.cpp:157] Top shape: 20 256 56 56 (16056320)
I0504 13:47:13.899461 72624 net.cpp:165] Memory required for data: 1087815760
I0504 13:47:13.899468 72624 layer_factory.hpp:77] Creating layer res2b_branch2a
I0504 13:47:13.899480 72624 net.cpp:106] Creating Layer res2b_branch2a
I0504 13:47:13.899487 72624 net.cpp:454] res2b_branch2a <- res2a_res2a_relu_0_split_0
I0504 13:47:13.899498 72624 net.cpp:411] res2b_branch2a -> res2b_branch2a
I0504 13:47:13.899723 72624 net.cpp:150] Setting up res2b_branch2a
I0504 13:47:13.899736 72624 net.cpp:157] Top shape: 20 64 56 56 (4014080)
I0504 13:47:13.899744 72624 net.cpp:165] Memory required for data: 1103872080
I0504 13:47:13.899760 72624 layer_factory.hpp:77] Creating layer bn2b_branch2a
I0504 13:47:13.899772 72624 net.cpp:106] Creating Layer bn2b_branch2a
I0504 13:47:13.899780 72624 net.cpp:454] bn2b_branch2a <- res2b_branch2a
I0504 13:47:13.899791 72624 net.cpp:397] bn2b_branch2a -> res2b_branch2a (in-place)
I0504 13:47:13.900010 72624 net.cpp:150] Setting up bn2b_branch2a
I0504 13:47:13.900023 72624 net.cpp:157] Top shape: 20 64 56 56 (4014080)
I0504 13:47:13.900032 72624 net.cpp:165] Memory required for data: 1119928400
I0504 13:47:13.900053 72624 layer_factory.hpp:77] Creating layer scale2b_branch2a
I0504 13:47:13.900064 72624 net.cpp:106] Creating Layer scale2b_branch2a
I0504 13:47:13.900071 72624 net.cpp:454] scale2b_branch2a <- res2b_branch2a
I0504 13:47:13.900082 72624 net.cpp:397] scale2b_branch2a -> res2b_branch2a (in-place)
I0504 13:47:13.900132 72624 layer_factory.hpp:77] Creating layer scale2b_branch2a
I0504 13:47:13.900275 72624 net.cpp:150] Setting up scale2b_branch2a
I0504 13:47:13.900290 72624 net.cpp:157] Top shape: 20 64 56 56 (4014080)
I0504 13:47:13.900296 72624 net.cpp:165] Memory required for data: 1135984720
I0504 13:47:13.900308 72624 layer_factory.hpp:77] Creating layer res2b_branch2a_relu
I0504 13:47:13.900318 72624 net.cpp:106] Creating Layer res2b_branch2a_relu
I0504 13:47:13.900326 72624 net.cpp:454] res2b_branch2a_relu <- res2b_branch2a
I0504 13:47:13.900336 72624 net.cpp:397] res2b_branch2a_relu -> res2b_branch2a (in-place)
I0504 13:47:13.900347 72624 net.cpp:150] Setting up res2b_branch2a_relu
I0504 13:47:13.900357 72624 net.cpp:157] Top shape: 20 64 56 56 (4014080)
I0504 13:47:13.900363 72624 net.cpp:165] Memory required for data: 1152041040
I0504 13:47:13.900370 72624 layer_factory.hpp:77] Creating layer res2b_branch2b
I0504 13:47:13.900383 72624 net.cpp:106] Creating Layer res2b_branch2b
I0504 13:47:13.900390 72624 net.cpp:454] res2b_branch2b <- res2b_branch2a
I0504 13:47:13.900401 72624 net.cpp:411] res2b_branch2b -> res2b_branch2b
I0504 13:47:13.900658 72624 net.cpp:150] Setting up res2b_branch2b
I0504 13:47:13.900676 72624 net.cpp:157] Top shape: 20 64 56 56 (4014080)
I0504 13:47:13.900683 72624 net.cpp:165] Memory required for data: 1168097360
I0504 13:47:13.900693 72624 layer_factory.hpp:77] Creating layer bn2b_branch2b
I0504 13:47:13.900704 72624 net.cpp:106] Creating Layer bn2b_branch2b
I0504 13:47:13.900712 72624 net.cpp:454] bn2b_branch2b <- res2b_branch2b
I0504 13:47:13.900722 72624 net.cpp:397] bn2b_branch2b -> res2b_branch2b (in-place)
I0504 13:47:13.900944 72624 net.cpp:150] Setting up bn2b_branch2b
I0504 13:47:13.900957 72624 net.cpp:157] Top shape: 20 64 56 56 (4014080)
I0504 13:47:13.900965 72624 net.cpp:165] Memory required for data: 1184153680
I0504 13:47:13.900979 72624 layer_factory.hpp:77] Creating layer scale2b_branch2b
I0504 13:47:13.900991 72624 net.cpp:106] Creating Layer scale2b_branch2b
I0504 13:47:13.900998 72624 net.cpp:454] scale2b_branch2b <- res2b_branch2b
I0504 13:47:13.901008 72624 net.cpp:397] scale2b_branch2b -> res2b_branch2b (in-place)
I0504 13:47:13.901077 72624 layer_factory.hpp:77] Creating layer scale2b_branch2b
I0504 13:47:13.901222 72624 net.cpp:150] Setting up scale2b_branch2b
I0504 13:47:13.901237 72624 net.cpp:157] Top shape: 20 64 56 56 (4014080)
I0504 13:47:13.901244 72624 net.cpp:165] Memory required for data: 1200210000
I0504 13:47:13.901257 72624 layer_factory.hpp:77] Creating layer res2b_branch2b_relu
I0504 13:47:13.901268 72624 net.cpp:106] Creating Layer res2b_branch2b_relu
I0504 13:47:13.901274 72624 net.cpp:454] res2b_branch2b_relu <- res2b_branch2b
I0504 13:47:13.901284 72624 net.cpp:397] res2b_branch2b_relu -> res2b_branch2b (in-place)
I0504 13:47:13.901295 72624 net.cpp:150] Setting up res2b_branch2b_relu
I0504 13:47:13.901304 72624 net.cpp:157] Top shape: 20 64 56 56 (4014080)
I0504 13:47:13.901311 72624 net.cpp:165] Memory required for data: 1216266320
I0504 13:47:13.901319 72624 layer_factory.hpp:77] Creating layer res2b_branch2c
I0504 13:47:13.901335 72624 net.cpp:106] Creating Layer res2b_branch2c
I0504 13:47:13.901355 72624 net.cpp:454] res2b_branch2c <- res2b_branch2b
I0504 13:47:13.901366 72624 net.cpp:411] res2b_branch2c -> res2b_branch2c
I0504 13:47:13.901589 72624 net.cpp:150] Setting up res2b_branch2c
I0504 13:47:13.901604 72624 net.cpp:157] Top shape: 20 256 56 56 (16056320)
I0504 13:47:13.901612 72624 net.cpp:165] Memory required for data: 1280491600
I0504 13:47:13.901623 72624 layer_factory.hpp:77] Creating layer bn2b_branch2c
I0504 13:47:13.901633 72624 net.cpp:106] Creating Layer bn2b_branch2c
I0504 13:47:13.901640 72624 net.cpp:454] bn2b_branch2c <- res2b_branch2c
I0504 13:47:13.901651 72624 net.cpp:397] bn2b_branch2c -> res2b_branch2c (in-place)
I0504 13:47:13.901855 72624 net.cpp:150] Setting up bn2b_branch2c
I0504 13:47:13.901868 72624 net.cpp:157] Top shape: 20 256 56 56 (16056320)
I0504 13:47:13.901876 72624 net.cpp:165] Memory required for data: 1344716880
I0504 13:47:13.901890 72624 layer_factory.hpp:77] Creating layer scale2b_branch2c
I0504 13:47:13.901901 72624 net.cpp:106] Creating Layer scale2b_branch2c
I0504 13:47:13.901909 72624 net.cpp:454] scale2b_branch2c <- res2b_branch2c
I0504 13:47:13.901919 72624 net.cpp:397] scale2b_branch2c -> res2b_branch2c (in-place)
I0504 13:47:13.901974 72624 layer_factory.hpp:77] Creating layer scale2b_branch2c
I0504 13:47:13.902107 72624 net.cpp:150] Setting up scale2b_branch2c
I0504 13:47:13.902122 72624 net.cpp:157] Top shape: 20 256 56 56 (16056320)
I0504 13:47:13.902128 72624 net.cpp:165] Memory required for data: 1408942160
I0504 13:47:13.902140 72624 layer_factory.hpp:77] Creating layer res2b
I0504 13:47:13.902151 72624 net.cpp:106] Creating Layer res2b
I0504 13:47:13.902159 72624 net.cpp:454] res2b <- res2a_res2a_relu_0_split_1
I0504 13:47:13.902168 72624 net.cpp:454] res2b <- res2b_branch2c
I0504 13:47:13.902179 72624 net.cpp:411] res2b -> res2b
I0504 13:47:13.902215 72624 net.cpp:150] Setting up res2b
I0504 13:47:13.902227 72624 net.cpp:157] Top shape: 20 256 56 56 (16056320)
I0504 13:47:13.902235 72624 net.cpp:165] Memory required for data: 1473167440
I0504 13:47:13.902242 72624 layer_factory.hpp:77] Creating layer res2b_relu
I0504 13:47:13.902252 72624 net.cpp:106] Creating Layer res2b_relu
I0504 13:47:13.902261 72624 net.cpp:454] res2b_relu <- res2b
I0504 13:47:13.902271 72624 net.cpp:397] res2b_relu -> res2b (in-place)
I0504 13:47:13.902281 72624 net.cpp:150] Setting up res2b_relu
I0504 13:47:13.902290 72624 net.cpp:157] Top shape: 20 256 56 56 (16056320)
I0504 13:47:13.902297 72624 net.cpp:165] Memory required for data: 1537392720
I0504 13:47:13.902304 72624 layer_factory.hpp:77] Creating layer res2b_res2b_relu_0_split
I0504 13:47:13.902314 72624 net.cpp:106] Creating Layer res2b_res2b_relu_0_split
I0504 13:47:13.902321 72624 net.cpp:454] res2b_res2b_relu_0_split <- res2b
I0504 13:47:13.902331 72624 net.cpp:411] res2b_res2b_relu_0_split -> res2b_res2b_relu_0_split_0
I0504 13:47:13.902343 72624 net.cpp:411] res2b_res2b_relu_0_split -> res2b_res2b_relu_0_split_1
I0504 13:47:13.902387 72624 net.cpp:150] Setting up res2b_res2b_relu_0_split
I0504 13:47:13.902400 72624 net.cpp:157] Top shape: 20 256 56 56 (16056320)
I0504 13:47:13.902410 72624 net.cpp:157] Top shape: 20 256 56 56 (16056320)
I0504 13:47:13.902415 72624 net.cpp:165] Memory required for data: 1665843280
I0504 13:47:13.902422 72624 layer_factory.hpp:77] Creating layer res2c_branch2a
I0504 13:47:13.902436 72624 net.cpp:106] Creating Layer res2c_branch2a
I0504 13:47:13.902443 72624 net.cpp:454] res2c_branch2a <- res2b_res2b_relu_0_split_0
I0504 13:47:13.902454 72624 net.cpp:411] res2c_branch2a -> res2c_branch2a
I0504 13:47:13.902679 72624 net.cpp:150] Setting up res2c_branch2a
I0504 13:47:13.902693 72624 net.cpp:157] Top shape: 20 64 56 56 (4014080)
I0504 13:47:13.902701 72624 net.cpp:165] Memory required for data: 1681899600
I0504 13:47:13.902710 72624 layer_factory.hpp:77] Creating layer bn2c_branch2a
I0504 13:47:13.902721 72624 net.cpp:106] Creating Layer bn2c_branch2a
I0504 13:47:13.902729 72624 net.cpp:454] bn2c_branch2a <- res2c_branch2a
I0504 13:47:13.902740 72624 net.cpp:397] bn2c_branch2a -> res2c_branch2a (in-place)
I0504 13:47:13.902968 72624 net.cpp:150] Setting up bn2c_branch2a
I0504 13:47:13.902983 72624 net.cpp:157] Top shape: 20 64 56 56 (4014080)
I0504 13:47:13.902992 72624 net.cpp:165] Memory required for data: 1697955920
I0504 13:47:13.903007 72624 layer_factory.hpp:77] Creating layer scale2c_branch2a
I0504 13:47:13.903017 72624 net.cpp:106] Creating Layer scale2c_branch2a
I0504 13:47:13.903025 72624 net.cpp:454] scale2c_branch2a <- res2c_branch2a
I0504 13:47:13.903035 72624 net.cpp:397] scale2c_branch2a -> res2c_branch2a (in-place)
I0504 13:47:13.903091 72624 layer_factory.hpp:77] Creating layer scale2c_branch2a
I0504 13:47:13.903240 72624 net.cpp:150] Setting up scale2c_branch2a
I0504 13:47:13.903254 72624 net.cpp:157] Top shape: 20 64 56 56 (4014080)
I0504 13:47:13.903261 72624 net.cpp:165] Memory required for data: 1714012240
I0504 13:47:13.903273 72624 layer_factory.hpp:77] Creating layer res2c_branch2a_relu
I0504 13:47:13.903285 72624 net.cpp:106] Creating Layer res2c_branch2a_relu
I0504 13:47:13.903291 72624 net.cpp:454] res2c_branch2a_relu <- res2c_branch2a
I0504 13:47:13.903301 72624 net.cpp:397] res2c_branch2a_relu -> res2c_branch2a (in-place)
I0504 13:47:13.903312 72624 net.cpp:150] Setting up res2c_branch2a_relu
I0504 13:47:13.903321 72624 net.cpp:157] Top shape: 20 64 56 56 (4014080)
I0504 13:47:13.903328 72624 net.cpp:165] Memory required for data: 1730068560
I0504 13:47:13.903336 72624 layer_factory.hpp:77] Creating layer res2c_branch2b
I0504 13:47:13.903350 72624 net.cpp:106] Creating Layer res2c_branch2b
I0504 13:47:13.903357 72624 net.cpp:454] res2c_branch2b <- res2c_branch2a
I0504 13:47:13.903368 72624 net.cpp:411] res2c_branch2b -> res2c_branch2b
I0504 13:47:13.903628 72624 net.cpp:150] Setting up res2c_branch2b
I0504 13:47:13.903643 72624 net.cpp:157] Top shape: 20 64 56 56 (4014080)
I0504 13:47:13.903651 72624 net.cpp:165] Memory required for data: 1746124880
I0504 13:47:13.903661 72624 layer_factory.hpp:77] Creating layer bn2c_branch2b
I0504 13:47:13.903671 72624 net.cpp:106] Creating Layer bn2c_branch2b
I0504 13:47:13.903678 72624 net.cpp:454] bn2c_branch2b <- res2c_branch2b
I0504 13:47:13.903688 72624 net.cpp:397] bn2c_branch2b -> res2c_branch2b (in-place)
I0504 13:47:13.903920 72624 net.cpp:150] Setting up bn2c_branch2b
I0504 13:47:13.903934 72624 net.cpp:157] Top shape: 20 64 56 56 (4014080)
I0504 13:47:13.903941 72624 net.cpp:165] Memory required for data: 1762181200
I0504 13:47:13.903954 72624 layer_factory.hpp:77] Creating layer scale2c_branch2b
I0504 13:47:13.903965 72624 net.cpp:106] Creating Layer scale2c_branch2b
I0504 13:47:13.903972 72624 net.cpp:454] scale2c_branch2b <- res2c_branch2b
I0504 13:47:13.903982 72624 net.cpp:397] scale2c_branch2b -> res2c_branch2b (in-place)
I0504 13:47:13.904036 72624 layer_factory.hpp:77] Creating layer scale2c_branch2b
I0504 13:47:13.904183 72624 net.cpp:150] Setting up scale2c_branch2b
I0504 13:47:13.904197 72624 net.cpp:157] Top shape: 20 64 56 56 (4014080)
I0504 13:47:13.904204 72624 net.cpp:165] Memory required for data: 1778237520
I0504 13:47:13.904217 72624 layer_factory.hpp:77] Creating layer res2c_branch2b_relu
I0504 13:47:13.904230 72624 net.cpp:106] Creating Layer res2c_branch2b_relu
I0504 13:47:13.904238 72624 net.cpp:454] res2c_branch2b_relu <- res2c_branch2b
I0504 13:47:13.904248 72624 net.cpp:397] res2c_branch2b_relu -> res2c_branch2b (in-place)
I0504 13:47:13.904258 72624 net.cpp:150] Setting up res2c_branch2b_relu
I0504 13:47:13.904268 72624 net.cpp:157] Top shape: 20 64 56 56 (4014080)
I0504 13:47:13.904275 72624 net.cpp:165] Memory required for data: 1794293840
I0504 13:47:13.904283 72624 layer_factory.hpp:77] Creating layer res2c_branch2c
I0504 13:47:13.904296 72624 net.cpp:106] Creating Layer res2c_branch2c
I0504 13:47:13.904304 72624 net.cpp:454] res2c_branch2c <- res2c_branch2b
I0504 13:47:13.904314 72624 net.cpp:411] res2c_branch2c -> res2c_branch2c
I0504 13:47:13.904554 72624 net.cpp:150] Setting up res2c_branch2c
I0504 13:47:13.904599 72624 net.cpp:157] Top shape: 20 256 56 56 (16056320)
I0504 13:47:13.904608 72624 net.cpp:165] Memory required for data: 1858519120
I0504 13:47:13.904623 72624 layer_factory.hpp:77] Creating layer bn2c_branch2c
I0504 13:47:13.904635 72624 net.cpp:106] Creating Layer bn2c_branch2c
I0504 13:47:13.904644 72624 net.cpp:454] bn2c_branch2c <- res2c_branch2c
I0504 13:47:13.904654 72624 net.cpp:397] bn2c_branch2c -> res2c_branch2c (in-place)
I0504 13:47:13.904881 72624 net.cpp:150] Setting up bn2c_branch2c
I0504 13:47:13.904896 72624 net.cpp:157] Top shape: 20 256 56 56 (16056320)
I0504 13:47:13.904903 72624 net.cpp:165] Memory required for data: 1922744400
I0504 13:47:13.904935 72624 layer_factory.hpp:77] Creating layer scale2c_branch2c
I0504 13:47:13.904950 72624 net.cpp:106] Creating Layer scale2c_branch2c
I0504 13:47:13.904958 72624 net.cpp:454] scale2c_branch2c <- res2c_branch2c
I0504 13:47:13.904968 72624 net.cpp:397] scale2c_branch2c -> res2c_branch2c (in-place)
I0504 13:47:13.905024 72624 layer_factory.hpp:77] Creating layer scale2c_branch2c
I0504 13:47:13.905165 72624 net.cpp:150] Setting up scale2c_branch2c
I0504 13:47:13.905179 72624 net.cpp:157] Top shape: 20 256 56 56 (16056320)
I0504 13:47:13.905186 72624 net.cpp:165] Memory required for data: 1986969680
I0504 13:47:13.905199 72624 layer_factory.hpp:77] Creating layer res2c
I0504 13:47:13.905208 72624 net.cpp:106] Creating Layer res2c
I0504 13:47:13.905216 72624 net.cpp:454] res2c <- res2b_res2b_relu_0_split_1
I0504 13:47:13.905225 72624 net.cpp:454] res2c <- res2c_branch2c
I0504 13:47:13.905237 72624 net.cpp:411] res2c -> res2c
I0504 13:47:13.905268 72624 net.cpp:150] Setting up res2c
I0504 13:47:13.905280 72624 net.cpp:157] Top shape: 20 256 56 56 (16056320)
I0504 13:47:13.905287 72624 net.cpp:165] Memory required for data: 2051194960
I0504 13:47:13.905294 72624 layer_factory.hpp:77] Creating layer res2c_relu
I0504 13:47:13.905304 72624 net.cpp:106] Creating Layer res2c_relu
I0504 13:47:13.905311 72624 net.cpp:454] res2c_relu <- res2c
I0504 13:47:13.905329 72624 net.cpp:397] res2c_relu -> res2c (in-place)
I0504 13:47:13.905339 72624 net.cpp:150] Setting up res2c_relu
I0504 13:47:13.905349 72624 net.cpp:157] Top shape: 20 256 56 56 (16056320)
I0504 13:47:13.905355 72624 net.cpp:165] Memory required for data: 2115420240
I0504 13:47:13.905364 72624 layer_factory.hpp:77] Creating layer res2c_res2c_relu_0_split
I0504 13:47:13.905372 72624 net.cpp:106] Creating Layer res2c_res2c_relu_0_split
I0504 13:47:13.905380 72624 net.cpp:454] res2c_res2c_relu_0_split <- res2c
I0504 13:47:13.905391 72624 net.cpp:411] res2c_res2c_relu_0_split -> res2c_res2c_relu_0_split_0
I0504 13:47:13.905403 72624 net.cpp:411] res2c_res2c_relu_0_split -> res2c_res2c_relu_0_split_1
I0504 13:47:13.905447 72624 net.cpp:150] Setting up res2c_res2c_relu_0_split
I0504 13:47:13.905459 72624 net.cpp:157] Top shape: 20 256 56 56 (16056320)
I0504 13:47:13.905468 72624 net.cpp:157] Top shape: 20 256 56 56 (16056320)
I0504 13:47:13.905475 72624 net.cpp:165] Memory required for data: 2243870800
I0504 13:47:13.905483 72624 layer_factory.hpp:77] Creating layer res3a_branch1
I0504 13:47:13.905498 72624 net.cpp:106] Creating Layer res3a_branch1
I0504 13:47:13.905504 72624 net.cpp:454] res3a_branch1 <- res2c_res2c_relu_0_split_0
I0504 13:47:13.905514 72624 net.cpp:411] res3a_branch1 -> res3a_branch1
I0504 13:47:13.906643 72624 net.cpp:150] Setting up res3a_branch1
I0504 13:47:13.906666 72624 net.cpp:157] Top shape: 20 512 28 28 (8028160)
I0504 13:47:13.906675 72624 net.cpp:165] Memory required for data: 2275983440
I0504 13:47:13.906687 72624 layer_factory.hpp:77] Creating layer bn3a_branch1
I0504 13:47:13.906700 72624 net.cpp:106] Creating Layer bn3a_branch1
I0504 13:47:13.906708 72624 net.cpp:454] bn3a_branch1 <- res3a_branch1
I0504 13:47:13.906719 72624 net.cpp:397] bn3a_branch1 -> res3a_branch1 (in-place)
I0504 13:47:13.907649 72624 net.cpp:150] Setting up bn3a_branch1
I0504 13:47:13.907668 72624 net.cpp:157] Top shape: 20 512 28 28 (8028160)
I0504 13:47:13.907677 72624 net.cpp:165] Memory required for data: 2308096080
I0504 13:47:13.907696 72624 layer_factory.hpp:77] Creating layer scale3a_branch1
I0504 13:47:13.907716 72624 net.cpp:106] Creating Layer scale3a_branch1
I0504 13:47:13.907723 72624 net.cpp:454] scale3a_branch1 <- res3a_branch1
I0504 13:47:13.907734 72624 net.cpp:397] scale3a_branch1 -> res3a_branch1 (in-place)
I0504 13:47:13.907793 72624 layer_factory.hpp:77] Creating layer scale3a_branch1
I0504 13:47:13.907946 72624 net.cpp:150] Setting up scale3a_branch1
I0504 13:47:13.907963 72624 net.cpp:157] Top shape: 20 512 28 28 (8028160)
I0504 13:47:13.907970 72624 net.cpp:165] Memory required for data: 2340208720
I0504 13:47:13.907982 72624 layer_factory.hpp:77] Creating layer res3a_branch2a
I0504 13:47:13.907995 72624 net.cpp:106] Creating Layer res3a_branch2a
I0504 13:47:13.908004 72624 net.cpp:454] res3a_branch2a <- res2c_res2c_relu_0_split_1
I0504 13:47:13.908016 72624 net.cpp:411] res3a_branch2a -> res3a_branch2a
I0504 13:47:13.908270 72624 net.cpp:150] Setting up res3a_branch2a
I0504 13:47:13.908291 72624 net.cpp:157] Top shape: 20 128 28 28 (2007040)
I0504 13:47:13.908298 72624 net.cpp:165] Memory required for data: 2348236880
I0504 13:47:13.908308 72624 layer_factory.hpp:77] Creating layer bn3a_branch2a
I0504 13:47:13.908319 72624 net.cpp:106] Creating Layer bn3a_branch2a
I0504 13:47:13.908327 72624 net.cpp:454] bn3a_branch2a <- res3a_branch2a
I0504 13:47:13.908341 72624 net.cpp:397] bn3a_branch2a -> res3a_branch2a (in-place)
I0504 13:47:13.908579 72624 net.cpp:150] Setting up bn3a_branch2a
I0504 13:47:13.908596 72624 net.cpp:157] Top shape: 20 128 28 28 (2007040)
I0504 13:47:13.908603 72624 net.cpp:165] Memory required for data: 2356265040
I0504 13:47:13.908617 72624 layer_factory.hpp:77] Creating layer scale3a_branch2a
I0504 13:47:13.908628 72624 net.cpp:106] Creating Layer scale3a_branch2a
I0504 13:47:13.908635 72624 net.cpp:454] scale3a_branch2a <- res3a_branch2a
I0504 13:47:13.908645 72624 net.cpp:397] scale3a_branch2a -> res3a_branch2a (in-place)
I0504 13:47:13.908699 72624 layer_factory.hpp:77] Creating layer scale3a_branch2a
I0504 13:47:13.908834 72624 net.cpp:150] Setting up scale3a_branch2a
I0504 13:47:13.908849 72624 net.cpp:157] Top shape: 20 128 28 28 (2007040)
I0504 13:47:13.908855 72624 net.cpp:165] Memory required for data: 2364293200
I0504 13:47:13.908867 72624 layer_factory.hpp:77] Creating layer res3a_branch2a_relu
I0504 13:47:13.908877 72624 net.cpp:106] Creating Layer res3a_branch2a_relu
I0504 13:47:13.908885 72624 net.cpp:454] res3a_branch2a_relu <- res3a_branch2a
I0504 13:47:13.908893 72624 net.cpp:397] res3a_branch2a_relu -> res3a_branch2a (in-place)
I0504 13:47:13.908906 72624 net.cpp:150] Setting up res3a_branch2a_relu
I0504 13:47:13.908916 72624 net.cpp:157] Top shape: 20 128 28 28 (2007040)
I0504 13:47:13.908922 72624 net.cpp:165] Memory required for data: 2372321360
I0504 13:47:13.908929 72624 layer_factory.hpp:77] Creating layer res3a_branch2b
I0504 13:47:13.908941 72624 net.cpp:106] Creating Layer res3a_branch2b
I0504 13:47:13.908947 72624 net.cpp:454] res3a_branch2b <- res3a_branch2a
I0504 13:47:13.908957 72624 net.cpp:411] res3a_branch2b -> res3a_branch2b
I0504 13:47:13.909996 72624 net.cpp:150] Setting up res3a_branch2b
I0504 13:47:13.910017 72624 net.cpp:157] Top shape: 20 128 28 28 (2007040)
I0504 13:47:13.910025 72624 net.cpp:165] Memory required for data: 2380349520
I0504 13:47:13.910035 72624 layer_factory.hpp:77] Creating layer bn3a_branch2b
I0504 13:47:13.910046 72624 net.cpp:106] Creating Layer bn3a_branch2b
I0504 13:47:13.910053 72624 net.cpp:454] bn3a_branch2b <- res3a_branch2b
I0504 13:47:13.910063 72624 net.cpp:397] bn3a_branch2b -> res3a_branch2b (in-place)
I0504 13:47:13.910290 72624 net.cpp:150] Setting up bn3a_branch2b
I0504 13:47:13.910305 72624 net.cpp:157] Top shape: 20 128 28 28 (2007040)
I0504 13:47:13.910312 72624 net.cpp:165] Memory required for data: 2388377680
I0504 13:47:13.910328 72624 layer_factory.hpp:77] Creating layer scale3a_branch2b
I0504 13:47:13.910339 72624 net.cpp:106] Creating Layer scale3a_branch2b
I0504 13:47:13.910346 72624 net.cpp:454] scale3a_branch2b <- res3a_branch2b
I0504 13:47:13.910356 72624 net.cpp:397] scale3a_branch2b -> res3a_branch2b (in-place)
I0504 13:47:13.910416 72624 layer_factory.hpp:77] Creating layer scale3a_branch2b
I0504 13:47:13.910560 72624 net.cpp:150] Setting up scale3a_branch2b
I0504 13:47:13.910574 72624 net.cpp:157] Top shape: 20 128 28 28 (2007040)
I0504 13:47:13.910583 72624 net.cpp:165] Memory required for data: 2396405840
I0504 13:47:13.910593 72624 layer_factory.hpp:77] Creating layer res3a_branch2b_relu
I0504 13:47:13.910606 72624 net.cpp:106] Creating Layer res3a_branch2b_relu
I0504 13:47:13.910614 72624 net.cpp:454] res3a_branch2b_relu <- res3a_branch2b
I0504 13:47:13.910624 72624 net.cpp:397] res3a_branch2b_relu -> res3a_branch2b (in-place)
I0504 13:47:13.910634 72624 net.cpp:150] Setting up res3a_branch2b_relu
I0504 13:47:13.910643 72624 net.cpp:157] Top shape: 20 128 28 28 (2007040)
I0504 13:47:13.910650 72624 net.cpp:165] Memory required for data: 2404434000
I0504 13:47:13.910657 72624 layer_factory.hpp:77] Creating layer res3a_branch2c
I0504 13:47:13.910671 72624 net.cpp:106] Creating Layer res3a_branch2c
I0504 13:47:13.910678 72624 net.cpp:454] res3a_branch2c <- res3a_branch2b
I0504 13:47:13.910688 72624 net.cpp:411] res3a_branch2c -> res3a_branch2c
I0504 13:47:13.910984 72624 net.cpp:150] Setting up res3a_branch2c
I0504 13:47:13.911000 72624 net.cpp:157] Top shape: 20 512 28 28 (8028160)
I0504 13:47:13.911007 72624 net.cpp:165] Memory required for data: 2436546640
I0504 13:47:13.911016 72624 layer_factory.hpp:77] Creating layer bn3a_branch2c
I0504 13:47:13.911039 72624 net.cpp:106] Creating Layer bn3a_branch2c
I0504 13:47:13.911047 72624 net.cpp:454] bn3a_branch2c <- res3a_branch2c
I0504 13:47:13.911057 72624 net.cpp:397] bn3a_branch2c -> res3a_branch2c (in-place)
I0504 13:47:13.911280 72624 net.cpp:150] Setting up bn3a_branch2c
I0504 13:47:13.911294 72624 net.cpp:157] Top shape: 20 512 28 28 (8028160)
I0504 13:47:13.911301 72624 net.cpp:165] Memory required for data: 2468659280
I0504 13:47:13.911315 72624 layer_factory.hpp:77] Creating layer scale3a_branch2c
I0504 13:47:13.911329 72624 net.cpp:106] Creating Layer scale3a_branch2c
I0504 13:47:13.911336 72624 net.cpp:454] scale3a_branch2c <- res3a_branch2c
I0504 13:47:13.911345 72624 net.cpp:397] scale3a_branch2c -> res3a_branch2c (in-place)
I0504 13:47:13.911398 72624 layer_factory.hpp:77] Creating layer scale3a_branch2c
I0504 13:47:13.911584 72624 net.cpp:150] Setting up scale3a_branch2c
I0504 13:47:13.911598 72624 net.cpp:157] Top shape: 20 512 28 28 (8028160)
I0504 13:47:13.911607 72624 net.cpp:165] Memory required for data: 2500771920
I0504 13:47:13.911617 72624 layer_factory.hpp:77] Creating layer res3a
I0504 13:47:13.911628 72624 net.cpp:106] Creating Layer res3a
I0504 13:47:13.911635 72624 net.cpp:454] res3a <- res3a_branch1
I0504 13:47:13.911644 72624 net.cpp:454] res3a <- res3a_branch2c
I0504 13:47:13.911656 72624 net.cpp:411] res3a -> res3a
I0504 13:47:13.911689 72624 net.cpp:150] Setting up res3a
I0504 13:47:13.911702 72624 net.cpp:157] Top shape: 20 512 28 28 (8028160)
I0504 13:47:13.911710 72624 net.cpp:165] Memory required for data: 2532884560
I0504 13:47:13.911717 72624 layer_factory.hpp:77] Creating layer res3a_relu
I0504 13:47:13.911726 72624 net.cpp:106] Creating Layer res3a_relu
I0504 13:47:13.911733 72624 net.cpp:454] res3a_relu <- res3a
I0504 13:47:13.911742 72624 net.cpp:397] res3a_relu -> res3a (in-place)
I0504 13:47:13.911752 72624 net.cpp:150] Setting up res3a_relu
I0504 13:47:13.911761 72624 net.cpp:157] Top shape: 20 512 28 28 (8028160)
I0504 13:47:13.911767 72624 net.cpp:165] Memory required for data: 2564997200
I0504 13:47:13.911774 72624 layer_factory.hpp:77] Creating layer res3a_res3a_relu_0_split
I0504 13:47:13.911784 72624 net.cpp:106] Creating Layer res3a_res3a_relu_0_split
I0504 13:47:13.911792 72624 net.cpp:454] res3a_res3a_relu_0_split <- res3a
I0504 13:47:13.911804 72624 net.cpp:411] res3a_res3a_relu_0_split -> res3a_res3a_relu_0_split_0
I0504 13:47:13.911815 72624 net.cpp:411] res3a_res3a_relu_0_split -> res3a_res3a_relu_0_split_1
I0504 13:47:13.911861 72624 net.cpp:150] Setting up res3a_res3a_relu_0_split
I0504 13:47:13.911880 72624 net.cpp:157] Top shape: 20 512 28 28 (8028160)
I0504 13:47:13.911890 72624 net.cpp:157] Top shape: 20 512 28 28 (8028160)
I0504 13:47:13.911895 72624 net.cpp:165] Memory required for data: 2629222480
I0504 13:47:13.911902 72624 layer_factory.hpp:77] Creating layer res3b_branch2a
I0504 13:47:13.911914 72624 net.cpp:106] Creating Layer res3b_branch2a
I0504 13:47:13.911921 72624 net.cpp:454] res3b_branch2a <- res3a_res3a_relu_0_split_0
I0504 13:47:13.911931 72624 net.cpp:411] res3b_branch2a -> res3b_branch2a
I0504 13:47:13.912920 72624 net.cpp:150] Setting up res3b_branch2a
I0504 13:47:13.912942 72624 net.cpp:157] Top shape: 20 128 28 28 (2007040)
I0504 13:47:13.912951 72624 net.cpp:165] Memory required for data: 2637250640
I0504 13:47:13.912961 72624 layer_factory.hpp:77] Creating layer bn3b_branch2a
I0504 13:47:13.912973 72624 net.cpp:106] Creating Layer bn3b_branch2a
I0504 13:47:13.912981 72624 net.cpp:454] bn3b_branch2a <- res3b_branch2a
I0504 13:47:13.912991 72624 net.cpp:397] bn3b_branch2a -> res3b_branch2a (in-place)
I0504 13:47:13.913235 72624 net.cpp:150] Setting up bn3b_branch2a
I0504 13:47:13.913249 72624 net.cpp:157] Top shape: 20 128 28 28 (2007040)
I0504 13:47:13.913257 72624 net.cpp:165] Memory required for data: 2645278800
I0504 13:47:13.913274 72624 layer_factory.hpp:77] Creating layer scale3b_branch2a
I0504 13:47:13.913285 72624 net.cpp:106] Creating Layer scale3b_branch2a
I0504 13:47:13.913292 72624 net.cpp:454] scale3b_branch2a <- res3b_branch2a
I0504 13:47:13.913302 72624 net.cpp:397] scale3b_branch2a -> res3b_branch2a (in-place)
I0504 13:47:13.913354 72624 layer_factory.hpp:77] Creating layer scale3b_branch2a
I0504 13:47:13.913499 72624 net.cpp:150] Setting up scale3b_branch2a
I0504 13:47:13.913513 72624 net.cpp:157] Top shape: 20 128 28 28 (2007040)
I0504 13:47:13.913522 72624 net.cpp:165] Memory required for data: 2653306960
I0504 13:47:13.913532 72624 layer_factory.hpp:77] Creating layer res3b_branch2a_relu
I0504 13:47:13.913545 72624 net.cpp:106] Creating Layer res3b_branch2a_relu
I0504 13:47:13.913552 72624 net.cpp:454] res3b_branch2a_relu <- res3b_branch2a
I0504 13:47:13.913561 72624 net.cpp:397] res3b_branch2a_relu -> res3b_branch2a (in-place)
I0504 13:47:13.913573 72624 net.cpp:150] Setting up res3b_branch2a_relu
I0504 13:47:13.913581 72624 net.cpp:157] Top shape: 20 128 28 28 (2007040)
I0504 13:47:13.913589 72624 net.cpp:165] Memory required for data: 2661335120
I0504 13:47:13.913595 72624 layer_factory.hpp:77] Creating layer res3b_branch2b
I0504 13:47:13.913609 72624 net.cpp:106] Creating Layer res3b_branch2b
I0504 13:47:13.913616 72624 net.cpp:454] res3b_branch2b <- res3b_branch2a
I0504 13:47:13.913626 72624 net.cpp:411] res3b_branch2b -> res3b_branch2b
I0504 13:47:13.914669 72624 net.cpp:150] Setting up res3b_branch2b
I0504 13:47:13.914688 72624 net.cpp:157] Top shape: 20 128 28 28 (2007040)
I0504 13:47:13.914696 72624 net.cpp:165] Memory required for data: 2669363280
I0504 13:47:13.914706 72624 layer_factory.hpp:77] Creating layer bn3b_branch2b
I0504 13:47:13.914717 72624 net.cpp:106] Creating Layer bn3b_branch2b
I0504 13:47:13.914726 72624 net.cpp:454] bn3b_branch2b <- res3b_branch2b
I0504 13:47:13.914736 72624 net.cpp:397] bn3b_branch2b -> res3b_branch2b (in-place)
I0504 13:47:13.914965 72624 net.cpp:150] Setting up bn3b_branch2b
I0504 13:47:13.914979 72624 net.cpp:157] Top shape: 20 128 28 28 (2007040)
I0504 13:47:13.914988 72624 net.cpp:165] Memory required for data: 2677391440
I0504 13:47:13.915001 72624 layer_factory.hpp:77] Creating layer scale3b_branch2b
I0504 13:47:13.915014 72624 net.cpp:106] Creating Layer scale3b_branch2b
I0504 13:47:13.915022 72624 net.cpp:454] scale3b_branch2b <- res3b_branch2b
I0504 13:47:13.915032 72624 net.cpp:397] scale3b_branch2b -> res3b_branch2b (in-place)
I0504 13:47:13.915108 72624 layer_factory.hpp:77] Creating layer scale3b_branch2b
I0504 13:47:13.915262 72624 net.cpp:150] Setting up scale3b_branch2b
I0504 13:47:13.915277 72624 net.cpp:157] Top shape: 20 128 28 28 (2007040)
I0504 13:47:13.915284 72624 net.cpp:165] Memory required for data: 2685419600
I0504 13:47:13.915303 72624 layer_factory.hpp:77] Creating layer res3b_branch2b_relu
I0504 13:47:13.915314 72624 net.cpp:106] Creating Layer res3b_branch2b_relu
I0504 13:47:13.915323 72624 net.cpp:454] res3b_branch2b_relu <- res3b_branch2b
I0504 13:47:13.915333 72624 net.cpp:397] res3b_branch2b_relu -> res3b_branch2b (in-place)
I0504 13:47:13.915345 72624 net.cpp:150] Setting up res3b_branch2b_relu
I0504 13:47:13.915355 72624 net.cpp:157] Top shape: 20 128 28 28 (2007040)
I0504 13:47:13.915362 72624 net.cpp:165] Memory required for data: 2693447760
I0504 13:47:13.915369 72624 layer_factory.hpp:77] Creating layer res3b_branch2c
I0504 13:47:13.915383 72624 net.cpp:106] Creating Layer res3b_branch2c
I0504 13:47:13.915391 72624 net.cpp:454] res3b_branch2c <- res3b_branch2b
I0504 13:47:13.915401 72624 net.cpp:411] res3b_branch2c -> res3b_branch2c
I0504 13:47:13.915696 72624 net.cpp:150] Setting up res3b_branch2c
I0504 13:47:13.915711 72624 net.cpp:157] Top shape: 20 512 28 28 (8028160)
I0504 13:47:13.915719 72624 net.cpp:165] Memory required for data: 2725560400
I0504 13:47:13.915729 72624 layer_factory.hpp:77] Creating layer bn3b_branch2c
I0504 13:47:13.915740 72624 net.cpp:106] Creating Layer bn3b_branch2c
I0504 13:47:13.915747 72624 net.cpp:454] bn3b_branch2c <- res3b_branch2c
I0504 13:47:13.915760 72624 net.cpp:397] bn3b_branch2c -> res3b_branch2c (in-place)
I0504 13:47:13.915995 72624 net.cpp:150] Setting up bn3b_branch2c
I0504 13:47:13.916009 72624 net.cpp:157] Top shape: 20 512 28 28 (8028160)
I0504 13:47:13.916018 72624 net.cpp:165] Memory required for data: 2757673040
I0504 13:47:13.916031 72624 layer_factory.hpp:77] Creating layer scale3b_branch2c
I0504 13:47:13.916041 72624 net.cpp:106] Creating Layer scale3b_branch2c
I0504 13:47:13.916049 72624 net.cpp:454] scale3b_branch2c <- res3b_branch2c
I0504 13:47:13.916059 72624 net.cpp:397] scale3b_branch2c -> res3b_branch2c (in-place)
I0504 13:47:13.916115 72624 layer_factory.hpp:77] Creating layer scale3b_branch2c
I0504 13:47:13.916254 72624 net.cpp:150] Setting up scale3b_branch2c
I0504 13:47:13.916267 72624 net.cpp:157] Top shape: 20 512 28 28 (8028160)
I0504 13:47:13.916275 72624 net.cpp:165] Memory required for data: 2789785680
I0504 13:47:13.916287 72624 layer_factory.hpp:77] Creating layer res3b
I0504 13:47:13.916298 72624 net.cpp:106] Creating Layer res3b
I0504 13:47:13.916306 72624 net.cpp:454] res3b <- res3a_res3a_relu_0_split_1
I0504 13:47:13.916314 72624 net.cpp:454] res3b <- res3b_branch2c
I0504 13:47:13.916326 72624 net.cpp:411] res3b -> res3b
I0504 13:47:13.916364 72624 net.cpp:150] Setting up res3b
I0504 13:47:13.916376 72624 net.cpp:157] Top shape: 20 512 28 28 (8028160)
I0504 13:47:13.916384 72624 net.cpp:165] Memory required for data: 2821898320
I0504 13:47:13.916391 72624 layer_factory.hpp:77] Creating layer res3b_relu
I0504 13:47:13.916404 72624 net.cpp:106] Creating Layer res3b_relu
I0504 13:47:13.916411 72624 net.cpp:454] res3b_relu <- res3b
I0504 13:47:13.916420 72624 net.cpp:397] res3b_relu -> res3b (in-place)
I0504 13:47:13.916431 72624 net.cpp:150] Setting up res3b_relu
I0504 13:47:13.916450 72624 net.cpp:157] Top shape: 20 512 28 28 (8028160)
I0504 13:47:13.916456 72624 net.cpp:165] Memory required for data: 2854010960
I0504 13:47:13.916463 72624 layer_factory.hpp:77] Creating layer res3b_res3b_relu_0_split
I0504 13:47:13.916473 72624 net.cpp:106] Creating Layer res3b_res3b_relu_0_split
I0504 13:47:13.916483 72624 net.cpp:454] res3b_res3b_relu_0_split <- res3b
I0504 13:47:13.916493 72624 net.cpp:411] res3b_res3b_relu_0_split -> res3b_res3b_relu_0_split_0
I0504 13:47:13.916506 72624 net.cpp:411] res3b_res3b_relu_0_split -> res3b_res3b_relu_0_split_1
I0504 13:47:13.917683 72624 net.cpp:150] Setting up res3b_res3b_relu_0_split
I0504 13:47:13.917701 72624 net.cpp:157] Top shape: 20 512 28 28 (8028160)
I0504 13:47:13.917709 72624 net.cpp:157] Top shape: 20 512 28 28 (8028160)
I0504 13:47:13.917716 72624 net.cpp:165] Memory required for data: 2918236240
I0504 13:47:13.917724 72624 layer_factory.hpp:77] Creating layer res3c_branch2a
I0504 13:47:13.917743 72624 net.cpp:106] Creating Layer res3c_branch2a
I0504 13:47:13.917752 72624 net.cpp:454] res3c_branch2a <- res3b_res3b_relu_0_split_0
I0504 13:47:13.917765 72624 net.cpp:411] res3c_branch2a -> res3c_branch2a
I0504 13:47:13.918071 72624 net.cpp:150] Setting up res3c_branch2a
I0504 13:47:13.918084 72624 net.cpp:157] Top shape: 20 128 28 28 (2007040)
I0504 13:47:13.918092 72624 net.cpp:165] Memory required for data: 2926264400
I0504 13:47:13.918102 72624 layer_factory.hpp:77] Creating layer bn3c_branch2a
I0504 13:47:13.918114 72624 net.cpp:106] Creating Layer bn3c_branch2a
I0504 13:47:13.918123 72624 net.cpp:454] bn3c_branch2a <- res3c_branch2a
I0504 13:47:13.918133 72624 net.cpp:397] bn3c_branch2a -> res3c_branch2a (in-place)
I0504 13:47:13.918360 72624 net.cpp:150] Setting up bn3c_branch2a
I0504 13:47:13.918372 72624 net.cpp:157] Top shape: 20 128 28 28 (2007040)
I0504 13:47:13.918380 72624 net.cpp:165] Memory required for data: 2934292560
I0504 13:47:13.918395 72624 layer_factory.hpp:77] Creating layer scale3c_branch2a
I0504 13:47:13.918407 72624 net.cpp:106] Creating Layer scale3c_branch2a
I0504 13:47:13.918416 72624 net.cpp:454] scale3c_branch2a <- res3c_branch2a
I0504 13:47:13.918426 72624 net.cpp:397] scale3c_branch2a -> res3c_branch2a (in-place)
I0504 13:47:13.918478 72624 layer_factory.hpp:77] Creating layer scale3c_branch2a
I0504 13:47:13.918628 72624 net.cpp:150] Setting up scale3c_branch2a
I0504 13:47:13.918642 72624 net.cpp:157] Top shape: 20 128 28 28 (2007040)
I0504 13:47:13.918649 72624 net.cpp:165] Memory required for data: 2942320720
I0504 13:47:13.918660 72624 layer_factory.hpp:77] Creating layer res3c_branch2a_relu
I0504 13:47:13.918670 72624 net.cpp:106] Creating Layer res3c_branch2a_relu
I0504 13:47:13.918678 72624 net.cpp:454] res3c_branch2a_relu <- res3c_branch2a
I0504 13:47:13.918689 72624 net.cpp:397] res3c_branch2a_relu -> res3c_branch2a (in-place)
I0504 13:47:13.918699 72624 net.cpp:150] Setting up res3c_branch2a_relu
I0504 13:47:13.918709 72624 net.cpp:157] Top shape: 20 128 28 28 (2007040)
I0504 13:47:13.918715 72624 net.cpp:165] Memory required for data: 2950348880
I0504 13:47:13.918722 72624 layer_factory.hpp:77] Creating layer res3c_branch2b
I0504 13:47:13.918735 72624 net.cpp:106] Creating Layer res3c_branch2b
I0504 13:47:13.918741 72624 net.cpp:454] res3c_branch2b <- res3c_branch2a
I0504 13:47:13.918753 72624 net.cpp:411] res3c_branch2b -> res3c_branch2b
I0504 13:47:13.919879 72624 net.cpp:150] Setting up res3c_branch2b
I0504 13:47:13.919901 72624 net.cpp:157] Top shape: 20 128 28 28 (2007040)
I0504 13:47:13.919910 72624 net.cpp:165] Memory required for data: 2958377040
I0504 13:47:13.919920 72624 layer_factory.hpp:77] Creating layer bn3c_branch2b
I0504 13:47:13.919939 72624 net.cpp:106] Creating Layer bn3c_branch2b
I0504 13:47:13.919948 72624 net.cpp:454] bn3c_branch2b <- res3c_branch2b
I0504 13:47:13.919957 72624 net.cpp:397] bn3c_branch2b -> res3c_branch2b (in-place)
I0504 13:47:13.920191 72624 net.cpp:150] Setting up bn3c_branch2b
I0504 13:47:13.920204 72624 net.cpp:157] Top shape: 20 128 28 28 (2007040)
I0504 13:47:13.920212 72624 net.cpp:165] Memory required for data: 2966405200
I0504 13:47:13.920228 72624 layer_factory.hpp:77] Creating layer scale3c_branch2b
I0504 13:47:13.920238 72624 net.cpp:106] Creating Layer scale3c_branch2b
I0504 13:47:13.920245 72624 net.cpp:454] scale3c_branch2b <- res3c_branch2b
I0504 13:47:13.920259 72624 net.cpp:397] scale3c_branch2b -> res3c_branch2b (in-place)
I0504 13:47:13.920312 72624 layer_factory.hpp:77] Creating layer scale3c_branch2b
I0504 13:47:13.920469 72624 net.cpp:150] Setting up scale3c_branch2b
I0504 13:47:13.920487 72624 net.cpp:157] Top shape: 20 128 28 28 (2007040)
I0504 13:47:13.920495 72624 net.cpp:165] Memory required for data: 2974433360
I0504 13:47:13.920506 72624 layer_factory.hpp:77] Creating layer res3c_branch2b_relu
I0504 13:47:13.920517 72624 net.cpp:106] Creating Layer res3c_branch2b_relu
I0504 13:47:13.920524 72624 net.cpp:454] res3c_branch2b_relu <- res3c_branch2b
I0504 13:47:13.920541 72624 net.cpp:397] res3c_branch2b_relu -> res3c_branch2b (in-place)
I0504 13:47:13.920552 72624 net.cpp:150] Setting up res3c_branch2b_relu
I0504 13:47:13.920562 72624 net.cpp:157] Top shape: 20 128 28 28 (2007040)
I0504 13:47:13.920568 72624 net.cpp:165] Memory required for data: 2982461520
I0504 13:47:13.920575 72624 layer_factory.hpp:77] Creating layer res3c_branch2c
I0504 13:47:13.920589 72624 net.cpp:106] Creating Layer res3c_branch2c
I0504 13:47:13.920598 72624 net.cpp:454] res3c_branch2c <- res3c_branch2b
I0504 13:47:13.920609 72624 net.cpp:411] res3c_branch2c -> res3c_branch2c
I0504 13:47:13.920905 72624 net.cpp:150] Setting up res3c_branch2c
I0504 13:47:13.920920 72624 net.cpp:157] Top shape: 20 512 28 28 (8028160)
I0504 13:47:13.920928 72624 net.cpp:165] Memory required for data: 3014574160
I0504 13:47:13.920938 72624 layer_factory.hpp:77] Creating layer bn3c_branch2c
I0504 13:47:13.920948 72624 net.cpp:106] Creating Layer bn3c_branch2c
I0504 13:47:13.920954 72624 net.cpp:454] bn3c_branch2c <- res3c_branch2c
I0504 13:47:13.920964 72624 net.cpp:397] bn3c_branch2c -> res3c_branch2c (in-place)
I0504 13:47:13.921195 72624 net.cpp:150] Setting up bn3c_branch2c
I0504 13:47:13.921208 72624 net.cpp:157] Top shape: 20 512 28 28 (8028160)
I0504 13:47:13.921216 72624 net.cpp:165] Memory required for data: 3046686800
I0504 13:47:13.921229 72624 layer_factory.hpp:77] Creating layer scale3c_branch2c
I0504 13:47:13.921242 72624 net.cpp:106] Creating Layer scale3c_branch2c
I0504 13:47:13.921250 72624 net.cpp:454] scale3c_branch2c <- res3c_branch2c
I0504 13:47:13.921259 72624 net.cpp:397] scale3c_branch2c -> res3c_branch2c (in-place)
I0504 13:47:13.921314 72624 layer_factory.hpp:77] Creating layer scale3c_branch2c
I0504 13:47:13.921491 72624 net.cpp:150] Setting up scale3c_branch2c
I0504 13:47:13.921505 72624 net.cpp:157] Top shape: 20 512 28 28 (8028160)
I0504 13:47:13.921514 72624 net.cpp:165] Memory required for data: 3078799440
I0504 13:47:13.921525 72624 layer_factory.hpp:77] Creating layer res3c
I0504 13:47:13.921535 72624 net.cpp:106] Creating Layer res3c
I0504 13:47:13.921542 72624 net.cpp:454] res3c <- res3b_res3b_relu_0_split_1
I0504 13:47:13.921550 72624 net.cpp:454] res3c <- res3c_branch2c
I0504 13:47:13.921562 72624 net.cpp:411] res3c -> res3c
I0504 13:47:13.921597 72624 net.cpp:150] Setting up res3c
I0504 13:47:13.921609 72624 net.cpp:157] Top shape: 20 512 28 28 (8028160)
I0504 13:47:13.921617 72624 net.cpp:165] Memory required for data: 3110912080
I0504 13:47:13.921623 72624 layer_factory.hpp:77] Creating layer res3c_relu
I0504 13:47:13.921633 72624 net.cpp:106] Creating Layer res3c_relu
I0504 13:47:13.921639 72624 net.cpp:454] res3c_relu <- res3c
I0504 13:47:13.921648 72624 net.cpp:397] res3c_relu -> res3c (in-place)
I0504 13:47:13.921658 72624 net.cpp:150] Setting up res3c_relu
I0504 13:47:13.921669 72624 net.cpp:157] Top shape: 20 512 28 28 (8028160)
I0504 13:47:13.921674 72624 net.cpp:165] Memory required for data: 3143024720
I0504 13:47:13.921681 72624 layer_factory.hpp:77] Creating layer res3c_res3c_relu_0_split
I0504 13:47:13.921691 72624 net.cpp:106] Creating Layer res3c_res3c_relu_0_split
I0504 13:47:13.921699 72624 net.cpp:454] res3c_res3c_relu_0_split <- res3c
I0504 13:47:13.921710 72624 net.cpp:411] res3c_res3c_relu_0_split -> res3c_res3c_relu_0_split_0
I0504 13:47:13.921721 72624 net.cpp:411] res3c_res3c_relu_0_split -> res3c_res3c_relu_0_split_1
I0504 13:47:13.921771 72624 net.cpp:150] Setting up res3c_res3c_relu_0_split
I0504 13:47:13.921782 72624 net.cpp:157] Top shape: 20 512 28 28 (8028160)
I0504 13:47:13.921792 72624 net.cpp:157] Top shape: 20 512 28 28 (8028160)
I0504 13:47:13.921799 72624 net.cpp:165] Memory required for data: 3207250000
I0504 13:47:13.921807 72624 layer_factory.hpp:77] Creating layer res3d_branch2a
I0504 13:47:13.921818 72624 net.cpp:106] Creating Layer res3d_branch2a
I0504 13:47:13.921825 72624 net.cpp:454] res3d_branch2a <- res3c_res3c_relu_0_split_0
I0504 13:47:13.921835 72624 net.cpp:411] res3d_branch2a -> res3d_branch2a
I0504 13:47:13.922870 72624 net.cpp:150] Setting up res3d_branch2a
I0504 13:47:13.922899 72624 net.cpp:157] Top shape: 20 128 28 28 (2007040)
I0504 13:47:13.922906 72624 net.cpp:165] Memory required for data: 3215278160
I0504 13:47:13.922917 72624 layer_factory.hpp:77] Creating layer bn3d_branch2a
I0504 13:47:13.922931 72624 net.cpp:106] Creating Layer bn3d_branch2a
I0504 13:47:13.922940 72624 net.cpp:454] bn3d_branch2a <- res3d_branch2a
I0504 13:47:13.922950 72624 net.cpp:397] bn3d_branch2a -> res3d_branch2a (in-place)
I0504 13:47:13.923184 72624 net.cpp:150] Setting up bn3d_branch2a
I0504 13:47:13.923198 72624 net.cpp:157] Top shape: 20 128 28 28 (2007040)
I0504 13:47:13.923207 72624 net.cpp:165] Memory required for data: 3223306320
I0504 13:47:13.923251 72624 layer_factory.hpp:77] Creating layer scale3d_branch2a
I0504 13:47:13.923266 72624 net.cpp:106] Creating Layer scale3d_branch2a
I0504 13:47:13.923274 72624 net.cpp:454] scale3d_branch2a <- res3d_branch2a
I0504 13:47:13.923286 72624 net.cpp:397] scale3d_branch2a -> res3d_branch2a (in-place)
I0504 13:47:13.923341 72624 layer_factory.hpp:77] Creating layer scale3d_branch2a
I0504 13:47:13.923485 72624 net.cpp:150] Setting up scale3d_branch2a
I0504 13:47:13.923499 72624 net.cpp:157] Top shape: 20 128 28 28 (2007040)
I0504 13:47:13.923507 72624 net.cpp:165] Memory required for data: 3231334480
I0504 13:47:13.923519 72624 layer_factory.hpp:77] Creating layer res3d_branch2a_relu
I0504 13:47:13.923529 72624 net.cpp:106] Creating Layer res3d_branch2a_relu
I0504 13:47:13.923537 72624 net.cpp:454] res3d_branch2a_relu <- res3d_branch2a
I0504 13:47:13.923547 72624 net.cpp:397] res3d_branch2a_relu -> res3d_branch2a (in-place)
I0504 13:47:13.923557 72624 net.cpp:150] Setting up res3d_branch2a_relu
I0504 13:47:13.923565 72624 net.cpp:157] Top shape: 20 128 28 28 (2007040)
I0504 13:47:13.923573 72624 net.cpp:165] Memory required for data: 3239362640
I0504 13:47:13.923579 72624 layer_factory.hpp:77] Creating layer res3d_branch2b
I0504 13:47:13.923594 72624 net.cpp:106] Creating Layer res3d_branch2b
I0504 13:47:13.923601 72624 net.cpp:454] res3d_branch2b <- res3d_branch2a
I0504 13:47:13.923612 72624 net.cpp:411] res3d_branch2b -> res3d_branch2b
I0504 13:47:13.924712 72624 net.cpp:150] Setting up res3d_branch2b
I0504 13:47:13.924736 72624 net.cpp:157] Top shape: 20 128 28 28 (2007040)
I0504 13:47:13.924743 72624 net.cpp:165] Memory required for data: 3247390800
I0504 13:47:13.924754 72624 layer_factory.hpp:77] Creating layer bn3d_branch2b
I0504 13:47:13.924767 72624 net.cpp:106] Creating Layer bn3d_branch2b
I0504 13:47:13.924774 72624 net.cpp:454] bn3d_branch2b <- res3d_branch2b
I0504 13:47:13.924787 72624 net.cpp:397] bn3d_branch2b -> res3d_branch2b (in-place)
I0504 13:47:13.925025 72624 net.cpp:150] Setting up bn3d_branch2b
I0504 13:47:13.925040 72624 net.cpp:157] Top shape: 20 128 28 28 (2007040)
I0504 13:47:13.925046 72624 net.cpp:165] Memory required for data: 3255418960
I0504 13:47:13.925060 72624 layer_factory.hpp:77] Creating layer scale3d_branch2b
I0504 13:47:13.925071 72624 net.cpp:106] Creating Layer scale3d_branch2b
I0504 13:47:13.925079 72624 net.cpp:454] scale3d_branch2b <- res3d_branch2b
I0504 13:47:13.925088 72624 net.cpp:397] scale3d_branch2b -> res3d_branch2b (in-place)
I0504 13:47:13.925146 72624 layer_factory.hpp:77] Creating layer scale3d_branch2b
I0504 13:47:13.925292 72624 net.cpp:150] Setting up scale3d_branch2b
I0504 13:47:13.925307 72624 net.cpp:157] Top shape: 20 128 28 28 (2007040)
I0504 13:47:13.925313 72624 net.cpp:165] Memory required for data: 3263447120
I0504 13:47:13.925325 72624 layer_factory.hpp:77] Creating layer res3d_branch2b_relu
I0504 13:47:13.925338 72624 net.cpp:106] Creating Layer res3d_branch2b_relu
I0504 13:47:13.925345 72624 net.cpp:454] res3d_branch2b_relu <- res3d_branch2b
I0504 13:47:13.925355 72624 net.cpp:397] res3d_branch2b_relu -> res3d_branch2b (in-place)
I0504 13:47:13.925366 72624 net.cpp:150] Setting up res3d_branch2b_relu
I0504 13:47:13.925375 72624 net.cpp:157] Top shape: 20 128 28 28 (2007040)
I0504 13:47:13.925382 72624 net.cpp:165] Memory required for data: 3271475280
I0504 13:47:13.925396 72624 layer_factory.hpp:77] Creating layer res3d_branch2c
I0504 13:47:13.925411 72624 net.cpp:106] Creating Layer res3d_branch2c
I0504 13:47:13.925420 72624 net.cpp:454] res3d_branch2c <- res3d_branch2b
I0504 13:47:13.925429 72624 net.cpp:411] res3d_branch2c -> res3d_branch2c
I0504 13:47:13.925740 72624 net.cpp:150] Setting up res3d_branch2c
I0504 13:47:13.925755 72624 net.cpp:157] Top shape: 20 512 28 28 (8028160)
I0504 13:47:13.925762 72624 net.cpp:165] Memory required for data: 3303587920
I0504 13:47:13.925772 72624 layer_factory.hpp:77] Creating layer bn3d_branch2c
I0504 13:47:13.925782 72624 net.cpp:106] Creating Layer bn3d_branch2c
I0504 13:47:13.925789 72624 net.cpp:454] bn3d_branch2c <- res3d_branch2c
I0504 13:47:13.925799 72624 net.cpp:397] bn3d_branch2c -> res3d_branch2c (in-place)
I0504 13:47:13.926034 72624 net.cpp:150] Setting up bn3d_branch2c
I0504 13:47:13.926048 72624 net.cpp:157] Top shape: 20 512 28 28 (8028160)
I0504 13:47:13.926056 72624 net.cpp:165] Memory required for data: 3335700560
I0504 13:47:13.926070 72624 layer_factory.hpp:77] Creating layer scale3d_branch2c
I0504 13:47:13.926084 72624 net.cpp:106] Creating Layer scale3d_branch2c
I0504 13:47:13.926091 72624 net.cpp:454] scale3d_branch2c <- res3d_branch2c
I0504 13:47:13.926100 72624 net.cpp:397] scale3d_branch2c -> res3d_branch2c (in-place)
I0504 13:47:13.926157 72624 layer_factory.hpp:77] Creating layer scale3d_branch2c
I0504 13:47:13.926302 72624 net.cpp:150] Setting up scale3d_branch2c
I0504 13:47:13.926316 72624 net.cpp:157] Top shape: 20 512 28 28 (8028160)
I0504 13:47:13.926324 72624 net.cpp:165] Memory required for data: 3367813200
I0504 13:47:13.926337 72624 layer_factory.hpp:77] Creating layer res3d
I0504 13:47:13.926348 72624 net.cpp:106] Creating Layer res3d
I0504 13:47:13.926355 72624 net.cpp:454] res3d <- res3c_res3c_relu_0_split_1
I0504 13:47:13.926364 72624 net.cpp:454] res3d <- res3d_branch2c
I0504 13:47:13.926376 72624 net.cpp:411] res3d -> res3d
I0504 13:47:13.926412 72624 net.cpp:150] Setting up res3d
I0504 13:47:13.926424 72624 net.cpp:157] Top shape: 20 512 28 28 (8028160)
I0504 13:47:13.926431 72624 net.cpp:165] Memory required for data: 3399925840
I0504 13:47:13.926439 72624 layer_factory.hpp:77] Creating layer res3d_relu
I0504 13:47:13.926448 72624 net.cpp:106] Creating Layer res3d_relu
I0504 13:47:13.926455 72624 net.cpp:454] res3d_relu <- res3d
I0504 13:47:13.926465 72624 net.cpp:397] res3d_relu -> res3d (in-place)
I0504 13:47:13.926475 72624 net.cpp:150] Setting up res3d_relu
I0504 13:47:13.926484 72624 net.cpp:157] Top shape: 20 512 28 28 (8028160)
I0504 13:47:13.926491 72624 net.cpp:165] Memory required for data: 3432038480
I0504 13:47:13.926497 72624 layer_factory.hpp:77] Creating layer res3d_res3d_relu_0_split
I0504 13:47:13.926507 72624 net.cpp:106] Creating Layer res3d_res3d_relu_0_split
I0504 13:47:13.926514 72624 net.cpp:454] res3d_res3d_relu_0_split <- res3d
I0504 13:47:13.926527 72624 net.cpp:411] res3d_res3d_relu_0_split -> res3d_res3d_relu_0_split_0
I0504 13:47:13.926539 72624 net.cpp:411] res3d_res3d_relu_0_split -> res3d_res3d_relu_0_split_1
I0504 13:47:13.926587 72624 net.cpp:150] Setting up res3d_res3d_relu_0_split
I0504 13:47:13.926599 72624 net.cpp:157] Top shape: 20 512 28 28 (8028160)
I0504 13:47:13.926609 72624 net.cpp:157] Top shape: 20 512 28 28 (8028160)
I0504 13:47:13.926615 72624 net.cpp:165] Memory required for data: 3496263760
I0504 13:47:13.926622 72624 layer_factory.hpp:77] Creating layer res4a_branch1
I0504 13:47:13.926635 72624 net.cpp:106] Creating Layer res4a_branch1
I0504 13:47:13.926641 72624 net.cpp:454] res4a_branch1 <- res3d_res3d_relu_0_split_0
I0504 13:47:13.926651 72624 net.cpp:411] res4a_branch1 -> res4a_branch1
I0504 13:47:13.928694 72624 net.cpp:150] Setting up res4a_branch1
I0504 13:47:13.928725 72624 net.cpp:157] Top shape: 20 1024 14 14 (4014080)
I0504 13:47:13.928733 72624 net.cpp:165] Memory required for data: 3512320080
I0504 13:47:13.928745 72624 layer_factory.hpp:77] Creating layer bn4a_branch1
I0504 13:47:13.928761 72624 net.cpp:106] Creating Layer bn4a_branch1
I0504 13:47:13.928776 72624 net.cpp:454] bn4a_branch1 <- res4a_branch1
I0504 13:47:13.928788 72624 net.cpp:397] bn4a_branch1 -> res4a_branch1 (in-place)
I0504 13:47:13.929047 72624 net.cpp:150] Setting up bn4a_branch1
I0504 13:47:13.929062 72624 net.cpp:157] Top shape: 20 1024 14 14 (4014080)
I0504 13:47:13.929070 72624 net.cpp:165] Memory required for data: 3528376400
I0504 13:47:13.929085 72624 layer_factory.hpp:77] Creating layer scale4a_branch1
I0504 13:47:13.929100 72624 net.cpp:106] Creating Layer scale4a_branch1
I0504 13:47:13.929108 72624 net.cpp:454] scale4a_branch1 <- res4a_branch1
I0504 13:47:13.929119 72624 net.cpp:397] scale4a_branch1 -> res4a_branch1 (in-place)
I0504 13:47:13.929177 72624 layer_factory.hpp:77] Creating layer scale4a_branch1
I0504 13:47:13.929325 72624 net.cpp:150] Setting up scale4a_branch1
I0504 13:47:13.929339 72624 net.cpp:157] Top shape: 20 1024 14 14 (4014080)
I0504 13:47:13.929347 72624 net.cpp:165] Memory required for data: 3544432720
I0504 13:47:13.929359 72624 layer_factory.hpp:77] Creating layer res4a_branch2a
I0504 13:47:13.929376 72624 net.cpp:106] Creating Layer res4a_branch2a
I0504 13:47:13.929384 72624 net.cpp:454] res4a_branch2a <- res3d_res3d_relu_0_split_1
I0504 13:47:13.929397 72624 net.cpp:411] res4a_branch2a -> res4a_branch2a
I0504 13:47:13.929770 72624 net.cpp:150] Setting up res4a_branch2a
I0504 13:47:13.929786 72624 net.cpp:157] Top shape: 20 256 14 14 (1003520)
I0504 13:47:13.929795 72624 net.cpp:165] Memory required for data: 3548446800
I0504 13:47:13.929805 72624 layer_factory.hpp:77] Creating layer bn4a_branch2a
I0504 13:47:13.929816 72624 net.cpp:106] Creating Layer bn4a_branch2a
I0504 13:47:13.929823 72624 net.cpp:454] bn4a_branch2a <- res4a_branch2a
I0504 13:47:13.929832 72624 net.cpp:397] bn4a_branch2a -> res4a_branch2a (in-place)
I0504 13:47:13.930073 72624 net.cpp:150] Setting up bn4a_branch2a
I0504 13:47:13.930086 72624 net.cpp:157] Top shape: 20 256 14 14 (1003520)
I0504 13:47:13.930094 72624 net.cpp:165] Memory required for data: 3552460880
I0504 13:47:13.930109 72624 layer_factory.hpp:77] Creating layer scale4a_branch2a
I0504 13:47:13.930122 72624 net.cpp:106] Creating Layer scale4a_branch2a
I0504 13:47:13.930130 72624 net.cpp:454] scale4a_branch2a <- res4a_branch2a
I0504 13:47:13.930140 72624 net.cpp:397] scale4a_branch2a -> res4a_branch2a (in-place)
I0504 13:47:13.930194 72624 layer_factory.hpp:77] Creating layer scale4a_branch2a
I0504 13:47:13.930337 72624 net.cpp:150] Setting up scale4a_branch2a
I0504 13:47:13.930351 72624 net.cpp:157] Top shape: 20 256 14 14 (1003520)
I0504 13:47:13.930358 72624 net.cpp:165] Memory required for data: 3556474960
I0504 13:47:13.930371 72624 layer_factory.hpp:77] Creating layer res4a_branch2a_relu
I0504 13:47:13.930382 72624 net.cpp:106] Creating Layer res4a_branch2a_relu
I0504 13:47:13.930389 72624 net.cpp:454] res4a_branch2a_relu <- res4a_branch2a
I0504 13:47:13.930402 72624 net.cpp:397] res4a_branch2a_relu -> res4a_branch2a (in-place)
I0504 13:47:13.930413 72624 net.cpp:150] Setting up res4a_branch2a_relu
I0504 13:47:13.930423 72624 net.cpp:157] Top shape: 20 256 14 14 (1003520)
I0504 13:47:13.930431 72624 net.cpp:165] Memory required for data: 3560489040
I0504 13:47:13.930439 72624 layer_factory.hpp:77] Creating layer res4a_branch2b
I0504 13:47:13.930454 72624 net.cpp:106] Creating Layer res4a_branch2b
I0504 13:47:13.930461 72624 net.cpp:454] res4a_branch2b <- res4a_branch2a
I0504 13:47:13.930471 72624 net.cpp:411] res4a_branch2b -> res4a_branch2b
I0504 13:47:13.932624 72624 net.cpp:150] Setting up res4a_branch2b
I0504 13:47:13.932653 72624 net.cpp:157] Top shape: 20 256 14 14 (1003520)
I0504 13:47:13.932662 72624 net.cpp:165] Memory required for data: 3564503120
I0504 13:47:13.932674 72624 layer_factory.hpp:77] Creating layer bn4a_branch2b
I0504 13:47:13.932690 72624 net.cpp:106] Creating Layer bn4a_branch2b
I0504 13:47:13.932698 72624 net.cpp:454] bn4a_branch2b <- res4a_branch2b
I0504 13:47:13.932710 72624 net.cpp:397] bn4a_branch2b -> res4a_branch2b (in-place)
I0504 13:47:13.932955 72624 net.cpp:150] Setting up bn4a_branch2b
I0504 13:47:13.932976 72624 net.cpp:157] Top shape: 20 256 14 14 (1003520)
I0504 13:47:13.932986 72624 net.cpp:165] Memory required for data: 3568517200
I0504 13:47:13.933001 72624 layer_factory.hpp:77] Creating layer scale4a_branch2b
I0504 13:47:13.933012 72624 net.cpp:106] Creating Layer scale4a_branch2b
I0504 13:47:13.933020 72624 net.cpp:454] scale4a_branch2b <- res4a_branch2b
I0504 13:47:13.933032 72624 net.cpp:397] scale4a_branch2b -> res4a_branch2b (in-place)
I0504 13:47:13.933089 72624 layer_factory.hpp:77] Creating layer scale4a_branch2b
I0504 13:47:13.933229 72624 net.cpp:150] Setting up scale4a_branch2b
I0504 13:47:13.933244 72624 net.cpp:157] Top shape: 20 256 14 14 (1003520)
I0504 13:47:13.933253 72624 net.cpp:165] Memory required for data: 3572531280
I0504 13:47:13.933264 72624 layer_factory.hpp:77] Creating layer res4a_branch2b_relu
I0504 13:47:13.933275 72624 net.cpp:106] Creating Layer res4a_branch2b_relu
I0504 13:47:13.933284 72624 net.cpp:454] res4a_branch2b_relu <- res4a_branch2b
I0504 13:47:13.933292 72624 net.cpp:397] res4a_branch2b_relu -> res4a_branch2b (in-place)
I0504 13:47:13.933303 72624 net.cpp:150] Setting up res4a_branch2b_relu
I0504 13:47:13.933313 72624 net.cpp:157] Top shape: 20 256 14 14 (1003520)
I0504 13:47:13.933320 72624 net.cpp:165] Memory required for data: 3576545360
I0504 13:47:13.933327 72624 layer_factory.hpp:77] Creating layer res4a_branch2c
I0504 13:47:13.933342 72624 net.cpp:106] Creating Layer res4a_branch2c
I0504 13:47:13.933351 72624 net.cpp:454] res4a_branch2c <- res4a_branch2b
I0504 13:47:13.933362 72624 net.cpp:411] res4a_branch2c -> res4a_branch2c
I0504 13:47:13.934572 72624 net.cpp:150] Setting up res4a_branch2c
I0504 13:47:13.934595 72624 net.cpp:157] Top shape: 20 1024 14 14 (4014080)
I0504 13:47:13.934604 72624 net.cpp:165] Memory required for data: 3592601680
I0504 13:47:13.934615 72624 layer_factory.hpp:77] Creating layer bn4a_branch2c
I0504 13:47:13.934628 72624 net.cpp:106] Creating Layer bn4a_branch2c
I0504 13:47:13.934636 72624 net.cpp:454] bn4a_branch2c <- res4a_branch2c
I0504 13:47:13.934646 72624 net.cpp:397] bn4a_branch2c -> res4a_branch2c (in-place)
I0504 13:47:13.934893 72624 net.cpp:150] Setting up bn4a_branch2c
I0504 13:47:13.934908 72624 net.cpp:157] Top shape: 20 1024 14 14 (4014080)
I0504 13:47:13.934916 72624 net.cpp:165] Memory required for data: 3608658000
I0504 13:47:13.934931 72624 layer_factory.hpp:77] Creating layer scale4a_branch2c
I0504 13:47:13.934942 72624 net.cpp:106] Creating Layer scale4a_branch2c
I0504 13:47:13.934950 72624 net.cpp:454] scale4a_branch2c <- res4a_branch2c
I0504 13:47:13.934960 72624 net.cpp:397] scale4a_branch2c -> res4a_branch2c (in-place)
I0504 13:47:13.935015 72624 layer_factory.hpp:77] Creating layer scale4a_branch2c
I0504 13:47:13.935174 72624 net.cpp:150] Setting up scale4a_branch2c
I0504 13:47:13.935189 72624 net.cpp:157] Top shape: 20 1024 14 14 (4014080)
I0504 13:47:13.935196 72624 net.cpp:165] Memory required for data: 3624714320
I0504 13:47:13.935209 72624 layer_factory.hpp:77] Creating layer res4a
I0504 13:47:13.935220 72624 net.cpp:106] Creating Layer res4a
I0504 13:47:13.935227 72624 net.cpp:454] res4a <- res4a_branch1
I0504 13:47:13.935236 72624 net.cpp:454] res4a <- res4a_branch2c
I0504 13:47:13.935250 72624 net.cpp:411] res4a -> res4a
I0504 13:47:13.935283 72624 net.cpp:150] Setting up res4a
I0504 13:47:13.935295 72624 net.cpp:157] Top shape: 20 1024 14 14 (4014080)
I0504 13:47:13.935303 72624 net.cpp:165] Memory required for data: 3640770640
I0504 13:47:13.935312 72624 layer_factory.hpp:77] Creating layer res4a_relu
I0504 13:47:13.935325 72624 net.cpp:106] Creating Layer res4a_relu
I0504 13:47:13.935333 72624 net.cpp:454] res4a_relu <- res4a
I0504 13:47:13.935343 72624 net.cpp:397] res4a_relu -> res4a (in-place)
I0504 13:47:13.935353 72624 net.cpp:150] Setting up res4a_relu
I0504 13:47:13.935362 72624 net.cpp:157] Top shape: 20 1024 14 14 (4014080)
I0504 13:47:13.935369 72624 net.cpp:165] Memory required for data: 3656826960
I0504 13:47:13.935377 72624 layer_factory.hpp:77] Creating layer res4a_res4a_relu_0_split
I0504 13:47:13.935395 72624 net.cpp:106] Creating Layer res4a_res4a_relu_0_split
I0504 13:47:13.935405 72624 net.cpp:454] res4a_res4a_relu_0_split <- res4a
I0504 13:47:13.935417 72624 net.cpp:411] res4a_res4a_relu_0_split -> res4a_res4a_relu_0_split_0
I0504 13:47:13.935430 72624 net.cpp:411] res4a_res4a_relu_0_split -> res4a_res4a_relu_0_split_1
I0504 13:47:13.935480 72624 net.cpp:150] Setting up res4a_res4a_relu_0_split
I0504 13:47:13.935493 72624 net.cpp:157] Top shape: 20 1024 14 14 (4014080)
I0504 13:47:13.935503 72624 net.cpp:157] Top shape: 20 1024 14 14 (4014080)
I0504 13:47:13.935509 72624 net.cpp:165] Memory required for data: 3688939600
I0504 13:47:13.935516 72624 layer_factory.hpp:77] Creating layer res4b_branch2a
I0504 13:47:13.935554 72624 net.cpp:106] Creating Layer res4b_branch2a
I0504 13:47:13.935562 72624 net.cpp:454] res4b_branch2a <- res4a_res4a_relu_0_split_0
I0504 13:47:13.935573 72624 net.cpp:411] res4b_branch2a -> res4b_branch2a
I0504 13:47:13.936794 72624 net.cpp:150] Setting up res4b_branch2a
I0504 13:47:13.936818 72624 net.cpp:157] Top shape: 20 256 14 14 (1003520)
I0504 13:47:13.936826 72624 net.cpp:165] Memory required for data: 3692953680
I0504 13:47:13.936838 72624 layer_factory.hpp:77] Creating layer bn4b_branch2a
I0504 13:47:13.936853 72624 net.cpp:106] Creating Layer bn4b_branch2a
I0504 13:47:13.936862 72624 net.cpp:454] bn4b_branch2a <- res4b_branch2a
I0504 13:47:13.936872 72624 net.cpp:397] bn4b_branch2a -> res4b_branch2a (in-place)
I0504 13:47:13.937113 72624 net.cpp:150] Setting up bn4b_branch2a
I0504 13:47:13.937126 72624 net.cpp:157] Top shape: 20 256 14 14 (1003520)
I0504 13:47:13.937134 72624 net.cpp:165] Memory required for data: 3696967760
I0504 13:47:13.937150 72624 layer_factory.hpp:77] Creating layer scale4b_branch2a
I0504 13:47:13.937165 72624 net.cpp:106] Creating Layer scale4b_branch2a
I0504 13:47:13.937172 72624 net.cpp:454] scale4b_branch2a <- res4b_branch2a
I0504 13:47:13.937182 72624 net.cpp:397] scale4b_branch2a -> res4b_branch2a (in-place)
I0504 13:47:13.937244 72624 layer_factory.hpp:77] Creating layer scale4b_branch2a
I0504 13:47:13.937389 72624 net.cpp:150] Setting up scale4b_branch2a
I0504 13:47:13.937403 72624 net.cpp:157] Top shape: 20 256 14 14 (1003520)
I0504 13:47:13.937412 72624 net.cpp:165] Memory required for data: 3700981840
I0504 13:47:13.937423 72624 layer_factory.hpp:77] Creating layer res4b_branch2a_relu
I0504 13:47:13.937435 72624 net.cpp:106] Creating Layer res4b_branch2a_relu
I0504 13:47:13.937443 72624 net.cpp:454] res4b_branch2a_relu <- res4b_branch2a
I0504 13:47:13.937454 72624 net.cpp:397] res4b_branch2a_relu -> res4b_branch2a (in-place)
I0504 13:47:13.937465 72624 net.cpp:150] Setting up res4b_branch2a_relu
I0504 13:47:13.937475 72624 net.cpp:157] Top shape: 20 256 14 14 (1003520)
I0504 13:47:13.937482 72624 net.cpp:165] Memory required for data: 3704995920
I0504 13:47:13.937489 72624 layer_factory.hpp:77] Creating layer res4b_branch2b
I0504 13:47:13.937502 72624 net.cpp:106] Creating Layer res4b_branch2b
I0504 13:47:13.937512 72624 net.cpp:454] res4b_branch2b <- res4b_branch2a
I0504 13:47:13.937522 72624 net.cpp:411] res4b_branch2b -> res4b_branch2b
I0504 13:47:13.939703 72624 net.cpp:150] Setting up res4b_branch2b
I0504 13:47:13.939734 72624 net.cpp:157] Top shape: 20 256 14 14 (1003520)
I0504 13:47:13.939743 72624 net.cpp:165] Memory required for data: 3709010000
I0504 13:47:13.939755 72624 layer_factory.hpp:77] Creating layer bn4b_branch2b
I0504 13:47:13.939771 72624 net.cpp:106] Creating Layer bn4b_branch2b
I0504 13:47:13.939780 72624 net.cpp:454] bn4b_branch2b <- res4b_branch2b
I0504 13:47:13.939790 72624 net.cpp:397] bn4b_branch2b -> res4b_branch2b (in-place)
I0504 13:47:13.940038 72624 net.cpp:150] Setting up bn4b_branch2b
I0504 13:47:13.940052 72624 net.cpp:157] Top shape: 20 256 14 14 (1003520)
I0504 13:47:13.940060 72624 net.cpp:165] Memory required for data: 3713024080
I0504 13:47:13.940075 72624 layer_factory.hpp:77] Creating layer scale4b_branch2b
I0504 13:47:13.940088 72624 net.cpp:106] Creating Layer scale4b_branch2b
I0504 13:47:13.940105 72624 net.cpp:454] scale4b_branch2b <- res4b_branch2b
I0504 13:47:13.940116 72624 net.cpp:397] scale4b_branch2b -> res4b_branch2b (in-place)
I0504 13:47:13.940178 72624 layer_factory.hpp:77] Creating layer scale4b_branch2b
I0504 13:47:13.940325 72624 net.cpp:150] Setting up scale4b_branch2b
I0504 13:47:13.940340 72624 net.cpp:157] Top shape: 20 256 14 14 (1003520)
I0504 13:47:13.940346 72624 net.cpp:165] Memory required for data: 3717038160
I0504 13:47:13.940358 72624 layer_factory.hpp:77] Creating layer res4b_branch2b_relu
I0504 13:47:13.940372 72624 net.cpp:106] Creating Layer res4b_branch2b_relu
I0504 13:47:13.940381 72624 net.cpp:454] res4b_branch2b_relu <- res4b_branch2b
I0504 13:47:13.940389 72624 net.cpp:397] res4b_branch2b_relu -> res4b_branch2b (in-place)
I0504 13:47:13.940400 72624 net.cpp:150] Setting up res4b_branch2b_relu
I0504 13:47:13.940410 72624 net.cpp:157] Top shape: 20 256 14 14 (1003520)
I0504 13:47:13.940418 72624 net.cpp:165] Memory required for data: 3721052240
I0504 13:47:13.940424 72624 layer_factory.hpp:77] Creating layer res4b_branch2c
I0504 13:47:13.940448 72624 net.cpp:106] Creating Layer res4b_branch2c
I0504 13:47:13.940459 72624 net.cpp:454] res4b_branch2c <- res4b_branch2b
I0504 13:47:13.940470 72624 net.cpp:411] res4b_branch2c -> res4b_branch2c
I0504 13:47:13.941689 72624 net.cpp:150] Setting up res4b_branch2c
I0504 13:47:13.941710 72624 net.cpp:157] Top shape: 20 1024 14 14 (4014080)
I0504 13:47:13.941720 72624 net.cpp:165] Memory required for data: 3737108560
I0504 13:47:13.941730 72624 layer_factory.hpp:77] Creating layer bn4b_branch2c
I0504 13:47:13.941741 72624 net.cpp:106] Creating Layer bn4b_branch2c
I0504 13:47:13.941751 72624 net.cpp:454] bn4b_branch2c <- res4b_branch2c
I0504 13:47:13.941761 72624 net.cpp:397] bn4b_branch2c -> res4b_branch2c (in-place)
I0504 13:47:13.942024 72624 net.cpp:150] Setting up bn4b_branch2c
I0504 13:47:13.942039 72624 net.cpp:157] Top shape: 20 1024 14 14 (4014080)
I0504 13:47:13.942047 72624 net.cpp:165] Memory required for data: 3753164880
I0504 13:47:13.942062 72624 layer_factory.hpp:77] Creating layer scale4b_branch2c
I0504 13:47:13.942075 72624 net.cpp:106] Creating Layer scale4b_branch2c
I0504 13:47:13.942082 72624 net.cpp:454] scale4b_branch2c <- res4b_branch2c
I0504 13:47:13.942092 72624 net.cpp:397] scale4b_branch2c -> res4b_branch2c (in-place)
I0504 13:47:13.942148 72624 layer_factory.hpp:77] Creating layer scale4b_branch2c
I0504 13:47:13.942301 72624 net.cpp:150] Setting up scale4b_branch2c
I0504 13:47:13.942315 72624 net.cpp:157] Top shape: 20 1024 14 14 (4014080)
I0504 13:47:13.942323 72624 net.cpp:165] Memory required for data: 3769221200
I0504 13:47:13.942334 72624 layer_factory.hpp:77] Creating layer res4b
I0504 13:47:13.942348 72624 net.cpp:106] Creating Layer res4b
I0504 13:47:13.942358 72624 net.cpp:454] res4b <- res4a_res4a_relu_0_split_1
I0504 13:47:13.942366 72624 net.cpp:454] res4b <- res4b_branch2c
I0504 13:47:13.942379 72624 net.cpp:411] res4b -> res4b
I0504 13:47:13.942414 72624 net.cpp:150] Setting up res4b
I0504 13:47:13.942425 72624 net.cpp:157] Top shape: 20 1024 14 14 (4014080)
I0504 13:47:13.942435 72624 net.cpp:165] Memory required for data: 3785277520
I0504 13:47:13.942441 72624 layer_factory.hpp:77] Creating layer res4b_relu
I0504 13:47:13.942454 72624 net.cpp:106] Creating Layer res4b_relu
I0504 13:47:13.942462 72624 net.cpp:454] res4b_relu <- res4b
I0504 13:47:13.942471 72624 net.cpp:397] res4b_relu -> res4b (in-place)
I0504 13:47:13.942483 72624 net.cpp:150] Setting up res4b_relu
I0504 13:47:13.942493 72624 net.cpp:157] Top shape: 20 1024 14 14 (4014080)
I0504 13:47:13.942500 72624 net.cpp:165] Memory required for data: 3801333840
I0504 13:47:13.942507 72624 layer_factory.hpp:77] Creating layer res4b_res4b_relu_0_split
I0504 13:47:13.942517 72624 net.cpp:106] Creating Layer res4b_res4b_relu_0_split
I0504 13:47:13.942525 72624 net.cpp:454] res4b_res4b_relu_0_split <- res4b
I0504 13:47:13.942535 72624 net.cpp:411] res4b_res4b_relu_0_split -> res4b_res4b_relu_0_split_0
I0504 13:47:13.942554 72624 net.cpp:411] res4b_res4b_relu_0_split -> res4b_res4b_relu_0_split_1
I0504 13:47:13.942607 72624 net.cpp:150] Setting up res4b_res4b_relu_0_split
I0504 13:47:13.942620 72624 net.cpp:157] Top shape: 20 1024 14 14 (4014080)
I0504 13:47:13.942630 72624 net.cpp:157] Top shape: 20 1024 14 14 (4014080)
I0504 13:47:13.942636 72624 net.cpp:165] Memory required for data: 3833446480
I0504 13:47:13.942644 72624 layer_factory.hpp:77] Creating layer res4c_branch2a
I0504 13:47:13.942657 72624 net.cpp:106] Creating Layer res4c_branch2a
I0504 13:47:13.942664 72624 net.cpp:454] res4c_branch2a <- res4b_res4b_relu_0_split_0
I0504 13:47:13.942677 72624 net.cpp:411] res4c_branch2a -> res4c_branch2a
I0504 13:47:13.943864 72624 net.cpp:150] Setting up res4c_branch2a
I0504 13:47:13.943886 72624 net.cpp:157] Top shape: 20 256 14 14 (1003520)
I0504 13:47:13.943893 72624 net.cpp:165] Memory required for data: 3837460560
I0504 13:47:13.943903 72624 layer_factory.hpp:77] Creating layer bn4c_branch2a
I0504 13:47:13.943915 72624 net.cpp:106] Creating Layer bn4c_branch2a
I0504 13:47:13.943922 72624 net.cpp:454] bn4c_branch2a <- res4c_branch2a
I0504 13:47:13.943933 72624 net.cpp:397] bn4c_branch2a -> res4c_branch2a (in-place)
I0504 13:47:13.944171 72624 net.cpp:150] Setting up bn4c_branch2a
I0504 13:47:13.944185 72624 net.cpp:157] Top shape: 20 256 14 14 (1003520)
I0504 13:47:13.944192 72624 net.cpp:165] Memory required for data: 3841474640
I0504 13:47:13.944205 72624 layer_factory.hpp:77] Creating layer scale4c_branch2a
I0504 13:47:13.944223 72624 net.cpp:106] Creating Layer scale4c_branch2a
I0504 13:47:13.944231 72624 net.cpp:454] scale4c_branch2a <- res4c_branch2a
I0504 13:47:13.944241 72624 net.cpp:397] scale4c_branch2a -> res4c_branch2a (in-place)
I0504 13:47:13.944298 72624 layer_factory.hpp:77] Creating layer scale4c_branch2a
I0504 13:47:13.944453 72624 net.cpp:150] Setting up scale4c_branch2a
I0504 13:47:13.944470 72624 net.cpp:157] Top shape: 20 256 14 14 (1003520)
I0504 13:47:13.944478 72624 net.cpp:165] Memory required for data: 3845488720
I0504 13:47:13.944490 72624 layer_factory.hpp:77] Creating layer res4c_branch2a_relu
I0504 13:47:13.944504 72624 net.cpp:106] Creating Layer res4c_branch2a_relu
I0504 13:47:13.944512 72624 net.cpp:454] res4c_branch2a_relu <- res4c_branch2a
I0504 13:47:13.944525 72624 net.cpp:397] res4c_branch2a_relu -> res4c_branch2a (in-place)
I0504 13:47:13.944535 72624 net.cpp:150] Setting up res4c_branch2a_relu
I0504 13:47:13.944545 72624 net.cpp:157] Top shape: 20 256 14 14 (1003520)
I0504 13:47:13.944552 72624 net.cpp:165] Memory required for data: 3849502800
I0504 13:47:13.944561 72624 layer_factory.hpp:77] Creating layer res4c_branch2b
I0504 13:47:13.944576 72624 net.cpp:106] Creating Layer res4c_branch2b
I0504 13:47:13.944583 72624 net.cpp:454] res4c_branch2b <- res4c_branch2a
I0504 13:47:13.944593 72624 net.cpp:411] res4c_branch2b -> res4c_branch2b
I0504 13:47:13.946882 72624 net.cpp:150] Setting up res4c_branch2b
I0504 13:47:13.946909 72624 net.cpp:157] Top shape: 20 256 14 14 (1003520)
I0504 13:47:13.946918 72624 net.cpp:165] Memory required for data: 3853516880
I0504 13:47:13.946929 72624 layer_factory.hpp:77] Creating layer bn4c_branch2b
I0504 13:47:13.946943 72624 net.cpp:106] Creating Layer bn4c_branch2b
I0504 13:47:13.946951 72624 net.cpp:454] bn4c_branch2b <- res4c_branch2b
I0504 13:47:13.946962 72624 net.cpp:397] bn4c_branch2b -> res4c_branch2b (in-place)
I0504 13:47:13.947222 72624 net.cpp:150] Setting up bn4c_branch2b
I0504 13:47:13.947239 72624 net.cpp:157] Top shape: 20 256 14 14 (1003520)
I0504 13:47:13.947248 72624 net.cpp:165] Memory required for data: 3857530960
I0504 13:47:13.947263 72624 layer_factory.hpp:77] Creating layer scale4c_branch2b
I0504 13:47:13.947275 72624 net.cpp:106] Creating Layer scale4c_branch2b
I0504 13:47:13.947283 72624 net.cpp:454] scale4c_branch2b <- res4c_branch2b
I0504 13:47:13.947293 72624 net.cpp:397] scale4c_branch2b -> res4c_branch2b (in-place)
I0504 13:47:13.947352 72624 layer_factory.hpp:77] Creating layer scale4c_branch2b
I0504 13:47:13.947510 72624 net.cpp:150] Setting up scale4c_branch2b
I0504 13:47:13.947525 72624 net.cpp:157] Top shape: 20 256 14 14 (1003520)
I0504 13:47:13.947532 72624 net.cpp:165] Memory required for data: 3861545040
I0504 13:47:13.947545 72624 layer_factory.hpp:77] Creating layer res4c_branch2b_relu
I0504 13:47:13.947559 72624 net.cpp:106] Creating Layer res4c_branch2b_relu
I0504 13:47:13.947567 72624 net.cpp:454] res4c_branch2b_relu <- res4c_branch2b
I0504 13:47:13.947577 72624 net.cpp:397] res4c_branch2b_relu -> res4c_branch2b (in-place)
I0504 13:47:13.947588 72624 net.cpp:150] Setting up res4c_branch2b_relu
I0504 13:47:13.947597 72624 net.cpp:157] Top shape: 20 256 14 14 (1003520)
I0504 13:47:13.947604 72624 net.cpp:165] Memory required for data: 3865559120
I0504 13:47:13.947613 72624 layer_factory.hpp:77] Creating layer res4c_branch2c
I0504 13:47:13.947628 72624 net.cpp:106] Creating Layer res4c_branch2c
I0504 13:47:13.947635 72624 net.cpp:454] res4c_branch2c <- res4c_branch2b
I0504 13:47:13.947646 72624 net.cpp:411] res4c_branch2c -> res4c_branch2c
I0504 13:47:13.948829 72624 net.cpp:150] Setting up res4c_branch2c
I0504 13:47:13.948853 72624 net.cpp:157] Top shape: 20 1024 14 14 (4014080)
I0504 13:47:13.948861 72624 net.cpp:165] Memory required for data: 3881615440
I0504 13:47:13.948873 72624 layer_factory.hpp:77] Creating layer bn4c_branch2c
I0504 13:47:13.948892 72624 net.cpp:106] Creating Layer bn4c_branch2c
I0504 13:47:13.948901 72624 net.cpp:454] bn4c_branch2c <- res4c_branch2c
I0504 13:47:13.948911 72624 net.cpp:397] bn4c_branch2c -> res4c_branch2c (in-place)
I0504 13:47:13.949172 72624 net.cpp:150] Setting up bn4c_branch2c
I0504 13:47:13.949187 72624 net.cpp:157] Top shape: 20 1024 14 14 (4014080)
I0504 13:47:13.949194 72624 net.cpp:165] Memory required for data: 3897671760
I0504 13:47:13.949208 72624 layer_factory.hpp:77] Creating layer scale4c_branch2c
I0504 13:47:13.949226 72624 net.cpp:106] Creating Layer scale4c_branch2c
I0504 13:47:13.949235 72624 net.cpp:454] scale4c_branch2c <- res4c_branch2c
I0504 13:47:13.949245 72624 net.cpp:397] scale4c_branch2c -> res4c_branch2c (in-place)
I0504 13:47:13.949297 72624 layer_factory.hpp:77] Creating layer scale4c_branch2c
I0504 13:47:13.949453 72624 net.cpp:150] Setting up scale4c_branch2c
I0504 13:47:13.949467 72624 net.cpp:157] Top shape: 20 1024 14 14 (4014080)
I0504 13:47:13.949476 72624 net.cpp:165] Memory required for data: 3913728080
I0504 13:47:13.949487 72624 layer_factory.hpp:77] Creating layer res4c
I0504 13:47:13.949499 72624 net.cpp:106] Creating Layer res4c
I0504 13:47:13.949507 72624 net.cpp:454] res4c <- res4b_res4b_relu_0_split_1
I0504 13:47:13.949517 72624 net.cpp:454] res4c <- res4c_branch2c
I0504 13:47:13.949529 72624 net.cpp:411] res4c -> res4c
I0504 13:47:13.949564 72624 net.cpp:150] Setting up res4c
I0504 13:47:13.949579 72624 net.cpp:157] Top shape: 20 1024 14 14 (4014080)
I0504 13:47:13.949587 72624 net.cpp:165] Memory required for data: 3929784400
I0504 13:47:13.949595 72624 layer_factory.hpp:77] Creating layer res4c_relu
I0504 13:47:13.949605 72624 net.cpp:106] Creating Layer res4c_relu
I0504 13:47:13.949614 72624 net.cpp:454] res4c_relu <- res4c
I0504 13:47:13.949622 72624 net.cpp:397] res4c_relu -> res4c (in-place)
I0504 13:47:13.949632 72624 net.cpp:150] Setting up res4c_relu
I0504 13:47:13.949642 72624 net.cpp:157] Top shape: 20 1024 14 14 (4014080)
I0504 13:47:13.949651 72624 net.cpp:165] Memory required for data: 3945840720
I0504 13:47:13.949658 72624 layer_factory.hpp:77] Creating layer res4c_res4c_relu_0_split
I0504 13:47:13.949668 72624 net.cpp:106] Creating Layer res4c_res4c_relu_0_split
I0504 13:47:13.949676 72624 net.cpp:454] res4c_res4c_relu_0_split <- res4c
I0504 13:47:13.949687 72624 net.cpp:411] res4c_res4c_relu_0_split -> res4c_res4c_relu_0_split_0
I0504 13:47:13.949699 72624 net.cpp:411] res4c_res4c_relu_0_split -> res4c_res4c_relu_0_split_1
I0504 13:47:13.949748 72624 net.cpp:150] Setting up res4c_res4c_relu_0_split
I0504 13:47:13.949762 72624 net.cpp:157] Top shape: 20 1024 14 14 (4014080)
I0504 13:47:13.949779 72624 net.cpp:157] Top shape: 20 1024 14 14 (4014080)
I0504 13:47:13.949789 72624 net.cpp:165] Memory required for data: 3977953360
I0504 13:47:13.949796 72624 layer_factory.hpp:77] Creating layer res4d_branch2a
I0504 13:47:13.949810 72624 net.cpp:106] Creating Layer res4d_branch2a
I0504 13:47:13.949817 72624 net.cpp:454] res4d_branch2a <- res4c_res4c_relu_0_split_0
I0504 13:47:13.949828 72624 net.cpp:411] res4d_branch2a -> res4d_branch2a
I0504 13:47:13.950974 72624 net.cpp:150] Setting up res4d_branch2a
I0504 13:47:13.950995 72624 net.cpp:157] Top shape: 20 256 14 14 (1003520)
I0504 13:47:13.951004 72624 net.cpp:165] Memory required for data: 3981967440
I0504 13:47:13.951014 72624 layer_factory.hpp:77] Creating layer bn4d_branch2a
I0504 13:47:13.951030 72624 net.cpp:106] Creating Layer bn4d_branch2a
I0504 13:47:13.951037 72624 net.cpp:454] bn4d_branch2a <- res4d_branch2a
I0504 13:47:13.951047 72624 net.cpp:397] bn4d_branch2a -> res4d_branch2a (in-place)
I0504 13:47:13.951298 72624 net.cpp:150] Setting up bn4d_branch2a
I0504 13:47:13.951313 72624 net.cpp:157] Top shape: 20 256 14 14 (1003520)
I0504 13:47:13.951321 72624 net.cpp:165] Memory required for data: 3985981520
I0504 13:47:13.951335 72624 layer_factory.hpp:77] Creating layer scale4d_branch2a
I0504 13:47:13.951347 72624 net.cpp:106] Creating Layer scale4d_branch2a
I0504 13:47:13.951354 72624 net.cpp:454] scale4d_branch2a <- res4d_branch2a
I0504 13:47:13.951367 72624 net.cpp:397] scale4d_branch2a -> res4d_branch2a (in-place)
I0504 13:47:13.951423 72624 layer_factory.hpp:77] Creating layer scale4d_branch2a
I0504 13:47:13.951567 72624 net.cpp:150] Setting up scale4d_branch2a
I0504 13:47:13.951583 72624 net.cpp:157] Top shape: 20 256 14 14 (1003520)
I0504 13:47:13.951591 72624 net.cpp:165] Memory required for data: 3989995600
I0504 13:47:13.951603 72624 layer_factory.hpp:77] Creating layer res4d_branch2a_relu
I0504 13:47:13.951613 72624 net.cpp:106] Creating Layer res4d_branch2a_relu
I0504 13:47:13.951622 72624 net.cpp:454] res4d_branch2a_relu <- res4d_branch2a
I0504 13:47:13.951630 72624 net.cpp:397] res4d_branch2a_relu -> res4d_branch2a (in-place)
I0504 13:47:13.951642 72624 net.cpp:150] Setting up res4d_branch2a_relu
I0504 13:47:13.951650 72624 net.cpp:157] Top shape: 20 256 14 14 (1003520)
I0504 13:47:13.951658 72624 net.cpp:165] Memory required for data: 3994009680
I0504 13:47:13.951664 72624 layer_factory.hpp:77] Creating layer res4d_branch2b
I0504 13:47:13.951678 72624 net.cpp:106] Creating Layer res4d_branch2b
I0504 13:47:13.951686 72624 net.cpp:454] res4d_branch2b <- res4d_branch2a
I0504 13:47:13.951697 72624 net.cpp:411] res4d_branch2b -> res4d_branch2b
I0504 13:47:13.953845 72624 net.cpp:150] Setting up res4d_branch2b
I0504 13:47:13.953871 72624 net.cpp:157] Top shape: 20 256 14 14 (1003520)
I0504 13:47:13.953881 72624 net.cpp:165] Memory required for data: 3998023760
I0504 13:47:13.953892 72624 layer_factory.hpp:77] Creating layer bn4d_branch2b
I0504 13:47:13.953904 72624 net.cpp:106] Creating Layer bn4d_branch2b
I0504 13:47:13.953913 72624 net.cpp:454] bn4d_branch2b <- res4d_branch2b
I0504 13:47:13.953930 72624 net.cpp:397] bn4d_branch2b -> res4d_branch2b (in-place)
I0504 13:47:13.954177 72624 net.cpp:150] Setting up bn4d_branch2b
I0504 13:47:13.954192 72624 net.cpp:157] Top shape: 20 256 14 14 (1003520)
I0504 13:47:13.954200 72624 net.cpp:165] Memory required for data: 4002037840
I0504 13:47:13.954216 72624 layer_factory.hpp:77] Creating layer scale4d_branch2b
I0504 13:47:13.954227 72624 net.cpp:106] Creating Layer scale4d_branch2b
I0504 13:47:13.954236 72624 net.cpp:454] scale4d_branch2b <- res4d_branch2b
I0504 13:47:13.954246 72624 net.cpp:397] scale4d_branch2b -> res4d_branch2b (in-place)
I0504 13:47:13.954319 72624 layer_factory.hpp:77] Creating layer scale4d_branch2b
I0504 13:47:13.954465 72624 net.cpp:150] Setting up scale4d_branch2b
I0504 13:47:13.954479 72624 net.cpp:157] Top shape: 20 256 14 14 (1003520)
I0504 13:47:13.954488 72624 net.cpp:165] Memory required for data: 4006051920
I0504 13:47:13.954499 72624 layer_factory.hpp:77] Creating layer res4d_branch2b_relu
I0504 13:47:13.954520 72624 net.cpp:106] Creating Layer res4d_branch2b_relu
I0504 13:47:13.954529 72624 net.cpp:454] res4d_branch2b_relu <- res4d_branch2b
I0504 13:47:13.954540 72624 net.cpp:397] res4d_branch2b_relu -> res4d_branch2b (in-place)
I0504 13:47:13.954552 72624 net.cpp:150] Setting up res4d_branch2b_relu
I0504 13:47:13.954562 72624 net.cpp:157] Top shape: 20 256 14 14 (1003520)
I0504 13:47:13.954571 72624 net.cpp:165] Memory required for data: 4010066000
I0504 13:47:13.954577 72624 layer_factory.hpp:77] Creating layer res4d_branch2c
I0504 13:47:13.954591 72624 net.cpp:106] Creating Layer res4d_branch2c
I0504 13:47:13.954598 72624 net.cpp:454] res4d_branch2c <- res4d_branch2b
I0504 13:47:13.954612 72624 net.cpp:411] res4d_branch2c -> res4d_branch2c
I0504 13:47:13.955785 72624 net.cpp:150] Setting up res4d_branch2c
I0504 13:47:13.955806 72624 net.cpp:157] Top shape: 20 1024 14 14 (4014080)
I0504 13:47:13.955814 72624 net.cpp:165] Memory required for data: 4026122320
I0504 13:47:13.955826 72624 layer_factory.hpp:77] Creating layer bn4d_branch2c
I0504 13:47:13.955837 72624 net.cpp:106] Creating Layer bn4d_branch2c
I0504 13:47:13.955847 72624 net.cpp:454] bn4d_branch2c <- res4d_branch2c
I0504 13:47:13.955857 72624 net.cpp:397] bn4d_branch2c -> res4d_branch2c (in-place)
I0504 13:47:13.956113 72624 net.cpp:150] Setting up bn4d_branch2c
I0504 13:47:13.956128 72624 net.cpp:157] Top shape: 20 1024 14 14 (4014080)
I0504 13:47:13.956138 72624 net.cpp:165] Memory required for data: 4042178640
I0504 13:47:13.956153 72624 layer_factory.hpp:77] Creating layer scale4d_branch2c
I0504 13:47:13.956168 72624 net.cpp:106] Creating Layer scale4d_branch2c
I0504 13:47:13.956177 72624 net.cpp:454] scale4d_branch2c <- res4d_branch2c
I0504 13:47:13.956187 72624 net.cpp:397] scale4d_branch2c -> res4d_branch2c (in-place)
I0504 13:47:13.956244 72624 layer_factory.hpp:77] Creating layer scale4d_branch2c
I0504 13:47:13.956404 72624 net.cpp:150] Setting up scale4d_branch2c
I0504 13:47:13.956418 72624 net.cpp:157] Top shape: 20 1024 14 14 (4014080)
I0504 13:47:13.956426 72624 net.cpp:165] Memory required for data: 4058234960
I0504 13:47:13.956452 72624 layer_factory.hpp:77] Creating layer res4d
I0504 13:47:13.956471 72624 net.cpp:106] Creating Layer res4d
I0504 13:47:13.956481 72624 net.cpp:454] res4d <- res4c_res4c_relu_0_split_1
I0504 13:47:13.956491 72624 net.cpp:454] res4d <- res4d_branch2c
I0504 13:47:13.956502 72624 net.cpp:411] res4d -> res4d
I0504 13:47:13.956543 72624 net.cpp:150] Setting up res4d
I0504 13:47:13.956557 72624 net.cpp:157] Top shape: 20 1024 14 14 (4014080)
I0504 13:47:13.956564 72624 net.cpp:165] Memory required for data: 4074291280
I0504 13:47:13.956573 72624 layer_factory.hpp:77] Creating layer res4d_relu
I0504 13:47:13.956583 72624 net.cpp:106] Creating Layer res4d_relu
I0504 13:47:13.956591 72624 net.cpp:454] res4d_relu <- res4d
I0504 13:47:13.956604 72624 net.cpp:397] res4d_relu -> res4d (in-place)
I0504 13:47:13.956615 72624 net.cpp:150] Setting up res4d_relu
I0504 13:47:13.956625 72624 net.cpp:157] Top shape: 20 1024 14 14 (4014080)
I0504 13:47:13.956634 72624 net.cpp:165] Memory required for data: 4090347600
I0504 13:47:13.956641 72624 layer_factory.hpp:77] Creating layer res4d_res4d_relu_0_split
I0504 13:47:13.956652 72624 net.cpp:106] Creating Layer res4d_res4d_relu_0_split
I0504 13:47:13.956660 72624 net.cpp:454] res4d_res4d_relu_0_split <- res4d
I0504 13:47:13.956670 72624 net.cpp:411] res4d_res4d_relu_0_split -> res4d_res4d_relu_0_split_0
I0504 13:47:13.956682 72624 net.cpp:411] res4d_res4d_relu_0_split -> res4d_res4d_relu_0_split_1
I0504 13:47:13.956735 72624 net.cpp:150] Setting up res4d_res4d_relu_0_split
I0504 13:47:13.956748 72624 net.cpp:157] Top shape: 20 1024 14 14 (4014080)
I0504 13:47:13.956758 72624 net.cpp:157] Top shape: 20 1024 14 14 (4014080)
I0504 13:47:13.956765 72624 net.cpp:165] Memory required for data: 4122460240
I0504 13:47:13.956773 72624 layer_factory.hpp:77] Creating layer res4e_branch2a
I0504 13:47:13.956785 72624 net.cpp:106] Creating Layer res4e_branch2a
I0504 13:47:13.956806 72624 net.cpp:454] res4e_branch2a <- res4d_res4d_relu_0_split_0
I0504 13:47:13.956841 72624 net.cpp:411] res4e_branch2a -> res4e_branch2a
I0504 13:47:13.958014 72624 net.cpp:150] Setting up res4e_branch2a
I0504 13:47:13.958034 72624 net.cpp:157] Top shape: 20 256 14 14 (1003520)
I0504 13:47:13.958042 72624 net.cpp:165] Memory required for data: 4126474320
I0504 13:47:13.958053 72624 layer_factory.hpp:77] Creating layer bn4e_branch2a
I0504 13:47:13.958068 72624 net.cpp:106] Creating Layer bn4e_branch2a
I0504 13:47:13.958076 72624 net.cpp:454] bn4e_branch2a <- res4e_branch2a
I0504 13:47:13.958087 72624 net.cpp:397] bn4e_branch2a -> res4e_branch2a (in-place)
I0504 13:47:13.958336 72624 net.cpp:150] Setting up bn4e_branch2a
I0504 13:47:13.958350 72624 net.cpp:157] Top shape: 20 256 14 14 (1003520)
I0504 13:47:13.958359 72624 net.cpp:165] Memory required for data: 4130488400
I0504 13:47:13.958374 72624 layer_factory.hpp:77] Creating layer scale4e_branch2a
I0504 13:47:13.958387 72624 net.cpp:106] Creating Layer scale4e_branch2a
I0504 13:47:13.958395 72624 net.cpp:454] scale4e_branch2a <- res4e_branch2a
I0504 13:47:13.958406 72624 net.cpp:397] scale4e_branch2a -> res4e_branch2a (in-place)
I0504 13:47:13.958464 72624 layer_factory.hpp:77] Creating layer scale4e_branch2a
I0504 13:47:13.958613 72624 net.cpp:150] Setting up scale4e_branch2a
I0504 13:47:13.958627 72624 net.cpp:157] Top shape: 20 256 14 14 (1003520)
I0504 13:47:13.958636 72624 net.cpp:165] Memory required for data: 4134502480
I0504 13:47:13.958648 72624 layer_factory.hpp:77] Creating layer res4e_branch2a_relu
I0504 13:47:13.958658 72624 net.cpp:106] Creating Layer res4e_branch2a_relu
I0504 13:47:13.958667 72624 net.cpp:454] res4e_branch2a_relu <- res4e_branch2a
I0504 13:47:13.958679 72624 net.cpp:397] res4e_branch2a_relu -> res4e_branch2a (in-place)
I0504 13:47:13.958691 72624 net.cpp:150] Setting up res4e_branch2a_relu
I0504 13:47:13.958701 72624 net.cpp:157] Top shape: 20 256 14 14 (1003520)
I0504 13:47:13.958709 72624 net.cpp:165] Memory required for data: 4138516560
I0504 13:47:13.958716 72624 layer_factory.hpp:77] Creating layer res4e_branch2b
I0504 13:47:13.958729 72624 net.cpp:106] Creating Layer res4e_branch2b
I0504 13:47:13.958736 72624 net.cpp:454] res4e_branch2b <- res4e_branch2a
I0504 13:47:13.958750 72624 net.cpp:411] res4e_branch2b -> res4e_branch2b
I0504 13:47:13.960849 72624 net.cpp:150] Setting up res4e_branch2b
I0504 13:47:13.960872 72624 net.cpp:157] Top shape: 20 256 14 14 (1003520)
I0504 13:47:13.960881 72624 net.cpp:165] Memory required for data: 4142530640
I0504 13:47:13.960892 72624 layer_factory.hpp:77] Creating layer bn4e_branch2b
I0504 13:47:13.960903 72624 net.cpp:106] Creating Layer bn4e_branch2b
I0504 13:47:13.960911 72624 net.cpp:454] bn4e_branch2b <- res4e_branch2b
I0504 13:47:13.960924 72624 net.cpp:397] bn4e_branch2b -> res4e_branch2b (in-place)
I0504 13:47:13.961208 72624 net.cpp:150] Setting up bn4e_branch2b
I0504 13:47:13.961223 72624 net.cpp:157] Top shape: 20 256 14 14 (1003520)
I0504 13:47:13.961232 72624 net.cpp:165] Memory required for data: 4146544720
I0504 13:47:13.961246 72624 layer_factory.hpp:77] Creating layer scale4e_branch2b
I0504 13:47:13.961258 72624 net.cpp:106] Creating Layer scale4e_branch2b
I0504 13:47:13.961266 72624 net.cpp:454] scale4e_branch2b <- res4e_branch2b
I0504 13:47:13.961277 72624 net.cpp:397] scale4e_branch2b -> res4e_branch2b (in-place)
I0504 13:47:13.961338 72624 layer_factory.hpp:77] Creating layer scale4e_branch2b
I0504 13:47:13.961488 72624 net.cpp:150] Setting up scale4e_branch2b
I0504 13:47:13.961501 72624 net.cpp:157] Top shape: 20 256 14 14 (1003520)
I0504 13:47:13.961508 72624 net.cpp:165] Memory required for data: 4150558800
I0504 13:47:13.961521 72624 layer_factory.hpp:77] Creating layer res4e_branch2b_relu
I0504 13:47:13.961534 72624 net.cpp:106] Creating Layer res4e_branch2b_relu
I0504 13:47:13.961542 72624 net.cpp:454] res4e_branch2b_relu <- res4e_branch2b
I0504 13:47:13.961552 72624 net.cpp:397] res4e_branch2b_relu -> res4e_branch2b (in-place)
I0504 13:47:13.961572 72624 net.cpp:150] Setting up res4e_branch2b_relu
I0504 13:47:13.961583 72624 net.cpp:157] Top shape: 20 256 14 14 (1003520)
I0504 13:47:13.961591 72624 net.cpp:165] Memory required for data: 4154572880
I0504 13:47:13.961597 72624 layer_factory.hpp:77] Creating layer res4e_branch2c
I0504 13:47:13.961612 72624 net.cpp:106] Creating Layer res4e_branch2c
I0504 13:47:13.961621 72624 net.cpp:454] res4e_branch2c <- res4e_branch2b
I0504 13:47:13.961632 72624 net.cpp:411] res4e_branch2c -> res4e_branch2c
I0504 13:47:13.962813 72624 net.cpp:150] Setting up res4e_branch2c
I0504 13:47:13.962834 72624 net.cpp:157] Top shape: 20 1024 14 14 (4014080)
I0504 13:47:13.962843 72624 net.cpp:165] Memory required for data: 4170629200
I0504 13:47:13.962854 72624 layer_factory.hpp:77] Creating layer bn4e_branch2c
I0504 13:47:13.962865 72624 net.cpp:106] Creating Layer bn4e_branch2c
I0504 13:47:13.962873 72624 net.cpp:454] bn4e_branch2c <- res4e_branch2c
I0504 13:47:13.962883 72624 net.cpp:397] bn4e_branch2c -> res4e_branch2c (in-place)
I0504 13:47:13.963148 72624 net.cpp:150] Setting up bn4e_branch2c
I0504 13:47:13.963163 72624 net.cpp:157] Top shape: 20 1024 14 14 (4014080)
I0504 13:47:13.963171 72624 net.cpp:165] Memory required for data: 4186685520
I0504 13:47:13.963186 72624 layer_factory.hpp:77] Creating layer scale4e_branch2c
I0504 13:47:13.963196 72624 net.cpp:106] Creating Layer scale4e_branch2c
I0504 13:47:13.963204 72624 net.cpp:454] scale4e_branch2c <- res4e_branch2c
I0504 13:47:13.963214 72624 net.cpp:397] scale4e_branch2c -> res4e_branch2c (in-place)
I0504 13:47:13.963276 72624 layer_factory.hpp:77] Creating layer scale4e_branch2c
I0504 13:47:13.963438 72624 net.cpp:150] Setting up scale4e_branch2c
I0504 13:47:13.963451 72624 net.cpp:157] Top shape: 20 1024 14 14 (4014080)
I0504 13:47:13.963459 72624 net.cpp:165] Memory required for data: 4202741840
I0504 13:47:13.963471 72624 layer_factory.hpp:77] Creating layer res4e
I0504 13:47:13.963486 72624 net.cpp:106] Creating Layer res4e
I0504 13:47:13.963495 72624 net.cpp:454] res4e <- res4d_res4d_relu_0_split_1
I0504 13:47:13.963505 72624 net.cpp:454] res4e <- res4e_branch2c
I0504 13:47:13.963515 72624 net.cpp:411] res4e -> res4e
I0504 13:47:13.963551 72624 net.cpp:150] Setting up res4e
I0504 13:47:13.963564 72624 net.cpp:157] Top shape: 20 1024 14 14 (4014080)
I0504 13:47:13.963572 72624 net.cpp:165] Memory required for data: 4218798160
I0504 13:47:13.963579 72624 layer_factory.hpp:77] Creating layer res4e_relu
I0504 13:47:13.963589 72624 net.cpp:106] Creating Layer res4e_relu
I0504 13:47:13.963596 72624 net.cpp:454] res4e_relu <- res4e
I0504 13:47:13.963609 72624 net.cpp:397] res4e_relu -> res4e (in-place)
I0504 13:47:13.963620 72624 net.cpp:150] Setting up res4e_relu
I0504 13:47:13.963630 72624 net.cpp:157] Top shape: 20 1024 14 14 (4014080)
I0504 13:47:13.963637 72624 net.cpp:165] Memory required for data: 4234854480
I0504 13:47:13.963644 72624 layer_factory.hpp:77] Creating layer res4e_res4e_relu_0_split
I0504 13:47:13.963655 72624 net.cpp:106] Creating Layer res4e_res4e_relu_0_split
I0504 13:47:13.963661 72624 net.cpp:454] res4e_res4e_relu_0_split <- res4e
I0504 13:47:13.963671 72624 net.cpp:411] res4e_res4e_relu_0_split -> res4e_res4e_relu_0_split_0
I0504 13:47:13.963682 72624 net.cpp:411] res4e_res4e_relu_0_split -> res4e_res4e_relu_0_split_1
I0504 13:47:13.963735 72624 net.cpp:150] Setting up res4e_res4e_relu_0_split
I0504 13:47:13.963748 72624 net.cpp:157] Top shape: 20 1024 14 14 (4014080)
I0504 13:47:13.963758 72624 net.cpp:157] Top shape: 20 1024 14 14 (4014080)
I0504 13:47:13.963765 72624 net.cpp:165] Memory required for data: 4266967120
I0504 13:47:13.963773 72624 layer_factory.hpp:77] Creating layer res4f_branch2a
I0504 13:47:13.963784 72624 net.cpp:106] Creating Layer res4f_branch2a
I0504 13:47:13.963793 72624 net.cpp:454] res4f_branch2a <- res4e_res4e_relu_0_split_0
I0504 13:47:13.963805 72624 net.cpp:411] res4f_branch2a -> res4f_branch2a
I0504 13:47:13.964987 72624 net.cpp:150] Setting up res4f_branch2a
I0504 13:47:13.965009 72624 net.cpp:157] Top shape: 20 256 14 14 (1003520)
I0504 13:47:13.965025 72624 net.cpp:165] Memory required for data: 4270981200
I0504 13:47:13.965037 72624 layer_factory.hpp:77] Creating layer bn4f_branch2a
I0504 13:47:13.965049 72624 net.cpp:106] Creating Layer bn4f_branch2a
I0504 13:47:13.965056 72624 net.cpp:454] bn4f_branch2a <- res4f_branch2a
I0504 13:47:13.965066 72624 net.cpp:397] bn4f_branch2a -> res4f_branch2a (in-place)
I0504 13:47:13.965318 72624 net.cpp:150] Setting up bn4f_branch2a
I0504 13:47:13.965332 72624 net.cpp:157] Top shape: 20 256 14 14 (1003520)
I0504 13:47:13.965340 72624 net.cpp:165] Memory required for data: 4274995280
I0504 13:47:13.965354 72624 layer_factory.hpp:77] Creating layer scale4f_branch2a
I0504 13:47:13.965368 72624 net.cpp:106] Creating Layer scale4f_branch2a
I0504 13:47:13.965376 72624 net.cpp:454] scale4f_branch2a <- res4f_branch2a
I0504 13:47:13.965386 72624 net.cpp:397] scale4f_branch2a -> res4f_branch2a (in-place)
I0504 13:47:13.965445 72624 layer_factory.hpp:77] Creating layer scale4f_branch2a
I0504 13:47:13.965600 72624 net.cpp:150] Setting up scale4f_branch2a
I0504 13:47:13.965615 72624 net.cpp:157] Top shape: 20 256 14 14 (1003520)
I0504 13:47:13.965621 72624 net.cpp:165] Memory required for data: 4279009360
I0504 13:47:13.965633 72624 layer_factory.hpp:77] Creating layer res4f_branch2a_relu
I0504 13:47:13.965644 72624 net.cpp:106] Creating Layer res4f_branch2a_relu
I0504 13:47:13.965651 72624 net.cpp:454] res4f_branch2a_relu <- res4f_branch2a
I0504 13:47:13.965667 72624 net.cpp:397] res4f_branch2a_relu -> res4f_branch2a (in-place)
I0504 13:47:13.965679 72624 net.cpp:150] Setting up res4f_branch2a_relu
I0504 13:47:13.965688 72624 net.cpp:157] Top shape: 20 256 14 14 (1003520)
I0504 13:47:13.965697 72624 net.cpp:165] Memory required for data: 4283023440
I0504 13:47:13.965728 72624 layer_factory.hpp:77] Creating layer res4f_branch2b
I0504 13:47:13.965744 72624 net.cpp:106] Creating Layer res4f_branch2b
I0504 13:47:13.965752 72624 net.cpp:454] res4f_branch2b <- res4f_branch2a
I0504 13:47:13.965764 72624 net.cpp:411] res4f_branch2b -> res4f_branch2b
I0504 13:47:13.967857 72624 net.cpp:150] Setting up res4f_branch2b
I0504 13:47:13.967882 72624 net.cpp:157] Top shape: 20 256 14 14 (1003520)
I0504 13:47:13.967890 72624 net.cpp:165] Memory required for data: 4287037520
I0504 13:47:13.967901 72624 layer_factory.hpp:77] Creating layer bn4f_branch2b
I0504 13:47:13.967916 72624 net.cpp:106] Creating Layer bn4f_branch2b
I0504 13:47:13.967926 72624 net.cpp:454] bn4f_branch2b <- res4f_branch2b
I0504 13:47:13.967936 72624 net.cpp:397] bn4f_branch2b -> res4f_branch2b (in-place)
I0504 13:47:13.968191 72624 net.cpp:150] Setting up bn4f_branch2b
I0504 13:47:13.968205 72624 net.cpp:157] Top shape: 20 256 14 14 (1003520)
I0504 13:47:13.968214 72624 net.cpp:165] Memory required for data: 4291051600
I0504 13:47:13.968230 72624 layer_factory.hpp:77] Creating layer scale4f_branch2b
I0504 13:47:13.968240 72624 net.cpp:106] Creating Layer scale4f_branch2b
I0504 13:47:13.968248 72624 net.cpp:454] scale4f_branch2b <- res4f_branch2b
I0504 13:47:13.968261 72624 net.cpp:397] scale4f_branch2b -> res4f_branch2b (in-place)
I0504 13:47:13.968318 72624 layer_factory.hpp:77] Creating layer scale4f_branch2b
I0504 13:47:13.968485 72624 net.cpp:150] Setting up scale4f_branch2b
I0504 13:47:13.968502 72624 net.cpp:157] Top shape: 20 256 14 14 (1003520)
I0504 13:47:13.968511 72624 net.cpp:165] Memory required for data: 4295065680
I0504 13:47:13.968523 72624 layer_factory.hpp:77] Creating layer res4f_branch2b_relu
I0504 13:47:13.968535 72624 net.cpp:106] Creating Layer res4f_branch2b_relu
I0504 13:47:13.968544 72624 net.cpp:454] res4f_branch2b_relu <- res4f_branch2b
I0504 13:47:13.968554 72624 net.cpp:397] res4f_branch2b_relu -> res4f_branch2b (in-place)
I0504 13:47:13.968564 72624 net.cpp:150] Setting up res4f_branch2b_relu
I0504 13:47:13.968575 72624 net.cpp:157] Top shape: 20 256 14 14 (1003520)
I0504 13:47:13.968581 72624 net.cpp:165] Memory required for data: 4299079760
I0504 13:47:13.968588 72624 layer_factory.hpp:77] Creating layer res4f_branch2c
I0504 13:47:13.968611 72624 net.cpp:106] Creating Layer res4f_branch2c
I0504 13:47:13.968619 72624 net.cpp:454] res4f_branch2c <- res4f_branch2b
I0504 13:47:13.968632 72624 net.cpp:411] res4f_branch2c -> res4f_branch2c
I0504 13:47:13.969805 72624 net.cpp:150] Setting up res4f_branch2c
I0504 13:47:13.969826 72624 net.cpp:157] Top shape: 20 1024 14 14 (4014080)
I0504 13:47:13.969835 72624 net.cpp:165] Memory required for data: 4315136080
I0504 13:47:13.969846 72624 layer_factory.hpp:77] Creating layer bn4f_branch2c
I0504 13:47:13.969858 72624 net.cpp:106] Creating Layer bn4f_branch2c
I0504 13:47:13.969866 72624 net.cpp:454] bn4f_branch2c <- res4f_branch2c
I0504 13:47:13.969879 72624 net.cpp:397] bn4f_branch2c -> res4f_branch2c (in-place)
I0504 13:47:13.970150 72624 net.cpp:150] Setting up bn4f_branch2c
I0504 13:47:13.970165 72624 net.cpp:157] Top shape: 20 1024 14 14 (4014080)
I0504 13:47:13.970172 72624 net.cpp:165] Memory required for data: 4331192400
I0504 13:47:13.970245 72624 layer_factory.hpp:77] Creating layer scale4f_branch2c
I0504 13:47:13.970259 72624 net.cpp:106] Creating Layer scale4f_branch2c
I0504 13:47:13.970268 72624 net.cpp:454] scale4f_branch2c <- res4f_branch2c
I0504 13:47:13.970278 72624 net.cpp:397] scale4f_branch2c -> res4f_branch2c (in-place)
I0504 13:47:13.970338 72624 layer_factory.hpp:77] Creating layer scale4f_branch2c
I0504 13:47:13.970501 72624 net.cpp:150] Setting up scale4f_branch2c
I0504 13:47:13.970515 72624 net.cpp:157] Top shape: 20 1024 14 14 (4014080)
I0504 13:47:13.970523 72624 net.cpp:165] Memory required for data: 4347248720
I0504 13:47:13.970535 72624 layer_factory.hpp:77] Creating layer res4f
I0504 13:47:13.970547 72624 net.cpp:106] Creating Layer res4f
I0504 13:47:13.970554 72624 net.cpp:454] res4f <- res4e_res4e_relu_0_split_1
I0504 13:47:13.970563 72624 net.cpp:454] res4f <- res4f_branch2c
I0504 13:47:13.970577 72624 net.cpp:411] res4f -> res4f
I0504 13:47:13.970613 72624 net.cpp:150] Setting up res4f
I0504 13:47:13.970625 72624 net.cpp:157] Top shape: 20 1024 14 14 (4014080)
I0504 13:47:13.970633 72624 net.cpp:165] Memory required for data: 4363305040
I0504 13:47:13.970640 72624 layer_factory.hpp:77] Creating layer res4f_relu
I0504 13:47:13.970651 72624 net.cpp:106] Creating Layer res4f_relu
I0504 13:47:13.970659 72624 net.cpp:454] res4f_relu <- res4f
I0504 13:47:13.970669 72624 net.cpp:397] res4f_relu -> res4f (in-place)
I0504 13:47:13.970679 72624 net.cpp:150] Setting up res4f_relu
I0504 13:47:13.970688 72624 net.cpp:157] Top shape: 20 1024 14 14 (4014080)
I0504 13:47:13.970695 72624 net.cpp:165] Memory required for data: 4379361360
I0504 13:47:13.970703 72624 layer_factory.hpp:77] Creating layer res4f_res4f_relu_0_split
I0504 13:47:13.970715 72624 net.cpp:106] Creating Layer res4f_res4f_relu_0_split
I0504 13:47:13.970721 72624 net.cpp:454] res4f_res4f_relu_0_split <- res4f
I0504 13:47:13.970733 72624 net.cpp:411] res4f_res4f_relu_0_split -> res4f_res4f_relu_0_split_0
I0504 13:47:13.970746 72624 net.cpp:411] res4f_res4f_relu_0_split -> res4f_res4f_relu_0_split_1
I0504 13:47:13.970800 72624 net.cpp:150] Setting up res4f_res4f_relu_0_split
I0504 13:47:13.970813 72624 net.cpp:157] Top shape: 20 1024 14 14 (4014080)
I0504 13:47:13.970823 72624 net.cpp:157] Top shape: 20 1024 14 14 (4014080)
I0504 13:47:13.970830 72624 net.cpp:165] Memory required for data: 4411474000
I0504 13:47:13.970837 72624 layer_factory.hpp:77] Creating layer res5a_branch1
I0504 13:47:13.970850 72624 net.cpp:106] Creating Layer res5a_branch1
I0504 13:47:13.970859 72624 net.cpp:454] res5a_branch1 <- res4f_res4f_relu_0_split_0
I0504 13:47:13.970868 72624 net.cpp:411] res5a_branch1 -> res5a_branch1
I0504 13:47:13.993867 72624 net.cpp:150] Setting up res5a_branch1
I0504 13:47:13.993916 72624 net.cpp:157] Top shape: 20 2048 7 7 (2007040)
I0504 13:47:13.993926 72624 net.cpp:165] Memory required for data: 4419502160
I0504 13:47:13.993940 72624 layer_factory.hpp:77] Creating layer bn5a_branch1
I0504 13:47:13.993962 72624 net.cpp:106] Creating Layer bn5a_branch1
I0504 13:47:13.993973 72624 net.cpp:454] bn5a_branch1 <- res5a_branch1
I0504 13:47:13.993994 72624 net.cpp:397] bn5a_branch1 -> res5a_branch1 (in-place)
I0504 13:47:13.994295 72624 net.cpp:150] Setting up bn5a_branch1
I0504 13:47:13.994310 72624 net.cpp:157] Top shape: 20 2048 7 7 (2007040)
I0504 13:47:13.994318 72624 net.cpp:165] Memory required for data: 4427530320
I0504 13:47:13.994333 72624 layer_factory.hpp:77] Creating layer scale5a_branch1
I0504 13:47:13.994345 72624 net.cpp:106] Creating Layer scale5a_branch1
I0504 13:47:13.994354 72624 net.cpp:454] scale5a_branch1 <- res5a_branch1
I0504 13:47:13.994365 72624 net.cpp:397] scale5a_branch1 -> res5a_branch1 (in-place)
I0504 13:47:13.994429 72624 layer_factory.hpp:77] Creating layer scale5a_branch1
I0504 13:47:13.994598 72624 net.cpp:150] Setting up scale5a_branch1
I0504 13:47:13.994613 72624 net.cpp:157] Top shape: 20 2048 7 7 (2007040)
I0504 13:47:13.994621 72624 net.cpp:165] Memory required for data: 4435558480
I0504 13:47:13.994632 72624 layer_factory.hpp:77] Creating layer res5a_branch2a
I0504 13:47:13.994647 72624 net.cpp:106] Creating Layer res5a_branch2a
I0504 13:47:13.994655 72624 net.cpp:454] res5a_branch2a <- res4f_res4f_relu_0_split_1
I0504 13:47:13.994668 72624 net.cpp:411] res5a_branch2a -> res5a_branch2a
I0504 13:47:13.996776 72624 net.cpp:150] Setting up res5a_branch2a
I0504 13:47:13.996803 72624 net.cpp:157] Top shape: 20 512 7 7 (501760)
I0504 13:47:13.996811 72624 net.cpp:165] Memory required for data: 4437565520
I0504 13:47:13.996822 72624 layer_factory.hpp:77] Creating layer bn5a_branch2a
I0504 13:47:13.996835 72624 net.cpp:106] Creating Layer bn5a_branch2a
I0504 13:47:13.996843 72624 net.cpp:454] bn5a_branch2a <- res5a_branch2a
I0504 13:47:13.996853 72624 net.cpp:397] bn5a_branch2a -> res5a_branch2a (in-place)
I0504 13:47:13.997124 72624 net.cpp:150] Setting up bn5a_branch2a
I0504 13:47:13.997139 72624 net.cpp:157] Top shape: 20 512 7 7 (501760)
I0504 13:47:13.997146 72624 net.cpp:165] Memory required for data: 4439572560
I0504 13:47:13.997164 72624 layer_factory.hpp:77] Creating layer scale5a_branch2a
I0504 13:47:13.997176 72624 net.cpp:106] Creating Layer scale5a_branch2a
I0504 13:47:13.997184 72624 net.cpp:454] scale5a_branch2a <- res5a_branch2a
I0504 13:47:13.997194 72624 net.cpp:397] scale5a_branch2a -> res5a_branch2a (in-place)
I0504 13:47:13.997251 72624 layer_factory.hpp:77] Creating layer scale5a_branch2a
I0504 13:47:13.997412 72624 net.cpp:150] Setting up scale5a_branch2a
I0504 13:47:13.997426 72624 net.cpp:157] Top shape: 20 512 7 7 (501760)
I0504 13:47:13.997433 72624 net.cpp:165] Memory required for data: 4441579600
I0504 13:47:13.997445 72624 layer_factory.hpp:77] Creating layer res5a_branch2a_relu
I0504 13:47:13.997459 72624 net.cpp:106] Creating Layer res5a_branch2a_relu
I0504 13:47:13.997467 72624 net.cpp:454] res5a_branch2a_relu <- res5a_branch2a
I0504 13:47:13.997476 72624 net.cpp:397] res5a_branch2a_relu -> res5a_branch2a (in-place)
I0504 13:47:13.997486 72624 net.cpp:150] Setting up res5a_branch2a_relu
I0504 13:47:13.997495 72624 net.cpp:157] Top shape: 20 512 7 7 (501760)
I0504 13:47:13.997503 72624 net.cpp:165] Memory required for data: 4443586640
I0504 13:47:13.997509 72624 layer_factory.hpp:77] Creating layer res5a_branch2b
I0504 13:47:13.997524 72624 net.cpp:106] Creating Layer res5a_branch2b
I0504 13:47:13.997531 72624 net.cpp:454] res5a_branch2b <- res5a_branch2a
I0504 13:47:13.997542 72624 net.cpp:411] res5a_branch2b -> res5a_branch2b
I0504 13:47:14.004927 72624 net.cpp:150] Setting up res5a_branch2b
I0504 13:47:14.004983 72624 net.cpp:157] Top shape: 20 512 7 7 (501760)
I0504 13:47:14.004993 72624 net.cpp:165] Memory required for data: 4445593680
I0504 13:47:14.005008 72624 layer_factory.hpp:77] Creating layer bn5a_branch2b
I0504 13:47:14.005028 72624 net.cpp:106] Creating Layer bn5a_branch2b
I0504 13:47:14.005039 72624 net.cpp:454] bn5a_branch2b <- res5a_branch2b
I0504 13:47:14.005053 72624 net.cpp:397] bn5a_branch2b -> res5a_branch2b (in-place)
I0504 13:47:14.005380 72624 net.cpp:150] Setting up bn5a_branch2b
I0504 13:47:14.005395 72624 net.cpp:157] Top shape: 20 512 7 7 (501760)
I0504 13:47:14.005414 72624 net.cpp:165] Memory required for data: 4447600720
I0504 13:47:14.005429 72624 layer_factory.hpp:77] Creating layer scale5a_branch2b
I0504 13:47:14.005445 72624 net.cpp:106] Creating Layer scale5a_branch2b
I0504 13:47:14.005453 72624 net.cpp:454] scale5a_branch2b <- res5a_branch2b
I0504 13:47:14.005462 72624 net.cpp:397] scale5a_branch2b -> res5a_branch2b (in-place)
I0504 13:47:14.005527 72624 layer_factory.hpp:77] Creating layer scale5a_branch2b
I0504 13:47:14.005692 72624 net.cpp:150] Setting up scale5a_branch2b
I0504 13:47:14.005707 72624 net.cpp:157] Top shape: 20 512 7 7 (501760)
I0504 13:47:14.005714 72624 net.cpp:165] Memory required for data: 4449607760
I0504 13:47:14.005725 72624 layer_factory.hpp:77] Creating layer res5a_branch2b_relu
I0504 13:47:14.005736 72624 net.cpp:106] Creating Layer res5a_branch2b_relu
I0504 13:47:14.005743 72624 net.cpp:454] res5a_branch2b_relu <- res5a_branch2b
I0504 13:47:14.005753 72624 net.cpp:397] res5a_branch2b_relu -> res5a_branch2b (in-place)
I0504 13:47:14.005764 72624 net.cpp:150] Setting up res5a_branch2b_relu
I0504 13:47:14.005774 72624 net.cpp:157] Top shape: 20 512 7 7 (501760)
I0504 13:47:14.005779 72624 net.cpp:165] Memory required for data: 4451614800
I0504 13:47:14.005786 72624 layer_factory.hpp:77] Creating layer res5a_branch2c
I0504 13:47:14.005802 72624 net.cpp:106] Creating Layer res5a_branch2c
I0504 13:47:14.005810 72624 net.cpp:454] res5a_branch2c <- res5a_branch2b
I0504 13:47:14.005822 72624 net.cpp:411] res5a_branch2c -> res5a_branch2c
I0504 13:47:14.009397 72624 net.cpp:150] Setting up res5a_branch2c
I0504 13:47:14.009439 72624 net.cpp:157] Top shape: 20 2048 7 7 (2007040)
I0504 13:47:14.009449 72624 net.cpp:165] Memory required for data: 4459642960
I0504 13:47:14.009460 72624 layer_factory.hpp:77] Creating layer bn5a_branch2c
I0504 13:47:14.009475 72624 net.cpp:106] Creating Layer bn5a_branch2c
I0504 13:47:14.009484 72624 net.cpp:454] bn5a_branch2c <- res5a_branch2c
I0504 13:47:14.009497 72624 net.cpp:397] bn5a_branch2c -> res5a_branch2c (in-place)
I0504 13:47:14.009785 72624 net.cpp:150] Setting up bn5a_branch2c
I0504 13:47:14.009799 72624 net.cpp:157] Top shape: 20 2048 7 7 (2007040)
I0504 13:47:14.009807 72624 net.cpp:165] Memory required for data: 4467671120
I0504 13:47:14.009822 72624 layer_factory.hpp:77] Creating layer scale5a_branch2c
I0504 13:47:14.009835 72624 net.cpp:106] Creating Layer scale5a_branch2c
I0504 13:47:14.009842 72624 net.cpp:454] scale5a_branch2c <- res5a_branch2c
I0504 13:47:14.009852 72624 net.cpp:397] scale5a_branch2c -> res5a_branch2c (in-place)
I0504 13:47:14.009917 72624 layer_factory.hpp:77] Creating layer scale5a_branch2c
I0504 13:47:14.010084 72624 net.cpp:150] Setting up scale5a_branch2c
I0504 13:47:14.010098 72624 net.cpp:157] Top shape: 20 2048 7 7 (2007040)
I0504 13:47:14.010107 72624 net.cpp:165] Memory required for data: 4475699280
I0504 13:47:14.010118 72624 layer_factory.hpp:77] Creating layer res5a
I0504 13:47:14.010131 72624 net.cpp:106] Creating Layer res5a
I0504 13:47:14.010139 72624 net.cpp:454] res5a <- res5a_branch1
I0504 13:47:14.010149 72624 net.cpp:454] res5a <- res5a_branch2c
I0504 13:47:14.010159 72624 net.cpp:411] res5a -> res5a
I0504 13:47:14.010201 72624 net.cpp:150] Setting up res5a
I0504 13:47:14.010213 72624 net.cpp:157] Top shape: 20 2048 7 7 (2007040)
…
I0504 13:47:14.180301 72624 net.cpp:106] Creating Layer res4d_branch2a
I0504 13:47:14.180308 72624 net.cpp:454] res4d_branch2a <- res4c_res4c_relu_0_split_0
I0504 13:47:14.180321 72624 net.cpp:411] res4d_branch2a -> res4d_branch2a
I0504 13:47:14.181594 72624 net.cpp:150] Setting up res4d_branch2a
I0504 13:47:14.181619 72624 net.cpp:157] Top shape: 16 256 14 14 (802816)
I0504 13:47:14.181628 72624 net.cpp:165] Memory required for data: 3185574080
I0504 13:47:14.181639 72624 layer_factory.hpp:77] Creating layer bn4d_branch2a
I0504 13:47:14.181650 72624 net.cpp:106] Creating Layer bn4d_branch2a
I0504 13:47:14.181658 72624 net.cpp:454] bn4d_branch2a <- res4d_branch2a
I0504 13:47:14.181668 72624 net.cpp:397] bn4d_branch2a -> res4d_branch2a (in-place)
I0504 13:47:14.181928 72624 net.cpp:150] Setting up bn4d_branch2a
I0504 13:47:14.181942 72624 net.cpp:157] Top shape: 16 256 14 14 (802816)
I0504 13:47:14.181951 72624 net.cpp:165] Memory required for data: 3188785344
I0504 13:47:14.181965 72624 layer_factory.hpp:77] Creating layer scale4d_branch2a
I0504 13:47:14.181979 72624 net.cpp:106] Creating Layer scale4d_branch2a
I0504 13:47:14.181988 72624 net.cpp:454] scale4d_branch2a <- res4d_branch2a
I0504 13:47:14.181998 72624 net.cpp:397] scale4d_branch2a -> res4d_branch2a (in-place)
I0504 13:47:14.182059 72624 layer_factory.hpp:77] Creating layer scale4d_branch2a
I0504 13:47:14.182211 72624 net.cpp:150] Setting up scale4d_branch2a
I0504 13:47:14.182224 72624 net.cpp:157] Top shape: 16 256 14 14 (802816)
I0504 13:47:14.182232 72624 net.cpp:165] Memory required for data: 3191996608
I0504 13:47:14.182245 72624 layer_factory.hpp:77] Creating layer res4d_branch2a_relu
I0504 13:47:14.182255 72624 net.cpp:106] Creating Layer res4d_branch2a_relu
I0504 13:47:14.182263 72624 net.cpp:454] res4d_branch2a_relu <- res4d_branch2a
I0504 13:47:14.182276 72624 net.cpp:397] res4d_branch2a_relu -> res4d_branch2a (in-place)
I0504 13:47:14.182287 72624 net.cpp:150] Setting up res4d_branch2a_relu
I0504 13:47:14.182296 72624 net.cpp:157] Top shape: 16 256 14 14 (802816)
I0504 13:47:14.182304 72624 net.cpp:165] Memory required for data: 3195207872
I0504 13:47:14.182312 72624 layer_factory.hpp:77] Creating layer res4d_branch2b
I0504 13:47:14.182327 72624 net.cpp:106] Creating Layer res4d_branch2b
I0504 13:47:14.182333 72624 net.cpp:454] res4d_branch2b <- res4d_branch2a
I0504 13:47:14.182345 72624 net.cpp:411] res4d_branch2b -> res4d_branch2b
I0504 13:47:14.184470 72624 net.cpp:150] Setting up res4d_branch2b
I0504 13:47:14.184496 72624 net.cpp:157] Top shape: 16 256 14 14 (802816)
I0504 13:47:14.184505 72624 net.cpp:165] Memory required for data: 3198419136
I0504 13:47:14.184516 72624 layer_factory.hpp:77] Creating layer bn4d_branch2b
I0504 13:47:14.184531 72624 net.cpp:106] Creating Layer bn4d_branch2b
I0504 13:47:14.184540 72624 net.cpp:454] bn4d_branch2b <- res4d_branch2b
I0504 13:47:14.184559 72624 net.cpp:397] bn4d_branch2b -> res4d_branch2b (in-place)
I0504 13:47:14.184823 72624 net.cpp:150] Setting up bn4d_branch2b
I0504 13:47:14.184836 72624 net.cpp:157] Top shape: 16 256 14 14 (802816)
I0504 13:47:14.184844 72624 net.cpp:165] Memory required for data: 3201630400
I0504 13:47:14.184859 72624 layer_factory.hpp:77] Creating layer scale4d_branch2b
I0504 13:47:14.184870 72624 net.cpp:106] Creating Layer scale4d_branch2b
I0504 13:47:14.184878 72624 net.cpp:454] scale4d_branch2b <- res4d_branch2b
I0504 13:47:14.184895 72624 net.cpp:397] scale4d_branch2b -> res4d_branch2b (in-place)
I0504 13:47:14.184957 72624 layer_factory.hpp:77] Creating layer scale4d_branch2b
I0504 13:47:14.185151 72624 net.cpp:150] Setting up scale4d_branch2b
I0504 13:47:14.185166 72624 net.cpp:157] Top shape: 16 256 14 14 (802816)
I0504 13:47:14.185174 72624 net.cpp:165] Memory required for data: 3204841664
I0504 13:47:14.185186 72624 layer_factory.hpp:77] Creating layer res4d_branch2b_relu
I0504 13:47:14.185199 72624 net.cpp:106] Creating Layer res4d_branch2b_relu
I0504 13:47:14.185205 72624 net.cpp:454] res4d_branch2b_relu <- res4d_branch2b
I0504 13:47:14.185215 72624 net.cpp:397] res4d_branch2b_relu -> res4d_branch2b (in-place)
I0504 13:47:14.185226 72624 net.cpp:150] Setting up res4d_branch2b_relu
I0504 13:47:14.185236 72624 net.cpp:157] Top shape: 16 256 14 14 (802816)
I0504 13:47:14.185243 72624 net.cpp:165] Memory required for data: 3208052928
I0504 13:47:14.185250 72624 layer_factory.hpp:77] Creating layer res4d_branch2c
I0504 13:47:14.185266 72624 net.cpp:106] Creating Layer res4d_branch2c
I0504 13:47:14.185274 72624 net.cpp:454] res4d_branch2c <- res4d_branch2b
I0504 13:47:14.185286 72624 net.cpp:411] res4d_branch2c -> res4d_branch2c
I0504 13:47:14.186468 72624 net.cpp:150] Setting up res4d_branch2c
I0504 13:47:14.186489 72624 net.cpp:157] Top shape: 16 1024 14 14 (3211264)
I0504 13:47:14.186497 72624 net.cpp:165] Memory required for data: 3220897984
I0504 13:47:14.186509 72624 layer_factory.hpp:77] Creating layer bn4d_branch2c
I0504 13:47:14.186520 72624 net.cpp:106] Creating Layer bn4d_branch2c
I0504 13:47:14.186528 72624 net.cpp:454] bn4d_branch2c <- res4d_branch2c
I0504 13:47:14.186542 72624 net.cpp:397] bn4d_branch2c -> res4d_branch2c (in-place)
I0504 13:47:14.186820 72624 net.cpp:150] Setting up bn4d_branch2c
I0504 13:47:14.186835 72624 net.cpp:157] Top shape: 16 1024 14 14 (3211264)
I0504 13:47:14.186843 72624 net.cpp:165] Memory required for data: 3233743040
I0504 13:47:14.186857 72624 layer_factory.hpp:77] Creating layer scale4d_branch2c
I0504 13:47:14.186869 72624 net.cpp:106] Creating Layer scale4d_branch2c
I0504 13:47:14.186877 72624 net.cpp:454] scale4d_branch2c <- res4d_branch2c
I0504 13:47:14.186887 72624 net.cpp:397] scale4d_branch2c -> res4d_branch2c (in-place)
I0504 13:47:14.186951 72624 layer_factory.hpp:77] Creating layer scale4d_branch2c
I0504 13:47:14.187120 72624 net.cpp:150] Setting up scale4d_branch2c
I0504 13:47:14.187134 72624 net.cpp:157] Top shape: 16 1024 14 14 (3211264)
I0504 13:47:14.187142 72624 net.cpp:165] Memory required for data: 3246588096
I0504 13:47:14.187155 72624 layer_factory.hpp:77] Creating layer res4d
I0504 13:47:14.187167 72624 net.cpp:106] Creating Layer res4d
I0504 13:47:14.187175 72624 net.cpp:454] res4d <- res4c_res4c_relu_0_split_1
I0504 13:47:14.187185 72624 net.cpp:454] res4d <- res4d_branch2c
I0504 13:47:14.187197 72624 net.cpp:411] res4d -> res4d
I0504 13:47:14.187232 72624 net.cpp:150] Setting up res4d
I0504 13:47:14.187244 72624 net.cpp:157] Top shape: 16 1024 14 14 (3211264)
I0504 13:47:14.187252 72624 net.cpp:165] Memory required for data: 3259433152
I0504 13:47:14.187258 72624 layer_factory.hpp:77] Creating layer res4d_relu
I0504 13:47:14.187271 72624 net.cpp:106] Creating Layer res4d_relu
I0504 13:47:14.187279 72624 net.cpp:454] res4d_relu <- res4d
I0504 13:47:14.187289 72624 net.cpp:397] res4d_relu -> res4d (in-place)
I0504 13:47:14.187300 72624 net.cpp:150] Setting up res4d_relu
I0504 13:47:14.187309 72624 net.cpp:157] Top shape: 16 1024 14 14 (3211264)
I0504 13:47:14.187325 72624 net.cpp:165] Memory required for data: 3272278208
I0504 13:47:14.187332 72624 layer_factory.hpp:77] Creating layer res4d_res4d_relu_0_split
I0504 13:47:14.187353 72624 net.cpp:106] Creating Layer res4d_res4d_relu_0_split
I0504 13:47:14.187361 72624 net.cpp:454] res4d_res4d_relu_0_split <- res4d
I0504 13:47:14.187371 72624 net.cpp:411] res4d_res4d_relu_0_split -> res4d_res4d_relu_0_split_0
I0504 13:47:14.187382 72624 net.cpp:411] res4d_res4d_relu_0_split -> res4d_res4d_relu_0_split_1
I0504 13:47:14.187436 72624 net.cpp:150] Setting up res4d_res4d_relu_0_split
I0504 13:47:14.187449 72624 net.cpp:157] Top shape: 16 1024 14 14 (3211264)
I0504 13:47:14.187459 72624 net.cpp:157] Top shape: 16 1024 14 14 (3211264)
I0504 13:47:14.187466 72624 net.cpp:165] Memory required for data: 3297968320
I0504 13:47:14.187474 72624 layer_factory.hpp:77] Creating layer res4e_branch2a
I0504 13:47:14.187487 72624 net.cpp:106] Creating Layer res4e_branch2a
I0504 13:47:14.187495 72624 net.cpp:454] res4e_branch2a <- res4d_res4d_relu_0_split_0
I0504 13:47:14.187507 72624 net.cpp:411] res4e_branch2a -> res4e_branch2a
I0504 13:47:14.188696 72624 net.cpp:150] Setting up res4e_branch2a
I0504 13:47:14.188719 72624 net.cpp:157] Top shape: 16 256 14 14 (802816)
I0504 13:47:14.188726 72624 net.cpp:165] Memory required for data: 3301179584
I0504 13:47:14.188738 72624 layer_factory.hpp:77] Creating layer bn4e_branch2a
I0504 13:47:14.188750 72624 net.cpp:106] Creating Layer bn4e_branch2a
I0504 13:47:14.188760 72624 net.cpp:454] bn4e_branch2a <- res4e_branch2a
I0504 13:47:14.188771 72624 net.cpp:397] bn4e_branch2a -> res4e_branch2a (in-place)
I0504 13:47:14.189034 72624 net.cpp:150] Setting up bn4e_branch2a
I0504 13:47:14.189050 72624 net.cpp:157] Top shape: 16 256 14 14 (802816)
I0504 13:47:14.189059 72624 net.cpp:165] Memory required for data: 3304390848
I0504 13:47:14.189074 72624 layer_factory.hpp:77] Creating layer scale4e_branch2a
I0504 13:47:14.189085 72624 net.cpp:106] Creating Layer scale4e_branch2a
I0504 13:47:14.189093 72624 net.cpp:454] scale4e_branch2a <- res4e_branch2a
I0504 13:47:14.189103 72624 net.cpp:397] scale4e_branch2a -> res4e_branch2a (in-place)
I0504 13:47:14.189167 72624 layer_factory.hpp:77] Creating layer scale4e_branch2a
I0504 13:47:14.189319 72624 net.cpp:150] Setting up scale4e_branch2a
I0504 13:47:14.189333 72624 net.cpp:157] Top shape: 16 256 14 14 (802816)
I0504 13:47:14.189342 72624 net.cpp:165] Memory required for data: 3307602112
I0504 13:47:14.189353 72624 layer_factory.hpp:77] Creating layer res4e_branch2a_relu
I0504 13:47:14.189366 72624 net.cpp:106] Creating Layer res4e_branch2a_relu
I0504 13:47:14.189374 72624 net.cpp:454] res4e_branch2a_relu <- res4e_branch2a
I0504 13:47:14.189384 72624 net.cpp:397] res4e_branch2a_relu -> res4e_branch2a (in-place)
I0504 13:47:14.189395 72624 net.cpp:150] Setting up res4e_branch2a_relu
I0504 13:47:14.189406 72624 net.cpp:157] Top shape: 16 256 14 14 (802816)
I0504 13:47:14.189414 72624 net.cpp:165] Memory required for data: 3310813376
I0504 13:47:14.189420 72624 layer_factory.hpp:77] Creating layer res4e_branch2b
I0504 13:47:14.189435 72624 net.cpp:106] Creating Layer res4e_branch2b
I0504 13:47:14.189442 72624 net.cpp:454] res4e_branch2b <- res4e_branch2a
I0504 13:47:14.189453 72624 net.cpp:411] res4e_branch2b -> res4e_branch2b
I0504 13:47:14.191566 72624 net.cpp:150] Setting up res4e_branch2b
I0504 13:47:14.191592 72624 net.cpp:157] Top shape: 16 256 14 14 (802816)
I0504 13:47:14.191601 72624 net.cpp:165] Memory required for data: 3314024640
I0504 13:47:14.191611 72624 layer_factory.hpp:77] Creating layer bn4e_branch2b
I0504 13:47:14.191625 72624 net.cpp:106] Creating Layer bn4e_branch2b
I0504 13:47:14.191634 72624 net.cpp:454] bn4e_branch2b <- res4e_branch2b
I0504 13:47:14.191644 72624 net.cpp:397] bn4e_branch2b -> res4e_branch2b (in-place)
I0504 13:47:14.191905 72624 net.cpp:150] Setting up bn4e_branch2b
I0504 13:47:14.191920 72624 net.cpp:157] Top shape: 16 256 14 14 (802816)
I0504 13:47:14.191927 72624 net.cpp:165] Memory required for data: 3317235904
I0504 13:47:14.191951 72624 layer_factory.hpp:77] Creating layer scale4e_branch2b
I0504 13:47:14.191964 72624 net.cpp:106] Creating Layer scale4e_branch2b
I0504 13:47:14.191972 72624 net.cpp:454] scale4e_branch2b <- res4e_branch2b
I0504 13:47:14.191982 72624 net.cpp:397] scale4e_branch2b -> res4e_branch2b (in-place)
I0504 13:47:14.192045 72624 layer_factory.hpp:77] Creating layer scale4e_branch2b
I0504 13:47:14.192203 72624 net.cpp:150] Setting up scale4e_branch2b
I0504 13:47:14.192217 72624 net.cpp:157] Top shape: 16 256 14 14 (802816)
I0504 13:47:14.192225 72624 net.cpp:165] Memory required for data: 3320447168
I0504 13:47:14.192237 72624 layer_factory.hpp:77] Creating layer res4e_branch2b_relu
I0504 13:47:14.192248 72624 net.cpp:106] Creating Layer res4e_branch2b_relu
I0504 13:47:14.192255 72624 net.cpp:454] res4e_branch2b_relu <- res4e_branch2b
I0504 13:47:14.192267 72624 net.cpp:397] res4e_branch2b_relu -> res4e_branch2b (in-place)
I0504 13:47:14.192278 72624 net.cpp:150] Setting up res4e_branch2b_relu
I0504 13:47:14.192288 72624 net.cpp:157] Top shape: 16 256 14 14 (802816)
I0504 13:47:14.192296 72624 net.cpp:165] Memory required for data: 3323658432
I0504 13:47:14.192302 72624 layer_factory.hpp:77] Creating layer res4e_branch2c
I0504 13:47:14.192314 72624 net.cpp:106] Creating Layer res4e_branch2c
I0504 13:47:14.192322 72624 net.cpp:454] res4e_branch2c <- res4e_branch2b
I0504 13:47:14.192333 72624 net.cpp:411] res4e_branch2c -> res4e_branch2c
I0504 13:47:14.193569 72624 net.cpp:150] Setting up res4e_branch2c
I0504 13:47:14.193591 72624 net.cpp:157] Top shape: 16 1024 14 14 (3211264)
I0504 13:47:14.193599 72624 net.cpp:165] Memory required for data: 3336503488
I0504 13:47:14.193609 72624 layer_factory.hpp:77] Creating layer bn4e_branch2c
I0504 13:47:14.193624 72624 net.cpp:106] Creating Layer bn4e_branch2c
I0504 13:47:14.193632 72624 net.cpp:454] bn4e_branch2c <- res4e_branch2c
I0504 13:47:14.193642 72624 net.cpp:397] bn4e_branch2c -> res4e_branch2c (in-place)
I0504 13:47:14.193928 72624 net.cpp:150] Setting up bn4e_branch2c
I0504 13:47:14.193943 72624 net.cpp:157] Top shape: 16 1024 14 14 (3211264)
I0504 13:47:14.193950 72624 net.cpp:165] Memory required for data: 3349348544
I0504 13:47:14.193965 72624 layer_factory.hpp:77] Creating layer scale4e_branch2c
I0504 13:47:14.193976 72624 net.cpp:106] Creating Layer scale4e_branch2c
I0504 13:47:14.193984 72624 net.cpp:454] scale4e_branch2c <- res4e_branch2c
I0504 13:47:14.193994 72624 net.cpp:397] scale4e_branch2c -> res4e_branch2c (in-place)
I0504 13:47:14.194057 72624 layer_factory.hpp:77] Creating layer scale4e_branch2c
I0504 13:47:14.194222 72624 net.cpp:150] Setting up scale4e_branch2c
I0504 13:47:14.194236 72624 net.cpp:157] Top shape: 16 1024 14 14 (3211264)
I0504 13:47:14.194244 72624 net.cpp:165] Memory required for data: 3362193600
I0504 13:47:14.194255 72624 layer_factory.hpp:77] Creating layer res4e
I0504 13:47:14.194269 72624 net.cpp:106] Creating Layer res4e
I0504 13:47:14.194278 72624 net.cpp:454] res4e <- res4d_res4d_relu_0_split_1
I0504 13:47:14.194286 72624 net.cpp:454] res4e <- res4e_branch2c
I0504 13:47:14.194295 72624 net.cpp:411] res4e -> res4e
I0504 13:47:14.194334 72624 net.cpp:150] Setting up res4e
I0504 13:47:14.194346 72624 net.cpp:157] Top shape: 16 1024 14 14 (3211264)
I0504 13:47:14.194353 72624 net.cpp:165] Memory required for data: 3375038656
I0504 13:47:14.194360 72624 layer_factory.hpp:77] Creating layer res4e_relu
I0504 13:47:14.194370 72624 net.cpp:106] Creating Layer res4e_relu
I0504 13:47:14.194377 72624 net.cpp:454] res4e_relu <- res4e
I0504 13:47:14.194388 72624 net.cpp:397] res4e_relu -> res4e (in-place)
I0504 13:47:14.194399 72624 net.cpp:150] Setting up res4e_relu
I0504 13:47:14.194409 72624 net.cpp:157] Top shape: 16 1024 14 14 (3211264)
I0504 13:47:14.194416 72624 net.cpp:165] Memory required for data: 3387883712
I0504 13:47:14.194423 72624 layer_factory.hpp:77] Creating layer res4e_res4e_relu_0_split
I0504 13:47:14.194433 72624 net.cpp:106] Creating Layer res4e_res4e_relu_0_split
I0504 13:47:14.194440 72624 net.cpp:454] res4e_res4e_relu_0_split <- res4e
I0504 13:47:14.194458 72624 net.cpp:411] res4e_res4e_relu_0_split -> res4e_res4e_relu_0_split_0
I0504 13:47:14.194469 72624 net.cpp:411] res4e_res4e_relu_0_split -> res4e_res4e_relu_0_split_1
I0504 13:47:14.194525 72624 net.cpp:150] Setting up res4e_res4e_relu_0_split
I0504 13:47:14.194536 72624 net.cpp:157] Top shape: 16 1024 14 14 (3211264)
I0504 13:47:14.194545 72624 net.cpp:157] Top shape: 16 1024 14 14 (3211264)
I0504 13:47:14.194552 72624 net.cpp:165] Memory required for data: 3413573824
I0504 13:47:14.194560 72624 layer_factory.hpp:77] Creating layer res4f_branch2a
I0504 13:47:14.194574 72624 net.cpp:106] Creating Layer res4f_branch2a
I0504 13:47:14.194581 72624 net.cpp:454] res4f_branch2a <- res4e_res4e_relu_0_split_0
I0504 13:47:14.194592 72624 net.cpp:411] res4f_branch2a -> res4f_branch2a
I0504 13:47:14.195801 72624 net.cpp:150] Setting up res4f_branch2a
I0504 13:47:14.195822 72624 net.cpp:157] Top shape: 16 256 14 14 (802816)
I0504 13:47:14.195829 72624 net.cpp:165] Memory required for data: 3416785088
I0504 13:47:14.195840 72624 layer_factory.hpp:77] Creating layer bn4f_branch2a
I0504 13:47:14.195852 72624 net.cpp:106] Creating Layer bn4f_branch2a
I0504 13:47:14.195859 72624 net.cpp:454] bn4f_branch2a <- res4f_branch2a
I0504 13:47:14.195871 72624 net.cpp:397] bn4f_branch2a -> res4f_branch2a (in-place)
I0504 13:47:14.196135 72624 net.cpp:150] Setting up bn4f_branch2a
I0504 13:47:14.196148 72624 net.cpp:157] Top shape: 16 256 14 14 (802816)
I0504 13:47:14.196156 72624 net.cpp:165] Memory required for data: 3419996352
I0504 13:47:14.196171 72624 layer_factory.hpp:77] Creating layer scale4f_branch2a
I0504 13:47:14.196182 72624 net.cpp:106] Creating Layer scale4f_branch2a
I0504 13:47:14.196188 72624 net.cpp:454] scale4f_branch2a <- res4f_branch2a
I0504 13:47:14.196198 72624 net.cpp:397] scale4f_branch2a -> res4f_branch2a (in-place)
I0504 13:47:14.196260 72624 layer_factory.hpp:77] Creating layer scale4f_branch2a
I0504 13:47:14.196415 72624 net.cpp:150] Setting up scale4f_branch2a
I0504 13:47:14.196429 72624 net.cpp:157] Top shape: 16 256 14 14 (802816)
I0504 13:47:14.196446 72624 net.cpp:165] Memory required for data: 3423207616
I0504 13:47:14.196460 72624 layer_factory.hpp:77] Creating layer res4f_branch2a_relu
I0504 13:47:14.196470 72624 net.cpp:106] Creating Layer res4f_branch2a_relu
I0504 13:47:14.196477 72624 net.cpp:454] res4f_branch2a_relu <- res4f_branch2a
I0504 13:47:14.196490 72624 net.cpp:397] res4f_branch2a_relu -> res4f_branch2a (in-place)
I0504 13:47:14.196501 72624 net.cpp:150] Setting up res4f_branch2a_relu
I0504 13:47:14.196511 72624 net.cpp:157] Top shape: 16 256 14 14 (802816)
I0504 13:47:14.196517 72624 net.cpp:165] Memory required for data: 3426418880
I0504 13:47:14.196524 72624 layer_factory.hpp:77] Creating layer res4f_branch2b
I0504 13:47:14.196537 72624 net.cpp:106] Creating Layer res4f_branch2b
I0504 13:47:14.196543 72624 net.cpp:454] res4f_branch2b <- res4f_branch2a
I0504 13:47:14.196555 72624 net.cpp:411] res4f_branch2b -> res4f_branch2b
I0504 13:47:14.198786 72624 net.cpp:150] Setting up res4f_branch2b
I0504 13:47:14.198815 72624 net.cpp:157] Top shape: 16 256 14 14 (802816)
I0504 13:47:14.198824 72624 net.cpp:165] Memory required for data: 3429630144
I0504 13:47:14.198835 72624 layer_factory.hpp:77] Creating layer bn4f_branch2b
I0504 13:47:14.198848 72624 net.cpp:106] Creating Layer bn4f_branch2b
I0504 13:47:14.198856 72624 net.cpp:454] bn4f_branch2b <- res4f_branch2b
I0504 13:47:14.198868 72624 net.cpp:397] bn4f_branch2b -> res4f_branch2b (in-place)
I0504 13:47:14.199136 72624 net.cpp:150] Setting up bn4f_branch2b
I0504 13:47:14.199148 72624 net.cpp:157] Top shape: 16 256 14 14 (802816)
I0504 13:47:14.199156 72624 net.cpp:165] Memory required for data: 3432841408
I0504 13:47:14.199172 72624 layer_factory.hpp:77] Creating layer scale4f_branch2b
I0504 13:47:14.199185 72624 net.cpp:106] Creating Layer scale4f_branch2b
I0504 13:47:14.199193 72624 net.cpp:454] scale4f_branch2b <- res4f_branch2b
I0504 13:47:14.199203 72624 net.cpp:397] scale4f_branch2b -> res4f_branch2b (in-place)
I0504 13:47:14.199276 72624 layer_factory.hpp:77] Creating layer scale4f_branch2b
I0504 13:47:14.199442 72624 net.cpp:150] Setting up scale4f_branch2b
I0504 13:47:14.199456 72624 net.cpp:157] Top shape: 16 256 14 14 (802816)
I0504 13:47:14.199465 72624 net.cpp:165] Memory required for data: 3436052672
I0504 13:47:14.199476 72624 layer_factory.hpp:77] Creating layer res4f_branch2b_relu
I0504 13:47:14.199487 72624 net.cpp:106] Creating Layer res4f_branch2b_relu
I0504 13:47:14.199496 72624 net.cpp:454] res4f_branch2b_relu <- res4f_branch2b
I0504 13:47:14.199507 72624 net.cpp:397] res4f_branch2b_relu -> res4f_branch2b (in-place)
I0504 13:47:14.199518 72624 net.cpp:150] Setting up res4f_branch2b_relu
I0504 13:47:14.199528 72624 net.cpp:157] Top shape: 16 256 14 14 (802816)
I0504 13:47:14.199535 72624 net.cpp:165] Memory required for data: 3439263936
I0504 13:47:14.199542 72624 layer_factory.hpp:77] Creating layer res4f_branch2c
I0504 13:47:14.199558 72624 net.cpp:106] Creating Layer res4f_branch2c
I0504 13:47:14.199564 72624 net.cpp:454] res4f_branch2c <- res4f_branch2b
I0504 13:47:14.199574 72624 net.cpp:411] res4f_branch2c -> res4f_branch2c
I0504 13:47:14.200788 72624 net.cpp:150] Setting up res4f_branch2c
I0504 13:47:14.200810 72624 net.cpp:157] Top shape: 16 1024 14 14 (3211264)
I0504 13:47:14.200819 72624 net.cpp:165] Memory required for data: 3452108992
I0504 13:47:14.200829 72624 layer_factory.hpp:77] Creating layer bn4f_branch2c
I0504 13:47:14.200847 72624 net.cpp:106] Creating Layer bn4f_branch2c
I0504 13:47:14.200855 72624 net.cpp:454] bn4f_branch2c <- res4f_branch2c
I0504 13:47:14.200865 72624 net.cpp:397] bn4f_branch2c -> res4f_branch2c (in-place)
I0504 13:47:14.201149 72624 net.cpp:150] Setting up bn4f_branch2c
I0504 13:47:14.201164 72624 net.cpp:157] Top shape: 16 1024 14 14 (3211264)
I0504 13:47:14.201171 72624 net.cpp:165] Memory required for data: 3464954048
I0504 13:47:14.201239 72624 layer_factory.hpp:77] Creating layer scale4f_branch2c
I0504 13:47:14.201253 72624 net.cpp:106] Creating Layer scale4f_branch2c
I0504 13:47:14.201261 72624 net.cpp:454] scale4f_branch2c <- res4f_branch2c
I0504 13:47:14.201272 72624 net.cpp:397] scale4f_branch2c -> res4f_branch2c (in-place)
I0504 13:47:14.201339 72624 layer_factory.hpp:77] Creating layer scale4f_branch2c
I0504 13:47:14.201517 72624 net.cpp:150] Setting up scale4f_branch2c
I0504 13:47:14.201531 72624 net.cpp:157] Top shape: 16 1024 14 14 (3211264)
I0504 13:47:14.201539 72624 net.cpp:165] Memory required for data: 3477799104
I0504 13:47:14.201550 72624 layer_factory.hpp:77] Creating layer res4f
I0504 13:47:14.201565 72624 net.cpp:106] Creating Layer res4f
I0504 13:47:14.201572 72624 net.cpp:454] res4f <- res4e_res4e_relu_0_split_1
I0504 13:47:14.201581 72624 net.cpp:454] res4f <- res4f_branch2c
I0504 13:47:14.201593 72624 net.cpp:411] res4f -> res4f
I0504 13:47:14.201630 72624 net.cpp:150] Setting up res4f
I0504 13:47:14.201642 72624 net.cpp:157] Top shape: 16 1024 14 14 (3211264)
I0504 13:47:14.201649 72624 net.cpp:165] Memory required for data: 3490644160
I0504 13:47:14.201658 72624 layer_factory.hpp:77] Creating layer res4f_relu
I0504 13:47:14.201670 72624 net.cpp:106] Creating Layer res4f_relu
I0504 13:47:14.201678 72624 net.cpp:454] res4f_relu <- res4f
I0504 13:47:14.201686 72624 net.cpp:397] res4f_relu -> res4f (in-place)
I0504 13:47:14.201699 72624 net.cpp:150] Setting up res4f_relu
I0504 13:47:14.201707 72624 net.cpp:157] Top shape: 16 1024 14 14 (3211264)
I0504 13:47:14.201714 72624 net.cpp:165] Memory required for data: 3503489216
I0504 13:47:14.201721 72624 layer_factory.hpp:77] Creating layer res4f_res4f_relu_0_split
I0504 13:47:14.201731 72624 net.cpp:106] Creating Layer res4f_res4f_relu_0_split
I0504 13:47:14.201738 72624 net.cpp:454] res4f_res4f_relu_0_split <- res4f
I0504 13:47:14.201750 72624 net.cpp:411] res4f_res4f_relu_0_split -> res4f_res4f_relu_0_split_0
I0504 13:47:14.201773 72624 net.cpp:411] res4f_res4f_relu_0_split -> res4f_res4f_relu_0_split_1
I0504 13:47:14.201829 72624 net.cpp:150] Setting up res4f_res4f_relu_0_split
I0504 13:47:14.201848 72624 net.cpp:157] Top shape: 16 1024 14 14 (3211264)
I0504 13:47:14.201858 72624 net.cpp:157] Top shape: 16 1024 14 14 (3211264)
I0504 13:47:14.201865 72624 net.cpp:165] Memory required for data: 3529179328
I0504 13:47:14.201872 72624 layer_factory.hpp:77] Creating layer res5a_branch1
I0504 13:47:14.201885 72624 net.cpp:106] Creating Layer res5a_branch1
I0504 13:47:14.201892 72624 net.cpp:454] res5a_branch1 <- res4f_res4f_relu_0_split_0
I0504 13:47:14.201906 72624 net.cpp:411] res5a_branch1 -> res5a_branch1
I0504 13:47:14.208554 72624 net.cpp:150] Setting up res5a_branch1
I0504 13:47:14.208601 72624 net.cpp:157] Top shape: 16 2048 7 7 (1605632)
I0504 13:47:14.208611 72624 net.cpp:165] Memory required for data: 3535601856
I0504 13:47:14.208626 72624 layer_factory.hpp:77] Creating layer bn5a_branch1
I0504 13:47:14.208642 72624 net.cpp:106] Creating Layer bn5a_branch1
I0504 13:47:14.208652 72624 net.cpp:454] bn5a_branch1 <- res5a_branch1
I0504 13:47:14.208665 72624 net.cpp:397] bn5a_branch1 -> res5a_branch1 (in-place)
I0504 13:47:14.208998 72624 net.cpp:150] Setting up bn5a_branch1
I0504 13:47:14.209013 72624 net.cpp:157] Top shape: 16 2048 7 7 (1605632)
I0504 13:47:14.209022 72624 net.cpp:165] Memory required for data: 3542024384
I0504 13:47:14.209038 72624 layer_factory.hpp:77] Creating layer scale5a_branch1
I0504 13:47:14.209051 72624 net.cpp:106] Creating Layer scale5a_branch1
I0504 13:47:14.209059 72624 net.cpp:454] scale5a_branch1 <- res5a_branch1
I0504 13:47:14.209069 72624 net.cpp:397] scale5a_branch1 -> res5a_branch1 (in-place)
I0504 13:47:14.209142 72624 layer_factory.hpp:77] Creating layer scale5a_branch1
I0504 13:47:14.209322 72624 net.cpp:150] Setting up scale5a_branch1
I0504 13:47:14.209337 72624 net.cpp:157] Top shape: 16 2048 7 7 (1605632)
I0504 13:47:14.209345 72624 net.cpp:165] Memory required for data: 3548446912
I0504 13:47:14.209358 72624 layer_factory.hpp:77] Creating layer res5a_branch2a
I0504 13:47:14.209377 72624 net.cpp:106] Creating Layer res5a_branch2a
I0504 13:47:14.209386 72624 net.cpp:454] res5a_branch2a <- res4f_res4f_relu_0_split_1
I0504 13:47:14.209398 72624 net.cpp:411] res5a_branch2a -> res5a_branch2a
I0504 13:47:14.211427 72624 net.cpp:150] Setting up res5a_branch2a
I0504 13:47:14.211452 72624 net.cpp:157] Top shape: 16 512 7 7 (401408)
I0504 13:47:14.211460 72624 net.cpp:165] Memory required for data: 3550052544
I0504 13:47:14.211472 72624 layer_factory.hpp:77] Creating layer bn5a_branch2a
I0504 13:47:14.211486 72624 net.cpp:106] Creating Layer bn5a_branch2a
I0504 13:47:14.211495 72624 net.cpp:454] bn5a_branch2a <- res5a_branch2a
I0504 13:47:14.211506 72624 net.cpp:397] bn5a_branch2a -> res5a_branch2a (in-place)
I0504 13:47:14.211801 72624 net.cpp:150] Setting up bn5a_branch2a
I0504 13:47:14.211815 72624 net.cpp:157] Top shape: 16 512 7 7 (401408)
I0504 13:47:14.211823 72624 net.cpp:165] Memory required for data: 3551658176
I0504 13:47:14.211839 72624 layer_factory.hpp:77] Creating layer scale5a_branch2a
I0504 13:47:14.211851 72624 net.cpp:106] Creating Layer scale5a_branch2a
I0504 13:47:14.211859 72624 net.cpp:454] scale5a_branch2a <- res5a_branch2a
I0504 13:47:14.211872 72624 net.cpp:397] scale5a_branch2a -> res5a_branch2a (in-place)
I0504 13:47:14.211936 72624 layer_factory.hpp:77] Creating layer scale5a_branch2a
I0504 13:47:14.212110 72624 net.cpp:150] Setting up scale5a_branch2a
I0504 13:47:14.212126 72624 net.cpp:157] Top shape: 16 512 7 7 (401408)
I0504 13:47:14.212134 72624 net.cpp:165] Memory required for data: 3553263808
I0504 13:47:14.212147 72624 layer_factory.hpp:77] Creating layer res5a_branch2a_relu
I0504 13:47:14.212159 72624 net.cpp:106] Creating Layer res5a_branch2a_relu
I0504 13:47:14.212167 72624 net.cpp:454] res5a_branch2a_relu <- res5a_branch2a
I0504 13:47:14.212177 72624 net.cpp:397] res5a_branch2a_relu -> res5a_branch2a (in-place)
I0504 13:47:14.212188 72624 net.cpp:150] Setting up res5a_branch2a_relu
I0504 13:47:14.212198 72624 net.cpp:157] Top shape: 16 512 7 7 (401408)
I0504 13:47:14.212204 72624 net.cpp:165] Memory required for data: 3554869440
I0504 13:47:14.212224 72624 layer_factory.hpp:77] Creating layer res5a_branch2b
I0504 13:47:14.212240 72624 net.cpp:106] Creating Layer res5a_branch2b
I0504 13:47:14.212249 72624 net.cpp:454] res5a_branch2b <- res5a_branch2a
I0504 13:47:14.212260 72624 net.cpp:411] res5a_branch2b -> res5a_branch2b
I0504 13:47:14.220052 72624 net.cpp:150] Setting up res5a_branch2b
I0504 13:47:14.220108 72624 net.cpp:157] Top shape: 16 512 7 7 (401408)
I0504 13:47:14.220118 72624 net.cpp:165] Memory required for data: 3556475072
I0504 13:47:14.220132 72624 layer_factory.hpp:77] Creating layer bn5a_branch2b
I0504 13:47:14.220150 72624 net.cpp:106] Creating Layer bn5a_branch2b
I0504 13:47:14.220161 72624 net.cpp:454] bn5a_branch2b <- res5a_branch2b
I0504 13:47:14.220175 72624 net.cpp:397] bn5a_branch2b -> res5a_branch2b (in-place)
I0504 13:47:14.220502 72624 net.cpp:150] Setting up bn5a_branch2b
I0504 13:47:14.220520 72624 net.cpp:157] Top shape: 16 512 7 7 (401408)
I0504 13:47:14.220527 72624 net.cpp:165] Memory required for data: 3558080704
I0504 13:47:14.220542 72624 layer_factory.hpp:77] Creating layer scale5a_branch2b
I0504 13:47:14.220556 72624 net.cpp:106] Creating Layer scale5a_branch2b
I0504 13:47:14.220563 72624 net.cpp:454] scale5a_branch2b <- res5a_branch2b
I0504 13:47:14.220573 72624 net.cpp:397] scale5a_branch2b -> res5a_branch2b (in-place)
I0504 13:47:14.220648 72624 layer_factory.hpp:77] Creating layer scale5a_branch2b
I0504 13:47:14.220826 72624 net.cpp:150] Setting up scale5a_branch2b
I0504 13:47:14.220841 72624 net.cpp:157] Top shape: 16 512 7 7 (401408)
I0504 13:47:14.220849 72624 net.cpp:165] Memory required for data: 3559686336
I0504 13:47:14.220860 72624 layer_factory.hpp:77] Creating layer res5a_branch2b_relu
I0504 13:47:14.220872 72624 net.cpp:106] Creating Layer res5a_branch2b_relu
I0504 13:47:14.220880 72624 net.cpp:454] res5a_branch2b_relu <- res5a_branch2b
I0504 13:47:14.220891 72624 net.cpp:397] res5a_branch2b_relu -> res5a_branch2b (in-place)
I0504 13:47:14.220902 72624 net.cpp:150] Setting up res5a_branch2b_relu
I0504 13:47:14.220912 72624 net.cpp:157] Top shape: 16 512 7 7 (401408)
I0504 13:47:14.220919 72624 net.cpp:165] Memory required for data: 3561291968
I0504 13:47:14.220927 72624 layer_factory.hpp:77] Creating layer res5a_branch2c
I0504 13:47:14.220940 72624 net.cpp:106] Creating Layer res5a_branch2c
I0504 13:47:14.220947 72624 net.cpp:454] res5a_branch2c <- res5a_branch2b
I0504 13:47:14.220964 72624 net.cpp:411] res5a_branch2c -> res5a_branch2c
I0504 13:47:14.224575 72624 net.cpp:150] Setting up res5a_branch2c
I0504 13:47:14.224614 72624 net.cpp:157] Top shape: 16 2048 7 7 (1605632)
I0504 13:47:14.224623 72624 net.cpp:165] Memory required for data: 3567714496
I0504 13:47:14.224635 72624 layer_factory.hpp:77] Creating layer bn5a_branch2c
I0504 13:47:14.224650 72624 net.cpp:106] Creating Layer bn5a_branch2c
I0504 13:47:14.224659 72624 net.cpp:454] bn5a_branch2c <- res5a_branch2c
I0504 13:47:14.224670 72624 net.cpp:397] bn5a_branch2c -> res5a_branch2c (in-place)
I0504 13:47:14.224982 72624 net.cpp:150] Setting up bn5a_branch2c
I0504 13:47:14.224997 72624 net.cpp:157] Top shape: 16 2048 7 7 (1605632)
I0504 13:47:14.225004 72624 net.cpp:165] Memory required for data: 3574137024
I0504 13:47:14.225019 72624 layer_factory.hpp:77] Creating layer scale5a_branch2c
I0504 13:47:14.225034 72624 net.cpp:106] Creating Layer scale5a_branch2c
I0504 13:47:14.225042 72624 net.cpp:454] scale5a_branch2c <- res5a_branch2c
I0504 13:47:14.225052 72624 net.cpp:397] scale5a_branch2c -> res5a_branch2c (in-place)
I0504 13:47:14.225127 72624 layer_factory.hpp:77] Creating layer scale5a_branch2c
I0504 13:47:14.225311 72624 net.cpp:150] Setting up scale5a_branch2c
I0504 13:47:14.225324 72624 net.cpp:157] Top shape: 16 2048 7 7 (1605632)
I0504 13:47:14.225332 72624 net.cpp:165] Memory required for data: 3580559552
I0504 13:47:14.225343 72624 layer_factory.hpp:77] Creating layer res5a
I0504 13:47:14.225354 72624 net.cpp:106] Creating Layer res5a
I0504 13:47:14.225363 72624 net.cpp:454] res5a <- res5a_branch1
I0504 13:47:14.225383 72624 net.cpp:454] res5a <- res5a_branch2c
I0504 13:47:14.225397 72624 net.cpp:411] res5a -> res5a
I0504 13:47:14.225438 72624 net.cpp:150] Setting up res5a
I0504 13:47:14.225451 72624 net.cpp:157] Top shape: 16 2048 7 7 (1605632)
I0504 13:47:14.225460 72624 net.cpp:165] Memory required for data: 3586982080
I0504 13:47:14.225466 72624 layer_factory.hpp:77] Creating layer res5a_relu
I0504 13:47:14.225477 72624 net.cpp:106] Creating Layer res5a_relu
I0504 13:47:14.225484 72624 net.cpp:454] res5a_relu <- res5a
I0504 13:47:14.225492 72624 net.cpp:397] res5a_relu -> res5a (in-place)
I0504 13:47:14.225503 72624 net.cpp:150] Setting up res5a_relu
I0504 13:47:14.225513 72624 net.cpp:157] Top shape: 16 2048 7 7 (1605632)
I0504 13:47:14.225519 72624 net.cpp:165] Memory required for data: 3593404608
I0504 13:47:14.225527 72624 layer_factory.hpp:77] Creating layer res5a_res5a_relu_0_split
I0504 13:47:14.225539 72624 net.cpp:106] Creating Layer res5a_res5a_relu_0_split
I0504 13:47:14.225546 72624 net.cpp:454] res5a_res5a_relu_0_split <- res5a
I0504 13:47:14.225556 72624 net.cpp:411] res5a_res5a_relu_0_split -> res5a_res5a_relu_0_split_0
I0504 13:47:14.225567 72624 net.cpp:411] res5a_res5a_relu_0_split -> res5a_res5a_relu_0_split_1
I0504 13:47:14.225623 72624 net.cpp:150] Setting up res5a_res5a_relu_0_split
I0504 13:47:14.225636 72624 net.cpp:157] Top shape: 16 2048 7 7 (1605632)
I0504 13:47:14.225646 72624 net.cpp:157] Top shape: 16 2048 7 7 (1605632)
I0504 13:47:14.225652 72624 net.cpp:165] Memory required for data: 3606249664
I0504 13:47:14.225659 72624 layer_factory.hpp:77] Creating layer res5b_branch2a
I0504 13:47:14.225673 72624 net.cpp:106] Creating Layer res5b_branch2a
I0504 13:47:14.225680 72624 net.cpp:454] res5b_branch2a <- res5a_res5a_relu_0_split_0
I0504 13:47:14.225692 72624 net.cpp:411] res5b_branch2a -> res5b_branch2a
I0504 13:47:14.229249 72624 net.cpp:150] Setting up res5b_branch2a
I0504 13:47:14.229287 72624 net.cpp:157] Top shape: 16 512 7 7 (401408)
I0504 13:47:14.229295 72624 net.cpp:165] Memory required for data: 3607855296
I0504 13:47:14.229307 72624 layer_factory.hpp:77] Creating layer bn5b_branch2a
I0504 13:47:14.229324 72624 net.cpp:106] Creating Layer bn5b_branch2a
I0504 13:47:14.229333 72624 net.cpp:454] bn5b_branch2a <- res5b_branch2a
I0504 13:47:14.229344 72624 net.cpp:397] bn5b_branch2a -> res5b_branch2a (in-place)
I0504 13:47:14.229676 72624 net.cpp:150] Setting up bn5b_branch2a
I0504 13:47:14.229691 72624 net.cpp:157] Top shape: 16 512 7 7 (401408)
I0504 13:47:14.229699 72624 net.cpp:165] Memory required for data: 3609460928
I0504 13:47:14.229713 72624 layer_factory.hpp:77] Creating layer scale5b_branch2a
I0504 13:47:14.229728 72624 net.cpp:106] Creating Layer scale5b_branch2a
I0504 13:47:14.229737 72624 net.cpp:454] scale5b_branch2a <- res5b_branch2a
I0504 13:47:14.229745 72624 net.cpp:397] scale5b_branch2a -> res5b_branch2a (in-place)
I0504 13:47:14.229814 72624 layer_factory.hpp:77] Creating layer scale5b_branch2a
I0504 13:47:14.229989 72624 net.cpp:150] Setting up scale5b_branch2a
I0504 13:47:14.230002 72624 net.cpp:157] Top shape: 16 512 7 7 (401408)
I0504 13:47:14.230010 72624 net.cpp:165] Memory required for data: 3611066560
I0504 13:47:14.230021 72624 layer_factory.hpp:77] Creating layer res5b_branch2a_relu
I0504 13:47:14.230032 72624 net.cpp:106] Creating Layer res5b_branch2a_relu
I0504 13:47:14.230041 72624 net.cpp:454] res5b_branch2a_relu <- res5b_branch2a
I0504 13:47:14.230049 72624 net.cpp:397] res5b_branch2a_relu -> res5b_branch2a (in-place)
I0504 13:47:14.230060 72624 net.cpp:150] Setting up res5b_branch2a_relu
I0504 13:47:14.230070 72624 net.cpp:157] Top shape: 16 512 7 7 (401408)
I0504 13:47:14.230077 72624 net.cpp:165] Memory required for data: 3612672192
I0504 13:47:14.230084 72624 layer_factory.hpp:77] Creating layer res5b_branch2b
I0504 13:47:14.230100 72624 net.cpp:106] Creating Layer res5b_branch2b
I0504 13:47:14.230108 72624 net.cpp:454] res5b_branch2b <- res5b_branch2a
I0504 13:47:14.230121 72624 net.cpp:411] res5b_branch2b -> res5b_branch2b
I0504 13:47:14.237932 72624 net.cpp:150] Setting up res5b_branch2b
I0504 13:47:14.238003 72624 net.cpp:157] Top shape: 16 512 7 7 (401408)
I0504 13:47:14.238013 72624 net.cpp:165] Memory required for data: 3614277824
I0504 13:47:14.238028 72624 layer_factory.hpp:77] Creating layer bn5b_branch2b
I0504 13:47:14.238045 72624 net.cpp:106] Creating Layer bn5b_branch2b
I0504 13:47:14.238055 72624 net.cpp:454] bn5b_branch2b <- res5b_branch2b
I0504 13:47:14.238071 72624 net.cpp:397] bn5b_branch2b -> res5b_branch2b (in-place)
I0504 13:47:14.238400 72624 net.cpp:150] Setting up bn5b_branch2b
I0504 13:47:14.238415 72624 net.cpp:157] Top shape: 16 512 7 7 (401408)
I0504 13:47:14.238423 72624 net.cpp:165] Memory required for data: 3615883456
I0504 13:47:14.238437 72624 layer_factory.hpp:77] Creating layer scale5b_branch2b
I0504 13:47:14.238451 72624 net.cpp:106] Creating Layer scale5b_branch2b
I0504 13:47:14.238459 72624 net.cpp:454] scale5b_branch2b <- res5b_branch2b
I0504 13:47:14.238469 72624 net.cpp:397] scale5b_branch2b -> res5b_branch2b (in-place)
I0504 13:47:14.238543 72624 layer_factory.hpp:77] Creating layer scale5b_branch2b
I0504 13:47:14.238719 72624 net.cpp:150] Setting up scale5b_branch2b
I0504 13:47:14.238734 72624 net.cpp:157] Top shape: 16 512 7 7 (401408)
I0504 13:47:14.238741 72624 net.cpp:165] Memory required for data: 3617489088
I0504 13:47:14.238754 72624 layer_factory.hpp:77] Creating layer res5b_branch2b_relu
I0504 13:47:14.238765 72624 net.cpp:106] Creating Layer res5b_branch2b_relu
I0504 13:47:14.238775 72624 net.cpp:454] res5b_branch2b_relu <- res5b_branch2b
I0504 13:47:14.238785 72624 net.cpp:397] res5b_branch2b_relu -> res5b_branch2b (in-place)
I0504 13:47:14.238795 72624 net.cpp:150] Setting up res5b_branch2b_relu
I0504 13:47:14.238806 72624 net.cpp:157] Top shape: 16 512 7 7 (401408)
I0504 13:47:14.238812 72624 net.cpp:165] Memory required for data: 3619094720
I0504 13:47:14.238819 72624 layer_factory.hpp:77] Creating layer res5b_branch2c
I0504 13:47:14.238833 72624 net.cpp:106] Creating Layer res5b_branch2c
I0504 13:47:14.238839 72624 net.cpp:454] res5b_branch2c <- res5b_branch2b
I0504 13:47:14.238852 72624 net.cpp:411] res5b_branch2c -> res5b_branch2c
I0504 13:47:14.242422 72624 net.cpp:150] Setting up res5b_branch2c
I0504 13:47:14.242463 72624 net.cpp:157] Top shape: 16 2048 7 7 (1605632)
I0504 13:47:14.242471 72624 net.cpp:165] Memory required for data: 3625517248
I0504 13:47:14.242483 72624 layer_factory.hpp:77] Creating layer bn5b_branch2c
I0504 13:47:14.242497 72624 net.cpp:106] Creating Layer bn5b_branch2c
I0504 13:47:14.242506 72624 net.cpp:454] bn5b_branch2c <- res5b_branch2c
I0504 13:47:14.242516 72624 net.cpp:397] bn5b_branch2c -> res5b_branch2c (in-place)
I0504 13:47:14.242830 72624 net.cpp:150] Setting up bn5b_branch2c
I0504 13:47:14.242843 72624 net.cpp:157] Top shape: 16 2048 7 7 (1605632)
I0504 13:47:14.242851 72624 net.cpp:165] Memory required for data: 3631939776
I0504 13:47:14.242867 72624 layer_factory.hpp:77] Creating layer scale5b_branch2c
I0504 13:47:14.242880 72624 net.cpp:106] Creating Layer scale5b_branch2c
I0504 13:47:14.242888 72624 net.cpp:454] scale5b_branch2c <- res5b_branch2c
I0504 13:47:14.242897 72624 net.cpp:397] scale5b_branch2c -> res5b_branch2c (in-place)
I0504 13:47:14.242970 72624 layer_factory.hpp:77] Creating layer scale5b_branch2c
I0504 13:47:14.243152 72624 net.cpp:150] Setting up scale5b_branch2c
I0504 13:47:14.243167 72624 net.cpp:157] Top shape: 16 2048 7 7 (1605632)
I0504 13:47:14.243175 72624 net.cpp:165] Memory required for data: 3638362304
I0504 13:47:14.243186 72624 layer_factory.hpp:77] Creating layer res5b
I0504 13:47:14.243199 72624 net.cpp:106] Creating Layer res5b
I0504 13:47:14.243207 72624 net.cpp:454] res5b <- res5a_res5a_relu_0_split_1
I0504 13:47:14.243216 72624 net.cpp:454] res5b <- res5b_branch2c
I0504 13:47:14.243227 72624 net.cpp:411] res5b -> res5b
I0504 13:47:14.243266 72624 net.cpp:150] Setting up res5b
I0504 13:47:14.243278 72624 net.cpp:157] Top shape: 16 2048 7 7 (1605632)
I0504 13:47:14.243285 72624 net.cpp:165] Memory required for data: 3644784832
I0504 13:47:14.243304 72624 layer_factory.hpp:77] Creating layer res5b_relu
I0504 13:47:14.243315 72624 net.cpp:106] Creating Layer res5b_relu
I0504 13:47:14.243322 72624 net.cpp:454] res5b_relu <- res5b
I0504 13:47:14.243333 72624 net.cpp:397] res5b_relu -> res5b (in-place)
I0504 13:47:14.243345 72624 net.cpp:150] Setting up res5b_relu
I0504 13:47:14.243355 72624 net.cpp:157] Top shape: 16 2048 7 7 (1605632)
I0504 13:47:14.243360 72624 net.cpp:165] Memory required for data: 3651207360
I0504 13:47:14.243367 72624 layer_factory.hpp:77] Creating layer res5b_res5b_relu_0_split
I0504 13:47:14.243377 72624 net.cpp:106] Creating Layer res5b_res5b_relu_0_split
I0504 13:47:14.243383 72624 net.cpp:454] res5b_res5b_relu_0_split <- res5b
I0504 13:47:14.243392 72624 net.cpp:411] res5b_res5b_relu_0_split -> res5b_res5b_relu_0_split_0
I0504 13:47:14.243403 72624 net.cpp:411] res5b_res5b_relu_0_split -> res5b_res5b_relu_0_split_1
I0504 13:47:14.243465 72624 net.cpp:150] Setting up res5b_res5b_relu_0_split
I0504 13:47:14.243477 72624 net.cpp:157] Top shape: 16 2048 7 7 (1605632)
I0504 13:47:14.243486 72624 net.cpp:157] Top shape: 16 2048 7 7 (1605632)
I0504 13:47:14.243494 72624 net.cpp:165] Memory required for data: 3664052416
I0504 13:47:14.243500 72624 layer_factory.hpp:77] Creating layer res5c_branch2a
I0504 13:47:14.243515 72624 net.cpp:106] Creating Layer res5c_branch2a
I0504 13:47:14.243521 72624 net.cpp:454] res5c_branch2a <- res5b_res5b_relu_0_split_0
I0504 13:47:14.243535 72624 net.cpp:411] res5c_branch2a -> res5c_branch2a
I0504 13:47:14.247102 72624 net.cpp:150] Setting up res5c_branch2a
I0504 13:47:14.247143 72624 net.cpp:157] Top shape: 16 512 7 7 (401408)
I0504 13:47:14.247153 72624 net.cpp:165] Memory required for data: 3665658048
I0504 13:47:14.247164 72624 layer_factory.hpp:77] Creating layer bn5c_branch2a
I0504 13:47:14.247179 72624 net.cpp:106] Creating Layer bn5c_branch2a
I0504 13:47:14.247189 72624 net.cpp:454] bn5c_branch2a <- res5c_branch2a
I0504 13:47:14.247200 72624 net.cpp:397] bn5c_branch2a -> res5c_branch2a (in-place)
I0504 13:47:14.247503 72624 net.cpp:150] Setting up bn5c_branch2a
I0504 13:47:14.247516 72624 net.cpp:157] Top shape: 16 512 7 7 (401408)
I0504 13:47:14.247524 72624 net.cpp:165] Memory required for data: 3667263680
I0504 13:47:14.247539 72624 layer_factory.hpp:77] Creating layer scale5c_branch2a
I0504 13:47:14.247555 72624 net.cpp:106] Creating Layer scale5c_branch2a
I0504 13:47:14.247562 72624 net.cpp:454] scale5c_branch2a <- res5c_branch2a
I0504 13:47:14.247572 72624 net.cpp:397] scale5c_branch2a -> res5c_branch2a (in-place)
I0504 13:47:14.247643 72624 layer_factory.hpp:77] Creating layer scale5c_branch2a
I0504 13:47:14.247850 72624 net.cpp:150] Setting up scale5c_branch2a
I0504 13:47:14.247865 72624 net.cpp:157] Top shape: 16 512 7 7 (401408)
I0504 13:47:14.247872 72624 net.cpp:165] Memory required for data: 3668869312
I0504 13:47:14.247884 72624 layer_factory.hpp:77] Creating layer res5c_branch2a_relu
I0504 13:47:14.247896 72624 net.cpp:106] Creating Layer res5c_branch2a_relu
I0504 13:47:14.247903 72624 net.cpp:454] res5c_branch2a_relu <- res5c_branch2a
I0504 13:47:14.247915 72624 net.cpp:397] res5c_branch2a_relu -> res5c_branch2a (in-place)
I0504 13:47:14.247926 72624 net.cpp:150] Setting up res5c_branch2a_relu
I0504 13:47:14.247936 72624 net.cpp:157] Top shape: 16 512 7 7 (401408)
I0504 13:47:14.247943 72624 net.cpp:165] Memory required for data: 3670474944
I0504 13:47:14.247951 72624 layer_factory.hpp:77] Creating layer res5c_branch2b
I0504 13:47:14.247966 72624 net.cpp:106] Creating Layer res5c_branch2b
I0504 13:47:14.247972 72624 net.cpp:454] res5c_branch2b <- res5c_branch2a
I0504 13:47:14.247982 72624 net.cpp:411] res5c_branch2b -> res5c_branch2b
I0504 13:47:14.255761 72624 net.cpp:150] Setting up res5c_branch2b
I0504 13:47:14.255823 72624 net.cpp:157] Top shape: 16 512 7 7 (401408)
I0504 13:47:14.255832 72624 net.cpp:165] Memory required for data: 3672080576
I0504 13:47:14.255848 72624 layer_factory.hpp:77] Creating layer bn5c_branch2b
I0504 13:47:14.255869 72624 net.cpp:106] Creating Layer bn5c_branch2b
I0504 13:47:14.255893 72624 net.cpp:454] bn5c_branch2b <- res5c_branch2b
I0504 13:47:14.255908 72624 net.cpp:397] bn5c_branch2b -> res5c_branch2b (in-place)
I0504 13:47:14.256243 72624 net.cpp:150] Setting up bn5c_branch2b
I0504 13:47:14.256258 72624 net.cpp:157] Top shape: 16 512 7 7 (401408)
I0504 13:47:14.256266 72624 net.cpp:165] Memory required for data: 3673686208
I0504 13:47:14.256283 72624 layer_factory.hpp:77] Creating layer scale5c_branch2b
I0504 13:47:14.256296 72624 net.cpp:106] Creating Layer scale5c_branch2b
I0504 13:47:14.256304 72624 net.cpp:454] scale5c_branch2b <- res5c_branch2b
I0504 13:47:14.256325 72624 net.cpp:397] scale5c_branch2b -> res5c_branch2b (in-place)
I0504 13:47:14.256398 72624 layer_factory.hpp:77] Creating layer scale5c_branch2b
I0504 13:47:14.256588 72624 net.cpp:150] Setting up scale5c_branch2b
I0504 13:47:14.256608 72624 net.cpp:157] Top shape: 16 512 7 7 (401408)
I0504 13:47:14.256616 72624 net.cpp:165] Memory required for data: 3675291840
I0504 13:47:14.256628 72624 layer_factory.hpp:77] Creating layer res5c_branch2b_relu
I0504 13:47:14.256641 72624 net.cpp:106] Creating Layer res5c_branch2b_relu
I0504 13:47:14.256649 72624 net.cpp:454] res5c_branch2b_relu <- res5c_branch2b
I0504 13:47:14.256659 72624 net.cpp:397] res5c_branch2b_relu -> res5c_branch2b (in-place)
I0504 13:47:14.256670 72624 net.cpp:150] Setting up res5c_branch2b_relu
I0504 13:47:14.256680 72624 net.cpp:157] Top shape: 16 512 7 7 (401408)
I0504 13:47:14.256686 72624 net.cpp:165] Memory required for data: 3676897472
I0504 13:47:14.256695 72624 layer_factory.hpp:77] Creating layer res5c_branch2c
I0504 13:47:14.256711 72624 net.cpp:106] Creating Layer res5c_branch2c
I0504 13:47:14.256719 72624 net.cpp:454] res5c_branch2c <- res5c_branch2b
I0504 13:47:14.256731 72624 net.cpp:411] res5c_branch2c -> res5c_branch2c
I0504 13:47:14.260360 72624 net.cpp:150] Setting up res5c_branch2c
I0504 13:47:14.260398 72624 net.cpp:157] Top shape: 16 2048 7 7 (1605632)
I0504 13:47:14.260407 72624 net.cpp:165] Memory required for data: 3683320000
I0504 13:47:14.260419 72624 layer_factory.hpp:77] Creating layer bn5c_branch2c
I0504 13:47:14.260443 72624 net.cpp:106] Creating Layer bn5c_branch2c
I0504 13:47:14.260457 72624 net.cpp:454] bn5c_branch2c <- res5c_branch2c
I0504 13:47:14.260471 72624 net.cpp:397] bn5c_branch2c -> res5c_branch2c (in-place)
I0504 13:47:14.260792 72624 net.cpp:150] Setting up bn5c_branch2c
I0504 13:47:14.260807 72624 net.cpp:157] Top shape: 16 2048 7 7 (1605632)
I0504 13:47:14.260815 72624 net.cpp:165] Memory required for data: 3689742528
I0504 13:47:14.260830 72624 layer_factory.hpp:77] Creating layer scale5c_branch2c
I0504 13:47:14.260843 72624 net.cpp:106] Creating Layer scale5c_branch2c
I0504 13:47:14.260851 72624 net.cpp:454] scale5c_branch2c <- res5c_branch2c
I0504 13:47:14.260862 72624 net.cpp:397] scale5c_branch2c -> res5c_branch2c (in-place)
I0504 13:47:14.261746 72624 layer_factory.hpp:77] Creating layer scale5c_branch2c
I0504 13:47:14.261945 72624 net.cpp:150] Setting up scale5c_branch2c
I0504 13:47:14.261965 72624 net.cpp:157] Top shape: 16 2048 7 7 (1605632)
I0504 13:47:14.261972 72624 net.cpp:165] Memory required for data: 3696165056
I0504 13:47:14.261986 72624 layer_factory.hpp:77] Creating layer res5c
I0504 13:47:14.261998 72624 net.cpp:106] Creating Layer res5c
I0504 13:47:14.262007 72624 net.cpp:454] res5c <- res5b_res5b_relu_0_split_1
I0504 13:47:14.262017 72624 net.cpp:454] res5c <- res5c_branch2c
I0504 13:47:14.262028 72624 net.cpp:411] res5c -> res5c
I0504 13:47:14.262073 72624 net.cpp:150] Setting up res5c
I0504 13:47:14.262085 72624 net.cpp:157] Top shape: 16 2048 7 7 (1605632)
I0504 13:47:14.262094 72624 net.cpp:165] Memory required for data: 3702587584
I0504 13:47:14.262101 72624 layer_factory.hpp:77] Creating layer res5c_relu
I0504 13:47:14.262115 72624 net.cpp:106] Creating Layer res5c_relu
I0504 13:47:14.262123 72624 net.cpp:454] res5c_relu <- res5c
I0504 13:47:14.262133 72624 net.cpp:397] res5c_relu -> res5c (in-place)
I0504 13:47:14.262145 72624 net.cpp:150] Setting up res5c_relu
I0504 13:47:14.262161 72624 net.cpp:157] Top shape: 16 2048 7 7 (1605632)
I0504 13:47:14.262169 72624 net.cpp:165] Memory required for data: 3709010112
I0504 13:47:14.262176 72624 layer_factory.hpp:77] Creating layer pool5
I0504 13:47:14.262188 72624 net.cpp:106] Creating Layer pool5
I0504 13:47:14.262195 72624 net.cpp:454] pool5 <- res5c
I0504 13:47:14.262209 72624 net.cpp:411] pool5 -> pool5
I0504 13:47:14.262251 72624 net.cpp:150] Setting up pool5
I0504 13:47:14.262264 72624 net.cpp:157] Top shape: 16 2048 1 1 (32768)
I0504 13:47:14.262272 72624 net.cpp:165] Memory required for data: 3709141184
I0504 13:47:14.262279 72624 layer_factory.hpp:77] Creating layer fc497
I0504 13:47:14.262291 72624 net.cpp:106] Creating Layer fc497
I0504 13:47:14.262300 72624 net.cpp:454] fc497 <- pool5
I0504 13:47:14.262310 72624 net.cpp:411] fc497 -> fc497
I0504 13:47:14.266417 72624 net.cpp:150] Setting up fc497
I0504 13:47:14.266463 72624 net.cpp:157] Top shape: 16 497 (7952)
I0504 13:47:14.266471 72624 net.cpp:165] Memory required for data: 3709172992
I0504 13:47:14.266487 72624 layer_factory.hpp:77] Creating layer fc497_fc497_0_split
I0504 13:47:14.266505 72624 net.cpp:106] Creating Layer fc497_fc497_0_split
I0504 13:47:14.266515 72624 net.cpp:454] fc497_fc497_0_split <- fc497
I0504 13:47:14.266527 72624 net.cpp:411] fc497_fc497_0_split -> fc497_fc497_0_split_0
I0504 13:47:14.266542 72624 net.cpp:411] fc497_fc497_0_split -> fc497_fc497_0_split_1
I0504 13:47:14.266605 72624 net.cpp:150] Setting up fc497_fc497_0_split
I0504 13:47:14.266618 72624 net.cpp:157] Top shape: 16 497 (7952)
I0504 13:47:14.266628 72624 net.cpp:157] Top shape: 16 497 (7952)
I0504 13:47:14.266634 72624 net.cpp:165] Memory required for data: 3709236608
I0504 13:47:14.266643 72624 layer_factory.hpp:77] Creating layer accuracy
I0504 13:47:14.266654 72624 net.cpp:106] Creating Layer accuracy
I0504 13:47:14.266661 72624 net.cpp:454] accuracy <- fc497_fc497_0_split_0
I0504 13:47:14.266670 72624 net.cpp:454] accuracy <- label_data_1_split_0
I0504 13:47:14.266685 72624 net.cpp:411] accuracy -> accuracy
…
