…
I0429 13:50:08.374919 47706 net.cpp:322] The NetState phase (0) differed from the phase (1) specified by a rule in layer accuracy
I0429 13:50:08.375566 47706 net.cpp:49] Initializing net from parameters: 
name: "ResNet-50"
state {
  phase: TRAIN
}
layer {
  name: "data"
  type: "Data"
  top: "data"
  top: "label"
  include {
    phase: TRAIN
  }
  transform_param {
    mirror: true
    crop_size: 224
    mean_value: 103
    mean_value: 116
    mean_value: 123
  }
  data_param {
    source: "/home/hzhang57/NEW_WORLD/Project_4_ROOT/CODES/SIN_346/Param/SIN-train.leveldb"
    batch_size: 20
    backend: LMDB
  }
}
layer {
  name: "conv1"
  type: "Convolution"
  bottom: "data"
  top: "conv1"
  convolution_param {
    num_output: 64
    pad: 3
    kernel_size: 7
    stride: 2
  }
}
layer {
  name: "bn_conv1"
  type: "BatchNorm"
  bottom: "conv1"
  top: "conv1"
  batch_norm_param {
    use_global_stats: true
  }
}
layer {
  name: "scale_conv1"
  type: "Scale"
  bottom: "conv1"
  top: "conv1"
  scale_param {
    bias_term: true
  }
}
layer {
  name: "conv1_relu"
  type: "ReLU"
  bottom: "conv1"
  top: "conv1"
}
layer {
  name: "pool1"
  type: "Pooling"
  bottom: "conv1"
  top: "pool1"
  pooling_param {
    pool: MAX
    kernel_size: 3
    stride: 2
  }
}
layer {
  name: "res2a_branch1"
  type: "Convolution"
  bottom: "pool1"
  top: "res2a_branch1"
  convolution_param {
    num_output: 256
    bias_term: false
    pad: 0
    kernel_size: 1
    stride: 1
  }
}
layer {
  name: "bn2a_branch1"
  type: "BatchNorm"
  bottom: "res2a_branch1"
  top: "res2a_branch1"
  batch_norm_param {
    use_global_stats: true
  }
}
layer {
  name: "scale2a_branch1"
  type: "Scale"
  bottom: "res2a_branch1"
  top: "res2a_branch1"
  scale_param {
    bias_term: true
  }
}
layer {
  name: "res2a_branch2a"
  type: "Convolution"
  bottom: "pool1"
  top: "res2a_branch2a"
  convolution_param {
    num_output: 64
    bias_term: false
    pad: 0
    kernel_size: 1
    stride: 1
  }
}
layer {
  name: "bn2a_branch2a"
  type: "BatchNorm"
  bottom: "res2a_branch2a"
  top: "res2a_branch2a"
  batch_norm_param {
    use_global_stats: true
  }
}
layer {
  name: "scale2a_branch2a"
  type: "Scale"
  bottom: "res2a_branch2a"
  top: "res2a_branch2a"
  scale_param {
    bias_term: true
  }
}
layer {
  name: "res2a_branch2a_relu"
  type: "ReLU"
  bottom: "res2a_branch2a"
  top: "res2a_branch2a"
}
layer {
  name: "res2a_branch2b"
  type: "Convolution"
  bottom: "res2a_branch2a"
  top: "res2a_branch2b"
  convolution_param {
    num_output: 64
    bias_term: false
    pad: 1
    kernel_size: 3
    stride: 1
  }
}
layer {
  name: "bn2a_branch2b"
  type: "BatchNorm"
  bottom: "res2a_branch2b"
  top: "res2a_branch2b"
  batch_norm_param {
    use_global_stats: true
  }
}
layer {
  name: "scale2a_branch2b"
  type: "Scale"
  bottom: "res2a_branch2b"
  top: "res2a_branch2b"
  scale_param {
    bias_term: true
  }
}
layer {
  name: "res2a_branch2b_relu"
  type: "ReLU"
  bottom: "res2a_branch2b"
  top: "res2a_branch2b"
}
layer {
  name: "res2a_branch2c"
  type: "Convolution"
  bottom: "res2a_branch2b"
  top: "res2a_branch2c"
  convolution_param {
    num_output: 256
    bias_term: false
    pad: 0
    kernel_size: 1
    stride: 1
  }
}
layer {
  name: "bn2a_branch2c"
  type: "BatchNorm"
  bottom: "res2a_branch2c"
  top: "res2a_branch2c"
  batch_norm_param {
    use_global_stats: true
  }
}
layer {
  name: "scale2a_branch2c"
  type: "Scale"
  bottom: "res2a_branch2c"
  top: "res2a_branch2c"
  scale_param {
    bias_term: true
  }
}
layer {
  name: "res2a"
  type: "Eltwise"
  bottom: "res2a_branch1"
  bottom: "res2a_branch2c"
  top: "res2a"
}
layer {
  name: "res2a_relu"
  type: "ReLU"
  bottom: "res2a"
  top: "res2a"
}
layer {
  name: "res2b_branch2a"
  type: "Convolution"
  bottom: "res2a"
  top: "res2b_branch2a"
  convolution_param {
    num_output: 64
    bias_term: false
    pad: 0
    kernel_size: 1
    stride: 1
  }
}
layer {
  name: "bn2b_branch2a"
  type: "BatchNorm"
  bottom: "res2b_branch2a"
  top: "res2b_branch2a"
  batch_norm_param {
    use_global_stats: true
  }
}
layer {
  name: "scale2b_branch2a"
  type: "Scale"
  bottom: "res2b_branch2a"
  top: "res2b_branch2a"
  scale_param {
    bias_term: true
  }
}
layer {
  name: "res2b_branch2a_relu"
  type: "ReLU"
  bottom: "res2b_branch2a"
  top: "res2b_branch2a"
}
layer {
  name: "res2b_branch2b"
  type: "Convolution"
  bottom: "res2b_branch2a"
  top: "res2b_branch2b"
  convolution_param {
    num_output: 64
    bias_term: false
    pad: 1
    kernel_size: 3
    stride: 1
  }
}
layer {
  name: "bn2b_branch2b"
  type: "BatchNorm"
  bottom: "res2b_branch2b"
  top: "res2b_branch2b"
  batch_norm_param {
    use_global_stats: true
  }
}
layer {
  name: "scale2b_branch2b"
  type: "Scale"
  bottom: "res2b_branch2b"
  top: "res2b_branch2b"
  scale_param {
    bias_term: true
  }
}
layer {
  name: "res2b_branch2b_relu"
  type: "ReLU"
  bottom: "res2b_branch2b"
  top: "res2b_branch2b"
}
layer {
  name: "res2b_branch2c"
  type: "Convolution"
  bottom: "res2b_branch2b"
  top: "res2b_branch2c"
  convolution_param {
    num_output: 256
    bias_term: false
    pad: 0
    kernel_size: 1
    stride: 1
  }
}
layer {
  name: "bn2b_branch2c"
  type: "BatchNorm"
  bottom: "res2b_branch2c"
  top: "res2b_branch2c"
  batch_norm_param {
    use_global_stats: true
  }
}
layer {
  name: "scale2b_branch2c"
  type: "Scale"
  bottom: "res2b_branch2c"
  top: "res2b_branch2c"
  scale_param {
    bias_term: true
  }
}
layer {
  name: "res2b"
  type: "Eltwise"
  bottom: "res2a"
  bottom: "res2b_branch2c"
  top: "res2b"
}
layer {
  name: "res2b_relu"
  type: "ReLU"
  bottom: "res2b"
  top: "res2b"
}
layer {
  name: "res2c_branch2a"
  type: "Convolution"
  bottom: "res2b"
  top: "res2c_branch2a"
  convolution_param {
    num_output: 64
    bias_term: false
    pad: 0
    kernel_size: 1
    stride: 1
  }
}
layer {
  name: "bn2c_branch2a"
  type: "BatchNorm"
  bottom: "res2c_branch2a"
  top: "res2c_branch2a"
  batch_norm_param {
    use_global_stats: true
  }
}
layer {
  name: "scale2c_branch2a"
  type: "Scale"
  bottom: "res2c_branch2a"
  top: "res2c_branch2a"
  scale_param {
    bias_term: true
  }
}
layer {
  name: "res2c_branch2a_relu"
  type: "ReLU"
  bottom: "res2c_branch2a"
  top: "res2c_branch2a"
}
layer {
  name: "res2c_branch2b"
  type: "Convolution"
  bottom: "res2c_branch2a"
  top: "res2c_branch2b"
  convolution_param {
    num_output: 64
    bias_term: false
    pad: 1
    kernel_size: 3
    stride: 1
  }
}
layer {
  name: "bn2c_branch2b"
  type: "BatchNorm"
  bottom: "res2c_branch2b"
  top: "res2c_branch2b"
  batch_norm_param {
    use_global_stats: true
  }
}
layer {
  name: "scale2c_branch2b"
  type: "Scale"
  bottom: "res2c_branch2b"
  top: "res2c_branch2b"
  scale_param {
    bias_term: true
  }
}
layer {
  name: "res2c_branch2b_relu"
  type: "ReLU"
  bottom: "res2c_branch2b"
  top: "res2c_branch2b"
}
layer {
  name: "res2c_branch2c"
  type: "Convolution"
  bottom: "res2c_branch2b"
  top: "res2c_branch2c"
  convolution_param {
    num_output: 256
    bias_term: false
    pad: 0
    kernel_size: 1
    stride: 1
  }
}
layer {
  name: "bn2c_branch2c"
  type: "BatchNorm"
  bottom: "res2c_branch2c"
  top: "res2c_branch2c"
  batch_norm_param {
    use_global_stats: true
  }
}
layer {
  name: "scale2c_branch2c"
  type: "Scale"
  bottom: "res2c_branch2c"
  top: "res2c_branch2c"
  scale_param {
    bias_term: true
  }
}
layer {
  name: "res2c"
  type: "Eltwise"
  bottom: "res2b"
  bottom: "res2c_branch2c"
  top: "res2c"
}
layer {
  name: "res2c_relu"
  type: "ReLU"
  bottom: "res2c"
  top: "res2c"
}
layer {
  name: "res3a_branch1"
  type: "Convolution"
  bottom: "res2c"
  top: "res3a_branch1"
  convolution_param {
    num_output: 512
    bias_term: false
    pad: 0
    kernel_size: 1
    stride: 2
  }
}
layer {
  name: "bn3a_branch1"
  type: "BatchNorm"
  bottom: "res3a_branch1"
  top: "res3a_branch1"
  batch_norm_param {
    use_global_stats: true
  }
}
layer {
  name: "scale3a_branch1"
  type: "Scale"
  bottom: "res3a_branch1"
  top: "res3a_branch1"
  scale_param {
    bias_term: true
  }
}
layer {
  name: "res3a_branch2a"
  type: "Convolution"
  bottom: "res2c"
  top: "res3a_branch2a"
  convolution_param {
    num_output: 128
    bias_term: false
    pad: 0
    kernel_size: 1
    stride: 2
  }
}
layer {
  name: "bn3a_branch2a"
  type: "BatchNorm"
  bottom: "res3a_branch2a"
  top: "res3a_branch2a"
  batch_norm_param {
    use_global_stats: true
  }
}
layer {
  name: "scale3a_branch2a"
  type: "Scale"
  bottom: "res3a_branch2a"
  top: "res3a_branch2a"
  scale_param {
    bias_term: true
  }
}
layer {
  name: "res3a_branch2a_relu"
  type: "ReLU"
  bottom: "res3a_branch2a"
  top: "res3a_branch2a"
}
layer {
  name: "res3a_branch2b"
  type: "Convolution"
  bottom: "res3a_branch2a"
  top: "res3a_branch2b"
  convolution_param {
    num_output: 128
    bias_term: false
    pad: 1
    kernel_size: 3
    stride: 1
  }
}
layer {
  name: "bn3a_branch2b"
  type: "BatchNorm"
  bottom: "res3a_branch2b"
  top: "res3a_branch2b"
  batch_norm_param {
    use_global_stats: true
  }
}
layer {
  name: "scale3a_branch2b"
  type: "Scale"
  bottom: "res3a_branch2b"
  top: "res3a_branch2b"
  scale_param {
    bias_term: true
  }
}
layer {
  name: "res3a_branch2b_relu"
  type: "ReLU"
  bottom: "res3a_branch2b"
  top: "res3a_branch2b"
}
layer {
  name: "res3a_branch2c"
  type: "Convolution"
  bottom: "res3a_branch2b"
  top: "res3a_branch2c"
  convolution_param {
    num_output: 512
    bias_term: false
    pad: 0
    kernel_size: 1
    stride: 1
  }
}
layer {
  name: "bn3a_branch2c"
  type: "BatchNorm"
  bottom: "res3a_branch2c"
  top: "res3a_branch2c"
  batch_norm_param {
    use_global_stats: true
  }
}
layer {
  name: "scale3a_branch2c"
  type: "Scale"
  bottom: "res3a_branch2c"
  top: "res3a_branch2c"
  scale_param {
    bias_term: true
  }
}
layer {
  name: "res3a"
  type: "Eltwise"
  bottom: "res3a_branch1"
  bottom: "res3a_branch2c"
  top: "res3a"
}
layer {
  name: "res3a_relu"
  type: "ReLU"
  bottom: "res3a"
  top: "res3a"
}
layer {
  name: "res3b_branch2a"
  type: "Convolution"
  bottom: "res3a"
  top: "res3b_branch2a"
  convolution_param {
    num_output: 128
    bias_term: false
    pad: 0
    kernel_size: 1
    stride: 1
  }
}
layer {
  name: "bn3b_branch2a"
  type: "BatchNorm"
  bottom: "res3b_branch2a"
  top: "res3b_branch2a"
  batch_norm_param {
    use_global_stats: true
  }
}
layer {
  name: "scale3b_branch2a"
  type: "Scale"
  bottom: "res3b_branch2a"
  top: "res3b_branch2a"
  scale_param {
    bias_term: true
  }
}
layer {
  name: "res3b_branch2a_relu"
  type: "ReLU"
  bottom: "res3b_branch2a"
  top: "res3b_branch2a"
}
layer {
  name: "res3b_branch2b"
  type: "Convolution"
  bottom: "res3b_branch2a"
  top: "res3b_branch2b"
  convolution_param {
    num_output: 128
    bias_term: false
    pad: 1
    kernel_size: 3
    stride: 1
  }
}
layer {
  name: "bn3b_branch2b"
  type: "BatchNorm"
  bottom: "res3b_branch2b"
  top: "res3b_branch2b"
  batch_norm_param {
    use_global_stats: true
  }
}
layer {
  name: "scale3b_branch2b"
  type: "Scale"
  bottom: "res3b_branch2b"
  top: "res3b_branch2b"
  scale_param {
    bias_term: true
  }
}
layer {
  name: "res3b_branch2b_relu"
  type: "ReLU"
  bottom: "res3b_branch2b"
  top: "res3b_branch2b"
}
layer {
  name: "res3b_branch2c"
  type: "Convolution"
  bottom: "res3b_branch2b"
  top: "res3b_branch2c"
  convolution_param {
    num_output: 512
    bias_term: false
    pad: 0
    kernel_size: 1
    stride: 1
  }
}
layer {
  name: "bn3b_branch2c"
  type: "BatchNorm"
  bottom: "res3b_branch2c"
  top: "res3b_branch2c"
  batch_norm_param {
    use_global_stats: true
  }
}
layer {
  name: "scale3b_branch2c"
  type: "Scale"
  bottom: "res3b_branch2c"
  top: "res3b_branch2c"
  scale_param {
    bias_term: true
  }
}
layer {
  name: "res3b"
  type: "Eltwise"
  bottom: "res3a"
  bottom: "res3b_branch2c"
  top: "res3b"
}
layer {
  name: "res3b_relu"
  type: "ReLU"
  bottom: "res3b"
  top: "res3b"
}
layer {
  name: "res3c_branch2a"
  type: "Convolution"
  bottom: "res3b"
  top: "res3c_branch2a"
  convolution_param {
    num_output: 128
    bias_term: false
    pad: 0
    kernel_size: 1
    stride: 1
  }
}
layer {
  name: "bn3c_branch2a"
  type: "BatchNorm"
  bottom: "res3c_branch2a"
  top: "res3c_branch2a"
  batch_norm_param {
    use_global_stats: true
  }
}
layer {
  name: "scale3c_branch2a"
  type: "Scale"
  bottom: "res3c_branch2a"
  top: "res3c_branch2a"
  scale_param {
    bias_term: true
  }
}
layer {
  name: "res3c_branch2a_relu"
  type: "ReLU"
  bottom: "res3c_branch2a"
  top: "res3c_branch2a"
}
layer {
  name: "res3c_branch2b"
  type: "Convolution"
  bottom: "res3c_branch2a"
  top: "res3c_branch2b"
  convolution_param {
    num_output: 128
    bias_term: false
    pad: 1
    kernel_size: 3
    stride: 1
  }
}
layer {
  name: "bn3c_branch2b"
  type: "BatchNorm"
  bottom: "res3c_branch2b"
  top: "res3c_branch2b"
  batch_norm_param {
    use_global_stats: true
  }
}
layer {
  name: "scale3c_branch2b"
  type: "Scale"
  bottom: "res3c_branch2b"
  top: "res3c_branch2b"
  scale_param {
    bias_term: true
  }
}
layer {
  name: "res3c_branch2b_relu"
  type: "ReLU"
  bottom: "res3c_branch2b"
  top: "res3c_branch2b"
}
layer {
  name: "res3c_branch2c"
  type: "Convolution"
  bottom: "res3c_branch2b"
  top: "res3c_branch2c"
  convolution_param {
    num_output: 512
    bias_term: false
    pad: 0
    kernel_size: 1
    stride: 1
  }
}
layer {
  name: "bn3c_branch2c"
  type: "BatchNorm"
  bottom: "res3c_branch2c"
  top: "res3c_branch2c"
  batch_norm_param {
    use_global_stats: true
  }
}
layer {
  name: "scale3c_branch2c"
  type: "Scale"
  bottom: "res3c_branch2c"
  top: "res3c_branch2c"
  scale_param {
    bias_term: true
  }
}
layer {
  name: "res3c"
  type: "Eltwise"
  bottom: "res3b"
  bottom: "res3c_branch2c"
  top: "res3c"
}
layer {
  name: "res3c_relu"
  type: "ReLU"
  bottom: "res3c"
  top: "res3c"
}
layer {
  name: "res3d_branch2a"
  type: "Convolution"
  bottom: "res3c"
  top: "res3d_branch2a"
  convolution_param {
    num_output: 128
    bias_term: false
    pad: 0
    kernel_size: 1
    stride: 1
  }
}
layer {
  name: "bn3d_branch2a"
  type: "BatchNorm"
  bottom: "res3d_branch2a"
  top: "res3d_branch2a"
  batch_norm_param {
    use_global_stats: true
  }
}
layer {
  name: "scale3d_branch2a"
  type: "Scale"
  bottom: "res3d_branch2a"
  top: "res3d_branch2a"
  scale_param {
    bias_term: true
  }
}
layer {
  name: "res3d_branch2a_relu"
  type: "ReLU"
  bottom: "res3d_branch2a"
  top: "res3d_branch2a"
}
layer {
  name: "res3d_branch2b"
  type: "Convolution"
  bottom: "res3d_branch2a"
  top: "res3d_branch2b"
  convolution_param {
    num_output: 128
    bias_term: false
    pad: 1
    kernel_size: 3
    stride: 1
  }
}
layer {
  name: "bn3d_branch2b"
  type: "BatchNorm"
  bottom: "res3d_branch2b"
  top: "res3d_branch2b"
  batch_norm_param {
    use_global_stats: true
  }
}
layer {
  name: "scale3d_branch2b"
  type: "Scale"
  bottom: "res3d_branch2b"
  top: "res3d_branch2b"
  scale_param {
    bias_term: true
  }
}
layer {
  name: "res3d_branch2b_relu"
  type: "ReLU"
  bottom: "res3d_branch2b"
  top: "res3d_branch2b"
}
layer {
  name: "res3d_branch2c"
  type: "Convolution"
  bottom: "res3d_branch2b"
  top: "res3d_branch2c"
  convolution_param {
    num_output: 512
    bias_term: false
    pad: 0
    kernel_size: 1
    stride: 1
  }
}
layer {
  name: "bn3d_branch2c"
  type: "BatchNorm"
  bottom: "res3d_branch2c"
  top: "res3d_branch2c"
  batch_norm_param {
    use_global_stats: true
  }
}
layer {
  name: "scale3d_branch2c"
  type: "Scale"
  bottom: "res3d_branch2c"
  top: "res3d_branch2c"
  scale_param {
    bias_term: true
  }
}
layer {
  name: "res3d"
  type: "Eltwise"
  bottom: "res3c"
  bottom: "res3d_branch2c"
  top: "res3d"
}
layer {
  name: "res3d_relu"
  type: "ReLU"
  bottom: "res3d"
  top: "res3d"
}
layer {
  name: "res4a_branch1"
  type: "Convolution"
  bottom: "res3d"
  top: "res4a_branch1"
  convolution_param {
    num_output: 1024
    bias_term: false
    pad: 0
    kernel_size: 1
    stride: 2
  }
}
layer {
  name: "bn4a_branch1"
  type: "BatchNorm"
  bottom: "res4a_branch1"
  top: "res4a_branch1"
  batch_norm_param {
    use_global_stats: true
  }
}
layer {
  name: "scale4a_branch1"
  type: "Scale"
  bottom: "res4a_branch1"
  top: "res4a_branch1"
  scale_param {
    bias_term: true
  }
}
layer {
  name: "res4a_branch2a"
  type: "Convolution"
  bottom: "res3d"
  top: "res4a_branch2a"
  convolution_param {
    num_output: 256
    bias_term: false
    pad: 0
    kernel_size: 1
    stride: 2
  }
}
layer {
  name: "bn4a_branch2a"
  type: "BatchNorm"
  bottom: "res4a_branch2a"
  top: "res4a_branch2a"
  batch_norm_param {
    use_global_stats: true
  }
}
layer {
  name: "scale4a_branch2a"
  type: "Scale"
  bottom: "res4a_branch2a"
  top: "res4a_branch2a"
  scale_param {
    bias_term: true
  }
}
layer {
  name: "res4a_branch2a_relu"
  type: "ReLU"
  bottom: "res4a_branch2a"
  top: "res4a_branch2a"
}
layer {
  name: "res4a_branch2b"
  type: "Convolution"
  bottom: "res4a_branch2a"
  top: "res4a_branch2b"
  convolution_param {
    num_output: 256
    bias_term: false
    pad: 1
    kernel_size: 3
    stride: 1
  }
}
layer {
  name: "bn4a_branch2b"
  type: "BatchNorm"
  bottom: "res4a_branch2b"
  top: "res4a_branch2b"
  batch_norm_param {
    use_global_stats: true
  }
}
layer {
  name: "scale4a_branch2b"
  type: "Scale"
  bottom: "res4a_branch2b"
  top: "res4a_branch2b"
  scale_param {
    bias_term: true
  }
}
layer {
  name: "res4a_branch2b_relu"
  type: "ReLU"
  bottom: "res4a_branch2b"
  top: "res4a_branch2b"
}
layer {
  name: "res4a_branch2c"
  type: "Convolution"
  bottom: "res4a_branch2b"
  top: "res4a_branch2c"
  convolution_param {
    num_output: 1024
    bias_term: false
    pad: 0
    kernel_size: 1
    stride: 1
  }
}
layer {
  name: "bn4a_branch2c"
  type: "BatchNorm"
  bottom: "res4a_branch2c"
  top: "res4a_branch2c"
  batch_norm_param {
    use_global_stats: true
  }
}
layer {
  name: "scale4a_branch2c"
  type: "Scale"
  bottom: "res4a_branch2c"
  top: "res4a_branch2c"
  scale_param {
    bias_term: true
  }
}
layer {
  name: "res4a"
  type: "Eltwise"
  bottom: "res4a_branch1"
  bottom: "res4a_branch2c"
  top: "res4a"
}
layer {
  name: "res4a_relu"
  type: "ReLU"
  bottom: "res4a"
  top: "res4a"
}
layer {
  name: "res4b_branch2a"
  type: "Convolution"
  bottom: "res4a"
  top: "res4b_branch2a"
  convolution_param {
    num_output: 256
    bias_term: false
    pad: 0
    kernel_size: 1
    stride: 1
  }
}
layer {
  name: "bn4b_branch2a"
  type: "BatchNorm"
  bottom: "res4b_branch2a"
  top: "res4b_branch2a"
  batch_norm_param {
    use_global_stats: true
  }
}
layer {
  name: "scale4b_branch2a"
  type: "Scale"
  bottom: "res4b_branch2a"
  top: "res4b_branch2a"
  scale_param {
    bias_term: true
  }
}
layer {
  name: "res4b_branch2a_relu"
  type: "ReLU"
  bottom: "res4b_branch2a"
  top: "res4b_branch2a"
}
layer {
  name: "res4b_branch2b"
  type: "Convolution"
  bottom: "res4b_branch2a"
  top: "res4b_branch2b"
  convolution_param {
    num_output: 256
    bias_term: false
    pad: 1
    kernel_size: 3
    stride: 1
  }
}
layer {
  name: "bn4b_branch2b"
  type: "BatchNorm"
  bottom: "res4b_branch2b"
  top: "res4b_branch2b"
  batch_norm_param {
    use_global_stats: true
  }
}
layer {
  name: "scale4b_branch2b"
  type: "Scale"
  bottom: "res4b_branch2b"
  top: "res4b_branch2b"
  scale_param {
    bias_term: true
  }
}
layer {
  name: "res4b_branch2b_relu"
  type: "ReLU"
  bottom: "res4b_branch2b"
  top: "res4b_branch2b"
}
layer {
  name: "res4b_branch2c"
  type: "Convolution"
  bottom: "res4b_branch2b"
  top: "res4b_branch2c"
  convolution_param {
    num_output: 1024
    bias_term: false
    pad: 0
    kernel_size: 1
    stride: 1
  }
}
layer {
  name: "bn4b_branch2c"
  type: "BatchNorm"
  bottom: "res4b_branch2c"
  top: "res4b_branch2c"
  batch_norm_param {
    use_global_stats: true
  }
}
layer {
  name: "scale4b_branch2c"
  type: "Scale"
  bottom: "res4b_branch2c"
  top: "res4b_branch2c"
  scale_param {
    bias_term: true
  }
}
layer {
  name: "res4b"
  type: "Eltwise"
  bottom: "res4a"
  bottom: "res4b_branch2c"
  top: "res4b"
}
layer {
  name: "res4b_relu"
  type: "ReLU"
  bottom: "res4b"
  top: "res4b"
}
layer {
  name: "res4c_branch2a"
  type: "Convolution"
  bottom: "res4b"
  top: "res4c_branch2a"
  convolution_param {
    num_output: 256
    bias_term: false
    pad: 0
    kernel_size: 1
    stride: 1
  }
}
layer {
  name: "bn4c_branch2a"
  type: "BatchNorm"
  bottom: "res4c_branch2a"
  top: "res4c_branch2a"
  batch_norm_param {
    use_global_stats: true
  }
}
layer {
  name: "scale4c_branch2a"
  type: "Scale"
  bottom: "res4c_branch2a"
  top: "res4c_branch2a"
  scale_param {
    bias_term: true
  }
}
layer {
  name: "res4c_branch2a_relu"
  type: "ReLU"
  bottom: "res4c_branch2a"
  top: "res4c_branch2a"
}
layer {
  name: "res4c_branch2b"
  type: "Convolution"
  bottom: "res4c_branch2a"
  top: "res4c_branch2b"
  convolution_param {
    num_output: 256
    bias_term: false
    pad: 1
    kernel_size: 3
    stride: 1
  }
}
layer {
  name: "bn4c_branch2b"
  type: "BatchNorm"
  bottom: "res4c_branch2b"
  top: "res4c_branch2b"
  batch_norm_param {
    use_global_stats: true
  }
}
layer {
  name: "scale4c_branch2b"
  type: "Scale"
  bottom: "res4c_branch2b"
  top: "res4c_branch2b"
  scale_param {
    bias_term: true
  }
}
layer {
  name: "res4c_branch2b_relu"
  type: "ReLU"
  bottom: "res4c_branch2b"
  top: "res4c_branch2b"
}
layer {
  name: "res4c_branch2c"
  type: "Convolution"
  bottom: "res4c_branch2b"
  top: "res4c_branch2c"
  convolution_param {
    num_output: 1024
    bias_term: false
    pad: 0
    kernel_size: 1
    stride: 1
  }
}
layer {
  name: "bn4c_branch2c"
  type: "BatchNorm"
  bottom: "res4c_branch2c"
  top: "res4c_branch2c"
  batch_norm_param {
    use_global_stats: true
  }
}
layer {
  name: "scale4c_branch2c"
  type: "Scale"
  bottom: "res4c_branch2c"
  top: "res4c_branch2c"
  scale_param {
    bias_term: true
  }
}
layer {
  name: "res4c"
  type: "Eltwise"
  bottom: "res4b"
  bottom: "res4c_branch2c"
  top: "res4c"
}
layer {
  name: "res4c_relu"
  type: "ReLU"
  bottom: "res4c"
  top: "res4c"
}
layer {
  name: "res4d_branch2a"
  type: "Convolution"
  bottom: "res4c"
  top: "res4d_branch2a"
  convolution_param {
    num_output: 256
    bias_term: false
    pad: 0
    kernel_size: 1
    stride: 1
  }
}
layer {
  name: "bn4d_branch2a"
  type: "BatchNorm"
  bottom: "res4d_branch2a"
  top: "res4d_branch2a"
  batch_norm_param {
    use_global_stats: true
  }
}
layer {
  name: "scale4d_branch2a"
  type: "Scale"
  bottom: "res4d_branch2a"
  top: "res4d_branch2a"
  scale_param {
    bias_term: true
  }
}
layer {
  name: "res4d_branch2a_relu"
  type: "ReLU"
  bottom: "res4d_branch2a"
  top: "res4d_branch2a"
}
layer {
  name: "res4d_branch2b"
  type: "Convolution"
  bottom: "res4d_branch2a"
  top: "res4d_branch2b"
  convolution_param {
    num_output: 256
    bias_term: false
    pad: 1
    kernel_size: 3
    stride: 1
  }
}
layer {
  name: "bn4d_branch2b"
  type: "BatchNorm"
  bottom: "res4d_branch2b"
  top: "res4d_branch2b"
  batch_norm_param {
    use_global_stats: true
  }
}
layer {
  name: "scale4d_branch2b"
  type: "Scale"
  bottom: "res4d_branch2b"
  top: "res4d_branch2b"
  scale_param {
    bias_term: true
  }
}
layer {
  name: "res4d_branch2b_relu"
  type: "ReLU"
  bottom: "res4d_branch2b"
  top: "res4d_branch2b"
}
layer {
  name: "res4d_branch2c"
  type: "Convolution"
  bottom: "res4d_branch2b"
  top: "res4d_branch2c"
  convolution_param {
    num_output: 1024
    bias_term: false
    pad: 0
    kernel_size: 1
    stride: 1
  }
}
layer {
  name: "bn4d_branch2c"
  type: "BatchNorm"
  bottom: "res4d_branch2c"
  top: "res4d_branch2c"
  batch_norm_param {
    use_global_stats: true
  }
}
layer {
  name: "scale4d_branch2c"
  type: "Scale"
  bottom: "res4d_branch2c"
  top: "res4d_branch2c"
  scale_param {
    bias_term: true
  }
}
layer {
  name: "res4d"
  type: "Eltwise"
  bottom: "res4c"
  bottom: "res4d_branch2c"
  top: "res4d"
}
layer {
  name: "res4d_relu"
  type: "ReLU"
  bottom: "res4d"
  top: "res4d"
}
layer {
  name: "res4e_branch2a"
  type: "Convolution"
  bottom: "res4d"
  top: "res4e_branch2a"
  convolution_param {
    num_output: 256
    bias_term: false
    pad: 0
    kernel_size: 1
    stride: 1
  }
}
layer {
  name: "bn4e_branch2a"
  type: "BatchNorm"
  bottom: "res4e_branch2a"
  top: "res4e_branch2a"
  batch_norm_param {
    use_global_stats: true
  }
}
layer {
  name: "scale4e_branch2a"
  type: "Scale"
  bottom: "res4e_branch2a"
  top: "res4e_branch2a"
  scale_param {
    bias_term: true
  }
}
layer {
  name: "res4e_branch2a_relu"
  type: "ReLU"
  bottom: "res4e_branch2a"
  top: "res4e_branch2a"
}
layer {
  name: "res4e_branch2b"
  type: "Convolution"
  bottom: "res4e_branch2a"
  top: "res4e_branch2b"
  convolution_param {
    num_output: 256
    bias_term: false
    pad: 1
    kernel_size: 3
    stride: 1
  }
}
layer {
  name: "bn4e_branch2b"
  type: "BatchNorm"
  bottom: "res4e_branch2b"
  top: "res4e_branch2b"
  batch_norm_param {
    use_global_stats: true
  }
}
layer {
  name: "scale4e_branch2b"
  type: "Scale"
  bottom: "res4e_branch2b"
  top: "res4e_branch2b"
  scale_param {
    bias_term: true
  }
}
layer {
  name: "res4e_branch2b_relu"
  type: "ReLU"
  bottom: "res4e_branch2b"
  top: "res4e_branch2b"
}
layer {
  name: "res4e_branch2c"
  type: "Convolution"
  bottom: "res4e_branch2b"
  top: "res4e_branch2c"
  convolution_param {
    num_output: 1024
    bias_term: false
    pad: 0
    kernel_size: 1
    stride: 1
  }
}
layer {
  name: "bn4e_branch2c"
  type: "BatchNorm"
  bottom: "res4e_branch2c"
  top: "res4e_branch2c"
  batch_norm_param {
    use_global_stats: true
  }
}
layer {
  name: "scale4e_branch2c"
  type: "Scale"
  bottom: "res4e_branch2c"
  top: "res4e_branch2c"
  scale_param {
    bias_term: true
  }
}
layer {
  name: "res4e"
  type: "Eltwise"
  bottom: "res4d"
  bottom: "res4e_branch2c"
  top: "res4e"
}
layer {
  name: "res4e_relu"
  type: "ReLU"
  bottom: "res4e"
  top: "res4e"
}
layer {
  name: "res4f_branch2a"
  type: "Convolution"
  bottom: "res4e"
  top: "res4f_branch2a"
  convolution_param {
    num_output: 256
    bias_term: false
    pad: 0
    kernel_size: 1
    stride: 1
  }
}
layer {
  name: "bn4f_branch2a"
  type: "BatchNorm"
  bottom: "res4f_branch2a"
  top: "res4f_branch2a"
  batch_norm_param {
    use_global_stats: true
  }
}
layer {
  name: "scale4f_branch2a"
  type: "Scale"
  bottom: "res4f_branch2a"
  top: "res4f_branch2a"
  scale_param {
    bias_term: true
  }
}
layer {
  name: "res4f_branch2a_relu"
  type: "ReLU"
  bottom: "res4f_branch2a"
  top: "res4f_branch2a"
}
layer {
  name: "res4f_branch2b"
  type: "Convolution"
  bottom: "res4f_branch2a"
  top: "res4f_branch2b"
  convolution_param {
    num_output: 256
    bias_term: false
    pad: 1
    kernel_size: 3
    stride: 1
  }
}
layer {
  name: "bn4f_branch2b"
  type: "BatchNorm"
  bottom: "res4f_branch2b"
  top: "res4f_branch2b"
  batch_norm_param {
    use_global_stats: true
  }
}
layer {
  name: "scale4f_branch2b"
  type: "Scale"
  bottom: "res4f_branch2b"
  top: "res4f_branch2b"
  scale_param {
    bias_term: true
  }
}
layer {
  name: "res4f_branch2b_relu"
  type: "ReLU"
  bottom: "res4f_branch2b"
  top: "res4f_branch2b"
}
layer {
  name: "res4f_branch2c"
  type: "Convolution"
  bottom: "res4f_branch2b"
  top: "res4f_branch2c"
  convolution_param {
    num_output: 1024
    bias_term: false
    pad: 0
    kernel_size: 1
    stride: 1
  }
}
layer {
  name: "bn4f_branch2c"
  type: "BatchNorm"
  bottom: "res4f_branch2c"
  top: "res4f_branch2c"
  batch_norm_param {
    use_global_stats: true
  }
}
layer {
  name: "scale4f_branch2c"
  type: "Scale"
  bottom: "res4f_branch2c"
  top: "res4f_branch2c"
  scale_param {
    bias_term: true
  }
}
layer {
  name: "res4f"
  type: "Eltwise"
  bottom: "res4e"
  bottom: "res4f_branch2c"
  top: "res4f"
}
layer {
  name: "res4f_relu"
  type: "ReLU"
  bottom: "res4f"
  top: "res4f"
}
layer {
  name: "res5a_branch1"
  type: "Convolution"
  bottom: "res4f"
  top: "res5a_branch1"
  convolution_param {
    num_output: 2048
    bias_term: false
    pad: 0
    kernel_size: 1
    stride: 2
  }
}
layer {
  name: "bn5a_branch1"
  type: "BatchNorm"
  bottom: "res5a_branch1"
  top: "res5a_branch1"
  batch_norm_param {
    use_global_stats: true
  }
}
layer {
  name: "scale5a_branch1"
  type: "Scale"
  bottom: "res5a_branch1"
  top: "res5a_branch1"
  scale_param {
    bias_term: true
  }
}
layer {
  name: "res5a_branch2a"
  type: "Convolution"
  bottom: "res4f"
  top: "res5a_branch2a"
  convolution_param {
    num_output: 512
    bias_term: false
    pad: 0
    kernel_size: 1
    stride: 2
  }
}
layer {
  name: "bn5a_branch2a"
  type: "BatchNorm"
  bottom: "res5a_branch2a"
  top: "res5a_branch2a"
  batch_norm_param {
    use_global_stats: true
  }
}
layer {
  name: "scale5a_branch2a"
  type: "Scale"
  bottom: "res5a_branch2a"
  top: "res5a_branch2a"
  scale_param {
    bias_term: true
  }
}
layer {
  name: "res5a_branch2a_relu"
  type: "ReLU"
  bottom: "res5a_branch2a"
  top: "res5a_branch2a"
}
layer {
  name: "res5a_branch2b"
  type: "Convolution"
  bottom: "res5a_branch2a"
  top: "res5a_branch2b"
  convolution_param {
    num_output: 512
    bias_term: false
    pad: 1
    kernel_size: 3
    stride: 1
  }
}
layer {
  name: "bn5a_branch2b"
  type: "BatchNorm"
  bottom: "res5a_branch2b"
  top: "res5a_branch2b"
  batch_norm_param {
    use_global_stats: true
  }
}
layer {
  name: "scale5a_branch2b"
  type: "Scale"
  bottom: "res5a_branch2b"
  top: "res5a_branch2b"
  scale_param {
    bias_term: true
  }
}
layer {
  name: "res5a_branch2b_relu"
  type: "ReLU"
  bottom: "res5a_branch2b"
  top: "res5a_branch2b"
}
layer {
  name: "res5a_branch2c"
  type: "Convolution"
  bottom: "res5a_branch2b"
  top: "res5a_branch2c"
  convolution_param {
    num_output: 2048
    bias_term: false
    pad: 0
    kernel_size: 1
    stride: 1
  }
}
layer {
  name: "bn5a_branch2c"
  type: "BatchNorm"
  bottom: 
I0429 13:50:08.376286 47706 layer_factory.hpp:77] Creating layer data
I0429 13:50:08.376711 47706 net.cpp:106] Creating Layer data
I0429 13:50:08.376727 47706 net.cpp:411] data -> data
I0429 13:50:08.376761 47706 net.cpp:411] data -> label
I0429 13:50:08.378080 47770 db_lmdb.cpp:38] Opened lmdb /home/hzhang57/NEW_WORLD/Project_4_ROOT/CODES/SIN_346/Param/SIN-train.leveldb
I0429 13:50:08.387006 47706 data_layer.cpp:41] output data size: 20,3,224,224
I0429 13:50:08.406013 47706 net.cpp:150] Setting up data
I0429 13:50:08.406064 47706 net.cpp:157] Top shape: 20 3 224 224 (3010560)
I0429 13:50:08.406071 47706 net.cpp:157] Top shape: 20 (20)
I0429 13:50:08.406075 47706 net.cpp:165] Memory required for data: 12042320
I0429 13:50:08.406088 47706 layer_factory.hpp:77] Creating layer conv1
I0429 13:50:08.406116 47706 net.cpp:106] Creating Layer conv1
I0429 13:50:08.406124 47706 net.cpp:454] conv1 <- data
I0429 13:50:08.406141 47706 net.cpp:411] conv1 -> conv1
I0429 13:50:08.407009 47706 net.cpp:150] Setting up conv1
I0429 13:50:08.407027 47706 net.cpp:157] Top shape: 20 64 112 112 (16056320)
I0429 13:50:08.407032 47706 net.cpp:165] Memory required for data: 76267600
I0429 13:50:08.407047 47706 layer_factory.hpp:77] Creating layer bn_conv1
I0429 13:50:08.407059 47706 net.cpp:106] Creating Layer bn_conv1
I0429 13:50:08.407064 47706 net.cpp:454] bn_conv1 <- conv1
I0429 13:50:08.407071 47706 net.cpp:397] bn_conv1 -> conv1 (in-place)
I0429 13:50:08.407245 47706 net.cpp:150] Setting up bn_conv1
I0429 13:50:08.407258 47706 net.cpp:157] Top shape: 20 64 112 112 (16056320)
I0429 13:50:08.407263 47706 net.cpp:165] Memory required for data: 140492880
I0429 13:50:08.407277 47706 layer_factory.hpp:77] Creating layer scale_conv1
I0429 13:50:08.407290 47706 net.cpp:106] Creating Layer scale_conv1
I0429 13:50:08.407305 47706 net.cpp:454] scale_conv1 <- conv1
I0429 13:50:08.407310 47706 net.cpp:397] scale_conv1 -> conv1 (in-place)
I0429 13:50:08.407353 47706 layer_factory.hpp:77] Creating layer scale_conv1
I0429 13:50:08.407462 47706 net.cpp:150] Setting up scale_conv1
I0429 13:50:08.407472 47706 net.cpp:157] Top shape: 20 64 112 112 (16056320)
I0429 13:50:08.407476 47706 net.cpp:165] Memory required for data: 204718160
I0429 13:50:08.407483 47706 layer_factory.hpp:77] Creating layer conv1_relu
I0429 13:50:08.407495 47706 net.cpp:106] Creating Layer conv1_relu
I0429 13:50:08.407500 47706 net.cpp:454] conv1_relu <- conv1
I0429 13:50:08.407506 47706 net.cpp:397] conv1_relu -> conv1 (in-place)
I0429 13:50:08.407513 47706 net.cpp:150] Setting up conv1_relu
I0429 13:50:08.407519 47706 net.cpp:157] Top shape: 20 64 112 112 (16056320)
I0429 13:50:08.407523 47706 net.cpp:165] Memory required for data: 268943440
I0429 13:50:08.407527 47706 layer_factory.hpp:77] Creating layer pool1
I0429 13:50:08.407536 47706 net.cpp:106] Creating Layer pool1
I0429 13:50:08.407541 47706 net.cpp:454] pool1 <- conv1
I0429 13:50:08.407546 47706 net.cpp:411] pool1 -> pool1
I0429 13:50:08.407593 47706 net.cpp:150] Setting up pool1
I0429 13:50:08.407600 47706 net.cpp:157] Top shape: 20 64 56 56 (4014080)
I0429 13:50:08.407605 47706 net.cpp:165] Memory required for data: 284999760
I0429 13:50:08.407609 47706 layer_factory.hpp:77] Creating layer pool1_pool1_0_split
I0429 13:50:08.407618 47706 net.cpp:106] Creating Layer pool1_pool1_0_split
I0429 13:50:08.407624 47706 net.cpp:454] pool1_pool1_0_split <- pool1
I0429 13:50:08.407629 47706 net.cpp:411] pool1_pool1_0_split -> pool1_pool1_0_split_0
I0429 13:50:08.407639 47706 net.cpp:411] pool1_pool1_0_split -> pool1_pool1_0_split_1
I0429 13:50:08.407665 47706 net.cpp:150] Setting up pool1_pool1_0_split
I0429 13:50:08.407672 47706 net.cpp:157] Top shape: 20 64 56 56 (4014080)
I0429 13:50:08.407678 47706 net.cpp:157] Top shape: 20 64 56 56 (4014080)
I0429 13:50:08.407682 47706 net.cpp:165] Memory required for data: 317112400
I0429 13:50:08.407686 47706 layer_factory.hpp:77] Creating layer res2a_branch1
I0429 13:50:08.407696 47706 net.cpp:106] Creating Layer res2a_branch1
I0429 13:50:08.407701 47706 net.cpp:454] res2a_branch1 <- pool1_pool1_0_split_0
I0429 13:50:08.407707 47706 net.cpp:411] res2a_branch1 -> res2a_branch1
I0429 13:50:08.407845 47706 net.cpp:150] Setting up res2a_branch1
I0429 13:50:08.407855 47706 net.cpp:157] Top shape: 20 256 56 56 (16056320)
I0429 13:50:08.407860 47706 net.cpp:165] Memory required for data: 381337680
I0429 13:50:08.407866 47706 layer_factory.hpp:77] Creating layer bn2a_branch1
I0429 13:50:08.407872 47706 net.cpp:106] Creating Layer bn2a_branch1
I0429 13:50:08.407877 47706 net.cpp:454] bn2a_branch1 <- res2a_branch1
I0429 13:50:08.407883 47706 net.cpp:397] bn2a_branch1 -> res2a_branch1 (in-place)
I0429 13:50:08.408666 47706 net.cpp:150] Setting up bn2a_branch1
I0429 13:50:08.408682 47706 net.cpp:157] Top shape: 20 256 56 56 (16056320)
I0429 13:50:08.408696 47706 net.cpp:165] Memory required for data: 445562960
I0429 13:50:08.408710 47706 layer_factory.hpp:77] Creating layer scale2a_branch1
I0429 13:50:08.408717 47706 net.cpp:106] Creating Layer scale2a_branch1
I0429 13:50:08.408722 47706 net.cpp:454] scale2a_branch1 <- res2a_branch1
I0429 13:50:08.408731 47706 net.cpp:397] scale2a_branch1 -> res2a_branch1 (in-place)
I0429 13:50:08.409994 47706 layer_factory.hpp:77] Creating layer scale2a_branch1
I0429 13:50:08.410092 47706 net.cpp:150] Setting up scale2a_branch1
I0429 13:50:08.410101 47706 net.cpp:157] Top shape: 20 256 56 56 (16056320)
I0429 13:50:08.410106 47706 net.cpp:165] Memory required for data: 509788240
I0429 13:50:08.410114 47706 layer_factory.hpp:77] Creating layer res2a_branch2a
I0429 13:50:08.410122 47706 net.cpp:106] Creating Layer res2a_branch2a
I0429 13:50:08.410127 47706 net.cpp:454] res2a_branch2a <- pool1_pool1_0_split_1
I0429 13:50:08.410137 47706 net.cpp:411] res2a_branch2a -> res2a_branch2a
I0429 13:50:08.410289 47706 net.cpp:150] Setting up res2a_branch2a
I0429 13:50:08.410303 47706 net.cpp:157] Top shape: 20 64 56 56 (4014080)
I0429 13:50:08.410307 47706 net.cpp:165] Memory required for data: 525844560
I0429 13:50:08.410313 47706 layer_factory.hpp:77] Creating layer bn2a_branch2a
I0429 13:50:08.410320 47706 net.cpp:106] Creating Layer bn2a_branch2a
I0429 13:50:08.410326 47706 net.cpp:454] bn2a_branch2a <- res2a_branch2a
I0429 13:50:08.410331 47706 net.cpp:397] bn2a_branch2a -> res2a_branch2a (in-place)
I0429 13:50:08.410473 47706 net.cpp:150] Setting up bn2a_branch2a
I0429 13:50:08.410482 47706 net.cpp:157] Top shape: 20 64 56 56 (4014080)
I0429 13:50:08.410486 47706 net.cpp:165] Memory required for data: 541900880
I0429 13:50:08.410500 47706 layer_factory.hpp:77] Creating layer scale2a_branch2a
I0429 13:50:08.410507 47706 net.cpp:106] Creating Layer scale2a_branch2a
I0429 13:50:08.410511 47706 net.cpp:454] scale2a_branch2a <- res2a_branch2a
I0429 13:50:08.410517 47706 net.cpp:397] scale2a_branch2a -> res2a_branch2a (in-place)
I0429 13:50:08.410554 47706 layer_factory.hpp:77] Creating layer scale2a_branch2a
I0429 13:50:08.410650 47706 net.cpp:150] Setting up scale2a_branch2a
I0429 13:50:08.410663 47706 net.cpp:157] Top shape: 20 64 56 56 (4014080)
I0429 13:50:08.410668 47706 net.cpp:165] Memory required for data: 557957200
I0429 13:50:08.410676 47706 layer_factory.hpp:77] Creating layer res2a_branch2a_relu
I0429 13:50:08.410682 47706 net.cpp:106] Creating Layer res2a_branch2a_relu
I0429 13:50:08.410686 47706 net.cpp:454] res2a_branch2a_relu <- res2a_branch2a
I0429 13:50:08.410691 47706 net.cpp:397] res2a_branch2a_relu -> res2a_branch2a (in-place)
I0429 13:50:08.410698 47706 net.cpp:150] Setting up res2a_branch2a_relu
I0429 13:50:08.410703 47706 net.cpp:157] Top shape: 20 64 56 56 (4014080)
I0429 13:50:08.410707 47706 net.cpp:165] Memory required for data: 574013520
I0429 13:50:08.410712 47706 layer_factory.hpp:77] Creating layer res2a_branch2b
I0429 13:50:08.410722 47706 net.cpp:106] Creating Layer res2a_branch2b
I0429 13:50:08.410725 47706 net.cpp:454] res2a_branch2b <- res2a_branch2a
I0429 13:50:08.410732 47706 net.cpp:411] res2a_branch2b -> res2a_branch2b
I0429 13:50:08.411420 47706 net.cpp:150] Setting up res2a_branch2b
I0429 13:50:08.411437 47706 net.cpp:157] Top shape: 20 64 56 56 (4014080)
I0429 13:50:08.411442 47706 net.cpp:165] Memory required for data: 590069840
I0429 13:50:08.411448 47706 layer_factory.hpp:77] Creating layer bn2a_branch2b
I0429 13:50:08.411455 47706 net.cpp:106] Creating Layer bn2a_branch2b
I0429 13:50:08.411460 47706 net.cpp:454] bn2a_branch2b <- res2a_branch2b
I0429 13:50:08.411468 47706 net.cpp:397] bn2a_branch2b -> res2a_branch2b (in-place)
I0429 13:50:08.411629 47706 net.cpp:150] Setting up bn2a_branch2b
I0429 13:50:08.411639 47706 net.cpp:157] Top shape: 20 64 56 56 (4014080)
I0429 13:50:08.411643 47706 net.cpp:165] Memory required for data: 606126160
I0429 13:50:08.411651 47706 layer_factory.hpp:77] Creating layer scale2a_branch2b
I0429 13:50:08.411661 47706 net.cpp:106] Creating Layer scale2a_branch2b
I0429 13:50:08.411666 47706 net.cpp:454] scale2a_branch2b <- res2a_branch2b
I0429 13:50:08.411672 47706 net.cpp:397] scale2a_branch2b -> res2a_branch2b (in-place)
I0429 13:50:08.411707 47706 layer_factory.hpp:77] Creating layer scale2a_branch2b
I0429 13:50:08.411801 47706 net.cpp:150] Setting up scale2a_branch2b
I0429 13:50:08.411810 47706 net.cpp:157] Top shape: 20 64 56 56 (4014080)
I0429 13:50:08.411813 47706 net.cpp:165] Memory required for data: 622182480
I0429 13:50:08.411820 47706 layer_factory.hpp:77] Creating layer res2a_branch2b_relu
I0429 13:50:08.411830 47706 net.cpp:106] Creating Layer res2a_branch2b_relu
I0429 13:50:08.411835 47706 net.cpp:454] res2a_branch2b_relu <- res2a_branch2b
I0429 13:50:08.411840 47706 net.cpp:397] res2a_branch2b_relu -> res2a_branch2b (in-place)
I0429 13:50:08.411847 47706 net.cpp:150] Setting up res2a_branch2b_relu
I0429 13:50:08.411852 47706 net.cpp:157] Top shape: 20 64 56 56 (4014080)
I0429 13:50:08.411856 47706 net.cpp:165] Memory required for data: 638238800
I0429 13:50:08.411865 47706 layer_factory.hpp:77] Creating layer res2a_branch2c
I0429 13:50:08.411878 47706 net.cpp:106] Creating Layer res2a_branch2c
I0429 13:50:08.411882 47706 net.cpp:454] res2a_branch2c <- res2a_branch2b
I0429 13:50:08.411888 47706 net.cpp:411] res2a_branch2c -> res2a_branch2c
I0429 13:50:08.412024 47706 net.cpp:150] Setting up res2a_branch2c
I0429 13:50:08.412034 47706 net.cpp:157] Top shape: 20 256 56 56 (16056320)
I0429 13:50:08.412037 47706 net.cpp:165] Memory required for data: 702464080
I0429 13:50:08.412044 47706 layer_factory.hpp:77] Creating layer bn2a_branch2c
I0429 13:50:08.412052 47706 net.cpp:106] Creating Layer bn2a_branch2c
I0429 13:50:08.412056 47706 net.cpp:454] bn2a_branch2c <- res2a_branch2c
I0429 13:50:08.412061 47706 net.cpp:397] bn2a_branch2c -> res2a_branch2c (in-place)
I0429 13:50:08.412191 47706 net.cpp:150] Setting up bn2a_branch2c
I0429 13:50:08.412200 47706 net.cpp:157] Top shape: 20 256 56 56 (16056320)
I0429 13:50:08.412204 47706 net.cpp:165] Memory required for data: 766689360
I0429 13:50:08.412211 47706 layer_factory.hpp:77] Creating layer scale2a_branch2c
I0429 13:50:08.412219 47706 net.cpp:106] Creating Layer scale2a_branch2c
I0429 13:50:08.412222 47706 net.cpp:454] scale2a_branch2c <- res2a_branch2c
I0429 13:50:08.412227 47706 net.cpp:397] scale2a_branch2c -> res2a_branch2c (in-place)
I0429 13:50:08.412261 47706 layer_factory.hpp:77] Creating layer scale2a_branch2c
I0429 13:50:08.412344 47706 net.cpp:150] Setting up scale2a_branch2c
I0429 13:50:08.412353 47706 net.cpp:157] Top shape: 20 256 56 56 (16056320)
I0429 13:50:08.412356 47706 net.cpp:165] Memory required for data: 830914640
I0429 13:50:08.412364 47706 layer_factory.hpp:77] Creating layer res2a
I0429 13:50:08.412372 47706 net.cpp:106] Creating Layer res2a
I0429 13:50:08.412376 47706 net.cpp:454] res2a <- res2a_branch1
I0429 13:50:08.412381 47706 net.cpp:454] res2a <- res2a_branch2c
I0429 13:50:08.412386 47706 net.cpp:411] res2a -> res2a
I0429 13:50:08.412415 47706 net.cpp:150] Setting up res2a
I0429 13:50:08.412423 47706 net.cpp:157] Top shape: 20 256 56 56 (16056320)
I0429 13:50:08.412427 47706 net.cpp:165] Memory required for data: 895139920
I0429 13:50:08.412431 47706 layer_factory.hpp:77] Creating layer res2a_relu
I0429 13:50:08.412444 47706 net.cpp:106] Creating Layer res2a_relu
I0429 13:50:08.412449 47706 net.cpp:454] res2a_relu <- res2a
I0429 13:50:08.412457 47706 net.cpp:397] res2a_relu -> res2a (in-place)
I0429 13:50:08.412477 47706 net.cpp:150] Setting up res2a_relu
I0429 13:50:08.412482 47706 net.cpp:157] Top shape: 20 256 56 56 (16056320)
I0429 13:50:08.412487 47706 net.cpp:165] Memory required for data: 959365200
I0429 13:50:08.412492 47706 layer_factory.hpp:77] Creating layer res2a_res2a_relu_0_split
I0429 13:50:08.412508 47706 net.cpp:106] Creating Layer res2a_res2a_relu_0_split
I0429 13:50:08.412513 47706 net.cpp:454] res2a_res2a_relu_0_split <- res2a
I0429 13:50:08.412519 47706 net.cpp:411] res2a_res2a_relu_0_split -> res2a_res2a_relu_0_split_0
I0429 13:50:08.412525 47706 net.cpp:411] res2a_res2a_relu_0_split -> res2a_res2a_relu_0_split_1
I0429 13:50:08.412570 47706 net.cpp:150] Setting up res2a_res2a_relu_0_split
I0429 13:50:08.412578 47706 net.cpp:157] Top shape: 20 256 56 56 (16056320)
I0429 13:50:08.412595 47706 net.cpp:157] Top shape: 20 256 56 56 (16056320)
I0429 13:50:08.412598 47706 net.cpp:165] Memory required for data: 1087815760
I0429 13:50:08.412603 47706 layer_factory.hpp:77] Creating layer res2b_branch2a
I0429 13:50:08.412611 47706 net.cpp:106] Creating Layer res2b_branch2a
I0429 13:50:08.412633 47706 net.cpp:454] res2b_branch2a <- res2a_res2a_relu_0_split_0
I0429 13:50:08.412642 47706 net.cpp:411] res2b_branch2a -> res2b_branch2a
I0429 13:50:08.412788 47706 net.cpp:150] Setting up res2b_branch2a
I0429 13:50:08.412798 47706 net.cpp:157] Top shape: 20 64 56 56 (4014080)
I0429 13:50:08.412802 47706 net.cpp:165] Memory required for data: 1103872080
I0429 13:50:08.412808 47706 layer_factory.hpp:77] Creating layer bn2b_branch2a
I0429 13:50:08.412816 47706 net.cpp:106] Creating Layer bn2b_branch2a
I0429 13:50:08.412824 47706 net.cpp:454] bn2b_branch2a <- res2b_branch2a
I0429 13:50:08.412830 47706 net.cpp:397] bn2b_branch2a -> res2b_branch2a (in-place)
I0429 13:50:08.412987 47706 net.cpp:150] Setting up bn2b_branch2a
I0429 13:50:08.412997 47706 net.cpp:157] Top shape: 20 64 56 56 (4014080)
I0429 13:50:08.413002 47706 net.cpp:165] Memory required for data: 1119928400
I0429 13:50:08.413012 47706 layer_factory.hpp:77] Creating layer scale2b_branch2a
I0429 13:50:08.413022 47706 net.cpp:106] Creating Layer scale2b_branch2a
I0429 13:50:08.413027 47706 net.cpp:454] scale2b_branch2a <- res2b_branch2a
I0429 13:50:08.413033 47706 net.cpp:397] scale2b_branch2a -> res2b_branch2a (in-place)
I0429 13:50:08.413069 47706 layer_factory.hpp:77] Creating layer scale2b_branch2a
I0429 13:50:08.413161 47706 net.cpp:150] Setting up scale2b_branch2a
I0429 13:50:08.413169 47706 net.cpp:157] Top shape: 20 64 56 56 (4014080)
I0429 13:50:08.413173 47706 net.cpp:165] Memory required for data: 1135984720
I0429 13:50:08.413180 47706 layer_factory.hpp:77] Creating layer res2b_branch2a_relu
I0429 13:50:08.413188 47706 net.cpp:106] Creating Layer res2b_branch2a_relu
I0429 13:50:08.413193 47706 net.cpp:454] res2b_branch2a_relu <- res2b_branch2a
I0429 13:50:08.413198 47706 net.cpp:397] res2b_branch2a_relu -> res2b_branch2a (in-place)
I0429 13:50:08.413204 47706 net.cpp:150] Setting up res2b_branch2a_relu
I0429 13:50:08.413209 47706 net.cpp:157] Top shape: 20 64 56 56 (4014080)
I0429 13:50:08.413225 47706 net.cpp:165] Memory required for data: 1152041040
I0429 13:50:08.413230 47706 layer_factory.hpp:77] Creating layer res2b_branch2b
I0429 13:50:08.413239 47706 net.cpp:106] Creating Layer res2b_branch2b
I0429 13:50:08.413244 47706 net.cpp:454] res2b_branch2b <- res2b_branch2a
I0429 13:50:08.413249 47706 net.cpp:411] res2b_branch2b -> res2b_branch2b
I0429 13:50:08.413411 47706 net.cpp:150] Setting up res2b_branch2b
I0429 13:50:08.413420 47706 net.cpp:157] Top shape: 20 64 56 56 (4014080)
I0429 13:50:08.413424 47706 net.cpp:165] Memory required for data: 1168097360
I0429 13:50:08.413430 47706 layer_factory.hpp:77] Creating layer bn2b_branch2b
I0429 13:50:08.413436 47706 net.cpp:106] Creating Layer bn2b_branch2b
I0429 13:50:08.413440 47706 net.cpp:454] bn2b_branch2b <- res2b_branch2b
I0429 13:50:08.413447 47706 net.cpp:397] bn2b_branch2b -> res2b_branch2b (in-place)
I0429 13:50:08.413589 47706 net.cpp:150] Setting up bn2b_branch2b
I0429 13:50:08.413596 47706 net.cpp:157] Top shape: 20 64 56 56 (4014080)
I0429 13:50:08.413600 47706 net.cpp:165] Memory required for data: 1184153680
I0429 13:50:08.413609 47706 layer_factory.hpp:77] Creating layer scale2b_branch2b
I0429 13:50:08.413614 47706 net.cpp:106] Creating Layer scale2b_branch2b
I0429 13:50:08.413619 47706 net.cpp:454] scale2b_branch2b <- res2b_branch2b
I0429 13:50:08.413625 47706 net.cpp:397] scale2b_branch2b -> res2b_branch2b (in-place)
I0429 13:50:08.413658 47706 layer_factory.hpp:77] Creating layer scale2b_branch2b
I0429 13:50:08.413749 47706 net.cpp:150] Setting up scale2b_branch2b
I0429 13:50:08.413758 47706 net.cpp:157] Top shape: 20 64 56 56 (4014080)
I0429 13:50:08.413761 47706 net.cpp:165] Memory required for data: 1200210000
I0429 13:50:08.413769 47706 layer_factory.hpp:77] Creating layer res2b_branch2b_relu
I0429 13:50:08.413776 47706 net.cpp:106] Creating Layer res2b_branch2b_relu
I0429 13:50:08.413780 47706 net.cpp:454] res2b_branch2b_relu <- res2b_branch2b
I0429 13:50:08.413785 47706 net.cpp:397] res2b_branch2b_relu -> res2b_branch2b (in-place)
I0429 13:50:08.413792 47706 net.cpp:150] Setting up res2b_branch2b_relu
I0429 13:50:08.413797 47706 net.cpp:157] Top shape: 20 64 56 56 (4014080)
I0429 13:50:08.413801 47706 net.cpp:165] Memory required for data: 1216266320
I0429 13:50:08.413805 47706 layer_factory.hpp:77] Creating layer res2b_branch2c
I0429 13:50:08.413816 47706 net.cpp:106] Creating Layer res2b_branch2c
I0429 13:50:08.413821 47706 net.cpp:454] res2b_branch2c <- res2b_branch2b
I0429 13:50:08.413826 47706 net.cpp:411] res2b_branch2c -> res2b_branch2c
I0429 13:50:08.413983 47706 net.cpp:150] Setting up res2b_branch2c
I0429 13:50:08.413993 47706 net.cpp:157] Top shape: 20 256 56 56 (16056320)
I0429 13:50:08.413998 47706 net.cpp:165] Memory required for data: 1280491600
I0429 13:50:08.414005 47706 layer_factory.hpp:77] Creating layer bn2b_branch2c
I0429 13:50:08.414012 47706 net.cpp:106] Creating Layer bn2b_branch2c
I0429 13:50:08.414017 47706 net.cpp:454] bn2b_branch2c <- res2b_branch2c
I0429 13:50:08.414022 47706 net.cpp:397] bn2b_branch2c -> res2b_branch2c (in-place)
I0429 13:50:08.414175 47706 net.cpp:150] Setting up bn2b_branch2c
I0429 13:50:08.414183 47706 net.cpp:157] Top shape: 20 256 56 56 (16056320)
I0429 13:50:08.414187 47706 net.cpp:165] Memory required for data: 1344716880
I0429 13:50:08.414196 47706 layer_factory.hpp:77] Creating layer scale2b_branch2c
I0429 13:50:08.414201 47706 net.cpp:106] Creating Layer scale2b_branch2c
I0429 13:50:08.414206 47706 net.cpp:454] scale2b_branch2c <- res2b_branch2c
I0429 13:50:08.414213 47706 net.cpp:397] scale2b_branch2c -> res2b_branch2c (in-place)
I0429 13:50:08.414244 47706 layer_factory.hpp:77] Creating layer scale2b_branch2c
I0429 13:50:08.414330 47706 net.cpp:150] Setting up scale2b_branch2c
I0429 13:50:08.414340 47706 net.cpp:157] Top shape: 20 256 56 56 (16056320)
I0429 13:50:08.414345 47706 net.cpp:165] Memory required for data: 1408942160
I0429 13:50:08.414350 47706 layer_factory.hpp:77] Creating layer res2b
I0429 13:50:08.414356 47706 net.cpp:106] Creating Layer res2b
I0429 13:50:08.414361 47706 net.cpp:454] res2b <- res2a_res2a_relu_0_split_1
I0429 13:50:08.414366 47706 net.cpp:454] res2b <- res2b_branch2c
I0429 13:50:08.414371 47706 net.cpp:411] res2b -> res2b
I0429 13:50:08.414393 47706 net.cpp:150] Setting up res2b
I0429 13:50:08.414402 47706 net.cpp:157] Top shape: 20 256 56 56 (16056320)
I0429 13:50:08.414407 47706 net.cpp:165] Memory required for data: 1473167440
I0429 13:50:08.414412 47706 layer_factory.hpp:77] Creating layer res2b_relu
I0429 13:50:08.414417 47706 net.cpp:106] Creating Layer res2b_relu
I0429 13:50:08.414422 47706 net.cpp:454] res2b_relu <- res2b
I0429 13:50:08.414427 47706 net.cpp:397] res2b_relu -> res2b (in-place)
I0429 13:50:08.414433 47706 net.cpp:150] Setting up res2b_relu
I0429 13:50:08.414438 47706 net.cpp:157] Top shape: 20 256 56 56 (16056320)
I0429 13:50:08.414441 47706 net.cpp:165] Memory required for data: 1537392720
I0429 13:50:08.414445 47706 layer_factory.hpp:77] Creating layer res2b_res2b_relu_0_split
I0429 13:50:08.414450 47706 net.cpp:106] Creating Layer res2b_res2b_relu_0_split
I0429 13:50:08.414454 47706 net.cpp:454] res2b_res2b_relu_0_split <- res2b
I0429 13:50:08.414461 47706 net.cpp:411] res2b_res2b_relu_0_split -> res2b_res2b_relu_0_split_0
I0429 13:50:08.414468 47706 net.cpp:411] res2b_res2b_relu_0_split -> res2b_res2b_relu_0_split_1
I0429 13:50:08.414492 47706 net.cpp:150] Setting up res2b_res2b_relu_0_split
I0429 13:50:08.414499 47706 net.cpp:157] Top shape: 20 256 56 56 (16056320)
I0429 13:50:08.414505 47706 net.cpp:157] Top shape: 20 256 56 56 (16056320)
I0429 13:50:08.414508 47706 net.cpp:165] Memory required for data: 1665843280
I0429 13:50:08.414511 47706 layer_factory.hpp:77] Creating layer res2c_branch2a
I0429 13:50:08.414521 47706 net.cpp:106] Creating Layer res2c_branch2a
I0429 13:50:08.414525 47706 net.cpp:454] res2c_branch2a <- res2b_res2b_relu_0_split_0
I0429 13:50:08.414531 47706 net.cpp:411] res2c_branch2a -> res2c_branch2a
I0429 13:50:08.414669 47706 net.cpp:150] Setting up res2c_branch2a
I0429 13:50:08.414676 47706 net.cpp:157] Top shape: 20 64 56 56 (4014080)
I0429 13:50:08.414680 47706 net.cpp:165] Memory required for data: 1681899600
I0429 13:50:08.414686 47706 layer_factory.hpp:77] Creating layer bn2c_branch2a
I0429 13:50:08.414692 47706 net.cpp:106] Creating Layer bn2c_branch2a
I0429 13:50:08.414696 47706 net.cpp:454] bn2c_branch2a <- res2c_branch2a
I0429 13:50:08.414702 47706 net.cpp:397] bn2c_branch2a -> res2c_branch2a (in-place)
I0429 13:50:08.414844 47706 net.cpp:150] Setting up bn2c_branch2a
I0429 13:50:08.414851 47706 net.cpp:157] Top shape: 20 64 56 56 (4014080)
I0429 13:50:08.414860 47706 net.cpp:165] Memory required for data: 1697955920
I0429 13:50:08.414867 47706 layer_factory.hpp:77] Creating layer scale2c_branch2a
I0429 13:50:08.414875 47706 net.cpp:106] Creating Layer scale2c_branch2a
I0429 13:50:08.414878 47706 net.cpp:454] scale2c_branch2a <- res2c_branch2a
I0429 13:50:08.414883 47706 net.cpp:397] scale2c_branch2a -> res2c_branch2a (in-place)
I0429 13:50:08.414921 47706 layer_factory.hpp:77] Creating layer scale2c_branch2a
I0429 13:50:08.415012 47706 net.cpp:150] Setting up scale2c_branch2a
I0429 13:50:08.415021 47706 net.cpp:157] Top shape: 20 64 56 56 (4014080)
I0429 13:50:08.415024 47706 net.cpp:165] Memory required for data: 1714012240
I0429 13:50:08.415031 47706 layer_factory.hpp:77] Creating layer res2c_branch2a_relu
I0429 13:50:08.415037 47706 net.cpp:106] Creating Layer res2c_branch2a_relu
I0429 13:50:08.415041 47706 net.cpp:454] res2c_branch2a_relu <- res2c_branch2a
I0429 13:50:08.415046 47706 net.cpp:397] res2c_branch2a_relu -> res2c_branch2a (in-place)
I0429 13:50:08.415052 47706 net.cpp:150] Setting up res2c_branch2a_relu
I0429 13:50:08.415058 47706 net.cpp:157] Top shape: 20 64 56 56 (4014080)
I0429 13:50:08.415062 47706 net.cpp:165] Memory required for data: 1730068560
I0429 13:50:08.415066 47706 layer_factory.hpp:77] Creating layer res2c_branch2b
I0429 13:50:08.415074 47706 net.cpp:106] Creating Layer res2c_branch2b
I0429 13:50:08.415078 47706 net.cpp:454] res2c_branch2b <- res2c_branch2a
I0429 13:50:08.415086 47706 net.cpp:411] res2c_branch2b -> res2c_branch2b
I0429 13:50:08.415272 47706 net.cpp:150] Setting up res2c_branch2b
I0429 13:50:08.415284 47706 net.cpp:157] Top shape: 20 64 56 56 (4014080)
I0429 13:50:08.415288 47706 net.cpp:165] Memory required for data: 1746124880
I0429 13:50:08.415294 47706 layer_factory.hpp:77] Creating layer bn2c_branch2b
I0429 13:50:08.415302 47706 net.cpp:106] Creating Layer bn2c_branch2b
I0429 13:50:08.415305 47706 net.cpp:454] bn2c_branch2b <- res2c_branch2b
I0429 13:50:08.415312 47706 net.cpp:397] bn2c_branch2b -> res2c_branch2b (in-place)
I0429 13:50:08.415472 47706 net.cpp:150] Setting up bn2c_branch2b
I0429 13:50:08.415480 47706 net.cpp:157] Top shape: 20 64 56 56 (4014080)
I0429 13:50:08.415485 47706 net.cpp:165] Memory required for data: 1762181200
I0429 13:50:08.415493 47706 layer_factory.hpp:77] Creating layer scale2c_branch2b
I0429 13:50:08.415499 47706 net.cpp:106] Creating Layer scale2c_branch2b
I0429 13:50:08.415503 47706 net.cpp:454] scale2c_branch2b <- res2c_branch2b
I0429 13:50:08.415509 47706 net.cpp:397] scale2c_branch2b -> res2c_branch2b (in-place)
I0429 13:50:08.415544 47706 layer_factory.hpp:77] Creating layer scale2c_branch2b
I0429 13:50:08.415644 47706 net.cpp:150] Setting up scale2c_branch2b
I0429 13:50:08.415652 47706 net.cpp:157] Top shape: 20 64 56 56 (4014080)
I0429 13:50:08.415657 47706 net.cpp:165] Memory required for data: 1778237520
I0429 13:50:08.415663 47706 layer_factory.hpp:77] Creating layer res2c_branch2b_relu
I0429 13:50:08.415669 47706 net.cpp:106] Creating Layer res2c_branch2b_relu
I0429 13:50:08.415673 47706 net.cpp:454] res2c_branch2b_relu <- res2c_branch2b
I0429 13:50:08.415679 47706 net.cpp:397] res2c_branch2b_relu -> res2c_branch2b (in-place)
I0429 13:50:08.415685 47706 net.cpp:150] Setting up res2c_branch2b_relu
I0429 13:50:08.415691 47706 net.cpp:157] Top shape: 20 64 56 56 (4014080)
I0429 13:50:08.415694 47706 net.cpp:165] Memory required for data: 1794293840
I0429 13:50:08.415699 47706 layer_factory.hpp:77] Creating layer res2c_branch2c
I0429 13:50:08.415709 47706 net.cpp:106] Creating Layer res2c_branch2c
I0429 13:50:08.415712 47706 net.cpp:454] res2c_branch2c <- res2c_branch2b
I0429 13:50:08.415719 47706 net.cpp:411] res2c_branch2c -> res2c_branch2c
I0429 13:50:08.415863 47706 net.cpp:150] Setting up res2c_branch2c
I0429 13:50:08.415873 47706 net.cpp:157] Top shape: 20 256 56 56 (16056320)
I0429 13:50:08.415876 47706 net.cpp:165] Memory required for data: 1858519120
I0429 13:50:08.415881 47706 layer_factory.hpp:77] Creating layer bn2c_branch2c
I0429 13:50:08.415891 47706 net.cpp:106] Creating Layer bn2c_branch2c
I0429 13:50:08.415896 47706 net.cpp:454] bn2c_branch2c <- res2c_branch2c
I0429 13:50:08.415901 47706 net.cpp:397] bn2c_branch2c -> res2c_branch2c (in-place)
I0429 13:50:08.416038 47706 net.cpp:150] Setting up bn2c_branch2c
I0429 13:50:08.416048 47706 net.cpp:157] Top shape: 20 256 56 56 (16056320)
I0429 13:50:08.416051 47706 net.cpp:165] Memory required for data: 1922744400
I0429 13:50:08.416067 47706 layer_factory.hpp:77] Creating layer scale2c_branch2c
I0429 13:50:08.416075 47706 net.cpp:106] Creating Layer scale2c_branch2c
I0429 13:50:08.416079 47706 net.cpp:454] scale2c_branch2c <- res2c_branch2c
I0429 13:50:08.416085 47706 net.cpp:397] scale2c_branch2c -> res2c_branch2c (in-place)
I0429 13:50:08.416118 47706 layer_factory.hpp:77] Creating layer scale2c_branch2c
I0429 13:50:08.416205 47706 net.cpp:150] Setting up scale2c_branch2c
I0429 13:50:08.416213 47706 net.cpp:157] Top shape: 20 256 56 56 (16056320)
I0429 13:50:08.416218 47706 net.cpp:165] Memory required for data: 1986969680
I0429 13:50:08.416224 47706 layer_factory.hpp:77] Creating layer res2c
I0429 13:50:08.416231 47706 net.cpp:106] Creating Layer res2c
I0429 13:50:08.416236 47706 net.cpp:454] res2c <- res2b_res2b_relu_0_split_1
I0429 13:50:08.416241 47706 net.cpp:454] res2c <- res2c_branch2c
I0429 13:50:08.416246 47706 net.cpp:411] res2c -> res2c
I0429 13:50:08.416265 47706 net.cpp:150] Setting up res2c
I0429 13:50:08.416272 47706 net.cpp:157] Top shape: 20 256 56 56 (16056320)
I0429 13:50:08.416276 47706 net.cpp:165] Memory required for data: 2051194960
I0429 13:50:08.416280 47706 layer_factory.hpp:77] Creating layer res2c_relu
I0429 13:50:08.416286 47706 net.cpp:106] Creating Layer res2c_relu
I0429 13:50:08.416290 47706 net.cpp:454] res2c_relu <- res2c
I0429 13:50:08.416298 47706 net.cpp:397] res2c_relu -> res2c (in-place)
I0429 13:50:08.416306 47706 net.cpp:150] Setting up res2c_relu
I0429 13:50:08.416311 47706 net.cpp:157] Top shape: 20 256 56 56 (16056320)
I0429 13:50:08.416314 47706 net.cpp:165] Memory required for data: 2115420240
I0429 13:50:08.416318 47706 layer_factory.hpp:77] Creating layer res2c_res2c_relu_0_split
I0429 13:50:08.416323 47706 net.cpp:106] Creating Layer res2c_res2c_relu_0_split
I0429 13:50:08.416327 47706 net.cpp:454] res2c_res2c_relu_0_split <- res2c
I0429 13:50:08.416332 47706 net.cpp:411] res2c_res2c_relu_0_split -> res2c_res2c_relu_0_split_0
I0429 13:50:08.416338 47706 net.cpp:411] res2c_res2c_relu_0_split -> res2c_res2c_relu_0_split_1
I0429 13:50:08.416369 47706 net.cpp:150] Setting up res2c_res2c_relu_0_split
I0429 13:50:08.416376 47706 net.cpp:157] Top shape: 20 256 56 56 (16056320)
I0429 13:50:08.416381 47706 net.cpp:157] Top shape: 20 256 56 56 (16056320)
I0429 13:50:08.416385 47706 net.cpp:165] Memory required for data: 2243870800
I0429 13:50:08.416389 47706 layer_factory.hpp:77] Creating layer res3a_branch1
I0429 13:50:08.416395 47706 net.cpp:106] Creating Layer res3a_branch1
I0429 13:50:08.416400 47706 net.cpp:454] res3a_branch1 <- res2c_res2c_relu_0_split_0
I0429 13:50:08.416405 47706 net.cpp:411] res3a_branch1 -> res3a_branch1
I0429 13:50:08.417145 47706 net.cpp:150] Setting up res3a_branch1
I0429 13:50:08.417160 47706 net.cpp:157] Top shape: 20 512 28 28 (8028160)
I0429 13:50:08.417163 47706 net.cpp:165] Memory required for data: 2275983440
I0429 13:50:08.417170 47706 layer_factory.hpp:77] Creating layer bn3a_branch1
I0429 13:50:08.417176 47706 net.cpp:106] Creating Layer bn3a_branch1
I0429 13:50:08.417181 47706 net.cpp:454] bn3a_branch1 <- res3a_branch1
I0429 13:50:08.417186 47706 net.cpp:397] bn3a_branch1 -> res3a_branch1 (in-place)
I0429 13:50:08.417809 47706 net.cpp:150] Setting up bn3a_branch1
I0429 13:50:08.417840 47706 net.cpp:157] Top shape: 20 512 28 28 (8028160)
I0429 13:50:08.417845 47706 net.cpp:165] Memory required for data: 2308096080
I0429 13:50:08.417853 47706 layer_factory.hpp:77] Creating layer scale3a_branch1
I0429 13:50:08.417861 47706 net.cpp:106] Creating Layer scale3a_branch1
I0429 13:50:08.417866 47706 net.cpp:454] scale3a_branch1 <- res3a_branch1
I0429 13:50:08.417876 47706 net.cpp:397] scale3a_branch1 -> res3a_branch1 (in-place)
I0429 13:50:08.417919 47706 layer_factory.hpp:77] Creating layer scale3a_branch1
I0429 13:50:08.418009 47706 net.cpp:150] Setting up scale3a_branch1
I0429 13:50:08.418018 47706 net.cpp:157] Top shape: 20 512 28 28 (8028160)
I0429 13:50:08.418023 47706 net.cpp:165] Memory required for data: 2340208720
I0429 13:50:08.418030 47706 layer_factory.hpp:77] Creating layer res3a_branch2a
I0429 13:50:08.418051 47706 net.cpp:106] Creating Layer res3a_branch2a
I0429 13:50:08.418056 47706 net.cpp:454] res3a_branch2a <- res2c_res2c_relu_0_split_1
I0429 13:50:08.418062 47706 net.cpp:411] res3a_branch2a -> res3a_branch2a
I0429 13:50:08.418213 47706 net.cpp:150] Setting up res3a_branch2a
I0429 13:50:08.418223 47706 net.cpp:157] Top shape: 20 128 28 28 (2007040)
I0429 13:50:08.418227 47706 net.cpp:165] Memory required for data: 2348236880
I0429 13:50:08.418233 47706 layer_factory.hpp:77] Creating layer bn3a_branch2a
I0429 13:50:08.418239 47706 net.cpp:106] Creating Layer bn3a_branch2a
I0429 13:50:08.418243 47706 net.cpp:454] bn3a_branch2a <- res3a_branch2a
I0429 13:50:08.418251 47706 net.cpp:397] bn3a_branch2a -> res3a_branch2a (in-place)
I0429 13:50:08.418393 47706 net.cpp:150] Setting up bn3a_branch2a
I0429 13:50:08.418402 47706 net.cpp:157] Top shape: 20 128 28 28 (2007040)
I0429 13:50:08.418406 47706 net.cpp:165] Memory required for data: 2356265040
I0429 13:50:08.418414 47706 layer_factory.hpp:77] Creating layer scale3a_branch2a
I0429 13:50:08.418421 47706 net.cpp:106] Creating Layer scale3a_branch2a
I0429 13:50:08.418424 47706 net.cpp:454] scale3a_branch2a <- res3a_branch2a
I0429 13:50:08.418431 47706 net.cpp:397] scale3a_branch2a -> res3a_branch2a (in-place)
I0429 13:50:08.418463 47706 layer_factory.hpp:77] Creating layer scale3a_branch2a
I0429 13:50:08.418546 47706 net.cpp:150] Setting up scale3a_branch2a
I0429 13:50:08.418555 47706 net.cpp:157] Top shape: 20 128 28 28 (2007040)
I0429 13:50:08.418558 47706 net.cpp:165] Memory required for data: 2364293200
I0429 13:50:08.418565 47706 layer_factory.hpp:77] Creating layer res3a_branch2a_relu
I0429 13:50:08.418571 47706 net.cpp:106] Creating Layer res3a_branch2a_relu
I0429 13:50:08.418577 47706 net.cpp:454] res3a_branch2a_relu <- res3a_branch2a
I0429 13:50:08.418582 47706 net.cpp:397] res3a_branch2a_relu -> res3a_branch2a (in-place)
I0429 13:50:08.418589 47706 net.cpp:150] Setting up res3a_branch2a_relu
I0429 13:50:08.418594 47706 net.cpp:157] Top shape: 20 128 28 28 (2007040)
I0429 13:50:08.418598 47706 net.cpp:165] Memory required for data: 2372321360
I0429 13:50:08.418602 47706 layer_factory.hpp:77] Creating layer res3a_branch2b
I0429 13:50:08.418609 47706 net.cpp:106] Creating Layer res3a_branch2b
I0429 13:50:08.418613 47706 net.cpp:454] res3a_branch2b <- res3a_branch2a
I0429 13:50:08.418620 47706 net.cpp:411] res3a_branch2b -> res3a_branch2b
I0429 13:50:08.419353 47706 net.cpp:150] Setting up res3a_branch2b
I0429 13:50:08.419368 47706 net.cpp:157] Top shape: 20 128 28 28 (2007040)
I0429 13:50:08.419371 47706 net.cpp:165] Memory required for data: 2380349520
I0429 13:50:08.419378 47706 layer_factory.hpp:77] Creating layer bn3a_branch2b
I0429 13:50:08.419384 47706 net.cpp:106] Creating Layer bn3a_branch2b
I0429 13:50:08.419389 47706 net.cpp:454] bn3a_branch2b <- res3a_branch2b
I0429 13:50:08.419394 47706 net.cpp:397] bn3a_branch2b -> res3a_branch2b (in-place)
I0429 13:50:08.419534 47706 net.cpp:150] Setting up bn3a_branch2b
I0429 13:50:08.419543 47706 net.cpp:157] Top shape: 20 128 28 28 (2007040)
I0429 13:50:08.419548 47706 net.cpp:165] Memory required for data: 2388377680
I0429 13:50:08.419555 47706 layer_factory.hpp:77] Creating layer scale3a_branch2b
I0429 13:50:08.419561 47706 net.cpp:106] Creating Layer scale3a_branch2b
I0429 13:50:08.419565 47706 net.cpp:454] scale3a_branch2b <- res3a_branch2b
I0429 13:50:08.419571 47706 net.cpp:397] scale3a_branch2b -> res3a_branch2b (in-place)
I0429 13:50:08.419610 47706 layer_factory.hpp:77] Creating layer scale3a_branch2b
I0429 13:50:08.419703 47706 net.cpp:150] Setting up scale3a_branch2b
I0429 13:50:08.419713 47706 net.cpp:157] Top shape: 20 128 28 28 (2007040)
I0429 13:50:08.419716 47706 net.cpp:165] Memory required for data: 2396405840
I0429 13:50:08.419723 47706 layer_factory.hpp:77] Creating layer res3a_branch2b_relu
I0429 13:50:08.419729 47706 net.cpp:106] Creating Layer res3a_branch2b_relu
I0429 13:50:08.419734 47706 net.cpp:454] res3a_branch2b_relu <- res3a_branch2b
I0429 13:50:08.419740 47706 net.cpp:397] res3a_branch2b_relu -> res3a_branch2b (in-place)
I0429 13:50:08.419747 47706 net.cpp:150] Setting up res3a_branch2b_relu
I0429 13:50:08.419752 47706 net.cpp:157] Top shape: 20 128 28 28 (2007040)
I0429 13:50:08.419756 47706 net.cpp:165] Memory required for data: 2404434000
I0429 13:50:08.419760 47706 layer_factory.hpp:77] Creating layer res3a_branch2c
I0429 13:50:08.419767 47706 net.cpp:106] Creating Layer res3a_branch2c
I0429 13:50:08.419771 47706 net.cpp:454] res3a_branch2c <- res3a_branch2b
I0429 13:50:08.419778 47706 net.cpp:411] res3a_branch2c -> res3a_branch2c
I0429 13:50:08.419950 47706 net.cpp:150] Setting up res3a_branch2c
I0429 13:50:08.419958 47706 net.cpp:157] Top shape: 20 512 28 28 (8028160)
I0429 13:50:08.419962 47706 net.cpp:165] Memory required for data: 2436546640
I0429 13:50:08.419968 47706 layer_factory.hpp:77] Creating layer bn3a_branch2c
I0429 13:50:08.419981 47706 net.cpp:106] Creating Layer bn3a_branch2c
I0429 13:50:08.419984 47706 net.cpp:454] bn3a_branch2c <- res3a_branch2c
I0429 13:50:08.419991 47706 net.cpp:397] bn3a_branch2c -> res3a_branch2c (in-place)
I0429 13:50:08.420130 47706 net.cpp:150] Setting up bn3a_branch2c
I0429 13:50:08.420138 47706 net.cpp:157] Top shape: 20 512 28 28 (8028160)
I0429 13:50:08.420142 47706 net.cpp:165] Memory required for data: 2468659280
I0429 13:50:08.420151 47706 layer_factory.hpp:77] Creating layer scale3a_branch2c
I0429 13:50:08.420159 47706 net.cpp:106] Creating Layer scale3a_branch2c
I0429 13:50:08.420164 47706 net.cpp:454] scale3a_branch2c <- res3a_branch2c
I0429 13:50:08.420171 47706 net.cpp:397] scale3a_branch2c -> res3a_branch2c (in-place)
I0429 13:50:08.420205 47706 layer_factory.hpp:77] Creating layer scale3a_branch2c
I0429 13:50:08.420290 47706 net.cpp:150] Setting up scale3a_branch2c
I0429 13:50:08.420298 47706 net.cpp:157] Top shape: 20 512 28 28 (8028160)
I0429 13:50:08.420302 47706 net.cpp:165] Memory required for data: 2500771920
I0429 13:50:08.420308 47706 layer_factory.hpp:77] Creating layer res3a
I0429 13:50:08.420316 47706 net.cpp:106] Creating Layer res3a
I0429 13:50:08.420321 47706 net.cpp:454] res3a <- res3a_branch1
I0429 13:50:08.420326 47706 net.cpp:454] res3a <- res3a_branch2c
I0429 13:50:08.420331 47706 net.cpp:411] res3a -> res3a
I0429 13:50:08.420352 47706 net.cpp:150] Setting up res3a
I0429 13:50:08.420359 47706 net.cpp:157] Top shape: 20 512 28 28 (8028160)
I0429 13:50:08.420363 47706 net.cpp:165] Memory required for data: 2532884560
I0429 13:50:08.420367 47706 layer_factory.hpp:77] Creating layer res3a_relu
I0429 13:50:08.420373 47706 net.cpp:106] Creating Layer res3a_relu
I0429 13:50:08.420377 47706 net.cpp:454] res3a_relu <- res3a
I0429 13:50:08.420384 47706 net.cpp:397] res3a_relu -> res3a (in-place)
I0429 13:50:08.420392 47706 net.cpp:150] Setting up res3a_relu
I0429 13:50:08.420397 47706 net.cpp:157] Top shape: 20 512 28 28 (8028160)
I0429 13:50:08.420400 47706 net.cpp:165] Memory required for data: 2564997200
I0429 13:50:08.420403 47706 layer_factory.hpp:77] Creating layer res3a_res3a_relu_0_split
I0429 13:50:08.420409 47706 net.cpp:106] Creating Layer res3a_res3a_relu_0_split
I0429 13:50:08.420413 47706 net.cpp:454] res3a_res3a_relu_0_split <- res3a
I0429 13:50:08.420444 47706 net.cpp:411] res3a_res3a_relu_0_split -> res3a_res3a_relu_0_split_0
I0429 13:50:08.420452 47706 net.cpp:411] res3a_res3a_relu_0_split -> res3a_res3a_relu_0_split_1
I0429 13:50:08.420485 47706 net.cpp:150] Setting up res3a_res3a_relu_0_split
I0429 13:50:08.420493 47706 net.cpp:157] Top shape: 20 512 28 28 (8028160)
I0429 13:50:08.420498 47706 net.cpp:157] Top shape: 20 512 28 28 (8028160)
I0429 13:50:08.420509 47706 net.cpp:165] Memory required for data: 2629222480
I0429 13:50:08.420514 47706 layer_factory.hpp:77] Creating layer res3b_branch2a
I0429 13:50:08.420522 47706 net.cpp:106] Creating Layer res3b_branch2a
I0429 13:50:08.420527 47706 net.cpp:454] res3b_branch2a <- res3a_res3a_relu_0_split_0
I0429 13:50:08.420533 47706 net.cpp:411] res3b_branch2a -> res3b_branch2a
I0429 13:50:08.421210 47706 net.cpp:150] Setting up res3b_branch2a
I0429 13:50:08.421224 47706 net.cpp:157] Top shape: 20 128 28 28 (2007040)
I0429 13:50:08.421228 47706 net.cpp:165] Memory required for data: 2637250640
I0429 13:50:08.421236 47706 layer_factory.hpp:77] Creating layer bn3b_branch2a
I0429 13:50:08.421242 47706 net.cpp:106] Creating Layer bn3b_branch2a
I0429 13:50:08.421247 47706 net.cpp:454] bn3b_branch2a <- res3b_branch2a
I0429 13:50:08.421252 47706 net.cpp:397] bn3b_branch2a -> res3b_branch2a (in-place)
I0429 13:50:08.421397 47706 net.cpp:150] Setting up bn3b_branch2a
I0429 13:50:08.421406 47706 net.cpp:157] Top shape: 20 128 28 28 (2007040)
I0429 13:50:08.421409 47706 net.cpp:165] Memory required for data: 2645278800
I0429 13:50:08.421417 47706 layer_factory.hpp:77] Creating layer scale3b_branch2a
I0429 13:50:08.421424 47706 net.cpp:106] Creating Layer scale3b_branch2a
I0429 13:50:08.421428 47706 net.cpp:454] scale3b_branch2a <- res3b_branch2a
I0429 13:50:08.421434 47706 net.cpp:397] scale3b_branch2a -> res3b_branch2a (in-place)
I0429 13:50:08.421470 47706 layer_factory.hpp:77] Creating layer scale3b_branch2a
I0429 13:50:08.421558 47706 net.cpp:150] Setting up scale3b_branch2a
I0429 13:50:08.421566 47706 net.cpp:157] Top shape: 20 128 28 28 (2007040)
I0429 13:50:08.421571 47706 net.cpp:165] Memory required for data: 2653306960
I0429 13:50:08.421577 47706 layer_factory.hpp:77] Creating layer res3b_branch2a_relu
I0429 13:50:08.421583 47706 net.cpp:106] Creating Layer res3b_branch2a_relu
I0429 13:50:08.421587 47706 net.cpp:454] res3b_branch2a_relu <- res3b_branch2a
I0429 13:50:08.421594 47706 net.cpp:397] res3b_branch2a_relu -> res3b_branch2a (in-place)
I0429 13:50:08.421600 47706 net.cpp:150] Setting up res3b_branch2a_relu
I0429 13:50:08.421607 47706 net.cpp:157] Top shape: 20 128 28 28 (2007040)
I0429 13:50:08.421610 47706 net.cpp:165] Memory required for data: 2661335120
I0429 13:50:08.421614 47706 layer_factory.hpp:77] Creating layer res3b_branch2b
I0429 13:50:08.421622 47706 net.cpp:106] Creating Layer res3b_branch2b
I0429 13:50:08.421625 47706 net.cpp:454] res3b_branch2b <- res3b_branch2a
I0429 13:50:08.421633 47706 net.cpp:411] res3b_branch2b -> res3b_branch2b
I0429 13:50:08.422369 47706 net.cpp:150] Setting up res3b_branch2b
I0429 13:50:08.422382 47706 net.cpp:157] Top shape: 20 128 28 28 (2007040)
I0429 13:50:08.422386 47706 net.cpp:165] Memory required for data: 2669363280
I0429 13:50:08.422394 47706 layer_factory.hpp:77] Creating layer bn3b_branch2b
I0429 13:50:08.422400 47706 net.cpp:106] Creating Layer bn3b_branch2b
I0429 13:50:08.422405 47706 net.cpp:454] bn3b_branch2b <- res3b_branch2b
I0429 13:50:08.422410 47706 net.cpp:397] bn3b_branch2b -> res3b_branch2b (in-place)
I0429 13:50:08.422559 47706 net.cpp:150] Setting up bn3b_branch2b
I0429 13:50:08.422569 47706 net.cpp:157] Top shape: 20 128 28 28 (2007040)
I0429 13:50:08.422572 47706 net.cpp:165] Memory required for data: 2677391440
I0429 13:50:08.422582 47706 layer_factory.hpp:77] Creating layer scale3b_branch2b
I0429 13:50:08.422590 47706 net.cpp:106] Creating Layer scale3b_branch2b
I0429 13:50:08.422593 47706 net.cpp:454] scale3b_branch2b <- res3b_branch2b
I0429 13:50:08.422598 47706 net.cpp:397] scale3b_branch2b -> res3b_branch2b (in-place)
I0429 13:50:08.422634 47706 layer_factory.hpp:77] Creating layer scale3b_branch2b
I0429 13:50:08.422724 47706 net.cpp:150] Setting up scale3b_branch2b
I0429 13:50:08.422732 47706 net.cpp:157] Top shape: 20 128 28 28 (2007040)
I0429 13:50:08.422736 47706 net.cpp:165] Memory required for data: 2685419600
I0429 13:50:08.422742 47706 layer_factory.hpp:77] Creating layer res3b_branch2b_relu
I0429 13:50:08.422755 47706 net.cpp:106] Creating Layer res3b_branch2b_relu
I0429 13:50:08.422760 47706 net.cpp:454] res3b_branch2b_relu <- res3b_branch2b
I0429 13:50:08.422765 47706 net.cpp:397] res3b_branch2b_relu -> res3b_branch2b (in-place)
I0429 13:50:08.422771 47706 net.cpp:150] Setting up res3b_branch2b_relu
I0429 13:50:08.422777 47706 net.cpp:157] Top shape: 20 128 28 28 (2007040)
I0429 13:50:08.422781 47706 net.cpp:165] Memory required for data: 2693447760
I0429 13:50:08.422785 47706 layer_factory.hpp:77] Creating layer res3b_branch2c
I0429 13:50:08.422793 47706 net.cpp:106] Creating Layer res3b_branch2c
I0429 13:50:08.422798 47706 net.cpp:454] res3b_branch2c <- res3b_branch2b
I0429 13:50:08.422803 47706 net.cpp:411] res3b_branch2c -> res3b_branch2c
I0429 13:50:08.422978 47706 net.cpp:150] Setting up res3b_branch2c
I0429 13:50:08.422988 47706 net.cpp:157] Top shape: 20 512 28 28 (8028160)
I0429 13:50:08.422992 47706 net.cpp:165] Memory required for data: 2725560400
I0429 13:50:08.422997 47706 layer_factory.hpp:77] Creating layer bn3b_branch2c
I0429 13:50:08.423004 47706 net.cpp:106] Creating Layer bn3b_branch2c
I0429 13:50:08.423009 47706 net.cpp:454] bn3b_branch2c <- res3b_branch2c
I0429 13:50:08.423035 47706 net.cpp:397] bn3b_branch2c -> res3b_branch2c (in-place)
I0429 13:50:08.423193 47706 net.cpp:150] Setting up bn3b_branch2c
I0429 13:50:08.423202 47706 net.cpp:157] Top shape: 20 512 28 28 (8028160)
I0429 13:50:08.423207 47706 net.cpp:165] Memory required for data: 2757673040
I0429 13:50:08.423215 47706 layer_factory.hpp:77] Creating layer scale3b_branch2c
I0429 13:50:08.423233 47706 net.cpp:106] Creating Layer scale3b_branch2c
I0429 13:50:08.423238 47706 net.cpp:454] scale3b_branch2c <- res3b_branch2c
I0429 13:50:08.423243 47706 net.cpp:397] scale3b_branch2c -> res3b_branch2c (in-place)
I0429 13:50:08.423280 47706 layer_factory.hpp:77] Creating layer scale3b_branch2c
I0429 13:50:08.423367 47706 net.cpp:150] Setting up scale3b_branch2c
I0429 13:50:08.423374 47706 net.cpp:157] Top shape: 20 512 28 28 (8028160)
I0429 13:50:08.423378 47706 net.cpp:165] Memory required for data: 2789785680
I0429 13:50:08.423384 47706 layer_factory.hpp:77] Creating layer res3b
I0429 13:50:08.423393 47706 net.cpp:106] Creating Layer res3b
I0429 13:50:08.423396 47706 net.cpp:454] res3b <- res3a_res3a_relu_0_split_1
I0429 13:50:08.423401 47706 net.cpp:454] res3b <- res3b_branch2c
I0429 13:50:08.423408 47706 net.cpp:411] res3b -> res3b
I0429 13:50:08.423429 47706 net.cpp:150] Setting up res3b
I0429 13:50:08.423436 47706 net.cpp:157] Top shape: 20 512 28 28 (8028160)
I0429 13:50:08.423440 47706 net.cpp:165] Memory required for data: 2821898320
I0429 13:50:08.423444 47706 layer_factory.hpp:77] Creating layer res3b_relu
I0429 13:50:08.423450 47706 net.cpp:106] Creating Layer res3b_relu
I0429 13:50:08.423454 47706 net.cpp:454] res3b_relu <- res3b
I0429 13:50:08.423461 47706 net.cpp:397] res3b_relu -> res3b (in-place)
I0429 13:50:08.423467 47706 net.cpp:150] Setting up res3b_relu
I0429 13:50:08.423472 47706 net.cpp:157] Top shape: 20 512 28 28 (8028160)
I0429 13:50:08.423476 47706 net.cpp:165] Memory required for data: 2854010960
I0429 13:50:08.423480 47706 layer_factory.hpp:77] Creating layer res3b_res3b_relu_0_split
I0429 13:50:08.423485 47706 net.cpp:106] Creating Layer res3b_res3b_relu_0_split
I0429 13:50:08.423490 47706 net.cpp:454] res3b_res3b_relu_0_split <- res3b
I0429 13:50:08.423494 47706 net.cpp:411] res3b_res3b_relu_0_split -> res3b_res3b_relu_0_split_0
I0429 13:50:08.423501 47706 net.cpp:411] res3b_res3b_relu_0_split -> res3b_res3b_relu_0_split_1
I0429 13:50:08.423529 47706 net.cpp:150] Setting up res3b_res3b_relu_0_split
I0429 13:50:08.423537 47706 net.cpp:157] Top shape: 20 512 28 28 (8028160)
I0429 13:50:08.423542 47706 net.cpp:157] Top shape: 20 512 28 28 (8028160)
I0429 13:50:08.423544 47706 net.cpp:165] Memory required for data: 2918236240
I0429 13:50:08.423548 47706 layer_factory.hpp:77] Creating layer res3c_branch2a
I0429 13:50:08.423560 47706 net.cpp:106] Creating Layer res3c_branch2a
I0429 13:50:08.423565 47706 net.cpp:454] res3c_branch2a <- res3b_res3b_relu_0_split_0
I0429 13:50:08.423575 47706 net.cpp:411] res3c_branch2a -> res3c_branch2a
I0429 13:50:08.423749 47706 net.cpp:150] Setting up res3c_branch2a
I0429 13:50:08.423759 47706 net.cpp:157] Top shape: 20 128 28 28 (2007040)
I0429 13:50:08.423763 47706 net.cpp:165] Memory required for data: 2926264400
I0429 13:50:08.423769 47706 layer_factory.hpp:77] Creating layer bn3c_branch2a
I0429 13:50:08.423775 47706 net.cpp:106] Creating Layer bn3c_branch2a
I0429 13:50:08.423779 47706 net.cpp:454] bn3c_branch2a <- res3c_branch2a
I0429 13:50:08.423784 47706 net.cpp:397] bn3c_branch2a -> res3c_branch2a (in-place)
I0429 13:50:08.423925 47706 net.cpp:150] Setting up bn3c_branch2a
I0429 13:50:08.423933 47706 net.cpp:157] Top shape: 20 128 28 28 (2007040)
I0429 13:50:08.423938 47706 net.cpp:165] Memory required for data: 2934292560
I0429 13:50:08.423944 47706 layer_factory.hpp:77] Creating layer scale3c_branch2a
I0429 13:50:08.423952 47706 net.cpp:106] Creating Layer scale3c_branch2a
I0429 13:50:08.423957 47706 net.cpp:454] scale3c_branch2a <- res3c_branch2a
I0429 13:50:08.423962 47706 net.cpp:397] scale3c_branch2a -> res3c_branch2a (in-place)
I0429 13:50:08.423995 47706 layer_factory.hpp:77] Creating layer scale3c_branch2a
I0429 13:50:08.424088 47706 net.cpp:150] Setting up scale3c_branch2a
I0429 13:50:08.424096 47706 net.cpp:157] Top shape: 20 128 28 28 (2007040)
I0429 13:50:08.424100 47706 net.cpp:165] Memory required for data: 2942320720
I0429 13:50:08.424106 47706 layer_factory.hpp:77] Creating layer res3c_branch2a_relu
I0429 13:50:08.424113 47706 net.cpp:106] Creating Layer res3c_branch2a_relu
I0429 13:50:08.424116 47706 net.cpp:454] res3c_branch2a_relu <- res3c_branch2a
I0429 13:50:08.424124 47706 net.cpp:397] res3c_branch2a_relu -> res3c_branch2a (in-place)
I0429 13:50:08.424130 47706 net.cpp:150] Setting up res3c_branch2a_relu
I0429 13:50:08.424136 47706 net.cpp:157] Top shape: 20 128 28 28 (2007040)
I0429 13:50:08.424139 47706 net.cpp:165] Memory required for data: 2950348880
I0429 13:50:08.424144 47706 layer_factory.hpp:77] Creating layer res3c_branch2b
I0429 13:50:08.424152 47706 net.cpp:106] Creating Layer res3c_branch2b
I0429 13:50:08.424156 47706 net.cpp:454] res3c_branch2b <- res3c_branch2a
I0429 13:50:08.424162 47706 net.cpp:411] res3c_branch2b -> res3c_branch2b
I0429 13:50:08.424891 47706 net.cpp:150] Setting up res3c_branch2b
I0429 13:50:08.424906 47706 net.cpp:157] Top shape: 20 128 28 28 (2007040)
I0429 13:50:08.424911 47706 net.cpp:165] Memory required for data: 2958377040
I0429 13:50:08.424917 47706 layer_factory.hpp:77] Creating layer bn3c_branch2b
I0429 13:50:08.424926 47706 net.cpp:106] Creating Layer bn3c_branch2b
I0429 13:50:08.424932 47706 net.cpp:454] bn3c_branch2b <- res3c_branch2b
I0429 13:50:08.424937 47706 net.cpp:397] bn3c_branch2b -> res3c_branch2b (in-place)
I0429 13:50:08.425081 47706 net.cpp:150] Setting up bn3c_branch2b
I0429 13:50:08.425091 47706 net.cpp:157] Top shape: 20 128 28 28 (2007040)
I0429 13:50:08.425094 47706 net.cpp:165] Memory required for data: 2966405200
I0429 13:50:08.425102 47706 layer_factory.hpp:77] Creating layer scale3c_branch2b
I0429 13:50:08.425110 47706 net.cpp:106] Creating Layer scale3c_branch2b
I0429 13:50:08.425115 47706 net.cpp:454] scale3c_branch2b <- res3c_branch2b
I0429 13:50:08.425120 47706 net.cpp:397] scale3c_branch2b -> res3c_branch2b (in-place)
I0429 13:50:08.425158 47706 layer_factory.hpp:77] Creating layer scale3c_branch2b
I0429 13:50:08.425249 47706 net.cpp:150] Setting up scale3c_branch2b
I0429 13:50:08.425258 47706 net.cpp:157] Top shape: 20 128 28 28 (2007040)
I0429 13:50:08.425262 47706 net.cpp:165] Memory required for data: 2974433360
I0429 13:50:08.425269 47706 layer_factory.hpp:77] Creating layer res3c_branch2b_relu
I0429 13:50:08.425276 47706 net.cpp:106] Creating Layer res3c_branch2b_relu
I0429 13:50:08.425279 47706 net.cpp:454] res3c_branch2b_relu <- res3c_branch2b
I0429 13:50:08.425287 47706 net.cpp:397] res3c_branch2b_relu -> res3c_branch2b (in-place)
I0429 13:50:08.425293 47706 net.cpp:150] Setting up res3c_branch2b_relu
I0429 13:50:08.425302 47706 net.cpp:157] Top shape: 20 128 28 28 (2007040)
I0429 13:50:08.425307 47706 net.cpp:165] Memory required for data: 2982461520
I0429 13:50:08.425310 47706 layer_factory.hpp:77] Creating layer res3c_branch2c
I0429 13:50:08.425323 47706 net.cpp:106] Creating Layer res3c_branch2c
I0429 13:50:08.425328 47706 net.cpp:454] res3c_branch2c <- res3c_branch2b
I0429 13:50:08.425333 47706 net.cpp:411] res3c_branch2c -> res3c_branch2c
I0429 13:50:08.425503 47706 net.cpp:150] Setting up res3c_branch2c
I0429 13:50:08.425513 47706 net.cpp:157] Top shape: 20 512 28 28 (8028160)
I0429 13:50:08.425516 47706 net.cpp:165] Memory required for data: 3014574160
I0429 13:50:08.425523 47706 layer_factory.hpp:77] Creating layer bn3c_branch2c
I0429 13:50:08.425529 47706 net.cpp:106] Creating Layer bn3c_branch2c
I0429 13:50:08.425532 47706 net.cpp:454] bn3c_branch2c <- res3c_branch2c
I0429 13:50:08.425539 47706 net.cpp:397] bn3c_branch2c -> res3c_branch2c (in-place)
I0429 13:50:08.425700 47706 net.cpp:150] Setting up bn3c_branch2c
I0429 13:50:08.425709 47706 net.cpp:157] Top shape: 20 512 28 28 (8028160)
I0429 13:50:08.425714 47706 net.cpp:165] Memory required for data: 3046686800
I0429 13:50:08.425724 47706 layer_factory.hpp:77] Creating layer scale3c_branch2c
I0429 13:50:08.425731 47706 net.cpp:106] Creating Layer scale3c_branch2c
I0429 13:50:08.425735 47706 net.cpp:454] scale3c_branch2c <- res3c_branch2c
I0429 13:50:08.425741 47706 net.cpp:397] scale3c_branch2c -> res3c_branch2c (in-place)
I0429 13:50:08.425777 47706 layer_factory.hpp:77] Creating layer scale3c_branch2c
I0429 13:50:08.425874 47706 net.cpp:150] Setting up scale3c_branch2c
I0429 13:50:08.425884 47706 net.cpp:157] Top shape: 20 512 28 28 (8028160)
I0429 13:50:08.425886 47706 net.cpp:165] Memory required for data: 3078799440
I0429 13:50:08.425894 47706 layer_factory.hpp:77] Creating layer res3c
I0429 13:50:08.425901 47706 net.cpp:106] Creating Layer res3c
I0429 13:50:08.425906 47706 net.cpp:454] res3c <- res3b_res3b_relu_0_split_1
I0429 13:50:08.425911 47706 net.cpp:454] res3c <- res3c_branch2c
I0429 13:50:08.425916 47706 net.cpp:411] res3c -> res3c
I0429 13:50:08.425938 47706 net.cpp:150] Setting up res3c
I0429 13:50:08.425945 47706 net.cpp:157] Top shape: 20 512 28 28 (8028160)
I0429 13:50:08.425950 47706 net.cpp:165] Memory required for data: 3110912080
I0429 13:50:08.425953 47706 layer_factory.hpp:77] Creating layer res3c_relu
I0429 13:50:08.425959 47706 net.cpp:106] Creating Layer res3c_relu
I0429 13:50:08.425963 47706 net.cpp:454] res3c_relu <- res3c
I0429 13:50:08.425971 47706 net.cpp:397] res3c_relu -> res3c (in-place)
I0429 13:50:08.425976 47706 net.cpp:150] Setting up res3c_relu
I0429 13:50:08.425982 47706 net.cpp:157] Top shape: 20 512 28 28 (8028160)
I0429 13:50:08.425987 47706 net.cpp:165] Memory required for data: 3143024720
I0429 13:50:08.425990 47706 layer_factory.hpp:77] Creating layer res3c_res3c_relu_0_split
I0429 13:50:08.425995 47706 net.cpp:106] Creating Layer res3c_res3c_relu_0_split
I0429 13:50:08.425999 47706 net.cpp:454] res3c_res3c_relu_0_split <- res3c
I0429 13:50:08.426004 47706 net.cpp:411] res3c_res3c_relu_0_split -> res3c_res3c_relu_0_split_0
I0429 13:50:08.426010 47706 net.cpp:411] res3c_res3c_relu_0_split -> res3c_res3c_relu_0_split_1
I0429 13:50:08.426040 47706 net.cpp:150] Setting up res3c_res3c_relu_0_split
I0429 13:50:08.426048 47706 net.cpp:157] Top shape: 20 512 28 28 (8028160)
I0429 13:50:08.426053 47706 net.cpp:157] Top shape: 20 512 28 28 (8028160)
I0429 13:50:08.426056 47706 net.cpp:165] Memory required for data: 3207250000
I0429 13:50:08.426060 47706 layer_factory.hpp:77] Creating layer res3d_branch2a
I0429 13:50:08.426067 47706 net.cpp:106] Creating Layer res3d_branch2a
I0429 13:50:08.426071 47706 net.cpp:454] res3d_branch2a <- res3c_res3c_relu_0_split_0
I0429 13:50:08.426077 47706 net.cpp:411] res3d_branch2a -> res3d_branch2a
I0429 13:50:08.426738 47706 net.cpp:150] Setting up res3d_branch2a
I0429 13:50:08.426751 47706 net.cpp:157] Top shape: 20 128 28 28 (2007040)
I0429 13:50:08.426755 47706 net.cpp:165] Memory required for data: 3215278160
I0429 13:50:08.426777 47706 layer_factory.hpp:77] Creating layer bn3d_branch2a
I0429 13:50:08.426786 47706 net.cpp:106] Creating Layer bn3d_branch2a
I0429 13:50:08.426790 47706 net.cpp:454] bn3d_branch2a <- res3d_branch2a
I0429 13:50:08.426796 47706 net.cpp:397] bn3d_branch2a -> res3d_branch2a (in-place)
I0429 13:50:08.426954 47706 net.cpp:150] Setting up bn3d_branch2a
I0429 13:50:08.426964 47706 net.cpp:157] Top shape: 20 128 28 28 (2007040)
I0429 13:50:08.426969 47706 net.cpp:165] Memory required for data: 3223306320
I0429 13:50:08.427002 47706 layer_factory.hpp:77] Creating layer scale3d_branch2a
I0429 13:50:08.427012 47706 net.cpp:106] Creating Layer scale3d_branch2a
I0429 13:50:08.427017 47706 net.cpp:454] scale3d_branch2a <- res3d_branch2a
I0429 13:50:08.427023 47706 net.cpp:397] scale3d_branch2a -> res3d_branch2a (in-place)
I0429 13:50:08.427060 47706 layer_factory.hpp:77] Creating layer scale3d_branch2a
I0429 13:50:08.427150 47706 net.cpp:150] Setting up scale3d_branch2a
I0429 13:50:08.427158 47706 net.cpp:157] Top shape: 20 128 28 28 (2007040)
I0429 13:50:08.427162 47706 net.cpp:165] Memory required for data: 3231334480
I0429 13:50:08.427168 47706 layer_factory.hpp:77] Creating layer res3d_branch2a_relu
I0429 13:50:08.427175 47706 net.cpp:106] Creating Layer res3d_branch2a_relu
I0429 13:50:08.427180 47706 net.cpp:454] res3d_branch2a_relu <- res3d_branch2a
I0429 13:50:08.427186 47706 net.cpp:397] res3d_branch2a_relu -> res3d_branch2a (in-place)
I0429 13:50:08.427193 47706 net.cpp:150] Setting up res3d_branch2a_relu
I0429 13:50:08.427199 47706 net.cpp:157] Top shape: 20 128 28 28 (2007040)
I0429 13:50:08.427202 47706 net.cpp:165] Memory required for data: 3239362640
I0429 13:50:08.427206 47706 layer_factory.hpp:77] Creating layer res3d_branch2b
I0429 13:50:08.427213 47706 net.cpp:106] Creating Layer res3d_branch2b
I0429 13:50:08.427218 47706 net.cpp:454] res3d_branch2b <- res3d_branch2a
I0429 13:50:08.427225 47706 net.cpp:411] res3d_branch2b -> res3d_branch2b
I0429 13:50:08.427929 47706 net.cpp:150] Setting up res3d_branch2b
I0429 13:50:08.427943 47706 net.cpp:157] Top shape: 20 128 28 28 (2007040)
I0429 13:50:08.427947 47706 net.cpp:165] Memory required for data: 3247390800
I0429 13:50:08.427954 47706 layer_factory.hpp:77] Creating layer bn3d_branch2b
I0429 13:50:08.427978 47706 net.cpp:106] Creating Layer bn3d_branch2b
I0429 13:50:08.427984 47706 net.cpp:454] bn3d_branch2b <- res3d_branch2b
I0429 13:50:08.427990 47706 net.cpp:397] bn3d_branch2b -> res3d_branch2b (in-place)
I0429 13:50:08.428145 47706 net.cpp:150] Setting up bn3d_branch2b
I0429 13:50:08.428154 47706 net.cpp:157] Top shape: 20 128 28 28 (2007040)
I0429 13:50:08.428158 47706 net.cpp:165] Memory required for data: 3255418960
I0429 13:50:08.428166 47706 layer_factory.hpp:77] Creating layer scale3d_branch2b
I0429 13:50:08.428174 47706 net.cpp:106] Creating Layer scale3d_branch2b
I0429 13:50:08.428179 47706 net.cpp:454] scale3d_branch2b <- res3d_branch2b
I0429 13:50:08.428196 47706 net.cpp:397] scale3d_branch2b -> res3d_branch2b (in-place)
I0429 13:50:08.428230 47706 layer_factory.hpp:77] Creating layer scale3d_branch2b
I0429 13:50:08.428321 47706 net.cpp:150] Setting up scale3d_branch2b
I0429 13:50:08.428330 47706 net.cpp:157] Top shape: 20 128 28 28 (2007040)
I0429 13:50:08.428334 47706 net.cpp:165] Memory required for data: 3263447120
I0429 13:50:08.428340 47706 layer_factory.hpp:77] Creating layer res3d_branch2b_relu
I0429 13:50:08.428346 47706 net.cpp:106] Creating Layer res3d_branch2b_relu
I0429 13:50:08.428350 47706 net.cpp:454] res3d_branch2b_relu <- res3d_branch2b
I0429 13:50:08.428356 47706 net.cpp:397] res3d_branch2b_relu -> res3d_branch2b (in-place)
I0429 13:50:08.428362 47706 net.cpp:150] Setting up res3d_branch2b_relu
I0429 13:50:08.428367 47706 net.cpp:157] Top shape: 20 128 28 28 (2007040)
I0429 13:50:08.428371 47706 net.cpp:165] Memory required for data: 3271475280
I0429 13:50:08.428375 47706 layer_factory.hpp:77] Creating layer res3d_branch2c
I0429 13:50:08.428385 47706 net.cpp:106] Creating Layer res3d_branch2c
I0429 13:50:08.428393 47706 net.cpp:454] res3d_branch2c <- res3d_branch2b
I0429 13:50:08.428400 47706 net.cpp:411] res3d_branch2c -> res3d_branch2c
I0429 13:50:08.428591 47706 net.cpp:150] Setting up res3d_branch2c
I0429 13:50:08.428602 47706 net.cpp:157] Top shape: 20 512 28 28 (8028160)
I0429 13:50:08.428606 47706 net.cpp:165] Memory required for data: 3303587920
I0429 13:50:08.428612 47706 layer_factory.hpp:77] Creating layer bn3d_branch2c
I0429 13:50:08.428618 47706 net.cpp:106] Creating Layer bn3d_branch2c
I0429 13:50:08.428623 47706 net.cpp:454] bn3d_branch2c <- res3d_branch2c
I0429 13:50:08.428628 47706 net.cpp:397] bn3d_branch2c -> res3d_branch2c (in-place)
I0429 13:50:08.428776 47706 net.cpp:150] Setting up bn3d_branch2c
I0429 13:50:08.428784 47706 net.cpp:157] Top shape: 20 512 28 28 (8028160)
I0429 13:50:08.428788 47706 net.cpp:165] Memory required for data: 3335700560
I0429 13:50:08.428797 47706 layer_factory.hpp:77] Creating layer scale3d_branch2c
I0429 13:50:08.428804 47706 net.cpp:106] Creating Layer scale3d_branch2c
I0429 13:50:08.428808 47706 net.cpp:454] scale3d_branch2c <- res3d_branch2c
I0429 13:50:08.428814 47706 net.cpp:397] scale3d_branch2c -> res3d_branch2c (in-place)
I0429 13:50:08.428850 47706 layer_factory.hpp:77] Creating layer scale3d_branch2c
I0429 13:50:08.428943 47706 net.cpp:150] Setting up scale3d_branch2c
I0429 13:50:08.428951 47706 net.cpp:157] Top shape: 20 512 28 28 (8028160)
I0429 13:50:08.428956 47706 net.cpp:165] Memory required for data: 3367813200
I0429 13:50:08.428962 47706 layer_factory.hpp:77] Creating layer res3d
I0429 13:50:08.428969 47706 net.cpp:106] Creating Layer res3d
I0429 13:50:08.428974 47706 net.cpp:454] res3d <- res3c_res3c_relu_0_split_1
I0429 13:50:08.428979 47706 net.cpp:454] res3d <- res3d_branch2c
I0429 13:50:08.428984 47706 net.cpp:411] res3d -> res3d
I0429 13:50:08.429006 47706 net.cpp:150] Setting up res3d
I0429 13:50:08.429013 47706 net.cpp:157] Top shape: 20 512 28 28 (8028160)
I0429 13:50:08.429018 47706 net.cpp:165] Memory required for data: 3399925840
I0429 13:50:08.429021 47706 layer_factory.hpp:77] Creating layer res3d_relu
I0429 13:50:08.429028 47706 net.cpp:106] Creating Layer res3d_relu
I0429 13:50:08.429031 47706 net.cpp:454] res3d_relu <- res3d
I0429 13:50:08.429039 47706 net.cpp:397] res3d_relu -> res3d (in-place)
I0429 13:50:08.429046 47706 net.cpp:150] Setting up res3d_relu
I0429 13:50:08.429051 47706 net.cpp:157] Top shape: 20 512 28 28 (8028160)
I0429 13:50:08.429054 47706 net.cpp:165] Memory required for data: 3432038480
I0429 13:50:08.429059 47706 layer_factory.hpp:77] Creating layer res3d_res3d_relu_0_split
I0429 13:50:08.429064 47706 net.cpp:106] Creating Layer res3d_res3d_relu_0_split
I0429 13:50:08.429067 47706 net.cpp:454] res3d_res3d_relu_0_split <- res3d
I0429 13:50:08.429074 47706 net.cpp:411] res3d_res3d_relu_0_split -> res3d_res3d_relu_0_split_0
I0429 13:50:08.429080 47706 net.cpp:411] res3d_res3d_relu_0_split -> res3d_res3d_relu_0_split_1
I0429 13:50:08.429108 47706 net.cpp:150] Setting up res3d_res3d_relu_0_split
I0429 13:50:08.429116 47706 net.cpp:157] Top shape: 20 512 28 28 (8028160)
I0429 13:50:08.429121 47706 net.cpp:157] Top shape: 20 512 28 28 (8028160)
I0429 13:50:08.429126 47706 net.cpp:165] Memory required for data: 3496263760
I0429 13:50:08.429129 47706 layer_factory.hpp:77] Creating layer res4a_branch1
I0429 13:50:08.429136 47706 net.cpp:106] Creating Layer res4a_branch1
I0429 13:50:08.429141 47706 net.cpp:454] res4a_branch1 <- res3d_res3d_relu_0_split_0
I0429 13:50:08.429147 47706 net.cpp:411] res4a_branch1 -> res4a_branch1
I0429 13:50:08.430477 47706 net.cpp:150] Setting up res4a_branch1
I0429 13:50:08.430493 47706 net.cpp:157] Top shape: 20 1024 14 14 (4014080)
I0429 13:50:08.430497 47706 net.cpp:165] Memory required for data: 3512320080
I0429 13:50:08.430505 47706 layer_factory.hpp:77] Creating layer bn4a_branch1
I0429 13:50:08.430511 47706 net.cpp:106] Creating Layer bn4a_branch1
I0429 13:50:08.430516 47706 net.cpp:454] bn4a_branch1 <- res4a_branch1
I0429 13:50:08.430521 47706 net.cpp:397] bn4a_branch1 -> res4a_branch1 (in-place)
I0429 13:50:08.430706 47706 net.cpp:150] Setting up bn4a_branch1
I0429 13:50:08.430716 47706 net.cpp:157] Top shape: 20 1024 14 14 (4014080)
I0429 13:50:08.430721 47706 net.cpp:165] Memory required for data: 3528376400
I0429 13:50:08.430728 47706 layer_factory.hpp:77] Creating layer scale4a_branch1
I0429 13:50:08.430735 47706 net.cpp:106] Creating Layer scale4a_branch1
I0429 13:50:08.430739 47706 net.cpp:454] scale4a_branch1 <- res4a_branch1
I0429 13:50:08.430745 47706 net.cpp:397] scale4a_branch1 -> res4a_branch1 (in-place)
I0429 13:50:08.430779 47706 layer_factory.hpp:77] Creating layer scale4a_branch1
I0429 13:50:08.430872 47706 net.cpp:150] Setting up scale4a_branch1
I0429 13:50:08.430881 47706 net.cpp:157] Top shape: 20 1024 14 14 (4014080)
I0429 13:50:08.430884 47706 net.cpp:165] Memory required for data: 3544432720
I0429 13:50:08.430891 47706 layer_factory.hpp:77] Creating layer res4a_branch2a
I0429 13:50:08.430903 47706 net.cpp:106] Creating Layer res4a_branch2a
I0429 13:50:08.430909 47706 net.cpp:454] res4a_branch2a <- res3d_res3d_relu_0_split_1
I0429 13:50:08.430917 47706 net.cpp:411] res4a_branch2a -> res4a_branch2a
I0429 13:50:08.431143 47706 net.cpp:150] Setting up res4a_branch2a
I0429 13:50:08.431152 47706 net.cpp:157] Top shape: 20 256 14 14 (1003520)
I0429 13:50:08.431156 47706 net.cpp:165] Memory required for data: 3548446800
I0429 13:50:08.431162 47706 layer_factory.hpp:77] Creating layer bn4a_branch2a
I0429 13:50:08.431169 47706 net.cpp:106] Creating Layer bn4a_branch2a
I0429 13:50:08.431172 47706 net.cpp:454] bn4a_branch2a <- res4a_branch2a
I0429 13:50:08.431179 47706 net.cpp:397] bn4a_branch2a -> res4a_branch2a (in-place)
I0429 13:50:08.431318 47706 net.cpp:150] Setting up bn4a_branch2a
I0429 13:50:08.431327 47706 net.cpp:157] Top shape: 20 256 14 14 (1003520)
I0429 13:50:08.431331 47706 net.cpp:165] Memory required for data: 3552460880
I0429 13:50:08.431340 47706 layer_factory.hpp:77] Creating layer scale4a_branch2a
I0429 13:50:08.431347 47706 net.cpp:106] Creating Layer scale4a_branch2a
I0429 13:50:08.431351 47706 net.cpp:454] scale4a_branch2a <- res4a_branch2a
I0429 13:50:08.431357 47706 net.cpp:397] scale4a_branch2a -> res4a_branch2a (in-place)
I0429 13:50:08.431392 47706 layer_factory.hpp:77] Creating layer scale4a_branch2a
I0429 13:50:08.431478 47706 net.cpp:150] Setting up scale4a_branch2a
I0429 13:50:08.431486 47706 net.cpp:157] Top shape: 20 256 14 14 (1003520)
I0429 13:50:08.431490 47706 net.cpp:165] Memory required for data: 3556474960
I0429 13:50:08.431496 47706 layer_factory.hpp:77] Creating layer res4a_branch2a_relu
I0429 13:50:08.431505 47706 net.cpp:106] Creating Layer res4a_branch2a_relu
I0429 13:50:08.431509 47706 net.cpp:454] res4a_branch2a_relu <- res4a_branch2a
I0429 13:50:08.431515 47706 net.cpp:397] res4a_branch2a_relu -> res4a_branch2a (in-place)
I0429 13:50:08.431521 47706 net.cpp:150] Setting up res4a_branch2a_relu
I0429 13:50:08.431526 47706 net.cpp:157] Top shape: 20 256 14 14 (1003520)
I0429 13:50:08.431530 47706 net.cpp:165] Memory required for data: 3560489040
I0429 13:50:08.431535 47706 layer_factory.hpp:77] Creating layer res4a_branch2b
I0429 13:50:08.431543 47706 net.cpp:106] Creating Layer res4a_branch2b
I0429 13:50:08.431547 47706 net.cpp:454] res4a_branch2b <- res4a_branch2a
I0429 13:50:08.431553 47706 net.cpp:411] res4a_branch2b -> res4a_branch2b
I0429 13:50:08.433010 47706 net.cpp:150] Setting up res4a_branch2b
I0429 13:50:08.433037 47706 net.cpp:157] Top shape: 20 256 14 14 (1003520)
I0429 13:50:08.433042 47706 net.cpp:165] Memory required for data: 3564503120
I0429 13:50:08.433048 47706 layer_factory.hpp:77] Creating layer bn4a_branch2b
I0429 13:50:08.433056 47706 net.cpp:106] Creating Layer bn4a_branch2b
I0429 13:50:08.433061 47706 net.cpp:454] bn4a_branch2b <- res4a_branch2b
I0429 13:50:08.433066 47706 net.cpp:397] bn4a_branch2b -> res4a_branch2b (in-place)
I0429 13:50:08.433209 47706 net.cpp:150] Setting up bn4a_branch2b
I0429 13:50:08.433218 47706 net.cpp:157] Top shape: 20 256 14 14 (1003520)
I0429 13:50:08.433223 47706 net.cpp:165] Memory required for data: 3568517200
I0429 13:50:08.433234 47706 layer_factory.hpp:77] Creating layer scale4a_branch2b
I0429 13:50:08.433243 47706 net.cpp:106] Creating Layer scale4a_branch2b
I0429 13:50:08.433248 47706 net.cpp:454] scale4a_branch2b <- res4a_branch2b
I0429 13:50:08.433254 47706 net.cpp:397] scale4a_branch2b -> res4a_branch2b (in-place)
I0429 13:50:08.433292 47706 layer_factory.hpp:77] Creating layer scale4a_branch2b
I0429 13:50:08.433387 47706 net.cpp:150] Setting up scale4a_branch2b
I0429 13:50:08.433394 47706 net.cpp:157] Top shape: 20 256 14 14 (1003520)
I0429 13:50:08.433398 47706 net.cpp:165] Memory required for data: 3572531280
I0429 13:50:08.433405 47706 layer_factory.hpp:77] Creating layer res4a_branch2b_relu
I0429 13:50:08.433411 47706 net.cpp:106] Creating Layer res4a_branch2b_relu
I0429 13:50:08.433415 47706 net.cpp:454] res4a_branch2b_relu <- res4a_branch2b
I0429 13:50:08.433420 47706 net.cpp:397] res4a_branch2b_relu -> res4a_branch2b (in-place)
I0429 13:50:08.433426 47706 net.cpp:150] Setting up res4a_branch2b_relu
I0429 13:50:08.433432 47706 net.cpp:157] Top shape: 20 256 14 14 (1003520)
I0429 13:50:08.433436 47706 net.cpp:165] Memory required for data: 3576545360
I0429 13:50:08.433439 47706 layer_factory.hpp:77] Creating layer res4a_branch2c
I0429 13:50:08.433449 47706 net.cpp:106] Creating Layer res4a_branch2c
I0429 13:50:08.433454 47706 net.cpp:454] res4a_branch2c <- res4a_branch2b
I0429 13:50:08.433461 47706 net.cpp:411] res4a_branch2c -> res4a_branch2c
I0429 13:50:08.434262 47706 net.cpp:150] Setting up res4a_branch2c
I0429 13:50:08.434276 47706 net.cpp:157] Top shape: 20 1024 14 14 (4014080)
I0429 13:50:08.434281 47706 net.cpp:165] Memory required for data: 3592601680
I0429 13:50:08.434288 47706 layer_factory.hpp:77] Creating layer bn4a_branch2c
I0429 13:50:08.434294 47706 net.cpp:106] Creating Layer bn4a_branch2c
I0429 13:50:08.434298 47706 net.cpp:454] bn4a_branch2c <- res4a_branch2c
I0429 13:50:08.434306 47706 net.cpp:397] bn4a_branch2c -> res4a_branch2c (in-place)
I0429 13:50:08.434458 47706 net.cpp:150] Setting up bn4a_branch2c
I0429 13:50:08.434466 47706 net.cpp:157] Top shape: 20 1024 14 14 (4014080)
I0429 13:50:08.434470 47706 net.cpp:165] Memory required for data: 3608658000
I0429 13:50:08.434478 47706 layer_factory.hpp:77] Creating layer scale4a_branch2c
I0429 13:50:08.434485 47706 net.cpp:106] Creating Layer scale4a_branch2c
I0429 13:50:08.434489 47706 net.cpp:454] scale4a_branch2c <- res4a_branch2c
I0429 13:50:08.434494 47706 net.cpp:397] scale4a_branch2c -> res4a_branch2c (in-place)
I0429 13:50:08.434530 47706 layer_factory.hpp:77] Creating layer scale4a_branch2c
I0429 13:50:08.434622 47706 net.cpp:150] Setting up scale4a_branch2c
I0429 13:50:08.434630 47706 net.cpp:157] Top shape: 20 1024 14 14 (4014080)
I0429 13:50:08.434634 47706 net.cpp:165] Memory required for data: 3624714320
I0429 13:50:08.434641 47706 layer_factory.hpp:77] Creating layer res4a
I0429 13:50:08.434649 47706 net.cpp:106] Creating Layer res4a
I0429 13:50:08.434653 47706 net.cpp:454] res4a <- res4a_branch1
I0429 13:50:08.434659 47706 net.cpp:454] res4a <- res4a_branch2c
I0429 13:50:08.434664 47706 net.cpp:411] res4a -> res4a
I0429 13:50:08.434686 47706 net.cpp:150] Setting up res4a
I0429 13:50:08.434694 47706 net.cpp:157] Top shape: 20 1024 14 14 (4014080)
I0429 13:50:08.434697 47706 net.cpp:165] Memory required for data: 3640770640
I0429 13:50:08.434701 47706 layer_factory.hpp:77] Creating layer res4a_relu
I0429 13:50:08.434707 47706 net.cpp:106] Creating Layer res4a_relu
I0429 13:50:08.434711 47706 net.cpp:454] res4a_relu <- res4a
I0429 13:50:08.434721 47706 net.cpp:397] res4a_relu -> res4a (in-place)
I0429 13:50:08.434728 47706 net.cpp:150] Setting up res4a_relu
I0429 13:50:08.434733 47706 net.cpp:157] Top shape: 20 1024 14 14 (4014080)
I0429 13:50:08.434737 47706 net.cpp:165] Memory required for data: 3656826960
I0429 13:50:08.434741 47706 layer_factory.hpp:77] Creating layer res4a_res4a_relu_0_split
I0429 13:50:08.434746 47706 net.cpp:106] Creating Layer res4a_res4a_relu_0_split
I0429 13:50:08.434754 47706 net.cpp:454] res4a_res4a_relu_0_split <- res4a
I0429 13:50:08.434761 47706 net.cpp:411] res4a_res4a_relu_0_split -> res4a_res4a_relu_0_split_0
I0429 13:50:08.434767 47706 net.cpp:411] res4a_res4a_relu_0_split -> res4a_res4a_relu_0_split_1
I0429 13:50:08.434798 47706 net.cpp:150] Setting up res4a_res4a_relu_0_split
I0429 13:50:08.434805 47706 net.cpp:157] Top shape: 20 1024 14 14 (4014080)
I0429 13:50:08.434810 47706 net.cpp:157] Top shape: 20 1024 14 14 (4014080)
I0429 13:50:08.434813 47706 net.cpp:165] Memory required for data: 3688939600
I0429 13:50:08.434818 47706 layer_factory.hpp:77] Creating layer res4b_branch2a
I0429 13:50:08.434836 47706 net.cpp:106] Creating Layer res4b_branch2a
I0429 13:50:08.434841 47706 net.cpp:454] res4b_branch2a <- res4a_res4a_relu_0_split_0
I0429 13:50:08.434849 47706 net.cpp:411] res4b_branch2a -> res4b_branch2a
I0429 13:50:08.435642 47706 net.cpp:150] Setting up res4b_branch2a
I0429 13:50:08.435655 47706 net.cpp:157] Top shape: 20 256 14 14 (1003520)
I0429 13:50:08.435660 47706 net.cpp:165] Memory required for data: 3692953680
I0429 13:50:08.435667 47706 layer_factory.hpp:77] Creating layer bn4b_branch2a
I0429 13:50:08.435673 47706 net.cpp:106] Creating Layer bn4b_branch2a
I0429 13:50:08.435678 47706 net.cpp:454] bn4b_branch2a <- res4b_branch2a
I0429 13:50:08.435683 47706 net.cpp:397] bn4b_branch2a -> res4b_branch2a (in-place)
I0429 13:50:08.435832 47706 net.cpp:150] Setting up bn4b_branch2a
I0429 13:50:08.435842 47706 net.cpp:157] Top shape: 20 256 14 14 (1003520)
I0429 13:50:08.435847 47706 net.cpp:165] Memory required for data: 3696967760
I0429 13:50:08.435854 47706 layer_factory.hpp:77] Creating layer scale4b_branch2a
I0429 13:50:08.435863 47706 net.cpp:106] Creating Layer scale4b_branch2a
I0429 13:50:08.435868 47706 net.cpp:454] scale4b_branch2a <- res4b_branch2a
I0429 13:50:08.435873 47706 net.cpp:397] scale4b_branch2a -> res4b_branch2a (in-place)
I0429 13:50:08.435911 47706 layer_factory.hpp:77] Creating layer scale4b_branch2a
I0429 13:50:08.436002 47706 net.cpp:150] Setting up scale4b_branch2a
I0429 13:50:08.436012 47706 net.cpp:157] Top shape: 20 256 14 14 (1003520)
I0429 13:50:08.436014 47706 net.cpp:165] Memory required for data: 3700981840
I0429 13:50:08.436022 47706 layer_factory.hpp:77] Creating layer res4b_branch2a_relu
I0429 13:50:08.436029 47706 net.cpp:106] Creating Layer res4b_branch2a_relu
I0429 13:50:08.436034 47706 net.cpp:454] res4b_branch2a_relu <- res4b_branch2a
I0429 13:50:08.436039 47706 net.cpp:397] res4b_branch2a_relu -> res4b_branch2a (in-place)
I0429 13:50:08.436045 47706 net.cpp:150] Setting up res4b_branch2a_relu
I0429 13:50:08.436051 47706 net.cpp:157] Top shape: 20 256 14 14 (1003520)
I0429 13:50:08.436055 47706 net.cpp:165] Memory required for data: 3704995920
I0429 13:50:08.436058 47706 layer_factory.hpp:77] Creating layer res4b_branch2b
I0429 13:50:08.436070 47706 net.cpp:106] Creating Layer res4b_branch2b
I0429 13:50:08.436075 47706 net.cpp:454] res4b_branch2b <- res4b_branch2a
I0429 13:50:08.436080 47706 net.cpp:411] res4b_branch2b -> res4b_branch2b
I0429 13:50:08.438488 47706 net.cpp:150] Setting up res4b_branch2b
I0429 13:50:08.438503 47706 net.cpp:157] Top shape: 20 256 14 14 (1003520)
I0429 13:50:08.438506 47706 net.cpp:165] Memory required for data: 3709010000
I0429 13:50:08.438513 47706 layer_factory.hpp:77] Creating layer bn4b_branch2b
I0429 13:50:08.438522 47706 net.cpp:106] Creating Layer bn4b_branch2b
I0429 13:50:08.438527 47706 net.cpp:454] bn4b_branch2b <- res4b_branch2b
I0429 13:50:08.438534 47706 net.cpp:397] bn4b_branch2b -> res4b_branch2b (in-place)
I0429 13:50:08.438688 47706 net.cpp:150] Setting up bn4b_branch2b
I0429 13:50:08.438697 47706 net.cpp:157] Top shape: 20 256 14 14 (1003520)
I0429 13:50:08.438701 47706 net.cpp:165] Memory required for data: 3713024080
I0429 13:50:08.438709 47706 layer_factory.hpp:77] Creating layer scale4b_branch2b
I0429 13:50:08.438715 47706 net.cpp:106] Creating Layer scale4b_branch2b
I0429 13:50:08.438720 47706 net.cpp:454] scale4b_branch2b <- res4b_branch2b
I0429 13:50:08.438727 47706 net.cpp:397] scale4b_branch2b -> res4b_branch2b (in-place)
I0429 13:50:08.438771 47706 layer_factory.hpp:77] Creating layer scale4b_branch2b
I0429 13:50:08.438863 47706 net.cpp:150] Setting up scale4b_branch2b
I0429 13:50:08.438870 47706 net.cpp:157] Top shape: 20 256 14 14 (1003520)
I0429 13:50:08.438874 47706 net.cpp:165] Memory required for data: 3717038160
I0429 13:50:08.438881 47706 layer_factory.hpp:77] Creating layer res4b_branch2b_relu
I0429 13:50:08.438887 47706 net.cpp:106] Creating Layer res4b_branch2b_relu
I0429 13:50:08.438891 47706 net.cpp:454] res4b_branch2b_relu <- res4b_branch2b
I0429 13:50:08.438896 47706 net.cpp:397] res4b_branch2b_relu -> res4b_branch2b (in-place)
I0429 13:50:08.438904 47706 net.cpp:150] Setting up res4b_branch2b_relu
I0429 13:50:08.438908 47706 net.cpp:157] Top shape: 20 256 14 14 (1003520)
I0429 13:50:08.438912 47706 net.cpp:165] Memory required for data: 3721052240
I0429 13:50:08.438916 47706 layer_factory.hpp:77] Creating layer res4b_branch2c
I0429 13:50:08.438925 47706 net.cpp:106] Creating Layer res4b_branch2c
I0429 13:50:08.438930 47706 net.cpp:454] res4b_branch2c <- res4b_branch2b
I0429 13:50:08.438937 47706 net.cpp:411] res4b_branch2c -> res4b_branch2c
I0429 13:50:08.439725 47706 net.cpp:150] Setting up res4b_branch2c
I0429 13:50:08.439739 47706 net.cpp:157] Top shape: 20 1024 14 14 (4014080)
I0429 13:50:08.439744 47706 net.cpp:165] Memory required for data: 3737108560
I0429 13:50:08.439751 47706 layer_factory.hpp:77] Creating layer bn4b_branch2c
I0429 13:50:08.439759 47706 net.cpp:106] Creating Layer bn4b_branch2c
I0429 13:50:08.439764 47706 net.cpp:454] bn4b_branch2c <- res4b_branch2c
I0429 13:50:08.439770 47706 net.cpp:397] bn4b_branch2c -> res4b_branch2c (in-place)
I0429 13:50:08.439946 47706 net.cpp:150] Setting up bn4b_branch2c
I0429 13:50:08.439955 47706 net.cpp:157] Top shape: 20 1024 14 14 (4014080)
I0429 13:50:08.439960 47706 net.cpp:165] Memory required for data: 3753164880
I0429 13:50:08.439968 47706 layer_factory.hpp:77] Creating layer scale4b_branch2c
I0429 13:50:08.439975 47706 net.cpp:106] Creating Layer scale4b_branch2c
I0429 13:50:08.439980 47706 net.cpp:454] scale4b_branch2c <- res4b_branch2c
I0429 13:50:08.439985 47706 net.cpp:397] scale4b_branch2c -> res4b_branch2c (in-place)
I0429 13:50:08.440022 47706 layer_factory.hpp:77] Creating layer scale4b_branch2c
I0429 13:50:08.440121 47706 net.cpp:150] Setting up scale4b_branch2c
I0429 13:50:08.440129 47706 net.cpp:157] Top shape: 20 1024 14 14 (4014080)
I0429 13:50:08.440134 47706 net.cpp:165] Memory required for data: 3769221200
I0429 13:50:08.440140 47706 layer_factory.hpp:77] Creating layer res4b
I0429 13:50:08.440146 47706 net.cpp:106] Creating Layer res4b
I0429 13:50:08.440152 47706 net.cpp:454] res4b <- res4a_res4a_relu_0_split_1
I0429 13:50:08.440157 47706 net.cpp:454] res4b <- res4b_branch2c
I0429 13:50:08.440163 47706 net.cpp:411] res4b -> res4b
I0429 13:50:08.440184 47706 net.cpp:150] Setting up res4b
I0429 13:50:08.440191 47706 net.cpp:157] Top shape: 20 1024 14 14 (4014080)
I0429 13:50:08.440196 47706 net.cpp:165] Memory required for data: 3785277520
I0429 13:50:08.440201 47706 layer_factory.hpp:77] Creating layer res4b_relu
I0429 13:50:08.440207 47706 net.cpp:106] Creating Layer res4b_relu
I0429 13:50:08.440212 47706 net.cpp:454] res4b_relu <- res4b
I0429 13:50:08.440217 47706 net.cpp:397] res4b_relu -> res4b (in-place)
I0429 13:50:08.440225 47706 net.cpp:150] Setting up res4b_relu
I0429 13:50:08.440230 47706 net.cpp:157] Top shape: 20 1024 14 14 (4014080)
I0429 13:50:08.440234 47706 net.cpp:165] Memory required for data: 3801333840
I0429 13:50:08.440238 47706 layer_factory.hpp:77] Creating layer res4b_res4b_relu_0_split
I0429 13:50:08.440243 47706 net.cpp:106] Creating Layer res4b_res4b_relu_0_split
I0429 13:50:08.440248 47706 net.cpp:454] res4b_res4b_relu_0_split <- res4b
I0429 13:50:08.440253 47706 net.cpp:411] res4b_res4b_relu_0_split -> res4b_res4b_relu_0_split_0
I0429 13:50:08.440259 47706 net.cpp:411] res4b_res4b_relu_0_split -> res4b_res4b_relu_0_split_1
I0429 13:50:08.440289 47706 net.cpp:150] Setting up res4b_res4b_relu_0_split
I0429 13:50:08.440301 47706 net.cpp:157] Top shape: 20 1024 14 14 (4014080)
I0429 13:50:08.440306 47706 net.cpp:157] Top shape: 20 1024 14 14 (4014080)
I0429 13:50:08.440310 47706 net.cpp:165] Memory required for data: 3833446480
I0429 13:50:08.440315 47706 layer_factory.hpp:77] Creating layer res4c_branch2a
I0429 13:50:08.440323 47706 net.cpp:106] Creating Layer res4c_branch2a
I0429 13:50:08.440328 47706 net.cpp:454] res4c_branch2a <- res4b_res4b_relu_0_split_0
I0429 13:50:08.440335 47706 net.cpp:411] res4c_branch2a -> res4c_branch2a
I0429 13:50:08.441136 47706 net.cpp:150] Setting up res4c_branch2a
I0429 13:50:08.441151 47706 net.cpp:157] Top shape: 20 256 14 14 (1003520)
I0429 13:50:08.441156 47706 net.cpp:165] Memory required for data: 3837460560
I0429 13:50:08.441162 47706 layer_factory.hpp:77] Creating layer bn4c_branch2a
I0429 13:50:08.441169 47706 net.cpp:106] Creating Layer bn4c_branch2a
I0429 13:50:08.441174 47706 net.cpp:454] bn4c_branch2a <- res4c_branch2a
I0429 13:50:08.441179 47706 net.cpp:397] bn4c_branch2a -> res4c_branch2a (in-place)
I0429 13:50:08.441329 47706 net.cpp:150] Setting up bn4c_branch2a
I0429 13:50:08.441339 47706 net.cpp:157] Top shape: 20 256 14 14 (1003520)
I0429 13:50:08.441342 47706 net.cpp:165] Memory required for data: 3841474640
I0429 13:50:08.441350 47706 layer_factory.hpp:77] Creating layer scale4c_branch2a
I0429 13:50:08.441357 47706 net.cpp:106] Creating Layer scale4c_branch2a
I0429 13:50:08.441361 47706 net.cpp:454] scale4c_branch2a <- res4c_branch2a
I0429 13:50:08.441367 47706 net.cpp:397] scale4c_branch2a -> res4c_branch2a (in-place)
I0429 13:50:08.441404 47706 layer_factory.hpp:77] Creating layer scale4c_branch2a
I0429 13:50:08.441498 47706 net.cpp:150] Setting up scale4c_branch2a
I0429 13:50:08.441505 47706 net.cpp:157] Top shape: 20 256 14 14 (1003520)
I0429 13:50:08.441509 47706 net.cpp:165] Memory required for data: 3845488720
I0429 13:50:08.441516 47706 layer_factory.hpp:77] Creating layer res4c_branch2a_relu
I0429 13:50:08.441524 47706 net.cpp:106] Creating Layer res4c_branch2a_relu
I0429 13:50:08.441529 47706 net.cpp:454] res4c_branch2a_relu <- res4c_branch2a
I0429 13:50:08.441534 47706 net.cpp:397] res4c_branch2a_relu -> res4c_branch2a (in-place)
I0429 13:50:08.441540 47706 net.cpp:150] Setting up res4c_branch2a_relu
I0429 13:50:08.441545 47706 net.cpp:157] Top shape: 20 256 14 14 (1003520)
I0429 13:50:08.441550 47706 net.cpp:165] Memory required for data: 3849502800
I0429 13:50:08.441553 47706 layer_factory.hpp:77] Creating layer res4c_branch2b
I0429 13:50:08.441561 47706 net.cpp:106] Creating Layer res4c_branch2b
I0429 13:50:08.441566 47706 net.cpp:454] res4c_branch2b <- res4c_branch2a
I0429 13:50:08.441571 47706 net.cpp:411] res4c_branch2b -> res4c_branch2b
I0429 13:50:08.443114 47706 net.cpp:150] Setting up res4c_branch2b
I0429 13:50:08.443130 47706 net.cpp:157] Top shape: 20 256 14 14 (1003520)
I0429 13:50:08.443135 47706 net.cpp:165] Memory required for data: 3853516880
I0429 13:50:08.443142 47706 layer_factory.hpp:77] Creating layer bn4c_branch2b
I0429 13:50:08.443150 47706 net.cpp:106] Creating Layer bn4c_branch2b
I0429 13:50:08.443155 47706 net.cpp:454] bn4c_branch2b <- res4c_branch2b
I0429 13:50:08.443162 47706 net.cpp:397] bn4c_branch2b -> res4c_branch2b (in-place)
I0429 13:50:08.443339 47706 net.cpp:150] Setting up bn4c_branch2b
I0429 13:50:08.443349 47706 net.cpp:157] Top shape: 20 256 14 14 (1003520)
I0429 13:50:08.443352 47706 net.cpp:165] Memory required for data: 3857530960
I0429 13:50:08.443361 47706 layer_factory.hpp:77] Creating layer scale4c_branch2b
I0429 13:50:08.443368 47706 net.cpp:106] Creating Layer scale4c_branch2b
I0429 13:50:08.443372 47706 net.cpp:454] scale4c_branch2b <- res4c_branch2b
I0429 13:50:08.443377 47706 net.cpp:397] scale4c_branch2b -> res4c_branch2b (in-place)
I0429 13:50:08.443414 47706 layer_factory.hpp:77] Creating layer scale4c_branch2b
I0429 13:50:08.443502 47706 net.cpp:150] Setting up scale4c_branch2b
I0429 13:50:08.443511 47706 net.cpp:157] Top shape: 20 256 14 14 (1003520)
I0429 13:50:08.443519 47706 net.cpp:165] Memory required for data: 3861545040
I0429 13:50:08.443526 47706 layer_factory.hpp:77] Creating layer res4c_branch2b_relu
I0429 13:50:08.443532 47706 net.cpp:106] Creating Layer res4c_branch2b_relu
I0429 13:50:08.443537 47706 net.cpp:454] res4c_branch2b_relu <- res4c_branch2b
I0429 13:50:08.443543 47706 net.cpp:397] res4c_branch2b_relu -> res4c_branch2b (in-place)
I0429 13:50:08.443550 47706 net.cpp:150] Setting up res4c_branch2b_relu
I0429 13:50:08.443557 47706 net.cpp:157] Top shape: 20 256 14 14 (1003520)
I0429 13:50:08.443560 47706 net.cpp:165] Memory required for data: 3865559120
I0429 13:50:08.443564 47706 layer_factory.hpp:77] Creating layer res4c_branch2c
I0429 13:50:08.443572 47706 net.cpp:106] Creating Layer res4c_branch2c
I0429 13:50:08.443575 47706 net.cpp:454] res4c_branch2c <- res4c_branch2b
I0429 13:50:08.443583 47706 net.cpp:411] res4c_branch2c -> res4c_branch2c
I0429 13:50:08.444383 47706 net.cpp:150] Setting up res4c_branch2c
I0429 13:50:08.444398 47706 net.cpp:157] Top shape: 20 1024 14 14 (4014080)
I0429 13:50:08.444403 47706 net.cpp:165] Memory required for data: 3881615440
I0429 13:50:08.444422 47706 layer_factory.hpp:77] Creating layer bn4c_branch2c
I0429 13:50:08.444427 47706 net.cpp:106] Creating Layer bn4c_branch2c
I0429 13:50:08.444432 47706 net.cpp:454] bn4c_branch2c <- res4c_branch2c
I0429 13:50:08.444444 47706 net.cpp:397] bn4c_branch2c -> res4c_branch2c (in-place)
I0429 13:50:08.444598 47706 net.cpp:150] Setting up bn4c_branch2c
I0429 13:50:08.444607 47706 net.cpp:157] Top shape: 20 1024 14 14 (4014080)
I0429 13:50:08.444612 47706 net.cpp:165] Memory required for data: 3897671760
I0429 13:50:08.444619 47706 layer_factory.hpp:77] Creating layer scale4c_branch2c
I0429 13:50:08.444628 47706 net.cpp:106] Creating Layer scale4c_branch2c
I0429 13:50:08.444633 47706 net.cpp:454] scale4c_branch2c <- res4c_branch2c
I0429 13:50:08.444638 47706 net.cpp:397] scale4c_branch2c -> res4c_branch2c (in-place)
I0429 13:50:08.444675 47706 layer_factory.hpp:77] Creating layer scale4c_branch2c
I0429 13:50:08.444775 47706 net.cpp:150] Setting up scale4c_branch2c
I0429 13:50:08.444783 47706 net.cpp:157] Top shape: 20 1024 14 14 (4014080)
I0429 13:50:08.444787 47706 net.cpp:165] Memory required for data: 3913728080
I0429 13:50:08.444793 47706 layer_factory.hpp:77] Creating layer res4c
I0429 13:50:08.444802 47706 net.cpp:106] Creating Layer res4c
I0429 13:50:08.444807 47706 net.cpp:454] res4c <- res4b_res4b_relu_0_split_1
I0429 13:50:08.444811 47706 net.cpp:454] res4c <- res4c_branch2c
I0429 13:50:08.444818 47706 net.cpp:411] res4c -> res4c
I0429 13:50:08.444840 47706 net.cpp:150] Setting up res4c
I0429 13:50:08.444847 47706 net.cpp:157] Top shape: 20 1024 14 14 (4014080)
I0429 13:50:08.444851 47706 net.cpp:165] Memory required for data: 3929784400
I0429 13:50:08.444855 47706 layer_factory.hpp:77] Creating layer res4c_relu
I0429 13:50:08.444860 47706 net.cpp:106] Creating Layer res4c_relu
I0429 13:50:08.444864 47706 net.cpp:454] res4c_relu <- res4c
I0429 13:50:08.444872 47706 net.cpp:397] res4c_relu -> res4c (in-place)
I0429 13:50:08.444878 47706 net.cpp:150] Setting up res4c_relu
I0429 13:50:08.444883 47706 net.cpp:157] Top shape: 20 1024 14 14 (4014080)
I0429 13:50:08.444887 47706 net.cpp:165] Memory required for data: 3945840720
I0429 13:50:08.444891 47706 layer_factory.hpp:77] Creating layer res4c_res4c_relu_0_split
I0429 13:50:08.444896 47706 net.cpp:106] Creating Layer res4c_res4c_relu_0_split
I0429 13:50:08.444900 47706 net.cpp:454] res4c_res4c_relu_0_split <- res4c
I0429 13:50:08.444905 47706 net.cpp:411] res4c_res4c_relu_0_split -> res4c_res4c_relu_0_split_0
I0429 13:50:08.444912 47706 net.cpp:411] res4c_res4c_relu_0_split -> res4c_res4c_relu_0_split_1
I0429 13:50:08.444944 47706 net.cpp:150] Setting up res4c_res4c_relu_0_split
I0429 13:50:08.444952 47706 net.cpp:157] Top shape: 20 1024 14 14 (4014080)
I0429 13:50:08.444957 47706 net.cpp:157] Top shape: 20 1024 14 14 (4014080)
I0429 13:50:08.444960 47706 net.cpp:165] Memory required for data: 3977953360
I0429 13:50:08.444968 47706 layer_factory.hpp:77] Creating layer res4d_branch2a
I0429 13:50:08.444977 47706 net.cpp:106] Creating Layer res4d_branch2a
I0429 13:50:08.444982 47706 net.cpp:454] res4d_branch2a <- res4c_res4c_relu_0_split_0
I0429 13:50:08.444988 47706 net.cpp:411] res4d_branch2a -> res4d_branch2a
I0429 13:50:08.445787 47706 net.cpp:150] Setting up res4d_branch2a
I0429 13:50:08.445801 47706 net.cpp:157] Top shape: 20 256 14 14 (1003520)
I0429 13:50:08.445806 47706 net.cpp:165] Memory required for data: 3981967440
I0429 13:50:08.445812 47706 layer_factory.hpp:77] Creating layer bn4d_branch2a
I0429 13:50:08.445821 47706 net.cpp:106] Creating Layer bn4d_branch2a
I0429 13:50:08.445825 47706 net.cpp:454] bn4d_branch2a <- res4d_branch2a
I0429 13:50:08.445832 47706 net.cpp:397] bn4d_branch2a -> res4d_branch2a (in-place)
I0429 13:50:08.445981 47706 net.cpp:150] Setting up bn4d_branch2a
I0429 13:50:08.445989 47706 net.cpp:157] Top shape: 20 256 14 14 (1003520)
I0429 13:50:08.445993 47706 net.cpp:165] Memory required for data: 3985981520
I0429 13:50:08.446002 47706 layer_factory.hpp:77] Creating layer scale4d_branch2a
I0429 13:50:08.446010 47706 net.cpp:106] Creating Layer scale4d_branch2a
I0429 13:50:08.446014 47706 net.cpp:454] scale4d_branch2a <- res4d_branch2a
I0429 13:50:08.446020 47706 net.cpp:397] scale4d_branch2a -> res4d_branch2a (in-place)
I0429 13:50:08.446056 47706 layer_factory.hpp:77] Creating layer scale4d_branch2a
I0429 13:50:08.446151 47706 net.cpp:150] Setting up scale4d_branch2a
I0429 13:50:08.446161 47706 net.cpp:157] Top shape: 20 256 14 14 (1003520)
I0429 13:50:08.446164 47706 net.cpp:165] Memory required for data: 3989995600
I0429 13:50:08.446171 47706 layer_factory.hpp:77] Creating layer res4d_branch2a_relu
I0429 13:50:08.446177 47706 net.cpp:106] Creating Layer res4d_branch2a_relu
I0429 13:50:08.446182 47706 net.cpp:454] res4d_branch2a_relu <- res4d_branch2a
I0429 13:50:08.446188 47706 net.cpp:397] res4d_branch2a_relu -> res4d_branch2a (in-place)
I0429 13:50:08.446195 47706 net.cpp:150] Setting up res4d_branch2a_relu
I0429 13:50:08.446200 47706 net.cpp:157] Top shape: 20 256 14 14 (1003520)
I0429 13:50:08.446204 47706 net.cpp:165] Memory required for data: 3994009680
I0429 13:50:08.446208 47706 layer_factory.hpp:77] Creating layer res4d_branch2b
I0429 13:50:08.446215 47706 net.cpp:106] Creating Layer res4d_branch2b
I0429 13:50:08.446219 47706 net.cpp:454] res4d_branch2b <- res4d_branch2a
I0429 13:50:08.446228 47706 net.cpp:411] res4d_branch2b -> res4d_branch2b
I0429 13:50:08.447675 47706 net.cpp:150] Setting up res4d_branch2b
I0429 13:50:08.447690 47706 net.cpp:157] Top shape: 20 256 14 14 (1003520)
I0429 13:50:08.447695 47706 net.cpp:165] Memory required for data: 3998023760
I0429 13:50:08.447702 47706 layer_factory.hpp:77] Creating layer bn4d_branch2b
I0429 13:50:08.447708 47706 net.cpp:106] Creating Layer bn4d_branch2b
I0429 13:50:08.447713 47706 net.cpp:454] bn4d_branch2b <- res4d_branch2b
I0429 13:50:08.447721 47706 net.cpp:397] bn4d_branch2b -> res4d_branch2b (in-place)
I0429 13:50:08.447891 47706 net.cpp:150] Setting up bn4d_branch2b
I0429 13:50:08.447901 47706 net.cpp:157] Top shape: 20 256 14 14 (1003520)
I0429 13:50:08.447904 47706 net.cpp:165] Memory required for data: 4002037840
I0429 13:50:08.447911 47706 layer_factory.hpp:77] Creating layer scale4d_branch2b
I0429 13:50:08.447918 47706 net.cpp:106] Creating Layer scale4d_branch2b
I0429 13:50:08.447922 47706 net.cpp:454] scale4d_branch2b <- res4d_branch2b
I0429 13:50:08.447928 47706 net.cpp:397] scale4d_branch2b -> res4d_branch2b (in-place)
I0429 13:50:08.447968 47706 layer_factory.hpp:77] Creating layer scale4d_branch2b
I0429 13:50:08.448058 47706 net.cpp:150] Setting up scale4d_branch2b
I0429 13:50:08.448067 47706 net.cpp:157] Top shape: 20 256 14 14 (1003520)
I0429 13:50:08.448071 47706 net.cpp:165] Memory required for data: 4006051920
I0429 13:50:08.448078 47706 layer_factory.hpp:77] Creating layer res4d_branch2b_relu
I0429 13:50:08.448086 47706 net.cpp:106] Creating Layer res4d_branch2b_relu
I0429 13:50:08.448091 47706 net.cpp:454] res4d_branch2b_relu <- res4d_branch2b
I0429 13:50:08.448099 47706 net.cpp:397] res4d_branch2b_relu -> res4d_branch2b (in-place)
I0429 13:50:08.448107 47706 net.cpp:150] Setting up res4d_branch2b_relu
I0429 13:50:08.448112 47706 net.cpp:157] Top shape: 20 256 14 14 (1003520)
I0429 13:50:08.448117 47706 net.cpp:165] Memory required for data: 4010066000
I0429 13:50:08.448119 47706 layer_factory.hpp:77] Creating layer res4d_branch2c
I0429 13:50:08.448129 47706 net.cpp:106] Creating Layer res4d_branch2c
I0429 13:50:08.448133 47706 net.cpp:454] res4d_branch2c <- res4d_branch2b
I0429 13:50:08.448139 47706 net.cpp:411] res4d_branch2c -> res4d_branch2c
I0429 13:50:08.448966 47706 net.cpp:150] Setting up res4d_branch2c
I0429 13:50:08.448981 47706 net.cpp:157] Top shape: 20 1024 14 14 (4014080)
I0429 13:50:08.448985 47706 net.cpp:165] Memory required for data: 4026122320
I0429 13:50:08.448992 47706 layer_factory.hpp:77] Creating layer bn4d_branch2c
I0429 13:50:08.448998 47706 net.cpp:106] Creating Layer bn4d_branch2c
I0429 13:50:08.449002 47706 net.cpp:454] bn4d_branch2c <- res4d_branch2c
I0429 13:50:08.449008 47706 net.cpp:397] bn4d_branch2c -> res4d_branch2c (in-place)
I0429 13:50:08.449167 47706 net.cpp:150] Setting up bn4d_branch2c
I0429 13:50:08.449177 47706 net.cpp:157] Top shape: 20 1024 14 14 (4014080)
I0429 13:50:08.449180 47706 net.cpp:165] Memory required for data: 4042178640
I0429 13:50:08.449188 47706 layer_factory.hpp:77] Creating layer scale4d_branch2c
I0429 13:50:08.449195 47706 net.cpp:106] Creating Layer scale4d_branch2c
I0429 13:50:08.449199 47706 net.cpp:454] scale4d_branch2c <- res4d_branch2c
I0429 13:50:08.449204 47706 net.cpp:397] scale4d_branch2c -> res4d_branch2c (in-place)
I0429 13:50:08.449244 47706 layer_factory.hpp:77] Creating layer scale4d_branch2c
I0429 13:50:08.449342 47706 net.cpp:150] Setting up scale4d_branch2c
I0429 13:50:08.449350 47706 net.cpp:157] Top shape: 20 1024 14 14 (4014080)
I0429 13:50:08.449354 47706 net.cpp:165] Memory required for data: 4058234960
I0429 13:50:08.449362 47706 layer_factory.hpp:77] Creating layer res4d
I0429 13:50:08.449369 47706 net.cpp:106] Creating Layer res4d
I0429 13:50:08.449374 47706 net.cpp:454] res4d <- res4c_res4c_relu_0_split_1
I0429 13:50:08.449379 47706 net.cpp:454] res4d <- res4d_branch2c
I0429 13:50:08.449386 47706 net.cpp:411] res4d -> res4d
I0429 13:50:08.449407 47706 net.cpp:150] Setting up res4d
I0429 13:50:08.449414 47706 net.cpp:157] Top shape: 20 1024 14 14 (4014080)
I0429 13:50:08.449419 47706 net.cpp:165] Memory required for data: 4074291280
I0429 13:50:08.449422 47706 layer_factory.hpp:77] Creating layer res4d_relu
I0429 13:50:08.449429 47706 net.cpp:106] Creating Layer res4d_relu
I0429 13:50:08.449432 47706 net.cpp:454] res4d_relu <- res4d
I0429 13:50:08.449440 47706 net.cpp:397] res4d_relu -> res4d (in-place)
I0429 13:50:08.449446 47706 net.cpp:150] Setting up res4d_relu
I0429 13:50:08.449451 47706 net.cpp:157] Top shape: 20 1024 14 14 (4014080)
I0429 13:50:08.449455 47706 net.cpp:165] Memory required for data: 4090347600
I0429 13:50:08.449460 47706 layer_factory.hpp:77] Creating layer res4d_res4d_relu_0_split
I0429 13:50:08.449465 47706 net.cpp:106] Creating Layer res4d_res4d_relu_0_split
I0429 13:50:08.449468 47706 net.cpp:454] res4d_res4d_relu_0_split <- res4d
I0429 13:50:08.449475 47706 net.cpp:411] res4d_res4d_relu_0_split -> res4d_res4d_relu_0_split_0
I0429 13:50:08.449481 47706 net.cpp:411] res4d_res4d_relu_0_split -> res4d_res4d_relu_0_split_1
I0429 13:50:08.449512 47706 net.cpp:150] Setting up res4d_res4d_relu_0_split
I0429 13:50:08.449518 47706 net.cpp:157] Top shape: 20 1024 14 14 (4014080)
I0429 13:50:08.449523 47706 net.cpp:157] Top shape: 20 1024 14 14 (4014080)
I0429 13:50:08.449527 47706 net.cpp:165] Memory required for data: 4122460240
I0429 13:50:08.449532 47706 layer_factory.hpp:77] Creating layer res4e_branch2a
I0429 13:50:08.449538 47706 net.cpp:106] Creating Layer res4e_branch2a
I0429 13:50:08.449542 47706 net.cpp:454] res4e_branch2a <- res4d_res4d_relu_0_split_0
I0429 13:50:08.449550 47706 net.cpp:411] res4e_branch2a -> res4e_branch2a
I0429 13:50:08.450353 47706 net.cpp:150] Setting up res4e_branch2a
I0429 13:50:08.450368 47706 net.cpp:157] Top shape: 20 256 14 14 (1003520)
I0429 13:50:08.450372 47706 net.cpp:165] Memory required for data: 4126474320
I0429 13:50:08.450378 47706 layer_factory.hpp:77] Creating layer bn4e_branch2a
I0429 13:50:08.450386 47706 net.cpp:106] Creating Layer bn4e_branch2a
I0429 13:50:08.450389 47706 net.cpp:454] bn4e_branch2a <- res4e_branch2a
I0429 13:50:08.450395 47706 net.cpp:397] bn4e_branch2a -> res4e_branch2a (in-place)
I0429 13:50:08.450548 47706 net.cpp:150] Setting up bn4e_branch2a
I0429 13:50:08.450557 47706 net.cpp:157] Top shape: 20 256 14 14 (1003520)
I0429 13:50:08.450562 47706 net.cpp:165] Memory required for data: 4130488400
I0429 13:50:08.450569 47706 layer_factory.hpp:77] Creating layer scale4e_branch2a
I0429 13:50:08.450578 47706 net.cpp:106] Creating Layer scale4e_branch2a
I0429 13:50:08.450582 47706 net.cpp:454] scale4e_branch2a <- res4e_branch2a
I0429 13:50:08.450588 47706 net.cpp:397] scale4e_branch2a -> res4e_branch2a (in-place)
I0429 13:50:08.450626 47706 layer_factory.hpp:77] Creating layer scale4e_branch2a
I0429 13:50:08.450722 47706 net.cpp:150] Setting up scale4e_branch2a
I0429 13:50:08.450731 47706 net.cpp:157] Top shape: 20 256 14 14 (1003520)
I0429 13:50:08.450734 47706 net.cpp:165] Memory required for data: 4134502480
I0429 13:50:08.450742 47706 layer_factory.hpp:77] Creating layer res4e_branch2a_relu
I0429 13:50:08.450747 47706 net.cpp:106] Creating Layer res4e_branch2a_relu
I0429 13:50:08.450752 47706 net.cpp:454] res4e_branch2a_relu <- res4e_branch2a
I0429 13:50:08.450759 47706 net.cpp:397] res4e_branch2a_relu -> res4e_branch2a (in-place)
I0429 13:50:08.450767 47706 net.cpp:150] Setting up res4e_branch2a_relu
I0429 13:50:08.450772 47706 net.cpp:157] Top shape: 20 256 14 14 (1003520)
I0429 13:50:08.450775 47706 net.cpp:165] Memory required for data: 4138516560
I0429 13:50:08.450779 47706 layer_factory.hpp:77] Creating layer res4e_branch2b
I0429 13:50:08.450788 47706 net.cpp:106] Creating Layer res4e_branch2b
I0429 13:50:08.450793 47706 net.cpp:454] res4e_branch2b <- res4e_branch2a
I0429 13:50:08.450798 47706 net.cpp:411] res4e_branch2b -> res4e_branch2b
I0429 13:50:08.452258 47706 net.cpp:150] Setting up res4e_branch2b
I0429 13:50:08.452273 47706 net.cpp:157] Top shape: 20 256 14 14 (1003520)
I0429 13:50:08.452277 47706 net.cpp:165] Memory required for data: 4142530640
I0429 13:50:08.452283 47706 layer_factory.hpp:77] Creating layer bn4e_branch2b
I0429 13:50:08.452292 47706 net.cpp:106] Creating Layer bn4e_branch2b
I0429 13:50:08.452297 47706 net.cpp:454] bn4e_branch2b <- res4e_branch2b
I0429 13:50:08.452302 47706 net.cpp:397] bn4e_branch2b -> res4e_branch2b (in-place)
I0429 13:50:08.452462 47706 net.cpp:150] Setting up bn4e_branch2b
I0429 13:50:08.452473 47706 net.cpp:157] Top shape: 20 256 14 14 (1003520)
I0429 13:50:08.452477 47706 net.cpp:165] Memory required for data: 4146544720
I0429 13:50:08.452486 47706 layer_factory.hpp:77] Creating layer scale4e_branch2b
I0429 13:50:08.452492 47706 net.cpp:106] Creating Layer scale4e_branch2b
I0429 13:50:08.452497 47706 net.cpp:454] scale4e_branch2b <- res4e_branch2b
I0429 13:50:08.452504 47706 net.cpp:397] scale4e_branch2b -> res4e_branch2b (in-place)
I0429 13:50:08.452539 47706 layer_factory.hpp:77] Creating layer scale4e_branch2b
I0429 13:50:08.452632 47706 net.cpp:150] Setting up scale4e_branch2b
I0429 13:50:08.452641 47706 net.cpp:157] Top shape: 20 256 14 14 (1003520)
I0429 13:50:08.452644 47706 net.cpp:165] Memory required for data: 4150558800
I0429 13:50:08.452651 47706 layer_factory.hpp:77] Creating layer res4e_branch2b_relu
I0429 13:50:08.452657 47706 net.cpp:106] Creating Layer res4e_branch2b_relu
I0429 13:50:08.452661 47706 net.cpp:454] res4e_branch2b_relu <- res4e_branch2b
I0429 13:50:08.452667 47706 net.cpp:397] res4e_branch2b_relu -> res4e_branch2b (in-place)
I0429 13:50:08.452673 47706 net.cpp:150] Setting up res4e_branch2b_relu
I0429 13:50:08.452678 47706 net.cpp:157] Top shape: 20 256 14 14 (1003520)
I0429 13:50:08.452687 47706 net.cpp:165] Memory required for data: 4154572880
I0429 13:50:08.452692 47706 layer_factory.hpp:77] Creating layer res4e_branch2c
I0429 13:50:08.452700 47706 net.cpp:106] Creating Layer res4e_branch2c
I0429 13:50:08.452704 47706 net.cpp:454] res4e_branch2c <- res4e_branch2b
I0429 13:50:08.452713 47706 net.cpp:411] res4e_branch2c -> res4e_branch2c
I0429 13:50:08.453511 47706 net.cpp:150] Setting up res4e_branch2c
I0429 13:50:08.453526 47706 net.cpp:157] Top shape: 20 1024 14 14 (4014080)
I0429 13:50:08.453529 47706 net.cpp:165] Memory required for data: 4170629200
I0429 13:50:08.453536 47706 layer_factory.hpp:77] Creating layer bn4e_branch2c
I0429 13:50:08.453542 47706 net.cpp:106] Creating Layer bn4e_branch2c
I0429 13:50:08.453547 47706 net.cpp:454] bn4e_branch2c <- res4e_branch2c
I0429 13:50:08.453554 47706 net.cpp:397] bn4e_branch2c -> res4e_branch2c (in-place)
I0429 13:50:08.453719 47706 net.cpp:150] Setting up bn4e_branch2c
I0429 13:50:08.453729 47706 net.cpp:157] Top shape: 20 1024 14 14 (4014080)
I0429 13:50:08.453733 47706 net.cpp:165] Memory required for data: 4186685520
I0429 13:50:08.453742 47706 layer_factory.hpp:77] Creating layer scale4e_branch2c
I0429 13:50:08.453748 47706 net.cpp:106] Creating Layer scale4e_branch2c
I0429 13:50:08.453752 47706 net.cpp:454] scale4e_branch2c <- res4e_branch2c
I0429 13:50:08.453758 47706 net.cpp:397] scale4e_branch2c -> res4e_branch2c (in-place)
I0429 13:50:08.453795 47706 layer_factory.hpp:77] Creating layer scale4e_branch2c
I0429 13:50:08.453891 47706 net.cpp:150] Setting up scale4e_branch2c
I0429 13:50:08.453899 47706 net.cpp:157] Top shape: 20 1024 14 14 (4014080)
I0429 13:50:08.453903 47706 net.cpp:165] Memory required for data: 4202741840
I0429 13:50:08.453910 47706 layer_factory.hpp:77] Creating layer res4e
I0429 13:50:08.453917 47706 net.cpp:106] Creating Layer res4e
I0429 13:50:08.453920 47706 net.cpp:454] res4e <- res4d_res4d_relu_0_split_1
I0429 13:50:08.453925 47706 net.cpp:454] res4e <- res4e_branch2c
I0429 13:50:08.453933 47706 net.cpp:411] res4e -> res4e
I0429 13:50:08.453954 47706 net.cpp:150] Setting up res4e
I0429 13:50:08.453961 47706 net.cpp:157] Top shape: 20 1024 14 14 (4014080)
I0429 13:50:08.453965 47706 net.cpp:165] Memory required for data: 4218798160
I0429 13:50:08.453969 47706 layer_factory.hpp:77] Creating layer res4e_relu
I0429 13:50:08.453977 47706 net.cpp:106] Creating Layer res4e_relu
I0429 13:50:08.453981 47706 net.cpp:454] res4e_relu <- res4e
I0429 13:50:08.453986 47706 net.cpp:397] res4e_relu -> res4e (in-place)
I0429 13:50:08.453992 47706 net.cpp:150] Setting up res4e_relu
I0429 13:50:08.453999 47706 net.cpp:157] Top shape: 20 1024 14 14 (4014080)
I0429 13:50:08.454002 47706 net.cpp:165] Memory required for data: 4234854480
I0429 13:50:08.454006 47706 layer_factory.hpp:77] Creating layer res4e_res4e_relu_0_split
I0429 13:50:08.454013 47706 net.cpp:106] Creating Layer res4e_res4e_relu_0_split
I0429 13:50:08.454017 47706 net.cpp:454] res4e_res4e_relu_0_split <- res4e
I0429 13:50:08.454022 47706 net.cpp:411] res4e_res4e_relu_0_split -> res4e_res4e_relu_0_split_0
I0429 13:50:08.454028 47706 net.cpp:411] res4e_res4e_relu_0_split -> res4e_res4e_relu_0_split_1
I0429 13:50:08.454073 47706 net.cpp:150] Setting up res4e_res4e_relu_0_split
I0429 13:50:08.454082 47706 net.cpp:157] Top shape: 20 1024 14 14 (4014080)
I0429 13:50:08.454087 47706 net.cpp:157] Top shape: 20 1024 14 14 (4014080)
I0429 13:50:08.454090 47706 net.cpp:165] Memory required for data: 4266967120
I0429 13:50:08.454094 47706 layer_factory.hpp:77] Creating layer res4f_branch2a
I0429 13:50:08.454103 47706 net.cpp:106] Creating Layer res4f_branch2a
I0429 13:50:08.454108 47706 net.cpp:454] res4f_branch2a <- res4e_res4e_relu_0_split_0
I0429 13:50:08.454115 47706 net.cpp:411] res4f_branch2a -> res4f_branch2a
I0429 13:50:08.454908 47706 net.cpp:150] Setting up res4f_branch2a
I0429 13:50:08.454922 47706 net.cpp:157] Top shape: 20 256 14 14 (1003520)
I0429 13:50:08.454926 47706 net.cpp:165] Memory required for data: 4270981200
I0429 13:50:08.454932 47706 layer_factory.hpp:77] Creating layer bn4f_branch2a
I0429 13:50:08.454943 47706 net.cpp:106] Creating Layer bn4f_branch2a
I0429 13:50:08.454948 47706 net.cpp:454] bn4f_branch2a <- res4f_branch2a
I0429 13:50:08.454954 47706 net.cpp:397] bn4f_branch2a -> res4f_branch2a (in-place)
I0429 13:50:08.455121 47706 net.cpp:150] Setting up bn4f_branch2a
I0429 13:50:08.455132 47706 net.cpp:157] Top shape: 20 256 14 14 (1003520)
I0429 13:50:08.455135 47706 net.cpp:165] Memory required for data: 4274995280
I0429 13:50:08.455144 47706 layer_factory.hpp:77] Creating layer scale4f_branch2a
I0429 13:50:08.455152 47706 net.cpp:106] Creating Layer scale4f_branch2a
I0429 13:50:08.455155 47706 net.cpp:454] scale4f_branch2a <- res4f_branch2a
I0429 13:50:08.455162 47706 net.cpp:397] scale4f_branch2a -> res4f_branch2a (in-place)
I0429 13:50:08.455206 47706 layer_factory.hpp:77] Creating layer scale4f_branch2a
I0429 13:50:08.455303 47706 net.cpp:150] Setting up scale4f_branch2a
I0429 13:50:08.455312 47706 net.cpp:157] Top shape: 20 256 14 14 (1003520)
I0429 13:50:08.455315 47706 net.cpp:165] Memory required for data: 4279009360
I0429 13:50:08.455333 47706 layer_factory.hpp:77] Creating layer res4f_branch2a_relu
I0429 13:50:08.455343 47706 net.cpp:106] Creating Layer res4f_branch2a_relu
I0429 13:50:08.455346 47706 net.cpp:454] res4f_branch2a_relu <- res4f_branch2a
I0429 13:50:08.455351 47706 net.cpp:397] res4f_branch2a_relu -> res4f_branch2a (in-place)
I0429 13:50:08.455358 47706 net.cpp:150] Setting up res4f_branch2a_relu
I0429 13:50:08.455363 47706 net.cpp:157] Top shape: 20 256 14 14 (1003520)
I0429 13:50:08.455366 47706 net.cpp:165] Memory required for data: 4283023440
I0429 13:50:08.455370 47706 layer_factory.hpp:77] Creating layer res4f_branch2b
I0429 13:50:08.455379 47706 net.cpp:106] Creating Layer res4f_branch2b
I0429 13:50:08.455384 47706 net.cpp:454] res4f_branch2b <- res4f_branch2a
I0429 13:50:08.455389 47706 net.cpp:411] res4f_branch2b -> res4f_branch2b
I0429 13:50:08.456826 47706 net.cpp:150] Setting up res4f_branch2b
I0429 13:50:08.456841 47706 net.cpp:157] Top shape: 20 256 14 14 (1003520)
I0429 13:50:08.456845 47706 net.cpp:165] Memory required for data: 4287037520
I0429 13:50:08.456851 47706 layer_factory.hpp:77] Creating layer bn4f_branch2b
I0429 13:50:08.456862 47706 net.cpp:106] Creating Layer bn4f_branch2b
I0429 13:50:08.456867 47706 net.cpp:454] bn4f_branch2b <- res4f_branch2b
I0429 13:50:08.456873 47706 net.cpp:397] bn4f_branch2b -> res4f_branch2b (in-place)
I0429 13:50:08.457031 47706 net.cpp:150] Setting up bn4f_branch2b
I0429 13:50:08.457039 47706 net.cpp:157] Top shape: 20 256 14 14 (1003520)
I0429 13:50:08.457043 47706 net.cpp:165] Memory required for data: 4291051600
I0429 13:50:08.457051 47706 layer_factory.hpp:77] Creating layer scale4f_branch2b
I0429 13:50:08.457059 47706 net.cpp:106] Creating Layer scale4f_branch2b
I0429 13:50:08.457063 47706 net.cpp:454] scale4f_branch2b <- res4f_branch2b
I0429 13:50:08.457069 47706 net.cpp:397] scale4f_branch2b -> res4f_branch2b (in-place)
I0429 13:50:08.457106 47706 layer_factory.hpp:77] Creating layer scale4f_branch2b
I0429 13:50:08.457201 47706 net.cpp:150] Setting up scale4f_branch2b
I0429 13:50:08.457209 47706 net.cpp:157] Top shape: 20 256 14 14 (1003520)
I0429 13:50:08.457212 47706 net.cpp:165] Memory required for data: 4295065680
I0429 13:50:08.457219 47706 layer_factory.hpp:77] Creating layer res4f_branch2b_relu
I0429 13:50:08.457226 47706 net.cpp:106] Creating Layer res4f_branch2b_relu
I0429 13:50:08.457231 47706 net.cpp:454] res4f_branch2b_relu <- res4f_branch2b
I0429 13:50:08.457257 47706 net.cpp:397] res4f_branch2b_relu -> res4f_branch2b (in-place)
I0429 13:50:08.457264 47706 net.cpp:150] Setting up res4f_branch2b_relu
I0429 13:50:08.457270 47706 net.cpp:157] Top shape: 20 256 14 14 (1003520)
I0429 13:50:08.457274 47706 net.cpp:165] Memory required for data: 4299079760
I0429 13:50:08.457279 47706 layer_factory.hpp:77] Creating layer res4f_branch2c
I0429 13:50:08.457288 47706 net.cpp:106] Creating Layer res4f_branch2c
I0429 13:50:08.457293 47706 net.cpp:454] res4f_branch2c <- res4f_branch2b
I0429 13:50:08.457304 47706 net.cpp:411] res4f_branch2c -> res4f_branch2c
I0429 13:50:08.458106 47706 net.cpp:150] Setting up res4f_branch2c
I0429 13:50:08.458119 47706 net.cpp:157] Top shape: 20 1024 14 14 (4014080)
I0429 13:50:08.458123 47706 net.cpp:165] Memory required for data: 4315136080
I0429 13:50:08.458129 47706 layer_factory.hpp:77] Creating layer bn4f_branch2c
I0429 13:50:08.458138 47706 net.cpp:106] Creating Layer bn4f_branch2c
I0429 13:50:08.458143 47706 net.cpp:454] bn4f_branch2c <- res4f_branch2c
I0429 13:50:08.458149 47706 net.cpp:397] bn4f_branch2c -> res4f_branch2c (in-place)
I0429 13:50:08.458323 47706 net.cpp:150] Setting up bn4f_branch2c
I0429 13:50:08.458333 47706 net.cpp:157] Top shape: 20 1024 14 14 (4014080)
I0429 13:50:08.458336 47706 net.cpp:165] Memory required for data: 4331192400
I0429 13:50:08.458392 47706 layer_factory.hpp:77] Creating layer scale4f_branch2c
I0429 13:50:08.458402 47706 net.cpp:106] Creating Layer scale4f_branch2c
I0429 13:50:08.458407 47706 net.cpp:454] scale4f_branch2c <- res4f_branch2c
I0429 13:50:08.458413 47706 net.cpp:397] scale4f_branch2c -> res4f_branch2c (in-place)
I0429 13:50:08.458456 47706 layer_factory.hpp:77] Creating layer scale4f_branch2c
I0429 13:50:08.458571 47706 net.cpp:150] Setting up scale4f_branch2c
I0429 13:50:08.458580 47706 net.cpp:157] Top shape: 20 1024 14 14 (4014080)
I0429 13:50:08.458585 47706 net.cpp:165] Memory required for data: 4347248720
I0429 13:50:08.458591 47706 layer_factory.hpp:77] Creating layer res4f
I0429 13:50:08.458600 47706 net.cpp:106] Creating Layer res4f
I0429 13:50:08.458603 47706 net.cpp:454] res4f <- res4e_res4e_relu_0_split_1
I0429 13:50:08.458609 47706 net.cpp:454] res4f <- res4f_branch2c
I0429 13:50:08.458614 47706 net.cpp:411] res4f -> res4f
I0429 13:50:08.458638 47706 net.cpp:150] Setting up res4f
I0429 13:50:08.458647 47706 net.cpp:157] Top shape: 20 1024 14 14 (4014080)
I0429 13:50:08.458650 47706 net.cpp:165] Memory required for data: 4363305040
I0429 13:50:08.458654 47706 layer_factory.hpp:77] Creating layer res4f_relu
I0429 13:50:08.458659 47706 net.cpp:106] Creating Layer res4f_relu
I0429 13:50:08.458664 47706 net.cpp:454] res4f_relu <- res4f
I0429 13:50:08.458672 47706 net.cpp:397] res4f_relu -> res4f (in-place)
I0429 13:50:08.458678 47706 net.cpp:150] Setting up res4f_relu
I0429 13:50:08.458683 47706 net.cpp:157] Top shape: 20 1024 14 14 (4014080)
I0429 13:50:08.458688 47706 net.cpp:165] Memory required for data: 4379361360
I0429 13:50:08.458691 47706 layer_factory.hpp:77] Creating layer res4f_res4f_relu_0_split
I0429 13:50:08.458696 47706 net.cpp:106] Creating Layer res4f_res4f_relu_0_split
I0429 13:50:08.458700 47706 net.cpp:454] res4f_res4f_relu_0_split <- res4f
I0429 13:50:08.458705 47706 net.cpp:411] res4f_res4f_relu_0_split -> res4f_res4f_relu_0_split_0
I0429 13:50:08.458714 47706 net.cpp:411] res4f_res4f_relu_0_split -> res4f_res4f_relu_0_split_1
I0429 13:50:08.458745 47706 net.cpp:150] Setting up res4f_res4f_relu_0_split
I0429 13:50:08.458752 47706 net.cpp:157] Top shape: 20 1024 14 14 (4014080)
I0429 13:50:08.458757 47706 net.cpp:157] Top shape: 20 1024 14 14 (4014080)
I0429 13:50:08.458761 47706 net.cpp:165] Memory required for data: 4411474000
I0429 13:50:08.458765 47706 layer_factory.hpp:77] Creating layer res5a_branch1
I0429 13:50:08.458772 47706 net.cpp:106] Creating Layer res5a_branch1
I0429 13:50:08.458777 47706 net.cpp:454] res5a_branch1 <- res4f_res4f_relu_0_split_0
I0429 13:50:08.458783 47706 net.cpp:411] res5a_branch1 -> res5a_branch1
I0429 13:50:08.463165 47706 net.cpp:150] Setting up res5a_branch1
I0429 13:50:08.463181 47706 net.cpp:157] Top shape: 20 2048 7 7 (2007040)
I0429 13:50:08.463186 47706 net.cpp:165] Memory required for data: 4419502160
I0429 13:50:08.463192 47706 layer_factory.hpp:77] Creating layer bn5a_branch1
I0429 13:50:08.463199 47706 net.cpp:106] Creating Layer bn5a_branch1
I0429 13:50:08.463203 47706 net.cpp:454] bn5a_branch1 <- res5a_branch1
I0429 13:50:08.463209 47706 net.cpp:397] bn5a_branch1 -> res5a_branch1 (in-place)
I0429 13:50:08.464810 47706 net.cpp:150] Setting up bn5a_branch1
I0429 13:50:08.464828 47706 net.cpp:157] Top shape: 20 2048 7 7 (2007040)
I0429 13:50:08.464831 47706 net.cpp:165] Memory required for data: 4427530320
I0429 13:50:08.464840 47706 layer_factory.hpp:77] Creating layer scale5a_branch1
I0429 13:50:08.464849 47706 net.cpp:106] Creating Layer scale5a_branch1
I0429 13:50:08.464854 47706 net.cpp:454] scale5a_branch1 <- res5a_branch1
I0429 13:50:08.464859 47706 net.cpp:397] scale5a_branch1 -> res5a_branch1 (in-place)
I0429 13:50:08.464902 47706 layer_factory.hpp:77] Creating layer scale5a_branch1
I0429 13:50:08.465004 47706 net.cpp:150] Setting up scale5a_branch1
I0429 13:50:08.465013 47706 net.cpp:157] Top shape: 20 2048 7 7 (2007040)
I0429 13:50:08.465018 47706 net.cpp:165] Memory required for data: 4435558480
I0429 13:50:08.465024 47706 layer_factory.hpp:77] Creating layer res5a_branch2a
I0429 13:50:08.465034 47706 net.cpp:106] Creating Layer res5a_branch2a
I0429 13:50:08.465039 47706 net.cpp:454] res5a_branch2a <- res4f_res4f_relu_0_split_1
I0429 13:50:08.465046 47706 net.cpp:411] res5a_branch2a -> res5a_branch2a
I0429 13:50:08.466358 47706 net.cpp:150] Setting up res5a_branch2a
I0429 13:50:08.466372 47706 net.cpp:157] Top shape: 20 512 7 7 (501760)
I0429 13:50:08.466377 47706 net.cpp:165] Memory required for data: 4437565520
I0429 13:50:08.466383 47706 layer_factory.hpp:77] Creating layer bn5a_branch2a
I0429 13:50:08.466390 47706 net.cpp:106] Creating Layer bn5a_branch2a
I0429 13:50:08.466394 47706 net.cpp:454] bn5a_branch2a <- res5a_branch2a
I0429 13:50:08.466401 47706 net.cpp:397] bn5a_branch2a -> res5a_branch2a (in-place)
I0429 13:50:08.466588 47706 net.cpp:150] Setting up bn5a_branch2a
I0429 13:50:08.466599 47706 net.cpp:157] Top shape: 20 512 7 7 (501760)
I0429 13:50:08.466603 47706 net.cpp:165] Memory required for data: 4439572560
I0429 13:50:08.466612 47706 layer_factory.hpp:77] Creating layer scale5a_branch2a
I0429 13:50:08.466619 47706 net.cpp:106] Creating Layer scale5a_branch2a
I0429 13:50:08.466624 47706 net.cpp:454] scale5a_branch2a <- res5a_branch2a
I0429 13:50:08.466629 47706 net.cpp:397] scale5a_branch2a -> res5a_branch2a (in-place)
I0429 13:50:08.466668 47706 layer_factory.hpp:77] Creating layer scale5a_branch2a
I0429 13:50:08.466779 47706 net.cpp:150] Setting up scale5a_branch2a
I0429 13:50:08.466789 47706 net.cpp:157] Top shape: 20 512 7 7 (501760)
I0429 13:50:08.466792 47706 net.cpp:165] Memory required for data: 4441579600
I0429 13:50:08.466799 47706 layer_factory.hpp:77] Creating layer res5a_branch2a_relu
I0429 13:50:08.466805 47706 net.cpp:106] Creating Layer res5a_branch2a_relu
I0429 13:50:08.466811 47706 net.cpp:454] res5a_branch2a_relu <- res5a_branch2a
I0429 13:50:08.466816 47706 net.cpp:397] res5a_branch2a_relu -> res5a_branch2a (in-place)
I0429 13:50:08.466822 47706 net.cpp:150] Setting up res5a_branch2a_relu
I0429 13:50:08.466828 47706 net.cpp:157] Top shape: 20 512 7 7 (501760)
I0429 13:50:08.466832 47706 net.cpp:165] Memory required for data: 4443586640
I0429 13:50:08.466836 47706 layer_factory.hpp:77] Creating layer res5a_branch2b
I0429 13:50:08.466843 47706 net.cpp:106] Creating Layer res5a_branch2b
I0429 13:50:08.466847 47706 net.cpp:454] res5a_branch2b <- res5a_branch2a
I0429 13:50:08.466855 47706 net.cpp:411] res5a_branch2b -> res5a_branch2b
I0429 13:50:08.471840 47706 net.cpp:150] Setting up res5a_branch2b
I0429 13:50:08.471858 47706 net.cpp:157] Top shape: 20 512 7 7 (501760)
I0429 13:50:08.471863 47706 net.cpp:165] Memory required for data: 4445593680
I0429 13:50:08.471868 47706 layer_factory.hpp:77] Creating layer bn5a_branch2b
I0429 13:50:08.471875 47706 net.cpp:106] Creating Layer bn5a_branch2b
I0429 13:50:08.471880 47706 net.cpp:454] bn5a_branch2b <- res5a_branch2b
I0429 13:50:08.471885 47706 net.cpp:397] bn5a_branch2b -> res5a_branch2b (in-place)
I0429 13:50:08.472048 47706 net.cpp:150] Setting up bn5a_branch2b
I0429 13:50:08.472056 47706 net.cpp:157] Top shape: 20 512 7 7 (501760)
I0429 13:50:08.472060 47706 net.cpp:165] Memory required for data: 4447600720
I0429 13:50:08.472074 47706 layer_factory.hpp:77] Creating layer scale5a_branch2b
I0429 13:50:08.472086 47706 net.cpp:106] Creating Layer scale5a_branch2b
I0429 13:50:08.472091 47706 net.cpp:454] scale5a_branch2b <- res5a_branch2b
I0429 13:50:08.472096 47706 net.cpp:397] scale5a_branch2b -> res5a_branch2b (in-place)
I0429 13:50:08.472134 47706 layer_factory.hpp:77] Creating layer scale5a_branch2b
I0429 13:50:08.472234 47706 net.cpp:150] Setting up scale5a_branch2b
I0429 13:50:08.472244 47706 net.cpp:157] Top shape: 20 512 7 7 (501760)
I0429 13:50:08.472247 47706 net.cpp:165] Memory required for data: 4449607760
I0429 13:50:08.472254 47706 layer_factory.hpp:77] Creating layer res5a_branch2b_relu
I0429 13:50:08.472262 47706 net.cpp:106] Creating Layer res5a_branch2b_relu
I0429 13:50:08.472266 47706 net.cpp:454] res5a_branch2b_relu <- res5a_branch2b
I0429 13:50:08.472271 47706 net.cpp:397] res5a_branch2b_relu -> res5a_branch2b (in-place)
I0429 13:50:08.472278 47706 net.cpp:150] Setting up res5a_branch2b_relu
I0429 13:50:08.472283 47706 net.cpp:157] Top shape: 20 512 7 7 (501760)
I0429 13:50:08.472287 47706 net.cpp:165] Memory required for data: 4451614800
I0429 13:50:08.472291 47706 layer_factory.hpp:77] Creating layer res5a_branch2c
I0429 13:50:08.472301 47706 net.cpp:106] Creating Layer res5a_branch2c
I0429 13:50:08.472304 47706 net.cpp:454] res5a_branch2c <- res5a_branch2b
I0429 13:50:08.472311 47706 net.cpp:411] res5a_branch2c -> res5a_branch2c
I0429 13:50:08.474690 47706 net.cpp:150] Setting up res5a_branch2c
I0429 13:50:08.474706 47706 net.cpp:157] Top shape: 20 2048 7 7 (2007040)
I0429 13:50:08.474711 47706 net.cpp:165] Memory required for data: 4459642960
I0429 13:50:08.474717 47706 layer_factory.hpp:77] Creating layer bn5a_branch2c
I0429 13:50:08.474726 47706 net.cpp:106] Creating Layer bn5a_branch2c
I0429 13:50:08.474731 47706 net.cpp:454] bn5a_branch2c <- res5a_branch2c
I0429 13:50:08.474748 47706 net.cpp:397] bn5a_branch2c -> res5a_branch2c (in-place)
I0429 13:50:08.474920 47706 net.cpp:150] Setting up bn5a_branch2c
I0429 13:50:08.474928 47706 net.cpp:157] Top shape: 20 2048 7 7 (2007040)
I0429 13:50:08.474933 47706 net.cpp:165] Memory required for data: 4467671120
I0429 13:50:08.474941 47706 layer_factory.hpp:77] Creating layer scale5a_branch2c
I0429 13:50:08.474947 47706 net.cpp:106] Creating Layer scale5a_branch2c
I0429 13:50:08.474951 47706 net.cpp:454] scale5a_branch2c <- res5a_branch2c
I0429 13:50:08.474959 47706 net.cpp:397] scale5a_branch2c -> res5a_branch2c (in-place)
I0429 13:50:08.474995 47706 layer_factory.hpp:77] Creating layer scale5a_branch2c
I0429 13:50:08.475097 47706 net.cpp:150] Setting up scale5a_branch2c
I0429 13:50:08.475106 47706 net.cpp:157] Top shape: 20 2048 7 7 (2007040)
I0429 13:50:08.475111 47706 net.cpp:165] Memory required for data: 4475699280
I0429 13:50:08.475116 47706 layer_factory.hpp:77] Creating layer res5a
I0429 13:50:08.475123 47706 net.cpp:106] Creating Layer res5a
I0429 13:50:08.475127 47706 net.cpp:454] res5a <- res5a_branch1
I0429 13:50:08.475132 47706 net.cpp:454] res5a <- res5a_branch2c
I0429 13:50:08.475138 47706 net.cpp:411] res5a -> res5a
I0429 13:50:08.475163 47706 net.cpp:150] Setting up res5a
I0429 13:50:08.475172 47706 net.cpp:157] Top shape: 20 2048 7 7 (2007040)
I0429 13:50:08.475175 47706 net.cpp:165] Memory required for data: 4483727440
I0429 13:50:08.475179 47706 layer_factory.hpp:77] Creating layer res5a_relu
…
I0429 13:50:08.564633 47706 net.cpp:106] Creating Layer res4d_branch2a
I0429 13:50:08.564637 47706 net.cpp:454] res4d_branch2a <- res4c_res4c_relu_0_split_0
I0429 13:50:08.564646 47706 net.cpp:411] res4d_branch2a -> res4d_branch2a
I0429 13:50:08.565430 47706 net.cpp:150] Setting up res4d_branch2a
I0429 13:50:08.565444 47706 net.cpp:157] Top shape: 16 256 14 14 (802816)
I0429 13:50:08.565448 47706 net.cpp:165] Memory required for data: 3185574080
I0429 13:50:08.565454 47706 layer_factory.hpp:77] Creating layer bn4d_branch2a
I0429 13:50:08.565461 47706 net.cpp:106] Creating Layer bn4d_branch2a
I0429 13:50:08.565465 47706 net.cpp:454] bn4d_branch2a <- res4d_branch2a
I0429 13:50:08.565471 47706 net.cpp:397] bn4d_branch2a -> res4d_branch2a (in-place)
I0429 13:50:08.565629 47706 net.cpp:150] Setting up bn4d_branch2a
I0429 13:50:08.565639 47706 net.cpp:157] Top shape: 16 256 14 14 (802816)
I0429 13:50:08.565642 47706 net.cpp:165] Memory required for data: 3188785344
I0429 13:50:08.565650 47706 layer_factory.hpp:77] Creating layer scale4d_branch2a
I0429 13:50:08.565659 47706 net.cpp:106] Creating Layer scale4d_branch2a
I0429 13:50:08.565664 47706 net.cpp:454] scale4d_branch2a <- res4d_branch2a
I0429 13:50:08.565668 47706 net.cpp:397] scale4d_branch2a -> res4d_branch2a (in-place)
I0429 13:50:08.565707 47706 layer_factory.hpp:77] Creating layer scale4d_branch2a
I0429 13:50:08.565803 47706 net.cpp:150] Setting up scale4d_branch2a
I0429 13:50:08.565810 47706 net.cpp:157] Top shape: 16 256 14 14 (802816)
I0429 13:50:08.565814 47706 net.cpp:165] Memory required for data: 3191996608
I0429 13:50:08.565820 47706 layer_factory.hpp:77] Creating layer res4d_branch2a_relu
I0429 13:50:08.565829 47706 net.cpp:106] Creating Layer res4d_branch2a_relu
I0429 13:50:08.565834 47706 net.cpp:454] res4d_branch2a_relu <- res4d_branch2a
I0429 13:50:08.565839 47706 net.cpp:397] res4d_branch2a_relu -> res4d_branch2a (in-place)
I0429 13:50:08.565845 47706 net.cpp:150] Setting up res4d_branch2a_relu
I0429 13:50:08.565850 47706 net.cpp:157] Top shape: 16 256 14 14 (802816)
I0429 13:50:08.565855 47706 net.cpp:165] Memory required for data: 3195207872
I0429 13:50:08.565857 47706 layer_factory.hpp:77] Creating layer res4d_branch2b
I0429 13:50:08.565866 47706 net.cpp:106] Creating Layer res4d_branch2b
I0429 13:50:08.565871 47706 net.cpp:454] res4d_branch2b <- res4d_branch2a
I0429 13:50:08.565876 47706 net.cpp:411] res4d_branch2b -> res4d_branch2b
I0429 13:50:08.567294 47706 net.cpp:150] Setting up res4d_branch2b
I0429 13:50:08.567308 47706 net.cpp:157] Top shape: 16 256 14 14 (802816)
I0429 13:50:08.567312 47706 net.cpp:165] Memory required for data: 3198419136
I0429 13:50:08.567318 47706 layer_factory.hpp:77] Creating layer bn4d_branch2b
I0429 13:50:08.567329 47706 net.cpp:106] Creating Layer bn4d_branch2b
I0429 13:50:08.567334 47706 net.cpp:454] bn4d_branch2b <- res4d_branch2b
I0429 13:50:08.567340 47706 net.cpp:397] bn4d_branch2b -> res4d_branch2b (in-place)
I0429 13:50:08.567500 47706 net.cpp:150] Setting up bn4d_branch2b
I0429 13:50:08.567508 47706 net.cpp:157] Top shape: 16 256 14 14 (802816)
I0429 13:50:08.567512 47706 net.cpp:165] Memory required for data: 3201630400
I0429 13:50:08.567525 47706 layer_factory.hpp:77] Creating layer scale4d_branch2b
I0429 13:50:08.567533 47706 net.cpp:106] Creating Layer scale4d_branch2b
I0429 13:50:08.567538 47706 net.cpp:454] scale4d_branch2b <- res4d_branch2b
I0429 13:50:08.567544 47706 net.cpp:397] scale4d_branch2b -> res4d_branch2b (in-place)
I0429 13:50:08.567585 47706 layer_factory.hpp:77] Creating layer scale4d_branch2b
I0429 13:50:08.567685 47706 net.cpp:150] Setting up scale4d_branch2b
I0429 13:50:08.567693 47706 net.cpp:157] Top shape: 16 256 14 14 (802816)
I0429 13:50:08.567698 47706 net.cpp:165] Memory required for data: 3204841664
I0429 13:50:08.567704 47706 layer_factory.hpp:77] Creating layer res4d_branch2b_relu
I0429 13:50:08.567710 47706 net.cpp:106] Creating Layer res4d_branch2b_relu
I0429 13:50:08.567715 47706 net.cpp:454] res4d_branch2b_relu <- res4d_branch2b
I0429 13:50:08.567720 47706 net.cpp:397] res4d_branch2b_relu -> res4d_branch2b (in-place)
I0429 13:50:08.567726 47706 net.cpp:150] Setting up res4d_branch2b_relu
I0429 13:50:08.567733 47706 net.cpp:157] Top shape: 16 256 14 14 (802816)
I0429 13:50:08.567735 47706 net.cpp:165] Memory required for data: 3208052928
I0429 13:50:08.567739 47706 layer_factory.hpp:77] Creating layer res4d_branch2c
I0429 13:50:08.567749 47706 net.cpp:106] Creating Layer res4d_branch2c
I0429 13:50:08.567754 47706 net.cpp:454] res4d_branch2c <- res4d_branch2b
I0429 13:50:08.567760 47706 net.cpp:411] res4d_branch2c -> res4d_branch2c
I0429 13:50:08.568627 47706 net.cpp:150] Setting up res4d_branch2c
I0429 13:50:08.568644 47706 net.cpp:157] Top shape: 16 1024 14 14 (3211264)
I0429 13:50:08.568648 47706 net.cpp:165] Memory required for data: 3220897984
I0429 13:50:08.568655 47706 layer_factory.hpp:77] Creating layer bn4d_branch2c
I0429 13:50:08.568661 47706 net.cpp:106] Creating Layer bn4d_branch2c
I0429 13:50:08.568666 47706 net.cpp:454] bn4d_branch2c <- res4d_branch2c
I0429 13:50:08.568673 47706 net.cpp:397] bn4d_branch2c -> res4d_branch2c (in-place)
I0429 13:50:08.568842 47706 net.cpp:150] Setting up bn4d_branch2c
I0429 13:50:08.568851 47706 net.cpp:157] Top shape: 16 1024 14 14 (3211264)
I0429 13:50:08.568856 47706 net.cpp:165] Memory required for data: 3233743040
I0429 13:50:08.568863 47706 layer_factory.hpp:77] Creating layer scale4d_branch2c
I0429 13:50:08.568871 47706 net.cpp:106] Creating Layer scale4d_branch2c
I0429 13:50:08.568874 47706 net.cpp:454] scale4d_branch2c <- res4d_branch2c
I0429 13:50:08.568881 47706 net.cpp:397] scale4d_branch2c -> res4d_branch2c (in-place)
I0429 13:50:08.568920 47706 layer_factory.hpp:77] Creating layer scale4d_branch2c
I0429 13:50:08.569025 47706 net.cpp:150] Setting up scale4d_branch2c
I0429 13:50:08.569032 47706 net.cpp:157] Top shape: 16 1024 14 14 (3211264)
I0429 13:50:08.569036 47706 net.cpp:165] Memory required for data: 3246588096
I0429 13:50:08.569043 47706 layer_factory.hpp:77] Creating layer res4d
I0429 13:50:08.569051 47706 net.cpp:106] Creating Layer res4d
I0429 13:50:08.569056 47706 net.cpp:454] res4d <- res4c_res4c_relu_0_split_1
I0429 13:50:08.569061 47706 net.cpp:454] res4d <- res4d_branch2c
I0429 13:50:08.569067 47706 net.cpp:411] res4d -> res4d
I0429 13:50:08.569088 47706 net.cpp:150] Setting up res4d
I0429 13:50:08.569095 47706 net.cpp:157] Top shape: 16 1024 14 14 (3211264)
I0429 13:50:08.569099 47706 net.cpp:165] Memory required for data: 3259433152
I0429 13:50:08.569103 47706 layer_factory.hpp:77] Creating layer res4d_relu
I0429 13:50:08.569114 47706 net.cpp:106] Creating Layer res4d_relu
I0429 13:50:08.569119 47706 net.cpp:454] res4d_relu <- res4d
I0429 13:50:08.569125 47706 net.cpp:397] res4d_relu -> res4d (in-place)
I0429 13:50:08.569133 47706 net.cpp:150] Setting up res4d_relu
I0429 13:50:08.569138 47706 net.cpp:157] Top shape: 16 1024 14 14 (3211264)
I0429 13:50:08.569141 47706 net.cpp:165] Memory required for data: 3272278208
I0429 13:50:08.569145 47706 layer_factory.hpp:77] Creating layer res4d_res4d_relu_0_split
I0429 13:50:08.569150 47706 net.cpp:106] Creating Layer res4d_res4d_relu_0_split
I0429 13:50:08.569154 47706 net.cpp:454] res4d_res4d_relu_0_split <- res4d
I0429 13:50:08.569164 47706 net.cpp:411] res4d_res4d_relu_0_split -> res4d_res4d_relu_0_split_0
I0429 13:50:08.569171 47706 net.cpp:411] res4d_res4d_relu_0_split -> res4d_res4d_relu_0_split_1
I0429 13:50:08.569205 47706 net.cpp:150] Setting up res4d_res4d_relu_0_split
I0429 13:50:08.569211 47706 net.cpp:157] Top shape: 16 1024 14 14 (3211264)
I0429 13:50:08.569216 47706 net.cpp:157] Top shape: 16 1024 14 14 (3211264)
I0429 13:50:08.569221 47706 net.cpp:165] Memory required for data: 3297968320
I0429 13:50:08.569224 47706 layer_factory.hpp:77] Creating layer res4e_branch2a
I0429 13:50:08.569236 47706 net.cpp:106] Creating Layer res4e_branch2a
I0429 13:50:08.569242 47706 net.cpp:454] res4e_branch2a <- res4d_res4d_relu_0_split_0
I0429 13:50:08.569247 47706 net.cpp:411] res4e_branch2a -> res4e_branch2a
I0429 13:50:08.570031 47706 net.cpp:150] Setting up res4e_branch2a
I0429 13:50:08.570045 47706 net.cpp:157] Top shape: 16 256 14 14 (802816)
I0429 13:50:08.570050 47706 net.cpp:165] Memory required for data: 3301179584
I0429 13:50:08.570056 47706 layer_factory.hpp:77] Creating layer bn4e_branch2a
I0429 13:50:08.570063 47706 net.cpp:106] Creating Layer bn4e_branch2a
I0429 13:50:08.570067 47706 net.cpp:454] bn4e_branch2a <- res4e_branch2a
I0429 13:50:08.570073 47706 net.cpp:397] bn4e_branch2a -> res4e_branch2a (in-place)
I0429 13:50:08.570235 47706 net.cpp:150] Setting up bn4e_branch2a
I0429 13:50:08.570243 47706 net.cpp:157] Top shape: 16 256 14 14 (802816)
I0429 13:50:08.570247 47706 net.cpp:165] Memory required for data: 3304390848
I0429 13:50:08.570255 47706 layer_factory.hpp:77] Creating layer scale4e_branch2a
I0429 13:50:08.570262 47706 net.cpp:106] Creating Layer scale4e_branch2a
I0429 13:50:08.570266 47706 net.cpp:454] scale4e_branch2a <- res4e_branch2a
I0429 13:50:08.570271 47706 net.cpp:397] scale4e_branch2a -> res4e_branch2a (in-place)
I0429 13:50:08.570312 47706 layer_factory.hpp:77] Creating layer scale4e_branch2a
I0429 13:50:08.570407 47706 net.cpp:150] Setting up scale4e_branch2a
I0429 13:50:08.570416 47706 net.cpp:157] Top shape: 16 256 14 14 (802816)
I0429 13:50:08.570420 47706 net.cpp:165] Memory required for data: 3307602112
I0429 13:50:08.570426 47706 layer_factory.hpp:77] Creating layer res4e_branch2a_relu
I0429 13:50:08.570433 47706 net.cpp:106] Creating Layer res4e_branch2a_relu
I0429 13:50:08.570437 47706 net.cpp:454] res4e_branch2a_relu <- res4e_branch2a
I0429 13:50:08.570442 47706 net.cpp:397] res4e_branch2a_relu -> res4e_branch2a (in-place)
I0429 13:50:08.570454 47706 net.cpp:150] Setting up res4e_branch2a_relu
I0429 13:50:08.570459 47706 net.cpp:157] Top shape: 16 256 14 14 (802816)
I0429 13:50:08.570463 47706 net.cpp:165] Memory required for data: 3310813376
I0429 13:50:08.570467 47706 layer_factory.hpp:77] Creating layer res4e_branch2b
I0429 13:50:08.570474 47706 net.cpp:106] Creating Layer res4e_branch2b
I0429 13:50:08.570478 47706 net.cpp:454] res4e_branch2b <- res4e_branch2a
I0429 13:50:08.570484 47706 net.cpp:411] res4e_branch2b -> res4e_branch2b
I0429 13:50:08.571890 47706 net.cpp:150] Setting up res4e_branch2b
I0429 13:50:08.571904 47706 net.cpp:157] Top shape: 16 256 14 14 (802816)
I0429 13:50:08.571909 47706 net.cpp:165] Memory required for data: 3314024640
I0429 13:50:08.571915 47706 layer_factory.hpp:77] Creating layer bn4e_branch2b
I0429 13:50:08.571923 47706 net.cpp:106] Creating Layer bn4e_branch2b
I0429 13:50:08.571928 47706 net.cpp:454] bn4e_branch2b <- res4e_branch2b
I0429 13:50:08.571933 47706 net.cpp:397] bn4e_branch2b -> res4e_branch2b (in-place)
I0429 13:50:08.572093 47706 net.cpp:150] Setting up bn4e_branch2b
I0429 13:50:08.572103 47706 net.cpp:157] Top shape: 16 256 14 14 (802816)
I0429 13:50:08.572106 47706 net.cpp:165] Memory required for data: 3317235904
I0429 13:50:08.572113 47706 layer_factory.hpp:77] Creating layer scale4e_branch2b
I0429 13:50:08.572121 47706 net.cpp:106] Creating Layer scale4e_branch2b
I0429 13:50:08.572126 47706 net.cpp:454] scale4e_branch2b <- res4e_branch2b
I0429 13:50:08.572132 47706 net.cpp:397] scale4e_branch2b -> res4e_branch2b (in-place)
I0429 13:50:08.572180 47706 layer_factory.hpp:77] Creating layer scale4e_branch2b
I0429 13:50:08.572280 47706 net.cpp:150] Setting up scale4e_branch2b
I0429 13:50:08.572289 47706 net.cpp:157] Top shape: 16 256 14 14 (802816)
I0429 13:50:08.572293 47706 net.cpp:165] Memory required for data: 3320447168
I0429 13:50:08.572300 47706 layer_factory.hpp:77] Creating layer res4e_branch2b_relu
I0429 13:50:08.572306 47706 net.cpp:106] Creating Layer res4e_branch2b_relu
I0429 13:50:08.572310 47706 net.cpp:454] res4e_branch2b_relu <- res4e_branch2b
I0429 13:50:08.572317 47706 net.cpp:397] res4e_branch2b_relu -> res4e_branch2b (in-place)
I0429 13:50:08.572324 47706 net.cpp:150] Setting up res4e_branch2b_relu
I0429 13:50:08.572329 47706 net.cpp:157] Top shape: 16 256 14 14 (802816)
I0429 13:50:08.572334 47706 net.cpp:165] Memory required for data: 3323658432
I0429 13:50:08.572337 47706 layer_factory.hpp:77] Creating layer res4e_branch2c
I0429 13:50:08.572346 47706 net.cpp:106] Creating Layer res4e_branch2c
I0429 13:50:08.572350 47706 net.cpp:454] res4e_branch2c <- res4e_branch2b
I0429 13:50:08.572356 47706 net.cpp:411] res4e_branch2c -> res4e_branch2c
I0429 13:50:08.573151 47706 net.cpp:150] Setting up res4e_branch2c
I0429 13:50:08.573166 47706 net.cpp:157] Top shape: 16 1024 14 14 (3211264)
I0429 13:50:08.573170 47706 net.cpp:165] Memory required for data: 3336503488
I0429 13:50:08.573178 47706 layer_factory.hpp:77] Creating layer bn4e_branch2c
I0429 13:50:08.573185 47706 net.cpp:106] Creating Layer bn4e_branch2c
I0429 13:50:08.573190 47706 net.cpp:454] bn4e_branch2c <- res4e_branch2c
I0429 13:50:08.573196 47706 net.cpp:397] bn4e_branch2c -> res4e_branch2c (in-place)
I0429 13:50:08.573372 47706 net.cpp:150] Setting up bn4e_branch2c
I0429 13:50:08.573382 47706 net.cpp:157] Top shape: 16 1024 14 14 (3211264)
I0429 13:50:08.573386 47706 net.cpp:165] Memory required for data: 3349348544
I0429 13:50:08.573395 47706 layer_factory.hpp:77] Creating layer scale4e_branch2c
I0429 13:50:08.573401 47706 net.cpp:106] Creating Layer scale4e_branch2c
I0429 13:50:08.573405 47706 net.cpp:454] scale4e_branch2c <- res4e_branch2c
I0429 13:50:08.573413 47706 net.cpp:397] scale4e_branch2c -> res4e_branch2c (in-place)
I0429 13:50:08.573454 47706 layer_factory.hpp:77] Creating layer scale4e_branch2c
I0429 13:50:08.573565 47706 net.cpp:150] Setting up scale4e_branch2c
I0429 13:50:08.573575 47706 net.cpp:157] Top shape: 16 1024 14 14 (3211264)
I0429 13:50:08.573578 47706 net.cpp:165] Memory required for data: 3362193600
I0429 13:50:08.573585 47706 layer_factory.hpp:77] Creating layer res4e
I0429 13:50:08.573592 47706 net.cpp:106] Creating Layer res4e
I0429 13:50:08.573596 47706 net.cpp:454] res4e <- res4d_res4d_relu_0_split_1
I0429 13:50:08.573601 47706 net.cpp:454] res4e <- res4e_branch2c
I0429 13:50:08.573607 47706 net.cpp:411] res4e -> res4e
I0429 13:50:08.573632 47706 net.cpp:150] Setting up res4e
I0429 13:50:08.573639 47706 net.cpp:157] Top shape: 16 1024 14 14 (3211264)
I0429 13:50:08.573643 47706 net.cpp:165] Memory required for data: 3375038656
I0429 13:50:08.573647 47706 layer_factory.hpp:77] Creating layer res4e_relu
I0429 13:50:08.573653 47706 net.cpp:106] Creating Layer res4e_relu
I0429 13:50:08.573657 47706 net.cpp:454] res4e_relu <- res4e
I0429 13:50:08.573664 47706 net.cpp:397] res4e_relu -> res4e (in-place)
I0429 13:50:08.573670 47706 net.cpp:150] Setting up res4e_relu
I0429 13:50:08.573676 47706 net.cpp:157] Top shape: 16 1024 14 14 (3211264)
I0429 13:50:08.573679 47706 net.cpp:165] Memory required for data: 3387883712
I0429 13:50:08.573683 47706 layer_factory.hpp:77] Creating layer res4e_res4e_relu_0_split
I0429 13:50:08.573689 47706 net.cpp:106] Creating Layer res4e_res4e_relu_0_split
I0429 13:50:08.573693 47706 net.cpp:454] res4e_res4e_relu_0_split <- res4e
I0429 13:50:08.573698 47706 net.cpp:411] res4e_res4e_relu_0_split -> res4e_res4e_relu_0_split_0
I0429 13:50:08.573704 47706 net.cpp:411] res4e_res4e_relu_0_split -> res4e_res4e_relu_0_split_1
I0429 13:50:08.573737 47706 net.cpp:150] Setting up res4e_res4e_relu_0_split
I0429 13:50:08.573750 47706 net.cpp:157] Top shape: 16 1024 14 14 (3211264)
I0429 13:50:08.573755 47706 net.cpp:157] Top shape: 16 1024 14 14 (3211264)
I0429 13:50:08.573758 47706 net.cpp:165] Memory required for data: 3413573824
I0429 13:50:08.573762 47706 layer_factory.hpp:77] Creating layer res4f_branch2a
I0429 13:50:08.573771 47706 net.cpp:106] Creating Layer res4f_branch2a
I0429 13:50:08.573776 47706 net.cpp:454] res4f_branch2a <- res4e_res4e_relu_0_split_0
I0429 13:50:08.573782 47706 net.cpp:411] res4f_branch2a -> res4f_branch2a
I0429 13:50:08.574568 47706 net.cpp:150] Setting up res4f_branch2a
I0429 13:50:08.574582 47706 net.cpp:157] Top shape: 16 256 14 14 (802816)
I0429 13:50:08.574586 47706 net.cpp:165] Memory required for data: 3416785088
I0429 13:50:08.574592 47706 layer_factory.hpp:77] Creating layer bn4f_branch2a
I0429 13:50:08.574599 47706 net.cpp:106] Creating Layer bn4f_branch2a
I0429 13:50:08.574604 47706 net.cpp:454] bn4f_branch2a <- res4f_branch2a
I0429 13:50:08.574611 47706 net.cpp:397] bn4f_branch2a -> res4f_branch2a (in-place)
I0429 13:50:08.574777 47706 net.cpp:150] Setting up bn4f_branch2a
I0429 13:50:08.574786 47706 net.cpp:157] Top shape: 16 256 14 14 (802816)
I0429 13:50:08.574790 47706 net.cpp:165] Memory required for data: 3419996352
I0429 13:50:08.574800 47706 layer_factory.hpp:77] Creating layer scale4f_branch2a
I0429 13:50:08.574806 47706 net.cpp:106] Creating Layer scale4f_branch2a
I0429 13:50:08.574810 47706 net.cpp:454] scale4f_branch2a <- res4f_branch2a
I0429 13:50:08.574815 47706 net.cpp:397] scale4f_branch2a -> res4f_branch2a (in-place)
I0429 13:50:08.574856 47706 layer_factory.hpp:77] Creating layer scale4f_branch2a
I0429 13:50:08.574954 47706 net.cpp:150] Setting up scale4f_branch2a
I0429 13:50:08.574961 47706 net.cpp:157] Top shape: 16 256 14 14 (802816)
I0429 13:50:08.574965 47706 net.cpp:165] Memory required for data: 3423207616
I0429 13:50:08.574971 47706 layer_factory.hpp:77] Creating layer res4f_branch2a_relu
I0429 13:50:08.574978 47706 net.cpp:106] Creating Layer res4f_branch2a_relu
I0429 13:50:08.574982 47706 net.cpp:454] res4f_branch2a_relu <- res4f_branch2a
I0429 13:50:08.574992 47706 net.cpp:397] res4f_branch2a_relu -> res4f_branch2a (in-place)
I0429 13:50:08.575000 47706 net.cpp:150] Setting up res4f_branch2a_relu
I0429 13:50:08.575006 47706 net.cpp:157] Top shape: 16 256 14 14 (802816)
I0429 13:50:08.575009 47706 net.cpp:165] Memory required for data: 3426418880
I0429 13:50:08.575012 47706 layer_factory.hpp:77] Creating layer res4f_branch2b
I0429 13:50:08.575019 47706 net.cpp:106] Creating Layer res4f_branch2b
I0429 13:50:08.575023 47706 net.cpp:454] res4f_branch2b <- res4f_branch2a
I0429 13:50:08.575031 47706 net.cpp:411] res4f_branch2b -> res4f_branch2b
I0429 13:50:08.576450 47706 net.cpp:150] Setting up res4f_branch2b
I0429 13:50:08.576465 47706 net.cpp:157] Top shape: 16 256 14 14 (802816)
I0429 13:50:08.576470 47706 net.cpp:165] Memory required for data: 3429630144
I0429 13:50:08.576477 47706 layer_factory.hpp:77] Creating layer bn4f_branch2b
I0429 13:50:08.576483 47706 net.cpp:106] Creating Layer bn4f_branch2b
I0429 13:50:08.576488 47706 net.cpp:454] bn4f_branch2b <- res4f_branch2b
I0429 13:50:08.576493 47706 net.cpp:397] bn4f_branch2b -> res4f_branch2b (in-place)
I0429 13:50:08.576653 47706 net.cpp:150] Setting up bn4f_branch2b
I0429 13:50:08.576663 47706 net.cpp:157] Top shape: 16 256 14 14 (802816)
I0429 13:50:08.576666 47706 net.cpp:165] Memory required for data: 3432841408
I0429 13:50:08.576679 47706 layer_factory.hpp:77] Creating layer scale4f_branch2b
I0429 13:50:08.576686 47706 net.cpp:106] Creating Layer scale4f_branch2b
I0429 13:50:08.576691 47706 net.cpp:454] scale4f_branch2b <- res4f_branch2b
I0429 13:50:08.576696 47706 net.cpp:397] scale4f_branch2b -> res4f_branch2b (in-place)
I0429 13:50:08.576735 47706 layer_factory.hpp:77] Creating layer scale4f_branch2b
I0429 13:50:08.576833 47706 net.cpp:150] Setting up scale4f_branch2b
I0429 13:50:08.576841 47706 net.cpp:157] Top shape: 16 256 14 14 (802816)
I0429 13:50:08.576845 47706 net.cpp:165] Memory required for data: 3436052672
I0429 13:50:08.576856 47706 layer_factory.hpp:77] Creating layer res4f_branch2b_relu
I0429 13:50:08.576865 47706 net.cpp:106] Creating Layer res4f_branch2b_relu
I0429 13:50:08.576870 47706 net.cpp:454] res4f_branch2b_relu <- res4f_branch2b
I0429 13:50:08.576875 47706 net.cpp:397] res4f_branch2b_relu -> res4f_branch2b (in-place)
I0429 13:50:08.576882 47706 net.cpp:150] Setting up res4f_branch2b_relu
I0429 13:50:08.576889 47706 net.cpp:157] Top shape: 16 256 14 14 (802816)
I0429 13:50:08.576892 47706 net.cpp:165] Memory required for data: 3439263936
I0429 13:50:08.576896 47706 layer_factory.hpp:77] Creating layer res4f_branch2c
I0429 13:50:08.576905 47706 net.cpp:106] Creating Layer res4f_branch2c
I0429 13:50:08.576910 47706 net.cpp:454] res4f_branch2c <- res4f_branch2b
I0429 13:50:08.576915 47706 net.cpp:411] res4f_branch2c -> res4f_branch2c
I0429 13:50:08.577704 47706 net.cpp:150] Setting up res4f_branch2c
I0429 13:50:08.577719 47706 net.cpp:157] Top shape: 16 1024 14 14 (3211264)
I0429 13:50:08.577723 47706 net.cpp:165] Memory required for data: 3452108992
I0429 13:50:08.577729 47706 layer_factory.hpp:77] Creating layer bn4f_branch2c
I0429 13:50:08.577739 47706 net.cpp:106] Creating Layer bn4f_branch2c
I0429 13:50:08.577744 47706 net.cpp:454] bn4f_branch2c <- res4f_branch2c
I0429 13:50:08.577749 47706 net.cpp:397] bn4f_branch2c -> res4f_branch2c (in-place)
I0429 13:50:08.577924 47706 net.cpp:150] Setting up bn4f_branch2c
I0429 13:50:08.577934 47706 net.cpp:157] Top shape: 16 1024 14 14 (3211264)
I0429 13:50:08.577939 47706 net.cpp:165] Memory required for data: 3464954048
I0429 13:50:08.577983 47706 layer_factory.hpp:77] Creating layer scale4f_branch2c
I0429 13:50:08.577993 47706 net.cpp:106] Creating Layer scale4f_branch2c
I0429 13:50:08.577998 47706 net.cpp:454] scale4f_branch2c <- res4f_branch2c
I0429 13:50:08.578004 47706 net.cpp:397] scale4f_branch2c -> res4f_branch2c (in-place)
I0429 13:50:08.578049 47706 layer_factory.hpp:77] Creating layer scale4f_branch2c
I0429 13:50:08.578155 47706 net.cpp:150] Setting up scale4f_branch2c
I0429 13:50:08.578162 47706 net.cpp:157] Top shape: 16 1024 14 14 (3211264)
I0429 13:50:08.578166 47706 net.cpp:165] Memory required for data: 3477799104
I0429 13:50:08.578173 47706 layer_factory.hpp:77] Creating layer res4f
I0429 13:50:08.578181 47706 net.cpp:106] Creating Layer res4f
I0429 13:50:08.578184 47706 net.cpp:454] res4f <- res4e_res4e_relu_0_split_1
I0429 13:50:08.578189 47706 net.cpp:454] res4f <- res4f_branch2c
I0429 13:50:08.578197 47706 net.cpp:411] res4f -> res4f
I0429 13:50:08.578220 47706 net.cpp:150] Setting up res4f
I0429 13:50:08.578227 47706 net.cpp:157] Top shape: 16 1024 14 14 (3211264)
I0429 13:50:08.578232 47706 net.cpp:165] Memory required for data: 3490644160
I0429 13:50:08.578235 47706 layer_factory.hpp:77] Creating layer res4f_relu
I0429 13:50:08.578243 47706 net.cpp:106] Creating Layer res4f_relu
I0429 13:50:08.578248 47706 net.cpp:454] res4f_relu <- res4f
I0429 13:50:08.578253 47706 net.cpp:397] res4f_relu -> res4f (in-place)
I0429 13:50:08.578259 47706 net.cpp:150] Setting up res4f_relu
I0429 13:50:08.578265 47706 net.cpp:157] Top shape: 16 1024 14 14 (3211264)
I0429 13:50:08.578269 47706 net.cpp:165] Memory required for data: 3503489216
I0429 13:50:08.578272 47706 layer_factory.hpp:77] Creating layer res4f_res4f_relu_0_split
I0429 13:50:08.578279 47706 net.cpp:106] Creating Layer res4f_res4f_relu_0_split
I0429 13:50:08.578284 47706 net.cpp:454] res4f_res4f_relu_0_split <- res4f
I0429 13:50:08.578289 47706 net.cpp:411] res4f_res4f_relu_0_split -> res4f_res4f_relu_0_split_0
I0429 13:50:08.578295 47706 net.cpp:411] res4f_res4f_relu_0_split -> res4f_res4f_relu_0_split_1
I0429 13:50:08.578328 47706 net.cpp:150] Setting up res4f_res4f_relu_0_split
I0429 13:50:08.578336 47706 net.cpp:157] Top shape: 16 1024 14 14 (3211264)
I0429 13:50:08.578341 47706 net.cpp:157] Top shape: 16 1024 14 14 (3211264)
I0429 13:50:08.578346 47706 net.cpp:165] Memory required for data: 3529179328
I0429 13:50:08.578349 47706 layer_factory.hpp:77] Creating layer res5a_branch1
I0429 13:50:08.578361 47706 net.cpp:106] Creating Layer res5a_branch1
I0429 13:50:08.578366 47706 net.cpp:454] res5a_branch1 <- res4f_res4f_relu_0_split_0
I0429 13:50:08.578374 47706 net.cpp:411] res5a_branch1 -> res5a_branch1
I0429 13:50:08.582681 47706 net.cpp:150] Setting up res5a_branch1
I0429 13:50:08.582697 47706 net.cpp:157] Top shape: 16 2048 7 7 (1605632)
I0429 13:50:08.582701 47706 net.cpp:165] Memory required for data: 3535601856
I0429 13:50:08.582707 47706 layer_factory.hpp:77] Creating layer bn5a_branch1
I0429 13:50:08.582715 47706 net.cpp:106] Creating Layer bn5a_branch1
I0429 13:50:08.582720 47706 net.cpp:454] bn5a_branch1 <- res5a_branch1
I0429 13:50:08.582726 47706 net.cpp:397] bn5a_branch1 -> res5a_branch1 (in-place)
I0429 13:50:08.582926 47706 net.cpp:150] Setting up bn5a_branch1
I0429 13:50:08.582936 47706 net.cpp:157] Top shape: 16 2048 7 7 (1605632)
I0429 13:50:08.582939 47706 net.cpp:165] Memory required for data: 3542024384
I0429 13:50:08.582947 47706 layer_factory.hpp:77] Creating layer scale5a_branch1
I0429 13:50:08.582954 47706 net.cpp:106] Creating Layer scale5a_branch1
I0429 13:50:08.582958 47706 net.cpp:454] scale5a_branch1 <- res5a_branch1
I0429 13:50:08.582964 47706 net.cpp:397] scale5a_branch1 -> res5a_branch1 (in-place)
I0429 13:50:08.583008 47706 layer_factory.hpp:77] Creating layer scale5a_branch1
I0429 13:50:08.583119 47706 net.cpp:150] Setting up scale5a_branch1
I0429 13:50:08.583128 47706 net.cpp:157] Top shape: 16 2048 7 7 (1605632)
I0429 13:50:08.583132 47706 net.cpp:165] Memory required for data: 3548446912
I0429 13:50:08.583139 47706 layer_factory.hpp:77] Creating layer res5a_branch2a
I0429 13:50:08.583153 47706 net.cpp:106] Creating Layer res5a_branch2a
I0429 13:50:08.583158 47706 net.cpp:454] res5a_branch2a <- res4f_res4f_relu_0_split_1
I0429 13:50:08.583163 47706 net.cpp:411] res5a_branch2a -> res5a_branch2a
I0429 13:50:08.584465 47706 net.cpp:150] Setting up res5a_branch2a
I0429 13:50:08.584480 47706 net.cpp:157] Top shape: 16 512 7 7 (401408)
I0429 13:50:08.584483 47706 net.cpp:165] Memory required for data: 3550052544
I0429 13:50:08.584489 47706 layer_factory.hpp:77] Creating layer bn5a_branch2a
I0429 13:50:08.584498 47706 net.cpp:106] Creating Layer bn5a_branch2a
I0429 13:50:08.584503 47706 net.cpp:454] bn5a_branch2a <- res5a_branch2a
I0429 13:50:08.584509 47706 net.cpp:397] bn5a_branch2a -> res5a_branch2a (in-place)
I0429 13:50:08.584684 47706 net.cpp:150] Setting up bn5a_branch2a
I0429 13:50:08.584693 47706 net.cpp:157] Top shape: 16 512 7 7 (401408)
I0429 13:50:08.584698 47706 net.cpp:165] Memory required for data: 3551658176
I0429 13:50:08.584707 47706 layer_factory.hpp:77] Creating layer scale5a_branch2a
I0429 13:50:08.584712 47706 net.cpp:106] Creating Layer scale5a_branch2a
I0429 13:50:08.584717 47706 net.cpp:454] scale5a_branch2a <- res5a_branch2a
I0429 13:50:08.584724 47706 net.cpp:397] scale5a_branch2a -> res5a_branch2a (in-place)
I0429 13:50:08.584763 47706 layer_factory.hpp:77] Creating layer scale5a_branch2a
I0429 13:50:08.584873 47706 net.cpp:150] Setting up scale5a_branch2a
I0429 13:50:08.584882 47706 net.cpp:157] Top shape: 16 512 7 7 (401408)
I0429 13:50:08.584885 47706 net.cpp:165] Memory required for data: 3553263808
I0429 13:50:08.584893 47706 layer_factory.hpp:77] Creating layer res5a_branch2a_relu
I0429 13:50:08.584899 47706 net.cpp:106] Creating Layer res5a_branch2a_relu
I0429 13:50:08.584903 47706 net.cpp:454] res5a_branch2a_relu <- res5a_branch2a
I0429 13:50:08.584909 47706 net.cpp:397] res5a_branch2a_relu -> res5a_branch2a (in-place)
I0429 13:50:08.584916 47706 net.cpp:150] Setting up res5a_branch2a_relu
I0429 13:50:08.584921 47706 net.cpp:157] Top shape: 16 512 7 7 (401408)
I0429 13:50:08.584925 47706 net.cpp:165] Memory required for data: 3554869440
I0429 13:50:08.584929 47706 layer_factory.hpp:77] Creating layer res5a_branch2b
I0429 13:50:08.584939 47706 net.cpp:106] Creating Layer res5a_branch2b
I0429 13:50:08.584942 47706 net.cpp:454] res5a_branch2b <- res5a_branch2a
I0429 13:50:08.584950 47706 net.cpp:411] res5a_branch2b -> res5a_branch2b
I0429 13:50:08.589748 47706 net.cpp:150] Setting up res5a_branch2b
I0429 13:50:08.589764 47706 net.cpp:157] Top shape: 16 512 7 7 (401408)
I0429 13:50:08.589769 47706 net.cpp:165] Memory required for data: 3556475072
I0429 13:50:08.589776 47706 layer_factory.hpp:77] Creating layer bn5a_branch2b
I0429 13:50:08.589782 47706 net.cpp:106] Creating Layer bn5a_branch2b
I0429 13:50:08.589787 47706 net.cpp:454] bn5a_branch2b <- res5a_branch2b
I0429 13:50:08.589794 47706 net.cpp:397] bn5a_branch2b -> res5a_branch2b (in-place)
I0429 13:50:08.589969 47706 net.cpp:150] Setting up bn5a_branch2b
I0429 13:50:08.589979 47706 net.cpp:157] Top shape: 16 512 7 7 (401408)
I0429 13:50:08.589983 47706 net.cpp:165] Memory required for data: 3558080704
I0429 13:50:08.589992 47706 layer_factory.hpp:77] Creating layer scale5a_branch2b
I0429 13:50:08.589998 47706 net.cpp:106] Creating Layer scale5a_branch2b
I0429 13:50:08.590003 47706 net.cpp:454] scale5a_branch2b <- res5a_branch2b
I0429 13:50:08.590008 47706 net.cpp:397] scale5a_branch2b -> res5a_branch2b (in-place)
I0429 13:50:08.590049 47706 layer_factory.hpp:77] Creating layer scale5a_branch2b
I0429 13:50:08.590165 47706 net.cpp:150] Setting up scale5a_branch2b
I0429 13:50:08.590174 47706 net.cpp:157] Top shape: 16 512 7 7 (401408)
I0429 13:50:08.590179 47706 net.cpp:165] Memory required for data: 3559686336
I0429 13:50:08.590185 47706 layer_factory.hpp:77] Creating layer res5a_branch2b_relu
I0429 13:50:08.590193 47706 net.cpp:106] Creating Layer res5a_branch2b_relu
I0429 13:50:08.590196 47706 net.cpp:454] res5a_branch2b_relu <- res5a_branch2b
I0429 13:50:08.590204 47706 net.cpp:397] res5a_branch2b_relu -> res5a_branch2b (in-place)
I0429 13:50:08.590210 47706 net.cpp:150] Setting up res5a_branch2b_relu
I0429 13:50:08.590216 47706 net.cpp:157] Top shape: 16 512 7 7 (401408)
I0429 13:50:08.590220 47706 net.cpp:165] Memory required for data: 3561291968
I0429 13:50:08.590224 47706 layer_factory.hpp:77] Creating layer res5a_branch2c
I0429 13:50:08.590231 47706 net.cpp:106] Creating Layer res5a_branch2c
I0429 13:50:08.590236 47706 net.cpp:454] res5a_branch2c <- res5a_branch2b
I0429 13:50:08.590245 47706 net.cpp:411] res5a_branch2c -> res5a_branch2c
I0429 13:50:08.592555 47706 net.cpp:150] Setting up res5a_branch2c
I0429 13:50:08.592571 47706 net.cpp:157] Top shape: 16 2048 7 7 (1605632)
I0429 13:50:08.592574 47706 net.cpp:165] Memory required for data: 3567714496
I0429 13:50:08.592581 47706 layer_factory.hpp:77] Creating layer bn5a_branch2c
I0429 13:50:08.592588 47706 net.cpp:106] Creating Layer bn5a_branch2c
I0429 13:50:08.592592 47706 net.cpp:454] bn5a_branch2c <- res5a_branch2c
I0429 13:50:08.592598 47706 net.cpp:397] bn5a_branch2c -> res5a_branch2c (in-place)
I0429 13:50:08.592780 47706 net.cpp:150] Setting up bn5a_branch2c
I0429 13:50:08.592789 47706 net.cpp:157] Top shape: 16 2048 7 7 (1605632)
I0429 13:50:08.592793 47706 net.cpp:165] Memory required for data: 3574137024
I0429 13:50:08.592803 47706 layer_factory.hpp:77] Creating layer scale5a_branch2c
I0429 13:50:08.592810 47706 net.cpp:106] Creating Layer scale5a_branch2c
I0429 13:50:08.592815 47706 net.cpp:454] scale5a_branch2c <- res5a_branch2c
I0429 13:50:08.592820 47706 net.cpp:397] scale5a_branch2c -> res5a_branch2c (in-place)
I0429 13:50:08.592865 47706 layer_factory.hpp:77] Creating layer scale5a_branch2c
I0429 13:50:08.592979 47706 net.cpp:150] Setting up scale5a_branch2c
I0429 13:50:08.592988 47706 net.cpp:157] Top shape: 16 2048 7 7 (1605632)
I0429 13:50:08.592993 47706 net.cpp:165] Memory required for data: 3580559552
I0429 13:50:08.592999 47706 layer_factory.hpp:77] Creating layer res5a
I0429 13:50:08.593008 47706 net.cpp:106] Creating Layer res5a
I0429 13:50:08.593013 47706 net.cpp:454] res5a <- res5a_branch1
I0429 13:50:08.593017 47706 net.cpp:454] res5a <- res5a_branch2c
I0429 13:50:08.593022 47706 net.cpp:411] res5a -> res5a
I0429 13:50:08.593047 47706 net.cpp:150] Setting up res5a
I0429 13:50:08.593055 47706 net.cpp:157] Top shape: 16 2048 7 7 (1605632)
I0429 13:50:08.593060 47706 net.cpp:165] Memory required for data: 3586982080
I0429 13:50:08.593067 47706 layer_factory.hpp:77] Creating layer res5a_relu
I0429 13:50:08.593075 47706 net.cpp:106] Creating Layer res5a_relu
I0429 13:50:08.593078 47706 net.cpp:454] res5a_relu <- res5a
I0429 13:50:08.593086 47706 net.cpp:397] res5a_relu -> res5a (in-place)
I0429 13:50:08.593092 47706 net.cpp:150] Setting up res5a_relu
I0429 13:50:08.593097 47706 net.cpp:157] Top shape: 16 2048 7 7 (1605632)
I0429 13:50:08.593101 47706 net.cpp:165] Memory required for data: 3593404608
I0429 13:50:08.593106 47706 layer_factory.hpp:77] Creating layer res5a_res5a_relu_0_split
I0429 13:50:08.593111 47706 net.cpp:106] Creating Layer res5a_res5a_relu_0_split
I0429 13:50:08.593114 47706 net.cpp:454] res5a_res5a_relu_0_split <- res5a
I0429 13:50:08.593119 47706 net.cpp:411] res5a_res5a_relu_0_split -> res5a_res5a_relu_0_split_0
I0429 13:50:08.593125 47706 net.cpp:411] res5a_res5a_relu_0_split -> res5a_res5a_relu_0_split_1
I0429 13:50:08.593159 47706 net.cpp:150] Setting up res5a_res5a_relu_0_split
I0429 13:50:08.593168 47706 net.cpp:157] Top shape: 16 2048 7 7 (1605632)
I0429 13:50:08.593173 47706 net.cpp:157] Top shape: 16 2048 7 7 (1605632)
I0429 13:50:08.593175 47706 net.cpp:165] Memory required for data: 3606249664
I0429 13:50:08.593179 47706 layer_factory.hpp:77] Creating layer res5b_branch2a
I0429 13:50:08.593186 47706 net.cpp:106] Creating Layer res5b_branch2a
I0429 13:50:08.593191 47706 net.cpp:454] res5b_branch2a <- res5a_res5a_relu_0_split_0
I0429 13:50:08.593197 47706 net.cpp:411] res5b_branch2a -> res5b_branch2a
I0429 13:50:08.595487 47706 net.cpp:150] Setting up res5b_branch2a
I0429 13:50:08.595502 47706 net.cpp:157] Top shape: 16 512 7 7 (401408)
I0429 13:50:08.595506 47706 net.cpp:165] Memory required for data: 3607855296
I0429 13:50:08.595513 47706 layer_factory.hpp:77] Creating layer bn5b_branch2a
I0429 13:50:08.595522 47706 net.cpp:106] Creating Layer bn5b_branch2a
I0429 13:50:08.595526 47706 net.cpp:454] bn5b_branch2a <- res5b_branch2a
I0429 13:50:08.595532 47706 net.cpp:397] bn5b_branch2a -> res5b_branch2a (in-place)
I0429 13:50:08.595710 47706 net.cpp:150] Setting up bn5b_branch2a
I0429 13:50:08.595718 47706 net.cpp:157] Top shape: 16 512 7 7 (401408)
I0429 13:50:08.595722 47706 net.cpp:165] Memory required for data: 3609460928
I0429 13:50:08.595731 47706 layer_factory.hpp:77] Creating layer scale5b_branch2a
I0429 13:50:08.595739 47706 net.cpp:106] Creating Layer scale5b_branch2a
I0429 13:50:08.595744 47706 net.cpp:454] scale5b_branch2a <- res5b_branch2a
I0429 13:50:08.595749 47706 net.cpp:397] scale5b_branch2a -> res5b_branch2a (in-place)
I0429 13:50:08.595788 47706 layer_factory.hpp:77] Creating layer scale5b_branch2a
I0429 13:50:08.595901 47706 net.cpp:150] Setting up scale5b_branch2a
I0429 13:50:08.595909 47706 net.cpp:157] Top shape: 16 512 7 7 (401408)
I0429 13:50:08.595913 47706 net.cpp:165] Memory required for data: 3611066560
I0429 13:50:08.595921 47706 layer_factory.hpp:77] Creating layer res5b_branch2a_relu
I0429 13:50:08.595927 47706 net.cpp:106] Creating Layer res5b_branch2a_relu
I0429 13:50:08.595930 47706 net.cpp:454] res5b_branch2a_relu <- res5b_branch2a
I0429 13:50:08.595939 47706 net.cpp:397] res5b_branch2a_relu -> res5b_branch2a (in-place)
I0429 13:50:08.595947 47706 net.cpp:150] Setting up res5b_branch2a_relu
I0429 13:50:08.595952 47706 net.cpp:157] Top shape: 16 512 7 7 (401408)
I0429 13:50:08.595957 47706 net.cpp:165] Memory required for data: 3612672192
I0429 13:50:08.595960 47706 layer_factory.hpp:77] Creating layer res5b_branch2b
I0429 13:50:08.595968 47706 net.cpp:106] Creating Layer res5b_branch2b
I0429 13:50:08.595973 47706 net.cpp:454] res5b_branch2b <- res5b_branch2a
I0429 13:50:08.595979 47706 net.cpp:411] res5b_branch2b -> res5b_branch2b
I0429 13:50:08.600859 47706 net.cpp:150] Setting up res5b_branch2b
I0429 13:50:08.600875 47706 net.cpp:157] Top shape: 16 512 7 7 (401408)
I0429 13:50:08.600880 47706 net.cpp:165] Memory required for data: 3614277824
I0429 13:50:08.600886 47706 layer_factory.hpp:77] Creating layer bn5b_branch2b
I0429 13:50:08.600895 47706 net.cpp:106] Creating Layer bn5b_branch2b
I0429 13:50:08.600908 47706 net.cpp:454] bn5b_branch2b <- res5b_branch2b
I0429 13:50:08.600914 47706 net.cpp:397] bn5b_branch2b -> res5b_branch2b (in-place)
I0429 13:50:08.601094 47706 net.cpp:150] Setting up bn5b_branch2b
I0429 13:50:08.601102 47706 net.cpp:157] Top shape: 16 512 7 7 (401408)
I0429 13:50:08.601106 47706 net.cpp:165] Memory required for data: 3615883456
I0429 13:50:08.601115 47706 layer_factory.hpp:77] Creating layer scale5b_branch2b
I0429 13:50:08.601121 47706 net.cpp:106] Creating Layer scale5b_branch2b
I0429 13:50:08.601126 47706 net.cpp:454] scale5b_branch2b <- res5b_branch2b
I0429 13:50:08.601131 47706 net.cpp:397] scale5b_branch2b -> res5b_branch2b (in-place)
I0429 13:50:08.601173 47706 layer_factory.hpp:77] Creating layer scale5b_branch2b
I0429 13:50:08.601284 47706 net.cpp:150] Setting up scale5b_branch2b
I0429 13:50:08.601291 47706 net.cpp:157] Top shape: 16 512 7 7 (401408)
I0429 13:50:08.601295 47706 net.cpp:165] Memory required for data: 3617489088
I0429 13:50:08.601302 47706 layer_factory.hpp:77] Creating layer res5b_branch2b_relu
I0429 13:50:08.601310 47706 net.cpp:106] Creating Layer res5b_branch2b_relu
I0429 13:50:08.601315 47706 net.cpp:454] res5b_branch2b_relu <- res5b_branch2b
I0429 13:50:08.601320 47706 net.cpp:397] res5b_branch2b_relu -> res5b_branch2b (in-place)
I0429 13:50:08.601327 47706 net.cpp:150] Setting up res5b_branch2b_relu
I0429 13:50:08.601332 47706 net.cpp:157] Top shape: 16 512 7 7 (401408)
I0429 13:50:08.601336 47706 net.cpp:165] Memory required for data: 3619094720
I0429 13:50:08.601341 47706 layer_factory.hpp:77] Creating layer res5b_branch2c
I0429 13:50:08.601349 47706 net.cpp:106] Creating Layer res5b_branch2c
I0429 13:50:08.601354 47706 net.cpp:454] res5b_branch2c <- res5b_branch2b
I0429 13:50:08.601361 47706 net.cpp:411] res5b_branch2c -> res5b_branch2c
I0429 13:50:08.603655 47706 net.cpp:150] Setting up res5b_branch2c
I0429 13:50:08.603670 47706 net.cpp:157] Top shape: 16 2048 7 7 (1605632)
I0429 13:50:08.603674 47706 net.cpp:165] Memory required for data: 3625517248
I0429 13:50:08.603680 47706 layer_factory.hpp:77] Creating layer bn5b_branch2c
I0429 13:50:08.603688 47706 net.cpp:106] Creating Layer bn5b_branch2c
I0429 13:50:08.603693 47706 net.cpp:454] bn5b_branch2c <- res5b_branch2c
I0429 13:50:08.603698 47706 net.cpp:397] bn5b_branch2c -> res5b_branch2c (in-place)
I0429 13:50:08.603881 47706 net.cpp:150] Setting up bn5b_branch2c
I0429 13:50:08.603891 47706 net.cpp:157] Top shape: 16 2048 7 7 (1605632)
I0429 13:50:08.603895 47706 net.cpp:165] Memory required for data: 3631939776
I0429 13:50:08.603904 47706 layer_factory.hpp:77] Creating layer scale5b_branch2c
I0429 13:50:08.603910 47706 net.cpp:106] Creating Layer scale5b_branch2c
I0429 13:50:08.603915 47706 net.cpp:454] scale5b_branch2c <- res5b_branch2c
I0429 13:50:08.603920 47706 net.cpp:397] scale5b_branch2c -> res5b_branch2c (in-place)
I0429 13:50:08.603966 47706 layer_factory.hpp:77] Creating layer scale5b_branch2c
I0429 13:50:08.604084 47706 net.cpp:150] Setting up scale5b_branch2c
I0429 13:50:08.604094 47706 net.cpp:157] Top shape: 16 2048 7 7 (1605632)
I0429 13:50:08.604097 47706 net.cpp:165] Memory required for data: 3638362304
I0429 13:50:08.604104 47706 layer_factory.hpp:77] Creating layer res5b
I0429 13:50:08.604112 47706 net.cpp:106] Creating Layer res5b
I0429 13:50:08.604117 47706 net.cpp:454] res5b <- res5a_res5a_relu_0_split_1
I0429 13:50:08.604122 47706 net.cpp:454] res5b <- res5b_branch2c
I0429 13:50:08.604130 47706 net.cpp:411] res5b -> res5b
I0429 13:50:08.604153 47706 net.cpp:150] Setting up res5b
I0429 13:50:08.604161 47706 net.cpp:157] Top shape: 16 2048 7 7 (1605632)
I0429 13:50:08.604164 47706 net.cpp:165] Memory required for data: 3644784832
I0429 13:50:08.604168 47706 layer_factory.hpp:77] Creating layer res5b_relu
I0429 13:50:08.604174 47706 net.cpp:106] Creating Layer res5b_relu
I0429 13:50:08.604179 47706 net.cpp:454] res5b_relu <- res5b
I0429 13:50:08.604187 47706 net.cpp:397] res5b_relu -> res5b (in-place)
I0429 13:50:08.604193 47706 net.cpp:150] Setting up res5b_relu
I0429 13:50:08.604202 47706 net.cpp:157] Top shape: 16 2048 7 7 (1605632)
I0429 13:50:08.604207 47706 net.cpp:165] Memory required for data: 3651207360
I0429 13:50:08.604212 47706 layer_factory.hpp:77] Creating layer res5b_res5b_relu_0_split
I0429 13:50:08.604217 47706 net.cpp:106] Creating Layer res5b_res5b_relu_0_split
I0429 13:50:08.604220 47706 net.cpp:454] res5b_res5b_relu_0_split <- res5b
I0429 13:50:08.604225 47706 net.cpp:411] res5b_res5b_relu_0_split -> res5b_res5b_relu_0_split_0
I0429 13:50:08.604231 47706 net.cpp:411] res5b_res5b_relu_0_split -> res5b_res5b_relu_0_split_1
I0429 13:50:08.604265 47706 net.cpp:150] Setting up res5b_res5b_relu_0_split
I0429 13:50:08.604274 47706 net.cpp:157] Top shape: 16 2048 7 7 (1605632)
I0429 13:50:08.604279 47706 net.cpp:157] Top shape: 16 2048 7 7 (1605632)
I0429 13:50:08.604281 47706 net.cpp:165] Memory required for data: 3664052416
I0429 13:50:08.604285 47706 layer_factory.hpp:77] Creating layer res5c_branch2a
I0429 13:50:08.604292 47706 net.cpp:106] Creating Layer res5c_branch2a
I0429 13:50:08.604297 47706 net.cpp:454] res5c_branch2a <- res5b_res5b_relu_0_split_0
I0429 13:50:08.604305 47706 net.cpp:411] res5c_branch2a -> res5c_branch2a
I0429 13:50:08.606612 47706 net.cpp:150] Setting up res5c_branch2a
I0429 13:50:08.606627 47706 net.cpp:157] Top shape: 16 512 7 7 (401408)
I0429 13:50:08.606632 47706 net.cpp:165] Memory required for data: 3665658048
I0429 13:50:08.606638 47706 layer_factory.hpp:77] Creating layer bn5c_branch2a
I0429 13:50:08.606645 47706 net.cpp:106] Creating Layer bn5c_branch2a
I0429 13:50:08.606650 47706 net.cpp:454] bn5c_branch2a <- res5c_branch2a
I0429 13:50:08.606655 47706 net.cpp:397] bn5c_branch2a -> res5c_branch2a (in-place)
I0429 13:50:08.606833 47706 net.cpp:150] Setting up bn5c_branch2a
I0429 13:50:08.606842 47706 net.cpp:157] Top shape: 16 512 7 7 (401408)
I0429 13:50:08.606847 47706 net.cpp:165] Memory required for data: 3667263680
I0429 13:50:08.606854 47706 layer_factory.hpp:77] Creating layer scale5c_branch2a
I0429 13:50:08.606863 47706 net.cpp:106] Creating Layer scale5c_branch2a
I0429 13:50:08.606868 47706 net.cpp:454] scale5c_branch2a <- res5c_branch2a
I0429 13:50:08.606873 47706 net.cpp:397] scale5c_branch2a -> res5c_branch2a (in-place)
I0429 13:50:08.606915 47706 layer_factory.hpp:77] Creating layer scale5c_branch2a
I0429 13:50:08.607025 47706 net.cpp:150] Setting up scale5c_branch2a
I0429 13:50:08.607034 47706 net.cpp:157] Top shape: 16 512 7 7 (401408)
I0429 13:50:08.607038 47706 net.cpp:165] Memory required for data: 3668869312
I0429 13:50:08.607045 47706 layer_factory.hpp:77] Creating layer res5c_branch2a_relu
I0429 13:50:08.607051 47706 net.cpp:106] Creating Layer res5c_branch2a_relu
I0429 13:50:08.607055 47706 net.cpp:454] res5c_branch2a_relu <- res5c_branch2a
I0429 13:50:08.607062 47706 net.cpp:397] res5c_branch2a_relu -> res5c_branch2a (in-place)
I0429 13:50:08.607069 47706 net.cpp:150] Setting up res5c_branch2a_relu
I0429 13:50:08.607075 47706 net.cpp:157] Top shape: 16 512 7 7 (401408)
I0429 13:50:08.607079 47706 net.cpp:165] Memory required for data: 3670474944
I0429 13:50:08.607082 47706 layer_factory.hpp:77] Creating layer res5c_branch2b
I0429 13:50:08.607091 47706 net.cpp:106] Creating Layer res5c_branch2b
I0429 13:50:08.607096 47706 net.cpp:454] res5c_branch2b <- res5c_branch2a
I0429 13:50:08.607102 47706 net.cpp:411] res5c_branch2b -> res5c_branch2b
I0429 13:50:08.611902 47706 net.cpp:150] Setting up res5c_branch2b
I0429 13:50:08.611918 47706 net.cpp:157] Top shape: 16 512 7 7 (401408)
I0429 13:50:08.611922 47706 net.cpp:165] Memory required for data: 3672080576
I0429 13:50:08.611928 47706 layer_factory.hpp:77] Creating layer bn5c_branch2b
I0429 13:50:08.611937 47706 net.cpp:106] Creating Layer bn5c_branch2b
I0429 13:50:08.611943 47706 net.cpp:454] bn5c_branch2b <- res5c_branch2b
I0429 13:50:08.611948 47706 net.cpp:397] bn5c_branch2b -> res5c_branch2b (in-place)
I0429 13:50:08.612129 47706 net.cpp:150] Setting up bn5c_branch2b
I0429 13:50:08.612139 47706 net.cpp:157] Top shape: 16 512 7 7 (401408)
I0429 13:50:08.612148 47706 net.cpp:165] Memory required for data: 3673686208
I0429 13:50:08.612156 47706 layer_factory.hpp:77] Creating layer scale5c_branch2b
I0429 13:50:08.612162 47706 net.cpp:106] Creating Layer scale5c_branch2b
I0429 13:50:08.612167 47706 net.cpp:454] scale5c_branch2b <- res5c_branch2b
I0429 13:50:08.612174 47706 net.cpp:397] scale5c_branch2b -> res5c_branch2b (in-place)
I0429 13:50:08.612216 47706 layer_factory.hpp:77] Creating layer scale5c_branch2b
I0429 13:50:08.612325 47706 net.cpp:150] Setting up scale5c_branch2b
I0429 13:50:08.612334 47706 net.cpp:157] Top shape: 16 512 7 7 (401408)
I0429 13:50:08.612337 47706 net.cpp:165] Memory required for data: 3675291840
I0429 13:50:08.612344 47706 layer_factory.hpp:77] Creating layer res5c_branch2b_relu
I0429 13:50:08.612350 47706 net.cpp:106] Creating Layer res5c_branch2b_relu
I0429 13:50:08.612355 47706 net.cpp:454] res5c_branch2b_relu <- res5c_branch2b
I0429 13:50:08.612360 47706 net.cpp:397] res5c_branch2b_relu -> res5c_branch2b (in-place)
I0429 13:50:08.612366 47706 net.cpp:150] Setting up res5c_branch2b_relu
I0429 13:50:08.612372 47706 net.cpp:157] Top shape: 16 512 7 7 (401408)
I0429 13:50:08.612376 47706 net.cpp:165] Memory required for data: 3676897472
I0429 13:50:08.612380 47706 layer_factory.hpp:77] Creating layer res5c_branch2c
I0429 13:50:08.612388 47706 net.cpp:106] Creating Layer res5c_branch2c
I0429 13:50:08.612393 47706 net.cpp:454] res5c_branch2c <- res5c_branch2b
I0429 13:50:08.612401 47706 net.cpp:411] res5c_branch2c -> res5c_branch2c
I0429 13:50:08.614727 47706 net.cpp:150] Setting up res5c_branch2c
I0429 13:50:08.614742 47706 net.cpp:157] Top shape: 16 2048 7 7 (1605632)
I0429 13:50:08.614747 47706 net.cpp:165] Memory required for data: 3683320000
I0429 13:50:08.614753 47706 layer_factory.hpp:77] Creating layer bn5c_branch2c
I0429 13:50:08.614759 47706 net.cpp:106] Creating Layer bn5c_branch2c
I0429 13:50:08.614764 47706 net.cpp:454] bn5c_branch2c <- res5c_branch2c
I0429 13:50:08.614771 47706 net.cpp:397] bn5c_branch2c -> res5c_branch2c (in-place)
I0429 13:50:08.614964 47706 net.cpp:150] Setting up bn5c_branch2c
I0429 13:50:08.614974 47706 net.cpp:157] Top shape: 16 2048 7 7 (1605632)
I0429 13:50:08.614977 47706 net.cpp:165] Memory required for data: 3689742528
I0429 13:50:08.614985 47706 layer_factory.hpp:77] Creating layer scale5c_branch2c
I0429 13:50:08.614992 47706 net.cpp:106] Creating Layer scale5c_branch2c
I0429 13:50:08.614997 47706 net.cpp:454] scale5c_branch2c <- res5c_branch2c
I0429 13:50:08.615002 47706 net.cpp:397] scale5c_branch2c -> res5c_branch2c (in-place)
I0429 13:50:08.615516 47706 layer_factory.hpp:77] Creating layer scale5c_branch2c
I0429 13:50:08.615638 47706 net.cpp:150] Setting up scale5c_branch2c
I0429 13:50:08.615648 47706 net.cpp:157] Top shape: 16 2048 7 7 (1605632)
I0429 13:50:08.615653 47706 net.cpp:165] Memory required for data: 3696165056
I0429 13:50:08.615659 47706 layer_factory.hpp:77] Creating layer res5c
I0429 13:50:08.615666 47706 net.cpp:106] Creating Layer res5c
I0429 13:50:08.615671 47706 net.cpp:454] res5c <- res5b_res5b_relu_0_split_1
I0429 13:50:08.615676 47706 net.cpp:454] res5c <- res5c_branch2c
I0429 13:50:08.615681 47706 net.cpp:411] res5c -> res5c
I0429 13:50:08.615710 47706 net.cpp:150] Setting up res5c
I0429 13:50:08.615717 47706 net.cpp:157] Top shape: 16 2048 7 7 (1605632)
I0429 13:50:08.615721 47706 net.cpp:165] Memory required for data: 3702587584
I0429 13:50:08.615725 47706 layer_factory.hpp:77] Creating layer res5c_relu
I0429 13:50:08.615732 47706 net.cpp:106] Creating Layer res5c_relu
I0429 13:50:08.615737 47706 net.cpp:454] res5c_relu <- res5c
I0429 13:50:08.615742 47706 net.cpp:397] res5c_relu -> res5c (in-place)
I0429 13:50:08.615748 47706 net.cpp:150] Setting up res5c_relu
I0429 13:50:08.615754 47706 net.cpp:157] Top shape: 16 2048 7 7 (1605632)
I0429 13:50:08.615757 47706 net.cpp:165] Memory required for data: 3709010112
I0429 13:50:08.615761 47706 layer_factory.hpp:77] Creating layer pool5
I0429 13:50:08.615768 47706 net.cpp:106] Creating Layer pool5
I0429 13:50:08.615777 47706 net.cpp:454] pool5 <- res5c
I0429 13:50:08.615785 47706 net.cpp:411] pool5 -> pool5
I0429 13:50:08.615813 47706 net.cpp:150] Setting up pool5
I0429 13:50:08.615820 47706 net.cpp:157] Top shape: 16 2048 1 1 (32768)
I0429 13:50:08.615824 47706 net.cpp:165] Memory required for data: 3709141184
I0429 13:50:08.615828 47706 layer_factory.hpp:77] Creating layer fc346
I0429 13:50:08.615835 47706 net.cpp:106] Creating Layer fc346
I0429 13:50:08.615839 47706 net.cpp:454] fc346 <- pool5
I0429 13:50:08.615845 47706 net.cpp:411] fc346 -> fc346
I0429 13:50:08.617904 47706 net.cpp:150] Setting up fc346
I0429 13:50:08.617921 47706 net.cpp:157] Top shape: 16 346 (5536)
I0429 13:50:08.617926 47706 net.cpp:165] Memory required for data: 3709163328
I0429 13:50:08.617934 47706 layer_factory.hpp:77] Creating layer fc346_fc346_0_split
I0429 13:50:08.617941 47706 net.cpp:106] Creating Layer fc346_fc346_0_split
I0429 13:50:08.617945 47706 net.cpp:454] fc346_fc346_0_split <- fc346
I0429 13:50:08.617951 47706 net.cpp:411] fc346_fc346_0_split -> fc346_fc346_0_split_0
I0429 13:50:08.617959 47706 net.cpp:411] fc346_fc346_0_split -> fc346_fc346_0_split_1
I0429 13:50:08.617995 47706 net.cpp:150] Setting up fc346_fc346_0_split
I0429 13:50:08.618002 47706 net.cpp:157] Top shape: 16 346 (5536)
I0429 13:50:08.618007 47706 net.cpp:157] Top shape: 16 346 (5536)
I0429 13:50:08.618011 47706 net.cpp:165] Memory required for data: 3709207616
I0429 13:50:08.618016 47706 layer_factory.hpp:77] Creating layer accuracy
I0429 13:50:08.618022 47706 net.cpp:106] Creating Layer accuracy
I0429 13:50:08.618026 47706 net.cpp:454] accuracy <- fc346_fc346_0_split_0
I0429 13:50:08.618031 47706 net.cpp:454] accuracy <- label_data_1_split_0
I0429 13:50:08.618039 47706 net.cpp:411] accuracy -> accuracy
…
