…
I0503 10:39:58.416429 91530 net.cpp:322] The NetState phase (0) differed from the phase (1) specified by a rule in layer accuracy
I0503 10:39:58.417181 91530 net.cpp:49] Initializing net from parameters: 
name: "ResNet-50"
state {
  phase: TRAIN
}
layer {
  name: "data"
  type: "Data"
  top: "data"
  top: "label"
  include {
    phase: TRAIN
  }
  transform_param {
    mirror: true
    crop_size: 224
    mean_file: "/home/hzhang57/NEW_WORLD/Project_4_ROOT/CODES/RC_497/Param/mean.binaryproto"
  }
  data_param {
    source: "/home/hzhang57/NEW_WORLD/Project_4_ROOT/CODES/RC_497/Param/RC-train.leveldb"
    batch_size: 20
    backend: LMDB
  }
}
layer {
  name: "conv1"
  type: "Convolution"
  bottom: "data"
  top: "conv1"
  convolution_param {
    num_output: 64
    pad: 3
    kernel_size: 7
    stride: 2
  }
}
layer {
  name: "bn_conv1"
  type: "BatchNorm"
  bottom: "conv1"
  top: "conv1"
  batch_norm_param {
    use_global_stats: true
  }
}
layer {
  name: "scale_conv1"
  type: "Scale"
  bottom: "conv1"
  top: "conv1"
  scale_param {
    bias_term: true
  }
}
layer {
  name: "conv1_relu"
  type: "ReLU"
  bottom: "conv1"
  top: "conv1"
}
layer {
  name: "pool1"
  type: "Pooling"
  bottom: "conv1"
  top: "pool1"
  pooling_param {
    pool: MAX
    kernel_size: 3
    stride: 2
  }
}
layer {
  name: "res2a_branch1"
  type: "Convolution"
  bottom: "pool1"
  top: "res2a_branch1"
  convolution_param {
    num_output: 256
    bias_term: false
    pad: 0
    kernel_size: 1
    stride: 1
  }
}
layer {
  name: "bn2a_branch1"
  type: "BatchNorm"
  bottom: "res2a_branch1"
  top: "res2a_branch1"
  batch_norm_param {
    use_global_stats: true
  }
}
layer {
  name: "scale2a_branch1"
  type: "Scale"
  bottom: "res2a_branch1"
  top: "res2a_branch1"
  scale_param {
    bias_term: true
  }
}
layer {
  name: "res2a_branch2a"
  type: "Convolution"
  bottom: "pool1"
  top: "res2a_branch2a"
  convolution_param {
    num_output: 64
    bias_term: false
    pad: 0
    kernel_size: 1
    stride: 1
  }
}
layer {
  name: "bn2a_branch2a"
  type: "BatchNorm"
  bottom: "res2a_branch2a"
  top: "res2a_branch2a"
  batch_norm_param {
    use_global_stats: true
  }
}
layer {
  name: "scale2a_branch2a"
  type: "Scale"
  bottom: "res2a_branch2a"
  top: "res2a_branch2a"
  scale_param {
    bias_term: true
  }
}
layer {
  name: "res2a_branch2a_relu"
  type: "ReLU"
  bottom: "res2a_branch2a"
  top: "res2a_branch2a"
}
layer {
  name: "res2a_branch2b"
  type: "Convolution"
  bottom: "res2a_branch2a"
  top: "res2a_branch2b"
  convolution_param {
    num_output: 64
    bias_term: false
    pad: 1
    kernel_size: 3
    stride: 1
  }
}
layer {
  name: "bn2a_branch2b"
  type: "BatchNorm"
  bottom: "res2a_branch2b"
  top: "res2a_branch2b"
  batch_norm_param {
    use_global_stats: true
  }
}
layer {
  name: "scale2a_branch2b"
  type: "Scale"
  bottom: "res2a_branch2b"
  top: "res2a_branch2b"
  scale_param {
    bias_term: true
  }
}
layer {
  name: "res2a_branch2b_relu"
  type: "ReLU"
  bottom: "res2a_branch2b"
  top: "res2a_branch2b"
}
layer {
  name: "res2a_branch2c"
  type: "Convolution"
  bottom: "res2a_branch2b"
  top: "res2a_branch2c"
  convolution_param {
    num_output: 256
    bias_term: false
    pad: 0
    kernel_size: 1
    stride: 1
  }
}
layer {
  name: "bn2a_branch2c"
  type: "BatchNorm"
  bottom: "res2a_branch2c"
  top: "res2a_branch2c"
  batch_norm_param {
    use_global_stats: true
  }
}
layer {
  name: "scale2a_branch2c"
  type: "Scale"
  bottom: "res2a_branch2c"
  top: "res2a_branch2c"
  scale_param {
    bias_term: true
  }
}
layer {
  name: "res2a"
  type: "Eltwise"
  bottom: "res2a_branch1"
  bottom: "res2a_branch2c"
  top: "res2a"
}
layer {
  name: "res2a_relu"
  type: "ReLU"
  bottom: "res2a"
  top: "res2a"
}
layer {
  name: "res2b_branch2a"
  type: "Convolution"
  bottom: "res2a"
  top: "res2b_branch2a"
  convolution_param {
    num_output: 64
    bias_term: false
    pad: 0
    kernel_size: 1
    stride: 1
  }
}
layer {
  name: "bn2b_branch2a"
  type: "BatchNorm"
  bottom: "res2b_branch2a"
  top: "res2b_branch2a"
  batch_norm_param {
    use_global_stats: true
  }
}
layer {
  name: "scale2b_branch2a"
  type: "Scale"
  bottom: "res2b_branch2a"
  top: "res2b_branch2a"
  scale_param {
    bias_term: true
  }
}
layer {
  name: "res2b_branch2a_relu"
  type: "ReLU"
  bottom: "res2b_branch2a"
  top: "res2b_branch2a"
}
layer {
  name: "res2b_branch2b"
  type: "Convolution"
  bottom: "res2b_branch2a"
  top: "res2b_branch2b"
  convolution_param {
    num_output: 64
    bias_term: false
    pad: 1
    kernel_size: 3
    stride: 1
  }
}
layer {
  name: "bn2b_branch2b"
  type: "BatchNorm"
  bottom: "res2b_branch2b"
  top: "res2b_branch2b"
  batch_norm_param {
    use_global_stats: true
  }
}
layer {
  name: "scale2b_branch2b"
  type: "Scale"
  bottom: "res2b_branch2b"
  top: "res2b_branch2b"
  scale_param {
    bias_term: true
  }
}
layer {
  name: "res2b_branch2b_relu"
  type: "ReLU"
  bottom: "res2b_branch2b"
  top: "res2b_branch2b"
}
layer {
  name: "res2b_branch2c"
  type: "Convolution"
  bottom: "res2b_branch2b"
  top: "res2b_branch2c"
  convolution_param {
    num_output: 256
    bias_term: false
    pad: 0
    kernel_size: 1
    stride: 1
  }
}
layer {
  name: "bn2b_branch2c"
  type: "BatchNorm"
  bottom: "res2b_branch2c"
  top: "res2b_branch2c"
  batch_norm_param {
    use_global_stats: true
  }
}
layer {
  name: "scale2b_branch2c"
  type: "Scale"
  bottom: "res2b_branch2c"
  top: "res2b_branch2c"
  scale_param {
    bias_term: true
  }
}
layer {
  name: "res2b"
  type: "Eltwise"
  bottom: "res2a"
  bottom: "res2b_branch2c"
  top: "res2b"
}
layer {
  name: "res2b_relu"
  type: "ReLU"
  bottom: "res2b"
  top: "res2b"
}
layer {
  name: "res2c_branch2a"
  type: "Convolution"
  bottom: "res2b"
  top: "res2c_branch2a"
  convolution_param {
    num_output: 64
    bias_term: false
    pad: 0
    kernel_size: 1
    stride: 1
  }
}
layer {
  name: "bn2c_branch2a"
  type: "BatchNorm"
  bottom: "res2c_branch2a"
  top: "res2c_branch2a"
  batch_norm_param {
    use_global_stats: true
  }
}
layer {
  name: "scale2c_branch2a"
  type: "Scale"
  bottom: "res2c_branch2a"
  top: "res2c_branch2a"
  scale_param {
    bias_term: true
  }
}
layer {
  name: "res2c_branch2a_relu"
  type: "ReLU"
  bottom: "res2c_branch2a"
  top: "res2c_branch2a"
}
layer {
  name: "res2c_branch2b"
  type: "Convolution"
  bottom: "res2c_branch2a"
  top: "res2c_branch2b"
  convolution_param {
    num_output: 64
    bias_term: false
    pad: 1
    kernel_size: 3
    stride: 1
  }
}
layer {
  name: "bn2c_branch2b"
  type: "BatchNorm"
  bottom: "res2c_branch2b"
  top: "res2c_branch2b"
  batch_norm_param {
    use_global_stats: true
  }
}
layer {
  name: "scale2c_branch2b"
  type: "Scale"
  bottom: "res2c_branch2b"
  top: "res2c_branch2b"
  scale_param {
    bias_term: true
  }
}
layer {
  name: "res2c_branch2b_relu"
  type: "ReLU"
  bottom: "res2c_branch2b"
  top: "res2c_branch2b"
}
layer {
  name: "res2c_branch2c"
  type: "Convolution"
  bottom: "res2c_branch2b"
  top: "res2c_branch2c"
  convolution_param {
    num_output: 256
    bias_term: false
    pad: 0
    kernel_size: 1
    stride: 1
  }
}
layer {
  name: "bn2c_branch2c"
  type: "BatchNorm"
  bottom: "res2c_branch2c"
  top: "res2c_branch2c"
  batch_norm_param {
    use_global_stats: true
  }
}
layer {
  name: "scale2c_branch2c"
  type: "Scale"
  bottom: "res2c_branch2c"
  top: "res2c_branch2c"
  scale_param {
    bias_term: true
  }
}
layer {
  name: "res2c"
  type: "Eltwise"
  bottom: "res2b"
  bottom: "res2c_branch2c"
  top: "res2c"
}
layer {
  name: "res2c_relu"
  type: "ReLU"
  bottom: "res2c"
  top: "res2c"
}
layer {
  name: "res3a_branch1"
  type: "Convolution"
  bottom: "res2c"
  top: "res3a_branch1"
  convolution_param {
    num_output: 512
    bias_term: false
    pad: 0
    kernel_size: 1
    stride: 2
  }
}
layer {
  name: "bn3a_branch1"
  type: "BatchNorm"
  bottom: "res3a_branch1"
  top: "res3a_branch1"
  batch_norm_param {
    use_global_stats: true
  }
}
layer {
  name: "scale3a_branch1"
  type: "Scale"
  bottom: "res3a_branch1"
  top: "res3a_branch1"
  scale_param {
    bias_term: true
  }
}
layer {
  name: "res3a_branch2a"
  type: "Convolution"
  bottom: "res2c"
  top: "res3a_branch2a"
  convolution_param {
    num_output: 128
    bias_term: false
    pad: 0
    kernel_size: 1
    stride: 2
  }
}
layer {
  name: "bn3a_branch2a"
  type: "BatchNorm"
  bottom: "res3a_branch2a"
  top: "res3a_branch2a"
  batch_norm_param {
    use_global_stats: true
  }
}
layer {
  name: "scale3a_branch2a"
  type: "Scale"
  bottom: "res3a_branch2a"
  top: "res3a_branch2a"
  scale_param {
    bias_term: true
  }
}
layer {
  name: "res3a_branch2a_relu"
  type: "ReLU"
  bottom: "res3a_branch2a"
  top: "res3a_branch2a"
}
layer {
  name: "res3a_branch2b"
  type: "Convolution"
  bottom: "res3a_branch2a"
  top: "res3a_branch2b"
  convolution_param {
    num_output: 128
    bias_term: false
    pad: 1
    kernel_size: 3
    stride: 1
  }
}
layer {
  name: "bn3a_branch2b"
  type: "BatchNorm"
  bottom: "res3a_branch2b"
  top: "res3a_branch2b"
  batch_norm_param {
    use_global_stats: true
  }
}
layer {
  name: "scale3a_branch2b"
  type: "Scale"
  bottom: "res3a_branch2b"
  top: "res3a_branch2b"
  scale_param {
    bias_term: true
  }
}
layer {
  name: "res3a_branch2b_relu"
  type: "ReLU"
  bottom: "res3a_branch2b"
  top: "res3a_branch2b"
}
layer {
  name: "res3a_branch2c"
  type: "Convolution"
  bottom: "res3a_branch2b"
  top: "res3a_branch2c"
  convolution_param {
    num_output: 512
    bias_term: false
    pad: 0
    kernel_size: 1
    stride: 1
  }
}
layer {
  name: "bn3a_branch2c"
  type: "BatchNorm"
  bottom: "res3a_branch2c"
  top: "res3a_branch2c"
  batch_norm_param {
    use_global_stats: true
  }
}
layer {
  name: "scale3a_branch2c"
  type: "Scale"
  bottom: "res3a_branch2c"
  top: "res3a_branch2c"
  scale_param {
    bias_term: true
  }
}
layer {
  name: "res3a"
  type: "Eltwise"
  bottom: "res3a_branch1"
  bottom: "res3a_branch2c"
  top: "res3a"
}
layer {
  name: "res3a_relu"
  type: "ReLU"
  bottom: "res3a"
  top: "res3a"
}
layer {
  name: "res3b_branch2a"
  type: "Convolution"
  bottom: "res3a"
  top: "res3b_branch2a"
  convolution_param {
    num_output: 128
    bias_term: false
    pad: 0
    kernel_size: 1
    stride: 1
  }
}
layer {
  name: "bn3b_branch2a"
  type: "BatchNorm"
  bottom: "res3b_branch2a"
  top: "res3b_branch2a"
  batch_norm_param {
    use_global_stats: true
  }
}
layer {
  name: "scale3b_branch2a"
  type: "Scale"
  bottom: "res3b_branch2a"
  top: "res3b_branch2a"
  scale_param {
    bias_term: true
  }
}
layer {
  name: "res3b_branch2a_relu"
  type: "ReLU"
  bottom: "res3b_branch2a"
  top: "res3b_branch2a"
}
layer {
  name: "res3b_branch2b"
  type: "Convolution"
  bottom: "res3b_branch2a"
  top: "res3b_branch2b"
  convolution_param {
    num_output: 128
    bias_term: false
    pad: 1
    kernel_size: 3
    stride: 1
  }
}
layer {
  name: "bn3b_branch2b"
  type: "BatchNorm"
  bottom: "res3b_branch2b"
  top: "res3b_branch2b"
  batch_norm_param {
    use_global_stats: true
  }
}
layer {
  name: "scale3b_branch2b"
  type: "Scale"
  bottom: "res3b_branch2b"
  top: "res3b_branch2b"
  scale_param {
    bias_term: true
  }
}
layer {
  name: "res3b_branch2b_relu"
  type: "ReLU"
  bottom: "res3b_branch2b"
  top: "res3b_branch2b"
}
layer {
  name: "res3b_branch2c"
  type: "Convolution"
  bottom: "res3b_branch2b"
  top: "res3b_branch2c"
  convolution_param {
    num_output: 512
    bias_term: false
    pad: 0
    kernel_size: 1
    stride: 1
  }
}
layer {
  name: "bn3b_branch2c"
  type: "BatchNorm"
  bottom: "res3b_branch2c"
  top: "res3b_branch2c"
  batch_norm_param {
    use_global_stats: true
  }
}
layer {
  name: "scale3b_branch2c"
  type: "Scale"
  bottom: "res3b_branch2c"
  top: "res3b_branch2c"
  scale_param {
    bias_term: true
  }
}
layer {
  name: "res3b"
  type: "Eltwise"
  bottom: "res3a"
  bottom: "res3b_branch2c"
  top: "res3b"
}
layer {
  name: "res3b_relu"
  type: "ReLU"
  bottom: "res3b"
  top: "res3b"
}
layer {
  name: "res3c_branch2a"
  type: "Convolution"
  bottom: "res3b"
  top: "res3c_branch2a"
  convolution_param {
    num_output: 128
    bias_term: false
    pad: 0
    kernel_size: 1
    stride: 1
  }
}
layer {
  name: "bn3c_branch2a"
  type: "BatchNorm"
  bottom: "res3c_branch2a"
  top: "res3c_branch2a"
  batch_norm_param {
    use_global_stats: true
  }
}
layer {
  name: "scale3c_branch2a"
  type: "Scale"
  bottom: "res3c_branch2a"
  top: "res3c_branch2a"
  scale_param {
    bias_term: true
  }
}
layer {
  name: "res3c_branch2a_relu"
  type: "ReLU"
  bottom: "res3c_branch2a"
  top: "res3c_branch2a"
}
layer {
  name: "res3c_branch2b"
  type: "Convolution"
  bottom: "res3c_branch2a"
  top: "res3c_branch2b"
  convolution_param {
    num_output: 128
    bias_term: false
    pad: 1
    kernel_size: 3
    stride: 1
  }
}
layer {
  name: "bn3c_branch2b"
  type: "BatchNorm"
  bottom: "res3c_branch2b"
  top: "res3c_branch2b"
  batch_norm_param {
    use_global_stats: true
  }
}
layer {
  name: "scale3c_branch2b"
  type: "Scale"
  bottom: "res3c_branch2b"
  top: "res3c_branch2b"
  scale_param {
    bias_term: true
  }
}
layer {
  name: "res3c_branch2b_relu"
  type: "ReLU"
  bottom: "res3c_branch2b"
  top: "res3c_branch2b"
}
layer {
  name: "res3c_branch2c"
  type: "Convolution"
  bottom: "res3c_branch2b"
  top: "res3c_branch2c"
  convolution_param {
    num_output: 512
    bias_term: false
    pad: 0
    kernel_size: 1
    stride: 1
  }
}
layer {
  name: "bn3c_branch2c"
  type: "BatchNorm"
  bottom: "res3c_branch2c"
  top: "res3c_branch2c"
  batch_norm_param {
    use_global_stats: true
  }
}
layer {
  name: "scale3c_branch2c"
  type: "Scale"
  bottom: "res3c_branch2c"
  top: "res3c_branch2c"
  scale_param {
    bias_term: true
  }
}
layer {
  name: "res3c"
  type: "Eltwise"
  bottom: "res3b"
  bottom: "res3c_branch2c"
  top: "res3c"
}
layer {
  name: "res3c_relu"
  type: "ReLU"
  bottom: "res3c"
  top: "res3c"
}
layer {
  name: "res3d_branch2a"
  type: "Convolution"
  bottom: "res3c"
  top: "res3d_branch2a"
  convolution_param {
    num_output: 128
    bias_term: false
    pad: 0
    kernel_size: 1
    stride: 1
  }
}
layer {
  name: "bn3d_branch2a"
  type: "BatchNorm"
  bottom: "res3d_branch2a"
  top: "res3d_branch2a"
  batch_norm_param {
    use_global_stats: true
  }
}
layer {
  name: "scale3d_branch2a"
  type: "Scale"
  bottom: "res3d_branch2a"
  top: "res3d_branch2a"
  scale_param {
    bias_term: true
  }
}
layer {
  name: "res3d_branch2a_relu"
  type: "ReLU"
  bottom: "res3d_branch2a"
  top: "res3d_branch2a"
}
layer {
  name: "res3d_branch2b"
  type: "Convolution"
  bottom: "res3d_branch2a"
  top: "res3d_branch2b"
  convolution_param {
    num_output: 128
    bias_term: false
    pad: 1
    kernel_size: 3
    stride: 1
  }
}
layer {
  name: "bn3d_branch2b"
  type: "BatchNorm"
  bottom: "res3d_branch2b"
  top: "res3d_branch2b"
  batch_norm_param {
    use_global_stats: true
  }
}
layer {
  name: "scale3d_branch2b"
  type: "Scale"
  bottom: "res3d_branch2b"
  top: "res3d_branch2b"
  scale_param {
    bias_term: true
  }
}
layer {
  name: "res3d_branch2b_relu"
  type: "ReLU"
  bottom: "res3d_branch2b"
  top: "res3d_branch2b"
}
layer {
  name: "res3d_branch2c"
  type: "Convolution"
  bottom: "res3d_branch2b"
  top: "res3d_branch2c"
  convolution_param {
    num_output: 512
    bias_term: false
    pad: 0
    kernel_size: 1
    stride: 1
  }
}
layer {
  name: "bn3d_branch2c"
  type: "BatchNorm"
  bottom: "res3d_branch2c"
  top: "res3d_branch2c"
  batch_norm_param {
    use_global_stats: true
  }
}
layer {
  name: "scale3d_branch2c"
  type: "Scale"
  bottom: "res3d_branch2c"
  top: "res3d_branch2c"
  scale_param {
    bias_term: true
  }
}
layer {
  name: "res3d"
  type: "Eltwise"
  bottom: "res3c"
  bottom: "res3d_branch2c"
  top: "res3d"
}
layer {
  name: "res3d_relu"
  type: "ReLU"
  bottom: "res3d"
  top: "res3d"
}
layer {
  name: "res4a_branch1"
  type: "Convolution"
  bottom: "res3d"
  top: "res4a_branch1"
  convolution_param {
    num_output: 1024
    bias_term: false
    pad: 0
    kernel_size: 1
    stride: 2
  }
}
layer {
  name: "bn4a_branch1"
  type: "BatchNorm"
  bottom: "res4a_branch1"
  top: "res4a_branch1"
  batch_norm_param {
    use_global_stats: true
  }
}
layer {
  name: "scale4a_branch1"
  type: "Scale"
  bottom: "res4a_branch1"
  top: "res4a_branch1"
  scale_param {
    bias_term: true
  }
}
layer {
  name: "res4a_branch2a"
  type: "Convolution"
  bottom: "res3d"
  top: "res4a_branch2a"
  convolution_param {
    num_output: 256
    bias_term: false
    pad: 0
    kernel_size: 1
    stride: 2
  }
}
layer {
  name: "bn4a_branch2a"
  type: "BatchNorm"
  bottom: "res4a_branch2a"
  top: "res4a_branch2a"
  batch_norm_param {
    use_global_stats: true
  }
}
layer {
  name: "scale4a_branch2a"
  type: "Scale"
  bottom: "res4a_branch2a"
  top: "res4a_branch2a"
  scale_param {
    bias_term: true
  }
}
layer {
  name: "res4a_branch2a_relu"
  type: "ReLU"
  bottom: "res4a_branch2a"
  top: "res4a_branch2a"
}
layer {
  name: "res4a_branch2b"
  type: "Convolution"
  bottom: "res4a_branch2a"
  top: "res4a_branch2b"
  convolution_param {
    num_output: 256
    bias_term: false
    pad: 1
    kernel_size: 3
    stride: 1
  }
}
layer {
  name: "bn4a_branch2b"
  type: "BatchNorm"
  bottom: "res4a_branch2b"
  top: "res4a_branch2b"
  batch_norm_param {
    use_global_stats: true
  }
}
layer {
  name: "scale4a_branch2b"
  type: "Scale"
  bottom: "res4a_branch2b"
  top: "res4a_branch2b"
  scale_param {
    bias_term: true
  }
}
layer {
  name: "res4a_branch2b_relu"
  type: "ReLU"
  bottom: "res4a_branch2b"
  top: "res4a_branch2b"
}
layer {
  name: "res4a_branch2c"
  type: "Convolution"
  bottom: "res4a_branch2b"
  top: "res4a_branch2c"
  convolution_param {
    num_output: 1024
    bias_term: false
    pad: 0
    kernel_size: 1
    stride: 1
  }
}
layer {
  name: "bn4a_branch2c"
  type: "BatchNorm"
  bottom: "res4a_branch2c"
  top: "res4a_branch2c"
  batch_norm_param {
    use_global_stats: true
  }
}
layer {
  name: "scale4a_branch2c"
  type: "Scale"
  bottom: "res4a_branch2c"
  top: "res4a_branch2c"
  scale_param {
    bias_term: true
  }
}
layer {
  name: "res4a"
  type: "Eltwise"
  bottom: "res4a_branch1"
  bottom: "res4a_branch2c"
  top: "res4a"
}
layer {
  name: "res4a_relu"
  type: "ReLU"
  bottom: "res4a"
  top: "res4a"
}
layer {
  name: "res4b_branch2a"
  type: "Convolution"
  bottom: "res4a"
  top: "res4b_branch2a"
  convolution_param {
    num_output: 256
    bias_term: false
    pad: 0
    kernel_size: 1
    stride: 1
  }
}
layer {
  name: "bn4b_branch2a"
  type: "BatchNorm"
  bottom: "res4b_branch2a"
  top: "res4b_branch2a"
  batch_norm_param {
    use_global_stats: true
  }
}
layer {
  name: "scale4b_branch2a"
  type: "Scale"
  bottom: "res4b_branch2a"
  top: "res4b_branch2a"
  scale_param {
    bias_term: true
  }
}
layer {
  name: "res4b_branch2a_relu"
  type: "ReLU"
  bottom: "res4b_branch2a"
  top: "res4b_branch2a"
}
layer {
  name: "res4b_branch2b"
  type: "Convolution"
  bottom: "res4b_branch2a"
  top: "res4b_branch2b"
  convolution_param {
    num_output: 256
    bias_term: false
    pad: 1
    kernel_size: 3
    stride: 1
  }
}
layer {
  name: "bn4b_branch2b"
  type: "BatchNorm"
  bottom: "res4b_branch2b"
  top: "res4b_branch2b"
  batch_norm_param {
    use_global_stats: true
  }
}
layer {
  name: "scale4b_branch2b"
  type: "Scale"
  bottom: "res4b_branch2b"
  top: "res4b_branch2b"
  scale_param {
    bias_term: true
  }
}
layer {
  name: "res4b_branch2b_relu"
  type: "ReLU"
  bottom: "res4b_branch2b"
  top: "res4b_branch2b"
}
layer {
  name: "res4b_branch2c"
  type: "Convolution"
  bottom: "res4b_branch2b"
  top: "res4b_branch2c"
  convolution_param {
    num_output: 1024
    bias_term: false
    pad: 0
    kernel_size: 1
    stride: 1
  }
}
layer {
  name: "bn4b_branch2c"
  type: "BatchNorm"
  bottom: "res4b_branch2c"
  top: "res4b_branch2c"
  batch_norm_param {
    use_global_stats: true
  }
}
layer {
  name: "scale4b_branch2c"
  type: "Scale"
  bottom: "res4b_branch2c"
  top: "res4b_branch2c"
  scale_param {
    bias_term: true
  }
}
layer {
  name: "res4b"
  type: "Eltwise"
  bottom: "res4a"
  bottom: "res4b_branch2c"
  top: "res4b"
}
layer {
  name: "res4b_relu"
  type: "ReLU"
  bottom: "res4b"
  top: "res4b"
}
layer {
  name: "res4c_branch2a"
  type: "Convolution"
  bottom: "res4b"
  top: "res4c_branch2a"
  convolution_param {
    num_output: 256
    bias_term: false
    pad: 0
    kernel_size: 1
    stride: 1
  }
}
layer {
  name: "bn4c_branch2a"
  type: "BatchNorm"
  bottom: "res4c_branch2a"
  top: "res4c_branch2a"
  batch_norm_param {
    use_global_stats: true
  }
}
layer {
  name: "scale4c_branch2a"
  type: "Scale"
  bottom: "res4c_branch2a"
  top: "res4c_branch2a"
  scale_param {
    bias_term: true
  }
}
layer {
  name: "res4c_branch2a_relu"
  type: "ReLU"
  bottom: "res4c_branch2a"
  top: "res4c_branch2a"
}
layer {
  name: "res4c_branch2b"
  type: "Convolution"
  bottom: "res4c_branch2a"
  top: "res4c_branch2b"
  convolution_param {
    num_output: 256
    bias_term: false
    pad: 1
    kernel_size: 3
    stride: 1
  }
}
layer {
  name: "bn4c_branch2b"
  type: "BatchNorm"
  bottom: "res4c_branch2b"
  top: "res4c_branch2b"
  batch_norm_param {
    use_global_stats: true
  }
}
layer {
  name: "scale4c_branch2b"
  type: "Scale"
  bottom: "res4c_branch2b"
  top: "res4c_branch2b"
  scale_param {
    bias_term: true
  }
}
layer {
  name: "res4c_branch2b_relu"
  type: "ReLU"
  bottom: "res4c_branch2b"
  top: "res4c_branch2b"
}
layer {
  name: "res4c_branch2c"
  type: "Convolution"
  bottom: "res4c_branch2b"
  top: "res4c_branch2c"
  convolution_param {
    num_output: 1024
    bias_term: false
    pad: 0
    kernel_size: 1
    stride: 1
  }
}
layer {
  name: "bn4c_branch2c"
  type: "BatchNorm"
  bottom: "res4c_branch2c"
  top: "res4c_branch2c"
  batch_norm_param {
    use_global_stats: true
  }
}
layer {
  name: "scale4c_branch2c"
  type: "Scale"
  bottom: "res4c_branch2c"
  top: "res4c_branch2c"
  scale_param {
    bias_term: true
  }
}
layer {
  name: "res4c"
  type: "Eltwise"
  bottom: "res4b"
  bottom: "res4c_branch2c"
  top: "res4c"
}
layer {
  name: "res4c_relu"
  type: "ReLU"
  bottom: "res4c"
  top: "res4c"
}
layer {
  name: "res4d_branch2a"
  type: "Convolution"
  bottom: "res4c"
  top: "res4d_branch2a"
  convolution_param {
    num_output: 256
    bias_term: false
    pad: 0
    kernel_size: 1
    stride: 1
  }
}
layer {
  name: "bn4d_branch2a"
  type: "BatchNorm"
  bottom: "res4d_branch2a"
  top: "res4d_branch2a"
  batch_norm_param {
    use_global_stats: true
  }
}
layer {
  name: "scale4d_branch2a"
  type: "Scale"
  bottom: "res4d_branch2a"
  top: "res4d_branch2a"
  scale_param {
    bias_term: true
  }
}
layer {
  name: "res4d_branch2a_relu"
  type: "ReLU"
  bottom: "res4d_branch2a"
  top: "res4d_branch2a"
}
layer {
  name: "res4d_branch2b"
  type: "Convolution"
  bottom: "res4d_branch2a"
  top: "res4d_branch2b"
  convolution_param {
    num_output: 256
    bias_term: false
    pad: 1
    kernel_size: 3
    stride: 1
  }
}
layer {
  name: "bn4d_branch2b"
  type: "BatchNorm"
  bottom: "res4d_branch2b"
  top: "res4d_branch2b"
  batch_norm_param {
    use_global_stats: true
  }
}
layer {
  name: "scale4d_branch2b"
  type: "Scale"
  bottom: "res4d_branch2b"
  top: "res4d_branch2b"
  scale_param {
    bias_term: true
  }
}
layer {
  name: "res4d_branch2b_relu"
  type: "ReLU"
  bottom: "res4d_branch2b"
  top: "res4d_branch2b"
}
layer {
  name: "res4d_branch2c"
  type: "Convolution"
  bottom: "res4d_branch2b"
  top: "res4d_branch2c"
  convolution_param {
    num_output: 1024
    bias_term: false
    pad: 0
    kernel_size: 1
    stride: 1
  }
}
layer {
  name: "bn4d_branch2c"
  type: "BatchNorm"
  bottom: "res4d_branch2c"
  top: "res4d_branch2c"
  batch_norm_param {
    use_global_stats: true
  }
}
layer {
  name: "scale4d_branch2c"
  type: "Scale"
  bottom: "res4d_branch2c"
  top: "res4d_branch2c"
  scale_param {
    bias_term: true
  }
}
layer {
  name: "res4d"
  type: "Eltwise"
  bottom: "res4c"
  bottom: "res4d_branch2c"
  top: "res4d"
}
layer {
  name: "res4d_relu"
  type: "ReLU"
  bottom: "res4d"
  top: "res4d"
}
layer {
  name: "res4e_branch2a"
  type: "Convolution"
  bottom: "res4d"
  top: "res4e_branch2a"
  convolution_param {
    num_output: 256
    bias_term: false
    pad: 0
    kernel_size: 1
    stride: 1
  }
}
layer {
  name: "bn4e_branch2a"
  type: "BatchNorm"
  bottom: "res4e_branch2a"
  top: "res4e_branch2a"
  batch_norm_param {
    use_global_stats: true
  }
}
layer {
  name: "scale4e_branch2a"
  type: "Scale"
  bottom: "res4e_branch2a"
  top: "res4e_branch2a"
  scale_param {
    bias_term: true
  }
}
layer {
  name: "res4e_branch2a_relu"
  type: "ReLU"
  bottom: "res4e_branch2a"
  top: "res4e_branch2a"
}
layer {
  name: "res4e_branch2b"
  type: "Convolution"
  bottom: "res4e_branch2a"
  top: "res4e_branch2b"
  convolution_param {
    num_output: 256
    bias_term: false
    pad: 1
    kernel_size: 3
    stride: 1
  }
}
layer {
  name: "bn4e_branch2b"
  type: "BatchNorm"
  bottom: "res4e_branch2b"
  top: "res4e_branch2b"
  batch_norm_param {
    use_global_stats: true
  }
}
layer {
  name: "scale4e_branch2b"
  type: "Scale"
  bottom: "res4e_branch2b"
  top: "res4e_branch2b"
  scale_param {
    bias_term: true
  }
}
layer {
  name: "res4e_branch2b_relu"
  type: "ReLU"
  bottom: "res4e_branch2b"
  top: "res4e_branch2b"
}
layer {
  name: "res4e_branch2c"
  type: "Convolution"
  bottom: "res4e_branch2b"
  top: "res4e_branch2c"
  convolution_param {
    num_output: 1024
    bias_term: false
    pad: 0
    kernel_size: 1
    stride: 1
  }
}
layer {
  name: "bn4e_branch2c"
  type: "BatchNorm"
  bottom: "res4e_branch2c"
  top: "res4e_branch2c"
  batch_norm_param {
    use_global_stats: true
  }
}
layer {
  name: "scale4e_branch2c"
  type: "Scale"
  bottom: "res4e_branch2c"
  top: "res4e_branch2c"
  scale_param {
    bias_term: true
  }
}
layer {
  name: "res4e"
  type: "Eltwise"
  bottom: "res4d"
  bottom: "res4e_branch2c"
  top: "res4e"
}
layer {
  name: "res4e_relu"
  type: "ReLU"
  bottom: "res4e"
  top: "res4e"
}
layer {
  name: "res4f_branch2a"
  type: "Convolution"
  bottom: "res4e"
  top: "res4f_branch2a"
  convolution_param {
    num_output: 256
    bias_term: false
    pad: 0
    kernel_size: 1
    stride: 1
  }
}
layer {
  name: "bn4f_branch2a"
  type: "BatchNorm"
  bottom: "res4f_branch2a"
  top: "res4f_branch2a"
  batch_norm_param {
    use_global_stats: true
  }
}
layer {
  name: "scale4f_branch2a"
  type: "Scale"
  bottom: "res4f_branch2a"
  top: "res4f_branch2a"
  scale_param {
    bias_term: true
  }
}
layer {
  name: "res4f_branch2a_relu"
  type: "ReLU"
  bottom: "res4f_branch2a"
  top: "res4f_branch2a"
}
layer {
  name: "res4f_branch2b"
  type: "Convolution"
  bottom: "res4f_branch2a"
  top: "res4f_branch2b"
  convolution_param {
    num_output: 256
    bias_term: false
    pad: 1
    kernel_size: 3
    stride: 1
  }
}
layer {
  name: "bn4f_branch2b"
  type: "BatchNorm"
  bottom: "res4f_branch2b"
  top: "res4f_branch2b"
  batch_norm_param {
    use_global_stats: true
  }
}
layer {
  name: "scale4f_branch2b"
  type: "Scale"
  bottom: "res4f_branch2b"
  top: "res4f_branch2b"
  scale_param {
    bias_term: true
  }
}
layer {
  name: "res4f_branch2b_relu"
  type: "ReLU"
  bottom: "res4f_branch2b"
  top: "res4f_branch2b"
}
layer {
  name: "res4f_branch2c"
  type: "Convolution"
  bottom: "res4f_branch2b"
  top: "res4f_branch2c"
  convolution_param {
    num_output: 1024
    bias_term: false
    pad: 0
    kernel_size: 1
    stride: 1
  }
}
layer {
  name: "bn4f_branch2c"
  type: "BatchNorm"
  bottom: "res4f_branch2c"
  top: "res4f_branch2c"
  batch_norm_param {
    use_global_stats: true
  }
}
layer {
  name: "scale4f_branch2c"
  type: "Scale"
  bottom: "res4f_branch2c"
  top: "res4f_branch2c"
  scale_param {
    bias_term: true
  }
}
layer {
  name: "res4f"
  type: "Eltwise"
  bottom: "res4e"
  bottom: "res4f_branch2c"
  top: "res4f"
}
layer {
  name: "res4f_relu"
  type: "ReLU"
  bottom: "res4f"
  top: "res4f"
}
layer {
  name: "res5a_branch1"
  type: "Convolution"
  bottom: "res4f"
  top: "res5a_branch1"
  convolution_param {
    num_output: 2048
    bias_term: false
    pad: 0
    kernel_size: 1
    stride: 2
  }
}
layer {
  name: "bn5a_branch1"
  type: "BatchNorm"
  bottom: "res5a_branch1"
  top: "res5a_branch1"
  batch_norm_param {
    use_global_stats: true
  }
}
layer {
  name: "scale5a_branch1"
  type: "Scale"
  bottom: "res5a_branch1"
  top: "res5a_branch1"
  scale_param {
    bias_term: true
  }
}
layer {
  name: "res5a_branch2a"
  type: "Convolution"
  bottom: "res4f"
  top: "res5a_branch2a"
  convolution_param {
    num_output: 512
    bias_term: false
    pad: 0
    kernel_size: 1
    stride: 2
  }
}
layer {
  name: "bn5a_branch2a"
  type: "BatchNorm"
  bottom: "res5a_branch2a"
  top: "res5a_branch2a"
  batch_norm_param {
    use_global_stats: true
  }
}
layer {
  name: "scale5a_branch2a"
  type: "Scale"
  bottom: "res5a_branch2a"
  top: "res5a_branch2a"
  scale_param {
    bias_term: true
  }
}
layer {
  name: "res5a_branch2a_relu"
  type: "ReLU"
  bottom: "res5a_branch2a"
  top: "res5a_branch2a"
}
layer {
  name: "res5a_branch2b"
  type: "Convolution"
  bottom: "res5a_branch2a"
  top: "res5a_branch2b"
  convolution_param {
    num_output: 512
    bias_term: false
    pad: 1
    kernel_size: 3
    stride: 1
  }
}
layer {
  name: "bn5a_branch2b"
  type: "BatchNorm"
  bottom: "res5a_branch2b"
  top: "res5a_branch2b"
  batch_norm_param {
    use_global_stats: true
  }
}
layer {
  name: "scale5a_branch2b"
  type: "Scale"
  bottom: "res5a_branch2b"
  top: "res5a_branch2b"
  scale_param {
    bias_term: true
  }
}
layer {
  name: "res5a_branch2b_relu"
  type: "ReLU"
  bottom: "res5a_branch2b"
  top: "res5a_branch2b"
}
layer {
  name: "res5a_branch2c"
  type: "Convolution"
  bottom: "res5a_branch2b"
  top: "res5a_branch2c"
  convolution_param {
    num_output: 2048
    bias_term: false
    pad: 0
    kernel_size: 1
    stride: 1
  }
}
layer {
  name: "bn5a_branch2c"
I0503 10:39:58.417994 91530 layer_factory.hpp:77] Creating layer data
I0503 10:39:58.418443 91530 net.cpp:106] Creating Layer data
I0503 10:39:58.418460 91530 net.cpp:411] data -> data
I0503 10:39:58.418486 91530 net.cpp:411] data -> label
I0503 10:39:58.418508 91530 data_transformer.cpp:25] Loading mean file from: /home/hzhang57/NEW_WORLD/Project_4_ROOT/CODES/RC_497/Param/mean.binaryproto
I0503 10:39:58.419921 91612 db_lmdb.cpp:38] Opened lmdb /home/hzhang57/NEW_WORLD/Project_4_ROOT/CODES/RC_497/Param/RC-train.leveldb
I0503 10:39:58.429435 91530 data_layer.cpp:41] output data size: 20,3,224,224
I0503 10:39:58.449941 91530 net.cpp:150] Setting up data
I0503 10:39:58.449991 91530 net.cpp:157] Top shape: 20 3 224 224 (3010560)
I0503 10:39:58.450000 91530 net.cpp:157] Top shape: 20 (20)
I0503 10:39:58.450004 91530 net.cpp:165] Memory required for data: 12042320
I0503 10:39:58.450014 91530 layer_factory.hpp:77] Creating layer conv1
I0503 10:39:58.450042 91530 net.cpp:106] Creating Layer conv1
I0503 10:39:58.450050 91530 net.cpp:454] conv1 <- data
I0503 10:39:58.450065 91530 net.cpp:411] conv1 -> conv1
I0503 10:39:58.450831 91530 net.cpp:150] Setting up conv1
I0503 10:39:58.450847 91530 net.cpp:157] Top shape: 20 64 112 112 (16056320)
I0503 10:39:58.450853 91530 net.cpp:165] Memory required for data: 76267600
I0503 10:39:58.450867 91530 layer_factory.hpp:77] Creating layer bn_conv1
I0503 10:39:58.450883 91530 net.cpp:106] Creating Layer bn_conv1
I0503 10:39:58.450888 91530 net.cpp:454] bn_conv1 <- conv1
I0503 10:39:58.450896 91530 net.cpp:397] bn_conv1 -> conv1 (in-place)
I0503 10:39:58.451123 91530 net.cpp:150] Setting up bn_conv1
I0503 10:39:58.451134 91530 net.cpp:157] Top shape: 20 64 112 112 (16056320)
I0503 10:39:58.451139 91530 net.cpp:165] Memory required for data: 140492880
I0503 10:39:58.451161 91530 layer_factory.hpp:77] Creating layer scale_conv1
I0503 10:39:58.451176 91530 net.cpp:106] Creating Layer scale_conv1
I0503 10:39:58.451181 91530 net.cpp:454] scale_conv1 <- conv1
I0503 10:39:58.451189 91530 net.cpp:397] scale_conv1 -> conv1 (in-place)
I0503 10:39:58.452348 91530 layer_factory.hpp:77] Creating layer scale_conv1
I0503 10:39:58.452496 91530 net.cpp:150] Setting up scale_conv1
I0503 10:39:58.452512 91530 net.cpp:157] Top shape: 20 64 112 112 (16056320)
I0503 10:39:58.452518 91530 net.cpp:165] Memory required for data: 204718160
I0503 10:39:58.452527 91530 layer_factory.hpp:77] Creating layer conv1_relu
I0503 10:39:58.452536 91530 net.cpp:106] Creating Layer conv1_relu
I0503 10:39:58.452541 91530 net.cpp:454] conv1_relu <- conv1
I0503 10:39:58.452548 91530 net.cpp:397] conv1_relu -> conv1 (in-place)
I0503 10:39:58.452555 91530 net.cpp:150] Setting up conv1_relu
I0503 10:39:58.452560 91530 net.cpp:157] Top shape: 20 64 112 112 (16056320)
I0503 10:39:58.452565 91530 net.cpp:165] Memory required for data: 268943440
I0503 10:39:58.452569 91530 layer_factory.hpp:77] Creating layer pool1
I0503 10:39:58.452577 91530 net.cpp:106] Creating Layer pool1
I0503 10:39:58.452581 91530 net.cpp:454] pool1 <- conv1
I0503 10:39:58.452587 91530 net.cpp:411] pool1 -> pool1
I0503 10:39:58.452642 91530 net.cpp:150] Setting up pool1
I0503 10:39:58.452657 91530 net.cpp:157] Top shape: 20 64 56 56 (4014080)
I0503 10:39:58.452664 91530 net.cpp:165] Memory required for data: 284999760
I0503 10:39:58.452672 91530 layer_factory.hpp:77] Creating layer pool1_pool1_0_split
I0503 10:39:58.452687 91530 net.cpp:106] Creating Layer pool1_pool1_0_split
I0503 10:39:58.452694 91530 net.cpp:454] pool1_pool1_0_split <- pool1
I0503 10:39:58.452704 91530 net.cpp:411] pool1_pool1_0_split -> pool1_pool1_0_split_0
I0503 10:39:58.452718 91530 net.cpp:411] pool1_pool1_0_split -> pool1_pool1_0_split_1
I0503 10:39:58.452752 91530 net.cpp:150] Setting up pool1_pool1_0_split
I0503 10:39:58.452761 91530 net.cpp:157] Top shape: 20 64 56 56 (4014080)
I0503 10:39:58.452766 91530 net.cpp:157] Top shape: 20 64 56 56 (4014080)
I0503 10:39:58.452770 91530 net.cpp:165] Memory required for data: 317112400
I0503 10:39:58.452775 91530 layer_factory.hpp:77] Creating layer res2a_branch1
I0503 10:39:58.452785 91530 net.cpp:106] Creating Layer res2a_branch1
I0503 10:39:58.452790 91530 net.cpp:454] res2a_branch1 <- pool1_pool1_0_split_0
I0503 10:39:58.452797 91530 net.cpp:411] res2a_branch1 -> res2a_branch1
I0503 10:39:58.452953 91530 net.cpp:150] Setting up res2a_branch1
I0503 10:39:58.452963 91530 net.cpp:157] Top shape: 20 256 56 56 (16056320)
I0503 10:39:58.452967 91530 net.cpp:165] Memory required for data: 381337680
I0503 10:39:58.452973 91530 layer_factory.hpp:77] Creating layer bn2a_branch1
I0503 10:39:58.452982 91530 net.cpp:106] Creating Layer bn2a_branch1
I0503 10:39:58.452987 91530 net.cpp:454] bn2a_branch1 <- res2a_branch1
I0503 10:39:58.452994 91530 net.cpp:397] bn2a_branch1 -> res2a_branch1 (in-place)
I0503 10:39:58.453655 91530 net.cpp:150] Setting up bn2a_branch1
I0503 10:39:58.453671 91530 net.cpp:157] Top shape: 20 256 56 56 (16056320)
I0503 10:39:58.453676 91530 net.cpp:165] Memory required for data: 445562960
I0503 10:39:58.453690 91530 layer_factory.hpp:77] Creating layer scale2a_branch1
I0503 10:39:58.453699 91530 net.cpp:106] Creating Layer scale2a_branch1
I0503 10:39:58.453704 91530 net.cpp:454] scale2a_branch1 <- res2a_branch1
I0503 10:39:58.453711 91530 net.cpp:397] scale2a_branch1 -> res2a_branch1 (in-place)
I0503 10:39:58.453749 91530 layer_factory.hpp:77] Creating layer scale2a_branch1
I0503 10:39:58.453841 91530 net.cpp:150] Setting up scale2a_branch1
I0503 10:39:58.453850 91530 net.cpp:157] Top shape: 20 256 56 56 (16056320)
I0503 10:39:58.453853 91530 net.cpp:165] Memory required for data: 509788240
I0503 10:39:58.453861 91530 layer_factory.hpp:77] Creating layer res2a_branch2a
I0503 10:39:58.453871 91530 net.cpp:106] Creating Layer res2a_branch2a
I0503 10:39:58.453876 91530 net.cpp:454] res2a_branch2a <- pool1_pool1_0_split_1
I0503 10:39:58.453888 91530 net.cpp:411] res2a_branch2a -> res2a_branch2a
I0503 10:39:58.454035 91530 net.cpp:150] Setting up res2a_branch2a
I0503 10:39:58.454044 91530 net.cpp:157] Top shape: 20 64 56 56 (4014080)
I0503 10:39:58.454048 91530 net.cpp:165] Memory required for data: 525844560
I0503 10:39:58.454054 91530 layer_factory.hpp:77] Creating layer bn2a_branch2a
I0503 10:39:58.454061 91530 net.cpp:106] Creating Layer bn2a_branch2a
I0503 10:39:58.454066 91530 net.cpp:454] bn2a_branch2a <- res2a_branch2a
I0503 10:39:58.454073 91530 net.cpp:397] bn2a_branch2a -> res2a_branch2a (in-place)
I0503 10:39:58.454212 91530 net.cpp:150] Setting up bn2a_branch2a
I0503 10:39:58.454221 91530 net.cpp:157] Top shape: 20 64 56 56 (4014080)
I0503 10:39:58.454226 91530 net.cpp:165] Memory required for data: 541900880
I0503 10:39:58.454239 91530 layer_factory.hpp:77] Creating layer scale2a_branch2a
I0503 10:39:58.454247 91530 net.cpp:106] Creating Layer scale2a_branch2a
I0503 10:39:58.454252 91530 net.cpp:454] scale2a_branch2a <- res2a_branch2a
I0503 10:39:58.454258 91530 net.cpp:397] scale2a_branch2a -> res2a_branch2a (in-place)
I0503 10:39:58.454293 91530 layer_factory.hpp:77] Creating layer scale2a_branch2a
I0503 10:39:58.454385 91530 net.cpp:150] Setting up scale2a_branch2a
I0503 10:39:58.454393 91530 net.cpp:157] Top shape: 20 64 56 56 (4014080)
I0503 10:39:58.454397 91530 net.cpp:165] Memory required for data: 557957200
I0503 10:39:58.454404 91530 layer_factory.hpp:77] Creating layer res2a_branch2a_relu
I0503 10:39:58.454411 91530 net.cpp:106] Creating Layer res2a_branch2a_relu
I0503 10:39:58.454416 91530 net.cpp:454] res2a_branch2a_relu <- res2a_branch2a
I0503 10:39:58.454422 91530 net.cpp:397] res2a_branch2a_relu -> res2a_branch2a (in-place)
I0503 10:39:58.454429 91530 net.cpp:150] Setting up res2a_branch2a_relu
I0503 10:39:58.454435 91530 net.cpp:157] Top shape: 20 64 56 56 (4014080)
I0503 10:39:58.454439 91530 net.cpp:165] Memory required for data: 574013520
I0503 10:39:58.454443 91530 layer_factory.hpp:77] Creating layer res2a_branch2b
I0503 10:39:58.454452 91530 net.cpp:106] Creating Layer res2a_branch2b
I0503 10:39:58.454457 91530 net.cpp:454] res2a_branch2b <- res2a_branch2a
I0503 10:39:58.454463 91530 net.cpp:411] res2a_branch2b -> res2a_branch2b
I0503 10:39:58.455138 91530 net.cpp:150] Setting up res2a_branch2b
I0503 10:39:58.455155 91530 net.cpp:157] Top shape: 20 64 56 56 (4014080)
I0503 10:39:58.455160 91530 net.cpp:165] Memory required for data: 590069840
I0503 10:39:58.455168 91530 layer_factory.hpp:77] Creating layer bn2a_branch2b
I0503 10:39:58.455175 91530 net.cpp:106] Creating Layer bn2a_branch2b
I0503 10:39:58.455180 91530 net.cpp:454] bn2a_branch2b <- res2a_branch2b
I0503 10:39:58.455188 91530 net.cpp:397] bn2a_branch2b -> res2a_branch2b (in-place)
I0503 10:39:58.455340 91530 net.cpp:150] Setting up bn2a_branch2b
I0503 10:39:58.455350 91530 net.cpp:157] Top shape: 20 64 56 56 (4014080)
I0503 10:39:58.455355 91530 net.cpp:165] Memory required for data: 606126160
I0503 10:39:58.455363 91530 layer_factory.hpp:77] Creating layer scale2a_branch2b
I0503 10:39:58.455374 91530 net.cpp:106] Creating Layer scale2a_branch2b
I0503 10:39:58.455379 91530 net.cpp:454] scale2a_branch2b <- res2a_branch2b
I0503 10:39:58.455385 91530 net.cpp:397] scale2a_branch2b -> res2a_branch2b (in-place)
I0503 10:39:58.455421 91530 layer_factory.hpp:77] Creating layer scale2a_branch2b
I0503 10:39:58.455516 91530 net.cpp:150] Setting up scale2a_branch2b
I0503 10:39:58.455525 91530 net.cpp:157] Top shape: 20 64 56 56 (4014080)
I0503 10:39:58.455529 91530 net.cpp:165] Memory required for data: 622182480
I0503 10:39:58.455536 91530 layer_factory.hpp:77] Creating layer res2a_branch2b_relu
I0503 10:39:58.455543 91530 net.cpp:106] Creating Layer res2a_branch2b_relu
I0503 10:39:58.455549 91530 net.cpp:454] res2a_branch2b_relu <- res2a_branch2b
I0503 10:39:58.455554 91530 net.cpp:397] res2a_branch2b_relu -> res2a_branch2b (in-place)
I0503 10:39:58.455561 91530 net.cpp:150] Setting up res2a_branch2b_relu
I0503 10:39:58.455574 91530 net.cpp:157] Top shape: 20 64 56 56 (4014080)
I0503 10:39:58.455579 91530 net.cpp:165] Memory required for data: 638238800
I0503 10:39:58.455582 91530 layer_factory.hpp:77] Creating layer res2a_branch2c
I0503 10:39:58.455591 91530 net.cpp:106] Creating Layer res2a_branch2c
I0503 10:39:58.455595 91530 net.cpp:454] res2a_branch2c <- res2a_branch2b
I0503 10:39:58.455602 91530 net.cpp:411] res2a_branch2c -> res2a_branch2c
I0503 10:39:58.455754 91530 net.cpp:150] Setting up res2a_branch2c
I0503 10:39:58.455763 91530 net.cpp:157] Top shape: 20 256 56 56 (16056320)
I0503 10:39:58.455768 91530 net.cpp:165] Memory required for data: 702464080
I0503 10:39:58.455775 91530 layer_factory.hpp:77] Creating layer bn2a_branch2c
I0503 10:39:58.455782 91530 net.cpp:106] Creating Layer bn2a_branch2c
I0503 10:39:58.455786 91530 net.cpp:454] bn2a_branch2c <- res2a_branch2c
I0503 10:39:58.455793 91530 net.cpp:397] bn2a_branch2c -> res2a_branch2c (in-place)
I0503 10:39:58.455930 91530 net.cpp:150] Setting up bn2a_branch2c
I0503 10:39:58.455938 91530 net.cpp:157] Top shape: 20 256 56 56 (16056320)
I0503 10:39:58.455943 91530 net.cpp:165] Memory required for data: 766689360
I0503 10:39:58.455950 91530 layer_factory.hpp:77] Creating layer scale2a_branch2c
I0503 10:39:58.455958 91530 net.cpp:106] Creating Layer scale2a_branch2c
I0503 10:39:58.455962 91530 net.cpp:454] scale2a_branch2c <- res2a_branch2c
I0503 10:39:58.455970 91530 net.cpp:397] scale2a_branch2c -> res2a_branch2c (in-place)
I0503 10:39:58.456002 91530 layer_factory.hpp:77] Creating layer scale2a_branch2c
I0503 10:39:58.456094 91530 net.cpp:150] Setting up scale2a_branch2c
I0503 10:39:58.456102 91530 net.cpp:157] Top shape: 20 256 56 56 (16056320)
I0503 10:39:58.456106 91530 net.cpp:165] Memory required for data: 830914640
I0503 10:39:58.456113 91530 layer_factory.hpp:77] Creating layer res2a
I0503 10:39:58.456121 91530 net.cpp:106] Creating Layer res2a
I0503 10:39:58.456126 91530 net.cpp:454] res2a <- res2a_branch1
I0503 10:39:58.456131 91530 net.cpp:454] res2a <- res2a_branch2c
I0503 10:39:58.456138 91530 net.cpp:411] res2a -> res2a
I0503 10:39:58.456161 91530 net.cpp:150] Setting up res2a
I0503 10:39:58.456169 91530 net.cpp:157] Top shape: 20 256 56 56 (16056320)
I0503 10:39:58.456173 91530 net.cpp:165] Memory required for data: 895139920
I0503 10:39:58.456177 91530 layer_factory.hpp:77] Creating layer res2a_relu
I0503 10:39:58.456184 91530 net.cpp:106] Creating Layer res2a_relu
I0503 10:39:58.456188 91530 net.cpp:454] res2a_relu <- res2a
I0503 10:39:58.456195 91530 net.cpp:397] res2a_relu -> res2a (in-place)
I0503 10:39:58.456202 91530 net.cpp:150] Setting up res2a_relu
I0503 10:39:58.456207 91530 net.cpp:157] Top shape: 20 256 56 56 (16056320)
I0503 10:39:58.456212 91530 net.cpp:165] Memory required for data: 959365200
I0503 10:39:58.456215 91530 layer_factory.hpp:77] Creating layer res2a_res2a_relu_0_split
I0503 10:39:58.456223 91530 net.cpp:106] Creating Layer res2a_res2a_relu_0_split
I0503 10:39:58.456228 91530 net.cpp:454] res2a_res2a_relu_0_split <- res2a
I0503 10:39:58.456233 91530 net.cpp:411] res2a_res2a_relu_0_split -> res2a_res2a_relu_0_split_0
I0503 10:39:58.456240 91530 net.cpp:411] res2a_res2a_relu_0_split -> res2a_res2a_relu_0_split_1
I0503 10:39:58.456269 91530 net.cpp:150] Setting up res2a_res2a_relu_0_split
I0503 10:39:58.456277 91530 net.cpp:157] Top shape: 20 256 56 56 (16056320)
I0503 10:39:58.456282 91530 net.cpp:157] Top shape: 20 256 56 56 (16056320)
I0503 10:39:58.456286 91530 net.cpp:165] Memory required for data: 1087815760
I0503 10:39:58.456290 91530 layer_factory.hpp:77] Creating layer res2b_branch2a
I0503 10:39:58.456300 91530 net.cpp:106] Creating Layer res2b_branch2a
I0503 10:39:58.456303 91530 net.cpp:454] res2b_branch2a <- res2a_res2a_relu_0_split_0
I0503 10:39:58.456310 91530 net.cpp:411] res2b_branch2a -> res2b_branch2a
I0503 10:39:58.456485 91530 net.cpp:150] Setting up res2b_branch2a
I0503 10:39:58.456501 91530 net.cpp:157] Top shape: 20 64 56 56 (4014080)
I0503 10:39:58.456507 91530 net.cpp:165] Memory required for data: 1103872080
I0503 10:39:58.456523 91530 layer_factory.hpp:77] Creating layer bn2b_branch2a
I0503 10:39:58.456532 91530 net.cpp:106] Creating Layer bn2b_branch2a
I0503 10:39:58.456537 91530 net.cpp:454] bn2b_branch2a <- res2b_branch2a
I0503 10:39:58.456544 91530 net.cpp:397] bn2b_branch2a -> res2b_branch2a (in-place)
I0503 10:39:58.456691 91530 net.cpp:150] Setting up bn2b_branch2a
I0503 10:39:58.456704 91530 net.cpp:157] Top shape: 20 64 56 56 (4014080)
I0503 10:39:58.456709 91530 net.cpp:165] Memory required for data: 1119928400
I0503 10:39:58.456725 91530 layer_factory.hpp:77] Creating layer scale2b_branch2a
I0503 10:39:58.456732 91530 net.cpp:106] Creating Layer scale2b_branch2a
I0503 10:39:58.456737 91530 net.cpp:454] scale2b_branch2a <- res2b_branch2a
I0503 10:39:58.456743 91530 net.cpp:397] scale2b_branch2a -> res2b_branch2a (in-place)
I0503 10:39:58.456778 91530 layer_factory.hpp:77] Creating layer scale2b_branch2a
I0503 10:39:58.456878 91530 net.cpp:150] Setting up scale2b_branch2a
I0503 10:39:58.456887 91530 net.cpp:157] Top shape: 20 64 56 56 (4014080)
I0503 10:39:58.456892 91530 net.cpp:165] Memory required for data: 1135984720
I0503 10:39:58.456899 91530 layer_factory.hpp:77] Creating layer res2b_branch2a_relu
I0503 10:39:58.456907 91530 net.cpp:106] Creating Layer res2b_branch2a_relu
I0503 10:39:58.456910 91530 net.cpp:454] res2b_branch2a_relu <- res2b_branch2a
I0503 10:39:58.456918 91530 net.cpp:397] res2b_branch2a_relu -> res2b_branch2a (in-place)
I0503 10:39:58.456923 91530 net.cpp:150] Setting up res2b_branch2a_relu
I0503 10:39:58.456929 91530 net.cpp:157] Top shape: 20 64 56 56 (4014080)
I0503 10:39:58.456933 91530 net.cpp:165] Memory required for data: 1152041040
I0503 10:39:58.456938 91530 layer_factory.hpp:77] Creating layer res2b_branch2b
I0503 10:39:58.456945 91530 net.cpp:106] Creating Layer res2b_branch2b
I0503 10:39:58.456950 91530 net.cpp:454] res2b_branch2b <- res2b_branch2a
I0503 10:39:58.456957 91530 net.cpp:411] res2b_branch2b -> res2b_branch2b
I0503 10:39:58.457124 91530 net.cpp:150] Setting up res2b_branch2b
I0503 10:39:58.457134 91530 net.cpp:157] Top shape: 20 64 56 56 (4014080)
I0503 10:39:58.457137 91530 net.cpp:165] Memory required for data: 1168097360
I0503 10:39:58.457144 91530 layer_factory.hpp:77] Creating layer bn2b_branch2b
I0503 10:39:58.457150 91530 net.cpp:106] Creating Layer bn2b_branch2b
I0503 10:39:58.457155 91530 net.cpp:454] bn2b_branch2b <- res2b_branch2b
I0503 10:39:58.457161 91530 net.cpp:397] bn2b_branch2b -> res2b_branch2b (in-place)
I0503 10:39:58.457311 91530 net.cpp:150] Setting up bn2b_branch2b
I0503 10:39:58.457319 91530 net.cpp:157] Top shape: 20 64 56 56 (4014080)
I0503 10:39:58.457324 91530 net.cpp:165] Memory required for data: 1184153680
I0503 10:39:58.457331 91530 layer_factory.hpp:77] Creating layer scale2b_branch2b
I0503 10:39:58.457340 91530 net.cpp:106] Creating Layer scale2b_branch2b
I0503 10:39:58.457343 91530 net.cpp:454] scale2b_branch2b <- res2b_branch2b
I0503 10:39:58.457350 91530 net.cpp:397] scale2b_branch2b -> res2b_branch2b (in-place)
I0503 10:39:58.457383 91530 layer_factory.hpp:77] Creating layer scale2b_branch2b
I0503 10:39:58.457476 91530 net.cpp:150] Setting up scale2b_branch2b
I0503 10:39:58.457484 91530 net.cpp:157] Top shape: 20 64 56 56 (4014080)
I0503 10:39:58.457489 91530 net.cpp:165] Memory required for data: 1200210000
I0503 10:39:58.457495 91530 layer_factory.hpp:77] Creating layer res2b_branch2b_relu
I0503 10:39:58.457502 91530 net.cpp:106] Creating Layer res2b_branch2b_relu
I0503 10:39:58.457506 91530 net.cpp:454] res2b_branch2b_relu <- res2b_branch2b
I0503 10:39:58.457514 91530 net.cpp:397] res2b_branch2b_relu -> res2b_branch2b (in-place)
I0503 10:39:58.457520 91530 net.cpp:150] Setting up res2b_branch2b_relu
I0503 10:39:58.457525 91530 net.cpp:157] Top shape: 20 64 56 56 (4014080)
I0503 10:39:58.457530 91530 net.cpp:165] Memory required for data: 1216266320
I0503 10:39:58.457533 91530 layer_factory.hpp:77] Creating layer res2b_branch2c
I0503 10:39:58.457545 91530 net.cpp:106] Creating Layer res2b_branch2c
I0503 10:39:58.457553 91530 net.cpp:454] res2b_branch2c <- res2b_branch2b
I0503 10:39:58.457561 91530 net.cpp:411] res2b_branch2c -> res2b_branch2c
I0503 10:39:58.457711 91530 net.cpp:150] Setting up res2b_branch2c
I0503 10:39:58.457720 91530 net.cpp:157] Top shape: 20 256 56 56 (16056320)
I0503 10:39:58.457726 91530 net.cpp:165] Memory required for data: 1280491600
I0503 10:39:58.457731 91530 layer_factory.hpp:77] Creating layer bn2b_branch2c
I0503 10:39:58.457738 91530 net.cpp:106] Creating Layer bn2b_branch2c
I0503 10:39:58.457743 91530 net.cpp:454] bn2b_branch2c <- res2b_branch2c
I0503 10:39:58.457749 91530 net.cpp:397] bn2b_branch2c -> res2b_branch2c (in-place)
I0503 10:39:58.457885 91530 net.cpp:150] Setting up bn2b_branch2c
I0503 10:39:58.457892 91530 net.cpp:157] Top shape: 20 256 56 56 (16056320)
I0503 10:39:58.457896 91530 net.cpp:165] Memory required for data: 1344716880
I0503 10:39:58.457904 91530 layer_factory.hpp:77] Creating layer scale2b_branch2c
I0503 10:39:58.457912 91530 net.cpp:106] Creating Layer scale2b_branch2c
I0503 10:39:58.457916 91530 net.cpp:454] scale2b_branch2c <- res2b_branch2c
I0503 10:39:58.457924 91530 net.cpp:397] scale2b_branch2c -> res2b_branch2c (in-place)
I0503 10:39:58.457957 91530 layer_factory.hpp:77] Creating layer scale2b_branch2c
I0503 10:39:58.458047 91530 net.cpp:150] Setting up scale2b_branch2c
I0503 10:39:58.458056 91530 net.cpp:157] Top shape: 20 256 56 56 (16056320)
I0503 10:39:58.458060 91530 net.cpp:165] Memory required for data: 1408942160
I0503 10:39:58.458067 91530 layer_factory.hpp:77] Creating layer res2b
I0503 10:39:58.458075 91530 net.cpp:106] Creating Layer res2b
I0503 10:39:58.458079 91530 net.cpp:454] res2b <- res2a_res2a_relu_0_split_1
I0503 10:39:58.458086 91530 net.cpp:454] res2b <- res2b_branch2c
I0503 10:39:58.458091 91530 net.cpp:411] res2b -> res2b
I0503 10:39:58.458113 91530 net.cpp:150] Setting up res2b
I0503 10:39:58.458122 91530 net.cpp:157] Top shape: 20 256 56 56 (16056320)
I0503 10:39:58.458127 91530 net.cpp:165] Memory required for data: 1473167440
I0503 10:39:58.458132 91530 layer_factory.hpp:77] Creating layer res2b_relu
I0503 10:39:58.458138 91530 net.cpp:106] Creating Layer res2b_relu
I0503 10:39:58.458142 91530 net.cpp:454] res2b_relu <- res2b
I0503 10:39:58.458149 91530 net.cpp:397] res2b_relu -> res2b (in-place)
I0503 10:39:58.458155 91530 net.cpp:150] Setting up res2b_relu
I0503 10:39:58.458161 91530 net.cpp:157] Top shape: 20 256 56 56 (16056320)
I0503 10:39:58.458165 91530 net.cpp:165] Memory required for data: 1537392720
I0503 10:39:58.458169 91530 layer_factory.hpp:77] Creating layer res2b_res2b_relu_0_split
I0503 10:39:58.458175 91530 net.cpp:106] Creating Layer res2b_res2b_relu_0_split
I0503 10:39:58.458179 91530 net.cpp:454] res2b_res2b_relu_0_split <- res2b
I0503 10:39:58.458185 91530 net.cpp:411] res2b_res2b_relu_0_split -> res2b_res2b_relu_0_split_0
I0503 10:39:58.458194 91530 net.cpp:411] res2b_res2b_relu_0_split -> res2b_res2b_relu_0_split_1
I0503 10:39:58.458222 91530 net.cpp:150] Setting up res2b_res2b_relu_0_split
I0503 10:39:58.458230 91530 net.cpp:157] Top shape: 20 256 56 56 (16056320)
I0503 10:39:58.458235 91530 net.cpp:157] Top shape: 20 256 56 56 (16056320)
I0503 10:39:58.458238 91530 net.cpp:165] Memory required for data: 1665843280
I0503 10:39:58.458242 91530 layer_factory.hpp:77] Creating layer res2c_branch2a
I0503 10:39:58.458251 91530 net.cpp:106] Creating Layer res2c_branch2a
I0503 10:39:58.458256 91530 net.cpp:454] res2c_branch2a <- res2b_res2b_relu_0_split_0
I0503 10:39:58.458262 91530 net.cpp:411] res2c_branch2a -> res2c_branch2a
I0503 10:39:58.458413 91530 net.cpp:150] Setting up res2c_branch2a
I0503 10:39:58.458421 91530 net.cpp:157] Top shape: 20 64 56 56 (4014080)
I0503 10:39:58.458426 91530 net.cpp:165] Memory required for data: 1681899600
I0503 10:39:58.458431 91530 layer_factory.hpp:77] Creating layer bn2c_branch2a
I0503 10:39:58.458438 91530 net.cpp:106] Creating Layer bn2c_branch2a
I0503 10:39:58.458443 91530 net.cpp:454] bn2c_branch2a <- res2c_branch2a
I0503 10:39:58.458449 91530 net.cpp:397] bn2c_branch2a -> res2c_branch2a (in-place)
I0503 10:39:58.458597 91530 net.cpp:150] Setting up bn2c_branch2a
I0503 10:39:58.458606 91530 net.cpp:157] Top shape: 20 64 56 56 (4014080)
I0503 10:39:58.458611 91530 net.cpp:165] Memory required for data: 1697955920
I0503 10:39:58.458618 91530 layer_factory.hpp:77] Creating layer scale2c_branch2a
I0503 10:39:58.458626 91530 net.cpp:106] Creating Layer scale2c_branch2a
I0503 10:39:58.458631 91530 net.cpp:454] scale2c_branch2a <- res2c_branch2a
I0503 10:39:58.458636 91530 net.cpp:397] scale2c_branch2a -> res2c_branch2a (in-place)
I0503 10:39:58.458674 91530 layer_factory.hpp:77] Creating layer scale2c_branch2a
I0503 10:39:58.458776 91530 net.cpp:150] Setting up scale2c_branch2a
I0503 10:39:58.458786 91530 net.cpp:157] Top shape: 20 64 56 56 (4014080)
I0503 10:39:58.458789 91530 net.cpp:165] Memory required for data: 1714012240
I0503 10:39:58.458796 91530 layer_factory.hpp:77] Creating layer res2c_branch2a_relu
I0503 10:39:58.458803 91530 net.cpp:106] Creating Layer res2c_branch2a_relu
I0503 10:39:58.458807 91530 net.cpp:454] res2c_branch2a_relu <- res2c_branch2a
I0503 10:39:58.458813 91530 net.cpp:397] res2c_branch2a_relu -> res2c_branch2a (in-place)
I0503 10:39:58.458820 91530 net.cpp:150] Setting up res2c_branch2a_relu
I0503 10:39:58.458825 91530 net.cpp:157] Top shape: 20 64 56 56 (4014080)
I0503 10:39:58.458829 91530 net.cpp:165] Memory required for data: 1730068560
I0503 10:39:58.458833 91530 layer_factory.hpp:77] Creating layer res2c_branch2b
I0503 10:39:58.458843 91530 net.cpp:106] Creating Layer res2c_branch2b
I0503 10:39:58.458848 91530 net.cpp:454] res2c_branch2b <- res2c_branch2a
I0503 10:39:58.458854 91530 net.cpp:411] res2c_branch2b -> res2c_branch2b
I0503 10:39:58.459030 91530 net.cpp:150] Setting up res2c_branch2b
I0503 10:39:58.459039 91530 net.cpp:157] Top shape: 20 64 56 56 (4014080)
I0503 10:39:58.459044 91530 net.cpp:165] Memory required for data: 1746124880
I0503 10:39:58.459050 91530 layer_factory.hpp:77] Creating layer bn2c_branch2b
I0503 10:39:58.459058 91530 net.cpp:106] Creating Layer bn2c_branch2b
I0503 10:39:58.459061 91530 net.cpp:454] bn2c_branch2b <- res2c_branch2b
I0503 10:39:58.459067 91530 net.cpp:397] bn2c_branch2b -> res2c_branch2b (in-place)
I0503 10:39:58.459218 91530 net.cpp:150] Setting up bn2c_branch2b
I0503 10:39:58.459228 91530 net.cpp:157] Top shape: 20 64 56 56 (4014080)
I0503 10:39:58.459231 91530 net.cpp:165] Memory required for data: 1762181200
I0503 10:39:58.459239 91530 layer_factory.hpp:77] Creating layer scale2c_branch2b
I0503 10:39:58.459246 91530 net.cpp:106] Creating Layer scale2c_branch2b
I0503 10:39:58.459251 91530 net.cpp:454] scale2c_branch2b <- res2c_branch2b
I0503 10:39:58.459256 91530 net.cpp:397] scale2c_branch2b -> res2c_branch2b (in-place)
I0503 10:39:58.459292 91530 layer_factory.hpp:77] Creating layer scale2c_branch2b
I0503 10:39:58.459391 91530 net.cpp:150] Setting up scale2c_branch2b
I0503 10:39:58.459400 91530 net.cpp:157] Top shape: 20 64 56 56 (4014080)
I0503 10:39:58.459404 91530 net.cpp:165] Memory required for data: 1778237520
I0503 10:39:58.459411 91530 layer_factory.hpp:77] Creating layer res2c_branch2b_relu
I0503 10:39:58.459420 91530 net.cpp:106] Creating Layer res2c_branch2b_relu
I0503 10:39:58.459424 91530 net.cpp:454] res2c_branch2b_relu <- res2c_branch2b
I0503 10:39:58.459430 91530 net.cpp:397] res2c_branch2b_relu -> res2c_branch2b (in-place)
I0503 10:39:58.459436 91530 net.cpp:150] Setting up res2c_branch2b_relu
I0503 10:39:58.459442 91530 net.cpp:157] Top shape: 20 64 56 56 (4014080)
I0503 10:39:58.459446 91530 net.cpp:165] Memory required for data: 1794293840
I0503 10:39:58.459450 91530 layer_factory.hpp:77] Creating layer res2c_branch2c
I0503 10:39:58.459460 91530 net.cpp:106] Creating Layer res2c_branch2c
I0503 10:39:58.459465 91530 net.cpp:454] res2c_branch2c <- res2c_branch2b
I0503 10:39:58.459473 91530 net.cpp:411] res2c_branch2c -> res2c_branch2c
I0503 10:39:58.459626 91530 net.cpp:150] Setting up res2c_branch2c
I0503 10:39:58.459635 91530 net.cpp:157] Top shape: 20 256 56 56 (16056320)
I0503 10:39:58.459640 91530 net.cpp:165] Memory required for data: 1858519120
I0503 10:39:58.459650 91530 layer_factory.hpp:77] Creating layer bn2c_branch2c
I0503 10:39:58.459657 91530 net.cpp:106] Creating Layer bn2c_branch2c
I0503 10:39:58.459661 91530 net.cpp:454] bn2c_branch2c <- res2c_branch2c
I0503 10:39:58.459667 91530 net.cpp:397] bn2c_branch2c -> res2c_branch2c (in-place)
I0503 10:39:58.459813 91530 net.cpp:150] Setting up bn2c_branch2c
I0503 10:39:58.459821 91530 net.cpp:157] Top shape: 20 256 56 56 (16056320)
I0503 10:39:58.459825 91530 net.cpp:165] Memory required for data: 1922744400
I0503 10:39:58.459844 91530 layer_factory.hpp:77] Creating layer scale2c_branch2c
I0503 10:39:58.459854 91530 net.cpp:106] Creating Layer scale2c_branch2c
I0503 10:39:58.459858 91530 net.cpp:454] scale2c_branch2c <- res2c_branch2c
I0503 10:39:58.459864 91530 net.cpp:397] scale2c_branch2c -> res2c_branch2c (in-place)
I0503 10:39:58.459902 91530 layer_factory.hpp:77] Creating layer scale2c_branch2c
I0503 10:39:58.460001 91530 net.cpp:150] Setting up scale2c_branch2c
I0503 10:39:58.460011 91530 net.cpp:157] Top shape: 20 256 56 56 (16056320)
I0503 10:39:58.460016 91530 net.cpp:165] Memory required for data: 1986969680
I0503 10:39:58.460022 91530 layer_factory.hpp:77] Creating layer res2c
I0503 10:39:58.460029 91530 net.cpp:106] Creating Layer res2c
I0503 10:39:58.460033 91530 net.cpp:454] res2c <- res2b_res2b_relu_0_split_1
I0503 10:39:58.460039 91530 net.cpp:454] res2c <- res2c_branch2c
I0503 10:39:58.460047 91530 net.cpp:411] res2c -> res2c
I0503 10:39:58.460068 91530 net.cpp:150] Setting up res2c
I0503 10:39:58.460075 91530 net.cpp:157] Top shape: 20 256 56 56 (16056320)
I0503 10:39:58.460079 91530 net.cpp:165] Memory required for data: 2051194960
I0503 10:39:58.460083 91530 layer_factory.hpp:77] Creating layer res2c_relu
I0503 10:39:58.460090 91530 net.cpp:106] Creating Layer res2c_relu
I0503 10:39:58.460094 91530 net.cpp:454] res2c_relu <- res2c
I0503 10:39:58.460099 91530 net.cpp:397] res2c_relu -> res2c (in-place)
I0503 10:39:58.460106 91530 net.cpp:150] Setting up res2c_relu
I0503 10:39:58.460113 91530 net.cpp:157] Top shape: 20 256 56 56 (16056320)
I0503 10:39:58.460116 91530 net.cpp:165] Memory required for data: 2115420240
I0503 10:39:58.460120 91530 layer_factory.hpp:77] Creating layer res2c_res2c_relu_0_split
I0503 10:39:58.460125 91530 net.cpp:106] Creating Layer res2c_res2c_relu_0_split
I0503 10:39:58.460130 91530 net.cpp:454] res2c_res2c_relu_0_split <- res2c
I0503 10:39:58.460137 91530 net.cpp:411] res2c_res2c_relu_0_split -> res2c_res2c_relu_0_split_0
I0503 10:39:58.460144 91530 net.cpp:411] res2c_res2c_relu_0_split -> res2c_res2c_relu_0_split_1
I0503 10:39:58.460171 91530 net.cpp:150] Setting up res2c_res2c_relu_0_split
I0503 10:39:58.460178 91530 net.cpp:157] Top shape: 20 256 56 56 (16056320)
I0503 10:39:58.460185 91530 net.cpp:157] Top shape: 20 256 56 56 (16056320)
I0503 10:39:58.460188 91530 net.cpp:165] Memory required for data: 2243870800
I0503 10:39:58.460192 91530 layer_factory.hpp:77] Creating layer res3a_branch1
I0503 10:39:58.460201 91530 net.cpp:106] Creating Layer res3a_branch1
I0503 10:39:58.460206 91530 net.cpp:454] res3a_branch1 <- res2c_res2c_relu_0_split_0
I0503 10:39:58.460212 91530 net.cpp:411] res3a_branch1 -> res3a_branch1
I0503 10:39:58.461055 91530 net.cpp:150] Setting up res3a_branch1
I0503 10:39:58.461073 91530 net.cpp:157] Top shape: 20 512 28 28 (8028160)
I0503 10:39:58.461091 91530 net.cpp:165] Memory required for data: 2275983440
I0503 10:39:58.461098 91530 layer_factory.hpp:77] Creating layer bn3a_branch1
I0503 10:39:58.461109 91530 net.cpp:106] Creating Layer bn3a_branch1
I0503 10:39:58.461115 91530 net.cpp:454] bn3a_branch1 <- res3a_branch1
I0503 10:39:58.461122 91530 net.cpp:397] bn3a_branch1 -> res3a_branch1 (in-place)
I0503 10:39:58.461763 91530 net.cpp:150] Setting up bn3a_branch1
I0503 10:39:58.461778 91530 net.cpp:157] Top shape: 20 512 28 28 (8028160)
I0503 10:39:58.461784 91530 net.cpp:165] Memory required for data: 2308096080
I0503 10:39:58.461796 91530 layer_factory.hpp:77] Creating layer scale3a_branch1
I0503 10:39:58.461809 91530 net.cpp:106] Creating Layer scale3a_branch1
I0503 10:39:58.461814 91530 net.cpp:454] scale3a_branch1 <- res3a_branch1
I0503 10:39:58.461822 91530 net.cpp:397] scale3a_branch1 -> res3a_branch1 (in-place)
I0503 10:39:58.461863 91530 layer_factory.hpp:77] Creating layer scale3a_branch1
I0503 10:39:58.461956 91530 net.cpp:150] Setting up scale3a_branch1
I0503 10:39:58.461964 91530 net.cpp:157] Top shape: 20 512 28 28 (8028160)
I0503 10:39:58.461969 91530 net.cpp:165] Memory required for data: 2340208720
I0503 10:39:58.461977 91530 layer_factory.hpp:77] Creating layer res3a_branch2a
I0503 10:39:58.461987 91530 net.cpp:106] Creating Layer res3a_branch2a
I0503 10:39:58.461992 91530 net.cpp:454] res3a_branch2a <- res2c_res2c_relu_0_split_1
I0503 10:39:58.461998 91530 net.cpp:411] res3a_branch2a -> res3a_branch2a
I0503 10:39:58.462175 91530 net.cpp:150] Setting up res3a_branch2a
I0503 10:39:58.462184 91530 net.cpp:157] Top shape: 20 128 28 28 (2007040)
I0503 10:39:58.462189 91530 net.cpp:165] Memory required for data: 2348236880
I0503 10:39:58.462195 91530 layer_factory.hpp:77] Creating layer bn3a_branch2a
I0503 10:39:58.462204 91530 net.cpp:106] Creating Layer bn3a_branch2a
I0503 10:39:58.462209 91530 net.cpp:454] bn3a_branch2a <- res3a_branch2a
I0503 10:39:58.462216 91530 net.cpp:397] bn3a_branch2a -> res3a_branch2a (in-place)
I0503 10:39:58.462368 91530 net.cpp:150] Setting up bn3a_branch2a
I0503 10:39:58.462376 91530 net.cpp:157] Top shape: 20 128 28 28 (2007040)
I0503 10:39:58.462381 91530 net.cpp:165] Memory required for data: 2356265040
I0503 10:39:58.462389 91530 layer_factory.hpp:77] Creating layer scale3a_branch2a
I0503 10:39:58.462396 91530 net.cpp:106] Creating Layer scale3a_branch2a
I0503 10:39:58.462400 91530 net.cpp:454] scale3a_branch2a <- res3a_branch2a
I0503 10:39:58.462406 91530 net.cpp:397] scale3a_branch2a -> res3a_branch2a (in-place)
I0503 10:39:58.462440 91530 layer_factory.hpp:77] Creating layer scale3a_branch2a
I0503 10:39:58.462530 91530 net.cpp:150] Setting up scale3a_branch2a
I0503 10:39:58.462539 91530 net.cpp:157] Top shape: 20 128 28 28 (2007040)
I0503 10:39:58.462543 91530 net.cpp:165] Memory required for data: 2364293200
I0503 10:39:58.462549 91530 layer_factory.hpp:77] Creating layer res3a_branch2a_relu
I0503 10:39:58.462556 91530 net.cpp:106] Creating Layer res3a_branch2a_relu
I0503 10:39:58.462560 91530 net.cpp:454] res3a_branch2a_relu <- res3a_branch2a
I0503 10:39:58.462568 91530 net.cpp:397] res3a_branch2a_relu -> res3a_branch2a (in-place)
I0503 10:39:58.462575 91530 net.cpp:150] Setting up res3a_branch2a_relu
I0503 10:39:58.462581 91530 net.cpp:157] Top shape: 20 128 28 28 (2007040)
I0503 10:39:58.462585 91530 net.cpp:165] Memory required for data: 2372321360
I0503 10:39:58.462589 91530 layer_factory.hpp:77] Creating layer res3a_branch2b
I0503 10:39:58.462596 91530 net.cpp:106] Creating Layer res3a_branch2b
I0503 10:39:58.462601 91530 net.cpp:454] res3a_branch2b <- res3a_branch2a
I0503 10:39:58.462609 91530 net.cpp:411] res3a_branch2b -> res3a_branch2b
I0503 10:39:58.463338 91530 net.cpp:150] Setting up res3a_branch2b
I0503 10:39:58.463354 91530 net.cpp:157] Top shape: 20 128 28 28 (2007040)
I0503 10:39:58.463359 91530 net.cpp:165] Memory required for data: 2380349520
I0503 10:39:58.463366 91530 layer_factory.hpp:77] Creating layer bn3a_branch2b
I0503 10:39:58.463372 91530 net.cpp:106] Creating Layer bn3a_branch2b
I0503 10:39:58.463377 91530 net.cpp:454] bn3a_branch2b <- res3a_branch2b
I0503 10:39:58.463383 91530 net.cpp:397] bn3a_branch2b -> res3a_branch2b (in-place)
I0503 10:39:58.463542 91530 net.cpp:150] Setting up bn3a_branch2b
I0503 10:39:58.463551 91530 net.cpp:157] Top shape: 20 128 28 28 (2007040)
I0503 10:39:58.463557 91530 net.cpp:165] Memory required for data: 2388377680
I0503 10:39:58.463565 91530 layer_factory.hpp:77] Creating layer scale3a_branch2b
I0503 10:39:58.463572 91530 net.cpp:106] Creating Layer scale3a_branch2b
I0503 10:39:58.463577 91530 net.cpp:454] scale3a_branch2b <- res3a_branch2b
I0503 10:39:58.463582 91530 net.cpp:397] scale3a_branch2b -> res3a_branch2b (in-place)
I0503 10:39:58.463625 91530 layer_factory.hpp:77] Creating layer scale3a_branch2b
I0503 10:39:58.463719 91530 net.cpp:150] Setting up scale3a_branch2b
I0503 10:39:58.463727 91530 net.cpp:157] Top shape: 20 128 28 28 (2007040)
I0503 10:39:58.463732 91530 net.cpp:165] Memory required for data: 2396405840
I0503 10:39:58.463739 91530 layer_factory.hpp:77] Creating layer res3a_branch2b_relu
I0503 10:39:58.463747 91530 net.cpp:106] Creating Layer res3a_branch2b_relu
I0503 10:39:58.463752 91530 net.cpp:454] res3a_branch2b_relu <- res3a_branch2b
I0503 10:39:58.463758 91530 net.cpp:397] res3a_branch2b_relu -> res3a_branch2b (in-place)
I0503 10:39:58.463764 91530 net.cpp:150] Setting up res3a_branch2b_relu
I0503 10:39:58.463770 91530 net.cpp:157] Top shape: 20 128 28 28 (2007040)
I0503 10:39:58.463774 91530 net.cpp:165] Memory required for data: 2404434000
I0503 10:39:58.463778 91530 layer_factory.hpp:77] Creating layer res3a_branch2c
I0503 10:39:58.463788 91530 net.cpp:106] Creating Layer res3a_branch2c
I0503 10:39:58.463791 91530 net.cpp:454] res3a_branch2c <- res3a_branch2b
I0503 10:39:58.463798 91530 net.cpp:411] res3a_branch2c -> res3a_branch2c
I0503 10:39:58.464006 91530 net.cpp:150] Setting up res3a_branch2c
I0503 10:39:58.464016 91530 net.cpp:157] Top shape: 20 512 28 28 (8028160)
I0503 10:39:58.464020 91530 net.cpp:165] Memory required for data: 2436546640
I0503 10:39:58.464026 91530 layer_factory.hpp:77] Creating layer bn3a_branch2c
I0503 10:39:58.464042 91530 net.cpp:106] Creating Layer bn3a_branch2c
I0503 10:39:58.464048 91530 net.cpp:454] bn3a_branch2c <- res3a_branch2c
I0503 10:39:58.464054 91530 net.cpp:397] bn3a_branch2c -> res3a_branch2c (in-place)
I0503 10:39:58.464207 91530 net.cpp:150] Setting up bn3a_branch2c
I0503 10:39:58.464215 91530 net.cpp:157] Top shape: 20 512 28 28 (8028160)
I0503 10:39:58.464221 91530 net.cpp:165] Memory required for data: 2468659280
I0503 10:39:58.464229 91530 layer_factory.hpp:77] Creating layer scale3a_branch2c
I0503 10:39:58.464237 91530 net.cpp:106] Creating Layer scale3a_branch2c
I0503 10:39:58.464242 91530 net.cpp:454] scale3a_branch2c <- res3a_branch2c
I0503 10:39:58.464248 91530 net.cpp:397] scale3a_branch2c -> res3a_branch2c (in-place)
I0503 10:39:58.464284 91530 layer_factory.hpp:77] Creating layer scale3a_branch2c
I0503 10:39:58.464373 91530 net.cpp:150] Setting up scale3a_branch2c
I0503 10:39:58.464381 91530 net.cpp:157] Top shape: 20 512 28 28 (8028160)
I0503 10:39:58.464386 91530 net.cpp:165] Memory required for data: 2500771920
I0503 10:39:58.464393 91530 layer_factory.hpp:77] Creating layer res3a
I0503 10:39:58.464401 91530 net.cpp:106] Creating Layer res3a
I0503 10:39:58.464404 91530 net.cpp:454] res3a <- res3a_branch1
I0503 10:39:58.464409 91530 net.cpp:454] res3a <- res3a_branch2c
I0503 10:39:58.464417 91530 net.cpp:411] res3a -> res3a
I0503 10:39:58.464452 91530 net.cpp:150] Setting up res3a
I0503 10:39:58.464465 91530 net.cpp:157] Top shape: 20 512 28 28 (8028160)
I0503 10:39:58.464473 91530 net.cpp:165] Memory required for data: 2532884560
I0503 10:39:58.464479 91530 layer_factory.hpp:77] Creating layer res3a_relu
I0503 10:39:58.464488 91530 net.cpp:106] Creating Layer res3a_relu
I0503 10:39:58.464495 91530 net.cpp:454] res3a_relu <- res3a
I0503 10:39:58.464504 91530 net.cpp:397] res3a_relu -> res3a (in-place)
I0503 10:39:58.464514 91530 net.cpp:150] Setting up res3a_relu
I0503 10:39:58.464521 91530 net.cpp:157] Top shape: 20 512 28 28 (8028160)
I0503 10:39:58.464526 91530 net.cpp:165] Memory required for data: 2564997200
I0503 10:39:58.464530 91530 layer_factory.hpp:77] Creating layer res3a_res3a_relu_0_split
I0503 10:39:58.464540 91530 net.cpp:106] Creating Layer res3a_res3a_relu_0_split
I0503 10:39:58.464543 91530 net.cpp:454] res3a_res3a_relu_0_split <- res3a
I0503 10:39:58.464550 91530 net.cpp:411] res3a_res3a_relu_0_split -> res3a_res3a_relu_0_split_0
I0503 10:39:58.464556 91530 net.cpp:411] res3a_res3a_relu_0_split -> res3a_res3a_relu_0_split_1
I0503 10:39:58.464589 91530 net.cpp:150] Setting up res3a_res3a_relu_0_split
I0503 10:39:58.464601 91530 net.cpp:157] Top shape: 20 512 28 28 (8028160)
I0503 10:39:58.464607 91530 net.cpp:157] Top shape: 20 512 28 28 (8028160)
I0503 10:39:58.464612 91530 net.cpp:165] Memory required for data: 2629222480
I0503 10:39:58.464615 91530 layer_factory.hpp:77] Creating layer res3b_branch2a
I0503 10:39:58.464623 91530 net.cpp:106] Creating Layer res3b_branch2a
I0503 10:39:58.464627 91530 net.cpp:454] res3b_branch2a <- res3a_res3a_relu_0_split_0
I0503 10:39:58.464633 91530 net.cpp:411] res3b_branch2a -> res3b_branch2a
I0503 10:39:58.466503 91530 net.cpp:150] Setting up res3b_branch2a
I0503 10:39:58.466522 91530 net.cpp:157] Top shape: 20 128 28 28 (2007040)
I0503 10:39:58.466527 91530 net.cpp:165] Memory required for data: 2637250640
I0503 10:39:58.466534 91530 layer_factory.hpp:77] Creating layer bn3b_branch2a
I0503 10:39:58.466542 91530 net.cpp:106] Creating Layer bn3b_branch2a
I0503 10:39:58.466547 91530 net.cpp:454] bn3b_branch2a <- res3b_branch2a
I0503 10:39:58.466553 91530 net.cpp:397] bn3b_branch2a -> res3b_branch2a (in-place)
I0503 10:39:58.466713 91530 net.cpp:150] Setting up bn3b_branch2a
I0503 10:39:58.466723 91530 net.cpp:157] Top shape: 20 128 28 28 (2007040)
I0503 10:39:58.466728 91530 net.cpp:165] Memory required for data: 2645278800
I0503 10:39:58.466737 91530 layer_factory.hpp:77] Creating layer scale3b_branch2a
I0503 10:39:58.466744 91530 net.cpp:106] Creating Layer scale3b_branch2a
I0503 10:39:58.466749 91530 net.cpp:454] scale3b_branch2a <- res3b_branch2a
I0503 10:39:58.466754 91530 net.cpp:397] scale3b_branch2a -> res3b_branch2a (in-place)
I0503 10:39:58.466791 91530 layer_factory.hpp:77] Creating layer scale3b_branch2a
I0503 10:39:58.466887 91530 net.cpp:150] Setting up scale3b_branch2a
I0503 10:39:58.466895 91530 net.cpp:157] Top shape: 20 128 28 28 (2007040)
I0503 10:39:58.466900 91530 net.cpp:165] Memory required for data: 2653306960
I0503 10:39:58.466907 91530 layer_factory.hpp:77] Creating layer res3b_branch2a_relu
I0503 10:39:58.466915 91530 net.cpp:106] Creating Layer res3b_branch2a_relu
I0503 10:39:58.466920 91530 net.cpp:454] res3b_branch2a_relu <- res3b_branch2a
I0503 10:39:58.466925 91530 net.cpp:397] res3b_branch2a_relu -> res3b_branch2a (in-place)
I0503 10:39:58.466933 91530 net.cpp:150] Setting up res3b_branch2a_relu
I0503 10:39:58.466938 91530 net.cpp:157] Top shape: 20 128 28 28 (2007040)
I0503 10:39:58.466943 91530 net.cpp:165] Memory required for data: 2661335120
I0503 10:39:58.466946 91530 layer_factory.hpp:77] Creating layer res3b_branch2b
I0503 10:39:58.466955 91530 net.cpp:106] Creating Layer res3b_branch2b
I0503 10:39:58.466960 91530 net.cpp:454] res3b_branch2b <- res3b_branch2a
I0503 10:39:58.466966 91530 net.cpp:411] res3b_branch2b -> res3b_branch2b
I0503 10:39:58.467727 91530 net.cpp:150] Setting up res3b_branch2b
I0503 10:39:58.467743 91530 net.cpp:157] Top shape: 20 128 28 28 (2007040)
I0503 10:39:58.467748 91530 net.cpp:165] Memory required for data: 2669363280
I0503 10:39:58.467754 91530 layer_factory.hpp:77] Creating layer bn3b_branch2b
I0503 10:39:58.467762 91530 net.cpp:106] Creating Layer bn3b_branch2b
I0503 10:39:58.467767 91530 net.cpp:454] bn3b_branch2b <- res3b_branch2b
I0503 10:39:58.467773 91530 net.cpp:397] bn3b_branch2b -> res3b_branch2b (in-place)
I0503 10:39:58.467933 91530 net.cpp:150] Setting up bn3b_branch2b
I0503 10:39:58.467942 91530 net.cpp:157] Top shape: 20 128 28 28 (2007040)
I0503 10:39:58.467947 91530 net.cpp:165] Memory required for data: 2677391440
I0503 10:39:58.467955 91530 layer_factory.hpp:77] Creating layer scale3b_branch2b
I0503 10:39:58.467965 91530 net.cpp:106] Creating Layer scale3b_branch2b
I0503 10:39:58.467969 91530 net.cpp:454] scale3b_branch2b <- res3b_branch2b
I0503 10:39:58.467975 91530 net.cpp:397] scale3b_branch2b -> res3b_branch2b (in-place)
I0503 10:39:58.468013 91530 layer_factory.hpp:77] Creating layer scale3b_branch2b
I0503 10:39:58.468106 91530 net.cpp:150] Setting up scale3b_branch2b
I0503 10:39:58.468114 91530 net.cpp:157] Top shape: 20 128 28 28 (2007040)
I0503 10:39:58.468119 91530 net.cpp:165] Memory required for data: 2685419600
I0503 10:39:58.468132 91530 layer_factory.hpp:77] Creating layer res3b_branch2b_relu
I0503 10:39:58.468139 91530 net.cpp:106] Creating Layer res3b_branch2b_relu
I0503 10:39:58.468144 91530 net.cpp:454] res3b_branch2b_relu <- res3b_branch2b
I0503 10:39:58.468152 91530 net.cpp:397] res3b_branch2b_relu -> res3b_branch2b (in-place)
I0503 10:39:58.468158 91530 net.cpp:150] Setting up res3b_branch2b_relu
I0503 10:39:58.468164 91530 net.cpp:157] Top shape: 20 128 28 28 (2007040)
I0503 10:39:58.468168 91530 net.cpp:165] Memory required for data: 2693447760
I0503 10:39:58.468173 91530 layer_factory.hpp:77] Creating layer res3b_branch2c
I0503 10:39:58.468183 91530 net.cpp:106] Creating Layer res3b_branch2c
I0503 10:39:58.468186 91530 net.cpp:454] res3b_branch2c <- res3b_branch2b
I0503 10:39:58.468192 91530 net.cpp:411] res3b_branch2c -> res3b_branch2c
I0503 10:39:58.468405 91530 net.cpp:150] Setting up res3b_branch2c
I0503 10:39:58.468413 91530 net.cpp:157] Top shape: 20 512 28 28 (8028160)
I0503 10:39:58.468418 91530 net.cpp:165] Memory required for data: 2725560400
I0503 10:39:58.468423 91530 layer_factory.hpp:77] Creating layer bn3b_branch2c
I0503 10:39:58.468430 91530 net.cpp:106] Creating Layer bn3b_branch2c
I0503 10:39:58.468444 91530 net.cpp:454] bn3b_branch2c <- res3b_branch2c
I0503 10:39:58.468458 91530 net.cpp:397] bn3b_branch2c -> res3b_branch2c (in-place)
I0503 10:39:58.468649 91530 net.cpp:150] Setting up bn3b_branch2c
I0503 10:39:58.468659 91530 net.cpp:157] Top shape: 20 512 28 28 (8028160)
I0503 10:39:58.468664 91530 net.cpp:165] Memory required for data: 2757673040
I0503 10:39:58.468672 91530 layer_factory.hpp:77] Creating layer scale3b_branch2c
I0503 10:39:58.468684 91530 net.cpp:106] Creating Layer scale3b_branch2c
I0503 10:39:58.468689 91530 net.cpp:454] scale3b_branch2c <- res3b_branch2c
I0503 10:39:58.468695 91530 net.cpp:397] scale3b_branch2c -> res3b_branch2c (in-place)
I0503 10:39:58.468734 91530 layer_factory.hpp:77] Creating layer scale3b_branch2c
I0503 10:39:58.468827 91530 net.cpp:150] Setting up scale3b_branch2c
I0503 10:39:58.468835 91530 net.cpp:157] Top shape: 20 512 28 28 (8028160)
I0503 10:39:58.468839 91530 net.cpp:165] Memory required for data: 2789785680
I0503 10:39:58.468847 91530 layer_factory.hpp:77] Creating layer res3b
I0503 10:39:58.468853 91530 net.cpp:106] Creating Layer res3b
I0503 10:39:58.468859 91530 net.cpp:454] res3b <- res3a_res3a_relu_0_split_1
I0503 10:39:58.468865 91530 net.cpp:454] res3b <- res3b_branch2c
I0503 10:39:58.468871 91530 net.cpp:411] res3b -> res3b
I0503 10:39:58.468894 91530 net.cpp:150] Setting up res3b
I0503 10:39:58.468901 91530 net.cpp:157] Top shape: 20 512 28 28 (8028160)
I0503 10:39:58.468905 91530 net.cpp:165] Memory required for data: 2821898320
I0503 10:39:58.468909 91530 layer_factory.hpp:77] Creating layer res3b_relu
I0503 10:39:58.468917 91530 net.cpp:106] Creating Layer res3b_relu
I0503 10:39:58.468922 91530 net.cpp:454] res3b_relu <- res3b
I0503 10:39:58.468929 91530 net.cpp:397] res3b_relu -> res3b (in-place)
I0503 10:39:58.468936 91530 net.cpp:150] Setting up res3b_relu
I0503 10:39:58.468941 91530 net.cpp:157] Top shape: 20 512 28 28 (8028160)
I0503 10:39:58.468945 91530 net.cpp:165] Memory required for data: 2854010960
I0503 10:39:58.468950 91530 layer_factory.hpp:77] Creating layer res3b_res3b_relu_0_split
I0503 10:39:58.468956 91530 net.cpp:106] Creating Layer res3b_res3b_relu_0_split
I0503 10:39:58.468961 91530 net.cpp:454] res3b_res3b_relu_0_split <- res3b
I0503 10:39:58.468966 91530 net.cpp:411] res3b_res3b_relu_0_split -> res3b_res3b_relu_0_split_0
I0503 10:39:58.468972 91530 net.cpp:411] res3b_res3b_relu_0_split -> res3b_res3b_relu_0_split_1
I0503 10:39:58.469005 91530 net.cpp:150] Setting up res3b_res3b_relu_0_split
I0503 10:39:58.469012 91530 net.cpp:157] Top shape: 20 512 28 28 (8028160)
I0503 10:39:58.469018 91530 net.cpp:157] Top shape: 20 512 28 28 (8028160)
I0503 10:39:58.469022 91530 net.cpp:165] Memory required for data: 2918236240
I0503 10:39:58.469027 91530 layer_factory.hpp:77] Creating layer res3c_branch2a
I0503 10:39:58.469043 91530 net.cpp:106] Creating Layer res3c_branch2a
I0503 10:39:58.469048 91530 net.cpp:454] res3c_branch2a <- res3b_res3b_relu_0_split_0
I0503 10:39:58.469054 91530 net.cpp:411] res3c_branch2a -> res3c_branch2a
I0503 10:39:58.469265 91530 net.cpp:150] Setting up res3c_branch2a
I0503 10:39:58.469274 91530 net.cpp:157] Top shape: 20 128 28 28 (2007040)
I0503 10:39:58.469279 91530 net.cpp:165] Memory required for data: 2926264400
I0503 10:39:58.469285 91530 layer_factory.hpp:77] Creating layer bn3c_branch2a
I0503 10:39:58.469291 91530 net.cpp:106] Creating Layer bn3c_branch2a
I0503 10:39:58.469295 91530 net.cpp:454] bn3c_branch2a <- res3c_branch2a
I0503 10:39:58.469301 91530 net.cpp:397] bn3c_branch2a -> res3c_branch2a (in-place)
I0503 10:39:58.469454 91530 net.cpp:150] Setting up bn3c_branch2a
I0503 10:39:58.469461 91530 net.cpp:157] Top shape: 20 128 28 28 (2007040)
I0503 10:39:58.469466 91530 net.cpp:165] Memory required for data: 2934292560
I0503 10:39:58.469475 91530 layer_factory.hpp:77] Creating layer scale3c_branch2a
I0503 10:39:58.469482 91530 net.cpp:106] Creating Layer scale3c_branch2a
I0503 10:39:58.469487 91530 net.cpp:454] scale3c_branch2a <- res3c_branch2a
I0503 10:39:58.469492 91530 net.cpp:397] scale3c_branch2a -> res3c_branch2a (in-place)
I0503 10:39:58.469528 91530 layer_factory.hpp:77] Creating layer scale3c_branch2a
I0503 10:39:58.469624 91530 net.cpp:150] Setting up scale3c_branch2a
I0503 10:39:58.469631 91530 net.cpp:157] Top shape: 20 128 28 28 (2007040)
I0503 10:39:58.469635 91530 net.cpp:165] Memory required for data: 2942320720
I0503 10:39:58.469642 91530 layer_factory.hpp:77] Creating layer res3c_branch2a_relu
I0503 10:39:58.469648 91530 net.cpp:106] Creating Layer res3c_branch2a_relu
I0503 10:39:58.469652 91530 net.cpp:454] res3c_branch2a_relu <- res3c_branch2a
I0503 10:39:58.469662 91530 net.cpp:397] res3c_branch2a_relu -> res3c_branch2a (in-place)
I0503 10:39:58.469669 91530 net.cpp:150] Setting up res3c_branch2a_relu
I0503 10:39:58.469676 91530 net.cpp:157] Top shape: 20 128 28 28 (2007040)
I0503 10:39:58.469679 91530 net.cpp:165] Memory required for data: 2950348880
I0503 10:39:58.469683 91530 layer_factory.hpp:77] Creating layer res3c_branch2b
I0503 10:39:58.469692 91530 net.cpp:106] Creating Layer res3c_branch2b
I0503 10:39:58.469697 91530 net.cpp:454] res3c_branch2b <- res3c_branch2a
I0503 10:39:58.469703 91530 net.cpp:411] res3c_branch2b -> res3c_branch2b
I0503 10:39:58.470479 91530 net.cpp:150] Setting up res3c_branch2b
I0503 10:39:58.470495 91530 net.cpp:157] Top shape: 20 128 28 28 (2007040)
I0503 10:39:58.470500 91530 net.cpp:165] Memory required for data: 2958377040
I0503 10:39:58.470507 91530 layer_factory.hpp:77] Creating layer bn3c_branch2b
I0503 10:39:58.470516 91530 net.cpp:106] Creating Layer bn3c_branch2b
I0503 10:39:58.470521 91530 net.cpp:454] bn3c_branch2b <- res3c_branch2b
I0503 10:39:58.470527 91530 net.cpp:397] bn3c_branch2b -> res3c_branch2b (in-place)
I0503 10:39:58.470685 91530 net.cpp:150] Setting up bn3c_branch2b
I0503 10:39:58.470695 91530 net.cpp:157] Top shape: 20 128 28 28 (2007040)
I0503 10:39:58.470700 91530 net.cpp:165] Memory required for data: 2966405200
I0503 10:39:58.470707 91530 layer_factory.hpp:77] Creating layer scale3c_branch2b
I0503 10:39:58.470716 91530 net.cpp:106] Creating Layer scale3c_branch2b
I0503 10:39:58.470721 91530 net.cpp:454] scale3c_branch2b <- res3c_branch2b
I0503 10:39:58.470726 91530 net.cpp:397] scale3c_branch2b -> res3c_branch2b (in-place)
I0503 10:39:58.470764 91530 layer_factory.hpp:77] Creating layer scale3c_branch2b
I0503 10:39:58.470862 91530 net.cpp:150] Setting up scale3c_branch2b
I0503 10:39:58.470871 91530 net.cpp:157] Top shape: 20 128 28 28 (2007040)
I0503 10:39:58.470875 91530 net.cpp:165] Memory required for data: 2974433360
I0503 10:39:58.470882 91530 layer_factory.hpp:77] Creating layer res3c_branch2b_relu
I0503 10:39:58.470890 91530 net.cpp:106] Creating Layer res3c_branch2b_relu
I0503 10:39:58.470893 91530 net.cpp:454] res3c_branch2b_relu <- res3c_branch2b
I0503 10:39:58.470904 91530 net.cpp:397] res3c_branch2b_relu -> res3c_branch2b (in-place)
I0503 10:39:58.470911 91530 net.cpp:150] Setting up res3c_branch2b_relu
I0503 10:39:58.470917 91530 net.cpp:157] Top shape: 20 128 28 28 (2007040)
I0503 10:39:58.470921 91530 net.cpp:165] Memory required for data: 2982461520
I0503 10:39:58.470926 91530 layer_factory.hpp:77] Creating layer res3c_branch2c
I0503 10:39:58.470935 91530 net.cpp:106] Creating Layer res3c_branch2c
I0503 10:39:58.470939 91530 net.cpp:454] res3c_branch2c <- res3c_branch2b
I0503 10:39:58.470947 91530 net.cpp:411] res3c_branch2c -> res3c_branch2c
I0503 10:39:58.471153 91530 net.cpp:150] Setting up res3c_branch2c
I0503 10:39:58.471161 91530 net.cpp:157] Top shape: 20 512 28 28 (8028160)
I0503 10:39:58.471165 91530 net.cpp:165] Memory required for data: 3014574160
I0503 10:39:58.471171 91530 layer_factory.hpp:77] Creating layer bn3c_branch2c
I0503 10:39:58.471179 91530 net.cpp:106] Creating Layer bn3c_branch2c
I0503 10:39:58.471182 91530 net.cpp:454] bn3c_branch2c <- res3c_branch2c
I0503 10:39:58.471189 91530 net.cpp:397] bn3c_branch2c -> res3c_branch2c (in-place)
I0503 10:39:58.471351 91530 net.cpp:150] Setting up bn3c_branch2c
I0503 10:39:58.471359 91530 net.cpp:157] Top shape: 20 512 28 28 (8028160)
I0503 10:39:58.471364 91530 net.cpp:165] Memory required for data: 3046686800
I0503 10:39:58.471372 91530 layer_factory.hpp:77] Creating layer scale3c_branch2c
I0503 10:39:58.471380 91530 net.cpp:106] Creating Layer scale3c_branch2c
I0503 10:39:58.471385 91530 net.cpp:454] scale3c_branch2c <- res3c_branch2c
I0503 10:39:58.471391 91530 net.cpp:397] scale3c_branch2c -> res3c_branch2c (in-place)
I0503 10:39:58.471431 91530 layer_factory.hpp:77] Creating layer scale3c_branch2c
I0503 10:39:58.471529 91530 net.cpp:150] Setting up scale3c_branch2c
I0503 10:39:58.471536 91530 net.cpp:157] Top shape: 20 512 28 28 (8028160)
I0503 10:39:58.471541 91530 net.cpp:165] Memory required for data: 3078799440
I0503 10:39:58.471549 91530 layer_factory.hpp:77] Creating layer res3c
I0503 10:39:58.471554 91530 net.cpp:106] Creating Layer res3c
I0503 10:39:58.471560 91530 net.cpp:454] res3c <- res3b_res3b_relu_0_split_1
I0503 10:39:58.471566 91530 net.cpp:454] res3c <- res3c_branch2c
I0503 10:39:58.471573 91530 net.cpp:411] res3c -> res3c
I0503 10:39:58.471596 91530 net.cpp:150] Setting up res3c
I0503 10:39:58.471603 91530 net.cpp:157] Top shape: 20 512 28 28 (8028160)
I0503 10:39:58.471607 91530 net.cpp:165] Memory required for data: 3110912080
I0503 10:39:58.471611 91530 layer_factory.hpp:77] Creating layer res3c_relu
I0503 10:39:58.471617 91530 net.cpp:106] Creating Layer res3c_relu
I0503 10:39:58.471622 91530 net.cpp:454] res3c_relu <- res3c
I0503 10:39:58.471627 91530 net.cpp:397] res3c_relu -> res3c (in-place)
I0503 10:39:58.471633 91530 net.cpp:150] Setting up res3c_relu
I0503 10:39:58.471639 91530 net.cpp:157] Top shape: 20 512 28 28 (8028160)
I0503 10:39:58.471643 91530 net.cpp:165] Memory required for data: 3143024720
I0503 10:39:58.471647 91530 layer_factory.hpp:77] Creating layer res3c_res3c_relu_0_split
I0503 10:39:58.471654 91530 net.cpp:106] Creating Layer res3c_res3c_relu_0_split
I0503 10:39:58.471659 91530 net.cpp:454] res3c_res3c_relu_0_split <- res3c
I0503 10:39:58.471664 91530 net.cpp:411] res3c_res3c_relu_0_split -> res3c_res3c_relu_0_split_0
I0503 10:39:58.471671 91530 net.cpp:411] res3c_res3c_relu_0_split -> res3c_res3c_relu_0_split_1
I0503 10:39:58.471704 91530 net.cpp:150] Setting up res3c_res3c_relu_0_split
I0503 10:39:58.471711 91530 net.cpp:157] Top shape: 20 512 28 28 (8028160)
I0503 10:39:58.471716 91530 net.cpp:157] Top shape: 20 512 28 28 (8028160)
I0503 10:39:58.471720 91530 net.cpp:165] Memory required for data: 3207250000
I0503 10:39:58.471725 91530 layer_factory.hpp:77] Creating layer res3d_branch2a
I0503 10:39:58.471732 91530 net.cpp:106] Creating Layer res3d_branch2a
I0503 10:39:58.471736 91530 net.cpp:454] res3d_branch2a <- res3c_res3c_relu_0_split_0
I0503 10:39:58.471742 91530 net.cpp:411] res3d_branch2a -> res3d_branch2a
I0503 10:39:58.472440 91530 net.cpp:150] Setting up res3d_branch2a
I0503 10:39:58.472467 91530 net.cpp:157] Top shape: 20 128 28 28 (2007040)
I0503 10:39:58.472476 91530 net.cpp:165] Memory required for data: 3215278160
I0503 10:39:58.472486 91530 layer_factory.hpp:77] Creating layer bn3d_branch2a
I0503 10:39:58.472496 91530 net.cpp:106] Creating Layer bn3d_branch2a
I0503 10:39:58.472504 91530 net.cpp:454] bn3d_branch2a <- res3d_branch2a
I0503 10:39:58.472513 91530 net.cpp:397] bn3d_branch2a -> res3d_branch2a (in-place)
I0503 10:39:58.472676 91530 net.cpp:150] Setting up bn3d_branch2a
I0503 10:39:58.472684 91530 net.cpp:157] Top shape: 20 128 28 28 (2007040)
I0503 10:39:58.472688 91530 net.cpp:165] Memory required for data: 3223306320
I0503 10:39:58.472721 91530 layer_factory.hpp:77] Creating layer scale3d_branch2a
I0503 10:39:58.472731 91530 net.cpp:106] Creating Layer scale3d_branch2a
I0503 10:39:58.472739 91530 net.cpp:454] scale3d_branch2a <- res3d_branch2a
I0503 10:39:58.472748 91530 net.cpp:397] scale3d_branch2a -> res3d_branch2a (in-place)
I0503 10:39:58.472803 91530 layer_factory.hpp:77] Creating layer scale3d_branch2a
I0503 10:39:58.472914 91530 net.cpp:150] Setting up scale3d_branch2a
I0503 10:39:58.472924 91530 net.cpp:157] Top shape: 20 128 28 28 (2007040)
I0503 10:39:58.472929 91530 net.cpp:165] Memory required for data: 3231334480
I0503 10:39:58.472936 91530 layer_factory.hpp:77] Creating layer res3d_branch2a_relu
I0503 10:39:58.472944 91530 net.cpp:106] Creating Layer res3d_branch2a_relu
I0503 10:39:58.472947 91530 net.cpp:454] res3d_branch2a_relu <- res3d_branch2a
I0503 10:39:58.472954 91530 net.cpp:397] res3d_branch2a_relu -> res3d_branch2a (in-place)
I0503 10:39:58.472960 91530 net.cpp:150] Setting up res3d_branch2a_relu
I0503 10:39:58.472966 91530 net.cpp:157] Top shape: 20 128 28 28 (2007040)
I0503 10:39:58.472970 91530 net.cpp:165] Memory required for data: 3239362640
I0503 10:39:58.472975 91530 layer_factory.hpp:77] Creating layer res3d_branch2b
I0503 10:39:58.472983 91530 net.cpp:106] Creating Layer res3d_branch2b
I0503 10:39:58.472988 91530 net.cpp:454] res3d_branch2b <- res3d_branch2a
I0503 10:39:58.472995 91530 net.cpp:411] res3d_branch2b -> res3d_branch2b
I0503 10:39:58.473726 91530 net.cpp:150] Setting up res3d_branch2b
I0503 10:39:58.473742 91530 net.cpp:157] Top shape: 20 128 28 28 (2007040)
I0503 10:39:58.473747 91530 net.cpp:165] Memory required for data: 3247390800
I0503 10:39:58.473753 91530 layer_factory.hpp:77] Creating layer bn3d_branch2b
I0503 10:39:58.473762 91530 net.cpp:106] Creating Layer bn3d_branch2b
I0503 10:39:58.473768 91530 net.cpp:454] bn3d_branch2b <- res3d_branch2b
I0503 10:39:58.473774 91530 net.cpp:397] bn3d_branch2b -> res3d_branch2b (in-place)
I0503 10:39:58.473933 91530 net.cpp:150] Setting up bn3d_branch2b
I0503 10:39:58.473942 91530 net.cpp:157] Top shape: 20 128 28 28 (2007040)
I0503 10:39:58.473947 91530 net.cpp:165] Memory required for data: 3255418960
I0503 10:39:58.473954 91530 layer_factory.hpp:77] Creating layer scale3d_branch2b
I0503 10:39:58.473961 91530 net.cpp:106] Creating Layer scale3d_branch2b
I0503 10:39:58.473966 91530 net.cpp:454] scale3d_branch2b <- res3d_branch2b
I0503 10:39:58.473974 91530 net.cpp:397] scale3d_branch2b -> res3d_branch2b (in-place)
I0503 10:39:58.474009 91530 layer_factory.hpp:77] Creating layer scale3d_branch2b
I0503 10:39:58.474104 91530 net.cpp:150] Setting up scale3d_branch2b
I0503 10:39:58.474115 91530 net.cpp:157] Top shape: 20 128 28 28 (2007040)
I0503 10:39:58.474119 91530 net.cpp:165] Memory required for data: 3263447120
I0503 10:39:58.474126 91530 layer_factory.hpp:77] Creating layer res3d_branch2b_relu
I0503 10:39:58.474133 91530 net.cpp:106] Creating Layer res3d_branch2b_relu
I0503 10:39:58.474138 91530 net.cpp:454] res3d_branch2b_relu <- res3d_branch2b
I0503 10:39:58.474143 91530 net.cpp:397] res3d_branch2b_relu -> res3d_branch2b (in-place)
I0503 10:39:58.474149 91530 net.cpp:150] Setting up res3d_branch2b_relu
I0503 10:39:58.474155 91530 net.cpp:157] Top shape: 20 128 28 28 (2007040)
I0503 10:39:58.474159 91530 net.cpp:165] Memory required for data: 3271475280
I0503 10:39:58.474169 91530 layer_factory.hpp:77] Creating layer res3d_branch2c
I0503 10:39:58.474181 91530 net.cpp:106] Creating Layer res3d_branch2c
I0503 10:39:58.474185 91530 net.cpp:454] res3d_branch2c <- res3d_branch2b
I0503 10:39:58.474191 91530 net.cpp:411] res3d_branch2c -> res3d_branch2c
I0503 10:39:58.474398 91530 net.cpp:150] Setting up res3d_branch2c
I0503 10:39:58.474408 91530 net.cpp:157] Top shape: 20 512 28 28 (8028160)
I0503 10:39:58.474412 91530 net.cpp:165] Memory required for data: 3303587920
I0503 10:39:58.474418 91530 layer_factory.hpp:77] Creating layer bn3d_branch2c
I0503 10:39:58.474424 91530 net.cpp:106] Creating Layer bn3d_branch2c
I0503 10:39:58.474428 91530 net.cpp:454] bn3d_branch2c <- res3d_branch2c
I0503 10:39:58.474434 91530 net.cpp:397] bn3d_branch2c -> res3d_branch2c (in-place)
I0503 10:39:58.474596 91530 net.cpp:150] Setting up bn3d_branch2c
I0503 10:39:58.474606 91530 net.cpp:157] Top shape: 20 512 28 28 (8028160)
I0503 10:39:58.474609 91530 net.cpp:165] Memory required for data: 3335700560
I0503 10:39:58.474617 91530 layer_factory.hpp:77] Creating layer scale3d_branch2c
I0503 10:39:58.474625 91530 net.cpp:106] Creating Layer scale3d_branch2c
I0503 10:39:58.474630 91530 net.cpp:454] scale3d_branch2c <- res3d_branch2c
I0503 10:39:58.474637 91530 net.cpp:397] scale3d_branch2c -> res3d_branch2c (in-place)
I0503 10:39:58.474674 91530 layer_factory.hpp:77] Creating layer scale3d_branch2c
I0503 10:39:58.474768 91530 net.cpp:150] Setting up scale3d_branch2c
I0503 10:39:58.474777 91530 net.cpp:157] Top shape: 20 512 28 28 (8028160)
I0503 10:39:58.474781 91530 net.cpp:165] Memory required for data: 3367813200
I0503 10:39:58.474787 91530 layer_factory.hpp:77] Creating layer res3d
I0503 10:39:58.474794 91530 net.cpp:106] Creating Layer res3d
I0503 10:39:58.474799 91530 net.cpp:454] res3d <- res3c_res3c_relu_0_split_1
I0503 10:39:58.474815 91530 net.cpp:454] res3d <- res3d_branch2c
I0503 10:39:58.474822 91530 net.cpp:411] res3d -> res3d
I0503 10:39:58.474848 91530 net.cpp:150] Setting up res3d
I0503 10:39:58.474854 91530 net.cpp:157] Top shape: 20 512 28 28 (8028160)
I0503 10:39:58.474859 91530 net.cpp:165] Memory required for data: 3399925840
I0503 10:39:58.474864 91530 layer_factory.hpp:77] Creating layer res3d_relu
I0503 10:39:58.474869 91530 net.cpp:106] Creating Layer res3d_relu
I0503 10:39:58.474874 91530 net.cpp:454] res3d_relu <- res3d
I0503 10:39:58.474879 91530 net.cpp:397] res3d_relu -> res3d (in-place)
I0503 10:39:58.474885 91530 net.cpp:150] Setting up res3d_relu
I0503 10:39:58.474890 91530 net.cpp:157] Top shape: 20 512 28 28 (8028160)
I0503 10:39:58.474895 91530 net.cpp:165] Memory required for data: 3432038480
I0503 10:39:58.474898 91530 layer_factory.hpp:77] Creating layer res3d_res3d_relu_0_split
I0503 10:39:58.474906 91530 net.cpp:106] Creating Layer res3d_res3d_relu_0_split
I0503 10:39:58.474910 91530 net.cpp:454] res3d_res3d_relu_0_split <- res3d
I0503 10:39:58.474916 91530 net.cpp:411] res3d_res3d_relu_0_split -> res3d_res3d_relu_0_split_0
I0503 10:39:58.474923 91530 net.cpp:411] res3d_res3d_relu_0_split -> res3d_res3d_relu_0_split_1
I0503 10:39:58.474957 91530 net.cpp:150] Setting up res3d_res3d_relu_0_split
I0503 10:39:58.474966 91530 net.cpp:157] Top shape: 20 512 28 28 (8028160)
I0503 10:39:58.474970 91530 net.cpp:157] Top shape: 20 512 28 28 (8028160)
I0503 10:39:58.474974 91530 net.cpp:165] Memory required for data: 3496263760
I0503 10:39:58.474978 91530 layer_factory.hpp:77] Creating layer res4a_branch1
I0503 10:39:58.474987 91530 net.cpp:106] Creating Layer res4a_branch1
I0503 10:39:58.474992 91530 net.cpp:454] res4a_branch1 <- res3d_res3d_relu_0_split_0
I0503 10:39:58.474997 91530 net.cpp:411] res4a_branch1 -> res4a_branch1
I0503 10:39:58.476342 91530 net.cpp:150] Setting up res4a_branch1
I0503 10:39:58.476361 91530 net.cpp:157] Top shape: 20 1024 14 14 (4014080)
I0503 10:39:58.476366 91530 net.cpp:165] Memory required for data: 3512320080
I0503 10:39:58.476372 91530 layer_factory.hpp:77] Creating layer bn4a_branch1
I0503 10:39:58.476380 91530 net.cpp:106] Creating Layer bn4a_branch1
I0503 10:39:58.476390 91530 net.cpp:454] bn4a_branch1 <- res4a_branch1
I0503 10:39:58.476397 91530 net.cpp:397] bn4a_branch1 -> res4a_branch1 (in-place)
I0503 10:39:58.476599 91530 net.cpp:150] Setting up bn4a_branch1
I0503 10:39:58.476611 91530 net.cpp:157] Top shape: 20 1024 14 14 (4014080)
I0503 10:39:58.476615 91530 net.cpp:165] Memory required for data: 3528376400
I0503 10:39:58.476626 91530 layer_factory.hpp:77] Creating layer scale4a_branch1
I0503 10:39:58.476634 91530 net.cpp:106] Creating Layer scale4a_branch1
I0503 10:39:58.476639 91530 net.cpp:454] scale4a_branch1 <- res4a_branch1
I0503 10:39:58.476644 91530 net.cpp:397] scale4a_branch1 -> res4a_branch1 (in-place)
I0503 10:39:58.476681 91530 layer_factory.hpp:77] Creating layer scale4a_branch1
I0503 10:39:58.476780 91530 net.cpp:150] Setting up scale4a_branch1
I0503 10:39:58.476788 91530 net.cpp:157] Top shape: 20 1024 14 14 (4014080)
I0503 10:39:58.476794 91530 net.cpp:165] Memory required for data: 3544432720
I0503 10:39:58.476800 91530 layer_factory.hpp:77] Creating layer res4a_branch2a
I0503 10:39:58.476809 91530 net.cpp:106] Creating Layer res4a_branch2a
I0503 10:39:58.476814 91530 net.cpp:454] res4a_branch2a <- res3d_res3d_relu_0_split_1
I0503 10:39:58.476822 91530 net.cpp:411] res4a_branch2a -> res4a_branch2a
I0503 10:39:58.477089 91530 net.cpp:150] Setting up res4a_branch2a
I0503 10:39:58.477099 91530 net.cpp:157] Top shape: 20 256 14 14 (1003520)
I0503 10:39:58.477103 91530 net.cpp:165] Memory required for data: 3548446800
I0503 10:39:58.477109 91530 layer_factory.hpp:77] Creating layer bn4a_branch2a
I0503 10:39:58.477116 91530 net.cpp:106] Creating Layer bn4a_branch2a
I0503 10:39:58.477121 91530 net.cpp:454] bn4a_branch2a <- res4a_branch2a
I0503 10:39:58.477126 91530 net.cpp:397] bn4a_branch2a -> res4a_branch2a (in-place)
I0503 10:39:58.477283 91530 net.cpp:150] Setting up bn4a_branch2a
I0503 10:39:58.477290 91530 net.cpp:157] Top shape: 20 256 14 14 (1003520)
I0503 10:39:58.477294 91530 net.cpp:165] Memory required for data: 3552460880
I0503 10:39:58.477303 91530 layer_factory.hpp:77] Creating layer scale4a_branch2a
I0503 10:39:58.477313 91530 net.cpp:106] Creating Layer scale4a_branch2a
I0503 10:39:58.477318 91530 net.cpp:454] scale4a_branch2a <- res4a_branch2a
I0503 10:39:58.477324 91530 net.cpp:397] scale4a_branch2a -> res4a_branch2a (in-place)
I0503 10:39:58.477362 91530 layer_factory.hpp:77] Creating layer scale4a_branch2a
I0503 10:39:58.477460 91530 net.cpp:150] Setting up scale4a_branch2a
I0503 10:39:58.477468 91530 net.cpp:157] Top shape: 20 256 14 14 (1003520)
I0503 10:39:58.477473 91530 net.cpp:165] Memory required for data: 3556474960
I0503 10:39:58.477479 91530 layer_factory.hpp:77] Creating layer res4a_branch2a_relu
I0503 10:39:58.477486 91530 net.cpp:106] Creating Layer res4a_branch2a_relu
I0503 10:39:58.477490 91530 net.cpp:454] res4a_branch2a_relu <- res4a_branch2a
I0503 10:39:58.477499 91530 net.cpp:397] res4a_branch2a_relu -> res4a_branch2a (in-place)
I0503 10:39:58.477506 91530 net.cpp:150] Setting up res4a_branch2a_relu
I0503 10:39:58.477511 91530 net.cpp:157] Top shape: 20 256 14 14 (1003520)
I0503 10:39:58.477515 91530 net.cpp:165] Memory required for data: 3560489040
I0503 10:39:58.477520 91530 layer_factory.hpp:77] Creating layer res4a_branch2b
I0503 10:39:58.477530 91530 net.cpp:106] Creating Layer res4a_branch2b
I0503 10:39:58.477533 91530 net.cpp:454] res4a_branch2b <- res4a_branch2a
I0503 10:39:58.477540 91530 net.cpp:411] res4a_branch2b -> res4a_branch2b
I0503 10:39:58.479030 91530 net.cpp:150] Setting up res4a_branch2b
I0503 10:39:58.479048 91530 net.cpp:157] Top shape: 20 256 14 14 (1003520)
I0503 10:39:58.479053 91530 net.cpp:165] Memory required for data: 3564503120
I0503 10:39:58.479060 91530 layer_factory.hpp:77] Creating layer bn4a_branch2b
I0503 10:39:58.479069 91530 net.cpp:106] Creating Layer bn4a_branch2b
I0503 10:39:58.479075 91530 net.cpp:454] bn4a_branch2b <- res4a_branch2b
I0503 10:39:58.479082 91530 net.cpp:397] bn4a_branch2b -> res4a_branch2b (in-place)
I0503 10:39:58.479243 91530 net.cpp:150] Setting up bn4a_branch2b
I0503 10:39:58.479256 91530 net.cpp:157] Top shape: 20 256 14 14 (1003520)
I0503 10:39:58.479261 91530 net.cpp:165] Memory required for data: 3568517200
I0503 10:39:58.479270 91530 layer_factory.hpp:77] Creating layer scale4a_branch2b
I0503 10:39:58.479277 91530 net.cpp:106] Creating Layer scale4a_branch2b
I0503 10:39:58.479281 91530 net.cpp:454] scale4a_branch2b <- res4a_branch2b
I0503 10:39:58.479290 91530 net.cpp:397] scale4a_branch2b -> res4a_branch2b (in-place)
I0503 10:39:58.479326 91530 layer_factory.hpp:77] Creating layer scale4a_branch2b
I0503 10:39:58.479421 91530 net.cpp:150] Setting up scale4a_branch2b
I0503 10:39:58.479429 91530 net.cpp:157] Top shape: 20 256 14 14 (1003520)
I0503 10:39:58.479434 91530 net.cpp:165] Memory required for data: 3572531280
I0503 10:39:58.479440 91530 layer_factory.hpp:77] Creating layer res4a_branch2b_relu
I0503 10:39:58.479447 91530 net.cpp:106] Creating Layer res4a_branch2b_relu
I0503 10:39:58.479451 91530 net.cpp:454] res4a_branch2b_relu <- res4a_branch2b
I0503 10:39:58.479457 91530 net.cpp:397] res4a_branch2b_relu -> res4a_branch2b (in-place)
I0503 10:39:58.479463 91530 net.cpp:150] Setting up res4a_branch2b_relu
I0503 10:39:58.479470 91530 net.cpp:157] Top shape: 20 256 14 14 (1003520)
I0503 10:39:58.479473 91530 net.cpp:165] Memory required for data: 3576545360
I0503 10:39:58.479477 91530 layer_factory.hpp:77] Creating layer res4a_branch2c
I0503 10:39:58.479487 91530 net.cpp:106] Creating Layer res4a_branch2c
I0503 10:39:58.479491 91530 net.cpp:454] res4a_branch2c <- res4a_branch2b
I0503 10:39:58.479499 91530 net.cpp:411] res4a_branch2c -> res4a_branch2c
I0503 10:39:58.481364 91530 net.cpp:150] Setting up res4a_branch2c
I0503 10:39:58.481384 91530 net.cpp:157] Top shape: 20 1024 14 14 (4014080)
I0503 10:39:58.481389 91530 net.cpp:165] Memory required for data: 3592601680
I0503 10:39:58.481395 91530 layer_factory.hpp:77] Creating layer bn4a_branch2c
I0503 10:39:58.481405 91530 net.cpp:106] Creating Layer bn4a_branch2c
I0503 10:39:58.481410 91530 net.cpp:454] bn4a_branch2c <- res4a_branch2c
I0503 10:39:58.481417 91530 net.cpp:397] bn4a_branch2c -> res4a_branch2c (in-place)
I0503 10:39:58.481596 91530 net.cpp:150] Setting up bn4a_branch2c
I0503 10:39:58.481606 91530 net.cpp:157] Top shape: 20 1024 14 14 (4014080)
I0503 10:39:58.481611 91530 net.cpp:165] Memory required for data: 3608658000
I0503 10:39:58.481619 91530 layer_factory.hpp:77] Creating layer scale4a_branch2c
I0503 10:39:58.481627 91530 net.cpp:106] Creating Layer scale4a_branch2c
I0503 10:39:58.481632 91530 net.cpp:454] scale4a_branch2c <- res4a_branch2c
I0503 10:39:58.481638 91530 net.cpp:397] scale4a_branch2c -> res4a_branch2c (in-place)
I0503 10:39:58.481678 91530 layer_factory.hpp:77] Creating layer scale4a_branch2c
I0503 10:39:58.481781 91530 net.cpp:150] Setting up scale4a_branch2c
I0503 10:39:58.481789 91530 net.cpp:157] Top shape: 20 1024 14 14 (4014080)
I0503 10:39:58.481793 91530 net.cpp:165] Memory required for data: 3624714320
I0503 10:39:58.481801 91530 layer_factory.hpp:77] Creating layer res4a
I0503 10:39:58.481808 91530 net.cpp:106] Creating Layer res4a
I0503 10:39:58.481813 91530 net.cpp:454] res4a <- res4a_branch1
I0503 10:39:58.481818 91530 net.cpp:454] res4a <- res4a_branch2c
I0503 10:39:58.481827 91530 net.cpp:411] res4a -> res4a
I0503 10:39:58.481849 91530 net.cpp:150] Setting up res4a
I0503 10:39:58.481856 91530 net.cpp:157] Top shape: 20 1024 14 14 (4014080)
I0503 10:39:58.481860 91530 net.cpp:165] Memory required for data: 3640770640
I0503 10:39:58.481864 91530 layer_factory.hpp:77] Creating layer res4a_relu
I0503 10:39:58.481873 91530 net.cpp:106] Creating Layer res4a_relu
I0503 10:39:58.481878 91530 net.cpp:454] res4a_relu <- res4a
I0503 10:39:58.481884 91530 net.cpp:397] res4a_relu -> res4a (in-place)
I0503 10:39:58.481890 91530 net.cpp:150] Setting up res4a_relu
I0503 10:39:58.481896 91530 net.cpp:157] Top shape: 20 1024 14 14 (4014080)
I0503 10:39:58.481900 91530 net.cpp:165] Memory required for data: 3656826960
I0503 10:39:58.481904 91530 layer_factory.hpp:77] Creating layer res4a_res4a_relu_0_split
I0503 10:39:58.481919 91530 net.cpp:106] Creating Layer res4a_res4a_relu_0_split
I0503 10:39:58.481923 91530 net.cpp:454] res4a_res4a_relu_0_split <- res4a
I0503 10:39:58.481930 91530 net.cpp:411] res4a_res4a_relu_0_split -> res4a_res4a_relu_0_split_0
I0503 10:39:58.481936 91530 net.cpp:411] res4a_res4a_relu_0_split -> res4a_res4a_relu_0_split_1
I0503 10:39:58.481969 91530 net.cpp:150] Setting up res4a_res4a_relu_0_split
I0503 10:39:58.481977 91530 net.cpp:157] Top shape: 20 1024 14 14 (4014080)
I0503 10:39:58.481982 91530 net.cpp:157] Top shape: 20 1024 14 14 (4014080)
I0503 10:39:58.481986 91530 net.cpp:165] Memory required for data: 3688939600
I0503 10:39:58.481991 91530 layer_factory.hpp:77] Creating layer res4b_branch2a
I0503 10:39:58.482014 91530 net.cpp:106] Creating Layer res4b_branch2a
I0503 10:39:58.482020 91530 net.cpp:454] res4b_branch2a <- res4a_res4a_relu_0_split_0
I0503 10:39:58.482028 91530 net.cpp:411] res4b_branch2a -> res4b_branch2a
I0503 10:39:58.482856 91530 net.cpp:150] Setting up res4b_branch2a
I0503 10:39:58.482872 91530 net.cpp:157] Top shape: 20 256 14 14 (1003520)
I0503 10:39:58.482877 91530 net.cpp:165] Memory required for data: 3692953680
I0503 10:39:58.482883 91530 layer_factory.hpp:77] Creating layer bn4b_branch2a
I0503 10:39:58.482892 91530 net.cpp:106] Creating Layer bn4b_branch2a
I0503 10:39:58.482897 91530 net.cpp:454] bn4b_branch2a <- res4b_branch2a
I0503 10:39:58.482903 91530 net.cpp:397] bn4b_branch2a -> res4b_branch2a (in-place)
I0503 10:39:58.483062 91530 net.cpp:150] Setting up bn4b_branch2a
I0503 10:39:58.483072 91530 net.cpp:157] Top shape: 20 256 14 14 (1003520)
I0503 10:39:58.483077 91530 net.cpp:165] Memory required for data: 3696967760
I0503 10:39:58.483085 91530 layer_factory.hpp:77] Creating layer scale4b_branch2a
I0503 10:39:58.483094 91530 net.cpp:106] Creating Layer scale4b_branch2a
I0503 10:39:58.483098 91530 net.cpp:454] scale4b_branch2a <- res4b_branch2a
I0503 10:39:58.483104 91530 net.cpp:397] scale4b_branch2a -> res4b_branch2a (in-place)
I0503 10:39:58.483144 91530 layer_factory.hpp:77] Creating layer scale4b_branch2a
I0503 10:39:58.483240 91530 net.cpp:150] Setting up scale4b_branch2a
I0503 10:39:58.483248 91530 net.cpp:157] Top shape: 20 256 14 14 (1003520)
I0503 10:39:58.483253 91530 net.cpp:165] Memory required for data: 3700981840
I0503 10:39:58.483259 91530 layer_factory.hpp:77] Creating layer res4b_branch2a_relu
I0503 10:39:58.483266 91530 net.cpp:106] Creating Layer res4b_branch2a_relu
I0503 10:39:58.483270 91530 net.cpp:454] res4b_branch2a_relu <- res4b_branch2a
I0503 10:39:58.483278 91530 net.cpp:397] res4b_branch2a_relu -> res4b_branch2a (in-place)
I0503 10:39:58.483285 91530 net.cpp:150] Setting up res4b_branch2a_relu
I0503 10:39:58.483291 91530 net.cpp:157] Top shape: 20 256 14 14 (1003520)
I0503 10:39:58.483295 91530 net.cpp:165] Memory required for data: 3704995920
I0503 10:39:58.483299 91530 layer_factory.hpp:77] Creating layer res4b_branch2b
I0503 10:39:58.483309 91530 net.cpp:106] Creating Layer res4b_branch2b
I0503 10:39:58.483314 91530 net.cpp:454] res4b_branch2b <- res4b_branch2a
I0503 10:39:58.483319 91530 net.cpp:411] res4b_branch2b -> res4b_branch2b
I0503 10:39:58.484799 91530 net.cpp:150] Setting up res4b_branch2b
I0503 10:39:58.484817 91530 net.cpp:157] Top shape: 20 256 14 14 (1003520)
I0503 10:39:58.484822 91530 net.cpp:165] Memory required for data: 3709010000
I0503 10:39:58.484827 91530 layer_factory.hpp:77] Creating layer bn4b_branch2b
I0503 10:39:58.484836 91530 net.cpp:106] Creating Layer bn4b_branch2b
I0503 10:39:58.484843 91530 net.cpp:454] bn4b_branch2b <- res4b_branch2b
I0503 10:39:58.484848 91530 net.cpp:397] bn4b_branch2b -> res4b_branch2b (in-place)
I0503 10:39:58.485009 91530 net.cpp:150] Setting up bn4b_branch2b
I0503 10:39:58.485018 91530 net.cpp:157] Top shape: 20 256 14 14 (1003520)
I0503 10:39:58.485023 91530 net.cpp:165] Memory required for data: 3713024080
I0503 10:39:58.485031 91530 layer_factory.hpp:77] Creating layer scale4b_branch2b
I0503 10:39:58.485038 91530 net.cpp:106] Creating Layer scale4b_branch2b
I0503 10:39:58.485049 91530 net.cpp:454] scale4b_branch2b <- res4b_branch2b
I0503 10:39:58.485056 91530 net.cpp:397] scale4b_branch2b -> res4b_branch2b (in-place)
I0503 10:39:58.485093 91530 layer_factory.hpp:77] Creating layer scale4b_branch2b
I0503 10:39:58.485188 91530 net.cpp:150] Setting up scale4b_branch2b
I0503 10:39:58.485198 91530 net.cpp:157] Top shape: 20 256 14 14 (1003520)
I0503 10:39:58.485203 91530 net.cpp:165] Memory required for data: 3717038160
I0503 10:39:58.485209 91530 layer_factory.hpp:77] Creating layer res4b_branch2b_relu
I0503 10:39:58.485216 91530 net.cpp:106] Creating Layer res4b_branch2b_relu
I0503 10:39:58.485220 91530 net.cpp:454] res4b_branch2b_relu <- res4b_branch2b
I0503 10:39:58.485226 91530 net.cpp:397] res4b_branch2b_relu -> res4b_branch2b (in-place)
I0503 10:39:58.485232 91530 net.cpp:150] Setting up res4b_branch2b_relu
I0503 10:39:58.485239 91530 net.cpp:157] Top shape: 20 256 14 14 (1003520)
I0503 10:39:58.485242 91530 net.cpp:165] Memory required for data: 3721052240
I0503 10:39:58.485246 91530 layer_factory.hpp:77] Creating layer res4b_branch2c
I0503 10:39:58.485256 91530 net.cpp:106] Creating Layer res4b_branch2c
I0503 10:39:58.485261 91530 net.cpp:454] res4b_branch2c <- res4b_branch2b
I0503 10:39:58.485267 91530 net.cpp:411] res4b_branch2c -> res4b_branch2c
I0503 10:39:58.486058 91530 net.cpp:150] Setting up res4b_branch2c
I0503 10:39:58.486073 91530 net.cpp:157] Top shape: 20 1024 14 14 (4014080)
I0503 10:39:58.486078 91530 net.cpp:165] Memory required for data: 3737108560
I0503 10:39:58.486085 91530 layer_factory.hpp:77] Creating layer bn4b_branch2c
I0503 10:39:58.486093 91530 net.cpp:106] Creating Layer bn4b_branch2c
I0503 10:39:58.486098 91530 net.cpp:454] bn4b_branch2c <- res4b_branch2c
I0503 10:39:58.486104 91530 net.cpp:397] bn4b_branch2c -> res4b_branch2c (in-place)
I0503 10:39:58.486282 91530 net.cpp:150] Setting up bn4b_branch2c
I0503 10:39:58.486291 91530 net.cpp:157] Top shape: 20 1024 14 14 (4014080)
I0503 10:39:58.486296 91530 net.cpp:165] Memory required for data: 3753164880
I0503 10:39:58.486304 91530 layer_factory.hpp:77] Creating layer scale4b_branch2c
I0503 10:39:58.486311 91530 net.cpp:106] Creating Layer scale4b_branch2c
I0503 10:39:58.486316 91530 net.cpp:454] scale4b_branch2c <- res4b_branch2c
I0503 10:39:58.486322 91530 net.cpp:397] scale4b_branch2c -> res4b_branch2c (in-place)
I0503 10:39:58.486359 91530 layer_factory.hpp:77] Creating layer scale4b_branch2c
I0503 10:39:58.486464 91530 net.cpp:150] Setting up scale4b_branch2c
I0503 10:39:58.486471 91530 net.cpp:157] Top shape: 20 1024 14 14 (4014080)
I0503 10:39:58.486476 91530 net.cpp:165] Memory required for data: 3769221200
I0503 10:39:58.486484 91530 layer_factory.hpp:77] Creating layer res4b
I0503 10:39:58.486491 91530 net.cpp:106] Creating Layer res4b
I0503 10:39:58.486496 91530 net.cpp:454] res4b <- res4a_res4a_relu_0_split_1
I0503 10:39:58.486502 91530 net.cpp:454] res4b <- res4b_branch2c
I0503 10:39:58.486508 91530 net.cpp:411] res4b -> res4b
I0503 10:39:58.486531 91530 net.cpp:150] Setting up res4b
I0503 10:39:58.486539 91530 net.cpp:157] Top shape: 20 1024 14 14 (4014080)
I0503 10:39:58.486544 91530 net.cpp:165] Memory required for data: 3785277520
I0503 10:39:58.486548 91530 layer_factory.hpp:77] Creating layer res4b_relu
I0503 10:39:58.486554 91530 net.cpp:106] Creating Layer res4b_relu
I0503 10:39:58.486558 91530 net.cpp:454] res4b_relu <- res4b
I0503 10:39:58.486567 91530 net.cpp:397] res4b_relu -> res4b (in-place)
I0503 10:39:58.486573 91530 net.cpp:150] Setting up res4b_relu
I0503 10:39:58.486579 91530 net.cpp:157] Top shape: 20 1024 14 14 (4014080)
I0503 10:39:58.486583 91530 net.cpp:165] Memory required for data: 3801333840
I0503 10:39:58.486588 91530 layer_factory.hpp:77] Creating layer res4b_res4b_relu_0_split
I0503 10:39:58.486593 91530 net.cpp:106] Creating Layer res4b_res4b_relu_0_split
I0503 10:39:58.486598 91530 net.cpp:454] res4b_res4b_relu_0_split <- res4b
I0503 10:39:58.486603 91530 net.cpp:411] res4b_res4b_relu_0_split -> res4b_res4b_relu_0_split_0
I0503 10:39:58.486615 91530 net.cpp:411] res4b_res4b_relu_0_split -> res4b_res4b_relu_0_split_1
I0503 10:39:58.486651 91530 net.cpp:150] Setting up res4b_res4b_relu_0_split
I0503 10:39:58.486660 91530 net.cpp:157] Top shape: 20 1024 14 14 (4014080)
I0503 10:39:58.486665 91530 net.cpp:157] Top shape: 20 1024 14 14 (4014080)
I0503 10:39:58.486670 91530 net.cpp:165] Memory required for data: 3833446480
I0503 10:39:58.486673 91530 layer_factory.hpp:77] Creating layer res4c_branch2a
I0503 10:39:58.486681 91530 net.cpp:106] Creating Layer res4c_branch2a
I0503 10:39:58.486686 91530 net.cpp:454] res4c_branch2a <- res4b_res4b_relu_0_split_0
I0503 10:39:58.486695 91530 net.cpp:411] res4c_branch2a -> res4c_branch2a
I0503 10:39:58.487483 91530 net.cpp:150] Setting up res4c_branch2a
I0503 10:39:58.487498 91530 net.cpp:157] Top shape: 20 256 14 14 (1003520)
I0503 10:39:58.487504 91530 net.cpp:165] Memory required for data: 3837460560
I0503 10:39:58.487509 91530 layer_factory.hpp:77] Creating layer bn4c_branch2a
I0503 10:39:58.487516 91530 net.cpp:106] Creating Layer bn4c_branch2a
I0503 10:39:58.487521 91530 net.cpp:454] bn4c_branch2a <- res4c_branch2a
I0503 10:39:58.487527 91530 net.cpp:397] bn4c_branch2a -> res4c_branch2a (in-place)
I0503 10:39:58.487689 91530 net.cpp:150] Setting up bn4c_branch2a
I0503 10:39:58.487697 91530 net.cpp:157] Top shape: 20 256 14 14 (1003520)
I0503 10:39:58.487701 91530 net.cpp:165] Memory required for data: 3841474640
I0503 10:39:58.487710 91530 layer_factory.hpp:77] Creating layer scale4c_branch2a
I0503 10:39:58.487720 91530 net.cpp:106] Creating Layer scale4c_branch2a
I0503 10:39:58.487725 91530 net.cpp:454] scale4c_branch2a <- res4c_branch2a
I0503 10:39:58.487730 91530 net.cpp:397] scale4c_branch2a -> res4c_branch2a (in-place)
I0503 10:39:58.487767 91530 layer_factory.hpp:77] Creating layer scale4c_branch2a
I0503 10:39:58.487864 91530 net.cpp:150] Setting up scale4c_branch2a
I0503 10:39:58.487872 91530 net.cpp:157] Top shape: 20 256 14 14 (1003520)
I0503 10:39:58.487877 91530 net.cpp:165] Memory required for data: 3845488720
I0503 10:39:58.487884 91530 layer_factory.hpp:77] Creating layer res4c_branch2a_relu
I0503 10:39:58.487890 91530 net.cpp:106] Creating Layer res4c_branch2a_relu
I0503 10:39:58.487895 91530 net.cpp:454] res4c_branch2a_relu <- res4c_branch2a
I0503 10:39:58.487902 91530 net.cpp:397] res4c_branch2a_relu -> res4c_branch2a (in-place)
I0503 10:39:58.487910 91530 net.cpp:150] Setting up res4c_branch2a_relu
I0503 10:39:58.487915 91530 net.cpp:157] Top shape: 20 256 14 14 (1003520)
I0503 10:39:58.487918 91530 net.cpp:165] Memory required for data: 3849502800
I0503 10:39:58.487923 91530 layer_factory.hpp:77] Creating layer res4c_branch2b
I0503 10:39:58.487932 91530 net.cpp:106] Creating Layer res4c_branch2b
I0503 10:39:58.487936 91530 net.cpp:454] res4c_branch2b <- res4c_branch2a
I0503 10:39:58.487942 91530 net.cpp:411] res4c_branch2b -> res4c_branch2b
I0503 10:39:58.489480 91530 net.cpp:150] Setting up res4c_branch2b
I0503 10:39:58.489498 91530 net.cpp:157] Top shape: 20 256 14 14 (1003520)
I0503 10:39:58.489503 91530 net.cpp:165] Memory required for data: 3853516880
I0503 10:39:58.489509 91530 layer_factory.hpp:77] Creating layer bn4c_branch2b
I0503 10:39:58.489517 91530 net.cpp:106] Creating Layer bn4c_branch2b
I0503 10:39:58.489522 91530 net.cpp:454] bn4c_branch2b <- res4c_branch2b
I0503 10:39:58.489529 91530 net.cpp:397] bn4c_branch2b -> res4c_branch2b (in-place)
I0503 10:39:58.489698 91530 net.cpp:150] Setting up bn4c_branch2b
I0503 10:39:58.489707 91530 net.cpp:157] Top shape: 20 256 14 14 (1003520)
I0503 10:39:58.489712 91530 net.cpp:165] Memory required for data: 3857530960
I0503 10:39:58.489725 91530 layer_factory.hpp:77] Creating layer scale4c_branch2b
I0503 10:39:58.489733 91530 net.cpp:106] Creating Layer scale4c_branch2b
I0503 10:39:58.489737 91530 net.cpp:454] scale4c_branch2b <- res4c_branch2b
I0503 10:39:58.489743 91530 net.cpp:397] scale4c_branch2b -> res4c_branch2b (in-place)
I0503 10:39:58.489784 91530 layer_factory.hpp:77] Creating layer scale4c_branch2b
I0503 10:39:58.489888 91530 net.cpp:150] Setting up scale4c_branch2b
I0503 10:39:58.489897 91530 net.cpp:157] Top shape: 20 256 14 14 (1003520)
I0503 10:39:58.489902 91530 net.cpp:165] Memory required for data: 3861545040
I0503 10:39:58.489909 91530 layer_factory.hpp:77] Creating layer res4c_branch2b_relu
I0503 10:39:58.489920 91530 net.cpp:106] Creating Layer res4c_branch2b_relu
I0503 10:39:58.489925 91530 net.cpp:454] res4c_branch2b_relu <- res4c_branch2b
I0503 10:39:58.489931 91530 net.cpp:397] res4c_branch2b_relu -> res4c_branch2b (in-place)
I0503 10:39:58.489938 91530 net.cpp:150] Setting up res4c_branch2b_relu
I0503 10:39:58.489943 91530 net.cpp:157] Top shape: 20 256 14 14 (1003520)
I0503 10:39:58.489948 91530 net.cpp:165] Memory required for data: 3865559120
I0503 10:39:58.489953 91530 layer_factory.hpp:77] Creating layer res4c_branch2c
I0503 10:39:58.489961 91530 net.cpp:106] Creating Layer res4c_branch2c
I0503 10:39:58.489966 91530 net.cpp:454] res4c_branch2c <- res4c_branch2b
I0503 10:39:58.489972 91530 net.cpp:411] res4c_branch2c -> res4c_branch2c
I0503 10:39:58.490759 91530 net.cpp:150] Setting up res4c_branch2c
I0503 10:39:58.490775 91530 net.cpp:157] Top shape: 20 1024 14 14 (4014080)
I0503 10:39:58.490779 91530 net.cpp:165] Memory required for data: 3881615440
I0503 10:39:58.490787 91530 layer_factory.hpp:77] Creating layer bn4c_branch2c
I0503 10:39:58.490795 91530 net.cpp:106] Creating Layer bn4c_branch2c
I0503 10:39:58.490800 91530 net.cpp:454] bn4c_branch2c <- res4c_branch2c
I0503 10:39:58.490806 91530 net.cpp:397] bn4c_branch2c -> res4c_branch2c (in-place)
I0503 10:39:58.490977 91530 net.cpp:150] Setting up bn4c_branch2c
I0503 10:39:58.490985 91530 net.cpp:157] Top shape: 20 1024 14 14 (4014080)
I0503 10:39:58.490990 91530 net.cpp:165] Memory required for data: 3897671760
I0503 10:39:58.490998 91530 layer_factory.hpp:77] Creating layer scale4c_branch2c
I0503 10:39:58.491008 91530 net.cpp:106] Creating Layer scale4c_branch2c
I0503 10:39:58.491013 91530 net.cpp:454] scale4c_branch2c <- res4c_branch2c
I0503 10:39:58.491019 91530 net.cpp:397] scale4c_branch2c -> res4c_branch2c (in-place)
I0503 10:39:58.491052 91530 layer_factory.hpp:77] Creating layer scale4c_branch2c
I0503 10:39:58.491154 91530 net.cpp:150] Setting up scale4c_branch2c
I0503 10:39:58.491163 91530 net.cpp:157] Top shape: 20 1024 14 14 (4014080)
I0503 10:39:58.491168 91530 net.cpp:165] Memory required for data: 3913728080
I0503 10:39:58.491175 91530 layer_factory.hpp:77] Creating layer res4c
I0503 10:39:58.491181 91530 net.cpp:106] Creating Layer res4c
I0503 10:39:58.491186 91530 net.cpp:454] res4c <- res4b_res4b_relu_0_split_1
I0503 10:39:58.491191 91530 net.cpp:454] res4c <- res4c_branch2c
I0503 10:39:58.491199 91530 net.cpp:411] res4c -> res4c
I0503 10:39:58.491224 91530 net.cpp:150] Setting up res4c
I0503 10:39:58.491232 91530 net.cpp:157] Top shape: 20 1024 14 14 (4014080)
I0503 10:39:58.491237 91530 net.cpp:165] Memory required for data: 3929784400
I0503 10:39:58.491241 91530 layer_factory.hpp:77] Creating layer res4c_relu
I0503 10:39:58.491247 91530 net.cpp:106] Creating Layer res4c_relu
I0503 10:39:58.491252 91530 net.cpp:454] res4c_relu <- res4c
I0503 10:39:58.491257 91530 net.cpp:397] res4c_relu -> res4c (in-place)
I0503 10:39:58.491264 91530 net.cpp:150] Setting up res4c_relu
I0503 10:39:58.491271 91530 net.cpp:157] Top shape: 20 1024 14 14 (4014080)
I0503 10:39:58.491274 91530 net.cpp:165] Memory required for data: 3945840720
I0503 10:39:58.491278 91530 layer_factory.hpp:77] Creating layer res4c_res4c_relu_0_split
I0503 10:39:58.491284 91530 net.cpp:106] Creating Layer res4c_res4c_relu_0_split
I0503 10:39:58.491288 91530 net.cpp:454] res4c_res4c_relu_0_split <- res4c
I0503 10:39:58.491297 91530 net.cpp:411] res4c_res4c_relu_0_split -> res4c_res4c_relu_0_split_0
I0503 10:39:58.491307 91530 net.cpp:411] res4c_res4c_relu_0_split -> res4c_res4c_relu_0_split_1
I0503 10:39:58.491353 91530 net.cpp:150] Setting up res4c_res4c_relu_0_split
I0503 10:39:58.491366 91530 net.cpp:157] Top shape: 20 1024 14 14 (4014080)
I0503 10:39:58.491380 91530 net.cpp:157] Top shape: 20 1024 14 14 (4014080)
I0503 10:39:58.491385 91530 net.cpp:165] Memory required for data: 3977953360
I0503 10:39:58.491390 91530 layer_factory.hpp:77] Creating layer res4d_branch2a
I0503 10:39:58.491400 91530 net.cpp:106] Creating Layer res4d_branch2a
I0503 10:39:58.491405 91530 net.cpp:454] res4d_branch2a <- res4c_res4c_relu_0_split_0
I0503 10:39:58.491412 91530 net.cpp:411] res4d_branch2a -> res4d_branch2a
I0503 10:39:58.492208 91530 net.cpp:150] Setting up res4d_branch2a
I0503 10:39:58.492223 91530 net.cpp:157] Top shape: 20 256 14 14 (1003520)
I0503 10:39:58.492228 91530 net.cpp:165] Memory required for data: 3981967440
I0503 10:39:58.492234 91530 layer_factory.hpp:77] Creating layer bn4d_branch2a
I0503 10:39:58.492246 91530 net.cpp:106] Creating Layer bn4d_branch2a
I0503 10:39:58.492251 91530 net.cpp:454] bn4d_branch2a <- res4d_branch2a
I0503 10:39:58.492257 91530 net.cpp:397] bn4d_branch2a -> res4d_branch2a (in-place)
I0503 10:39:58.492422 91530 net.cpp:150] Setting up bn4d_branch2a
I0503 10:39:58.492430 91530 net.cpp:157] Top shape: 20 256 14 14 (1003520)
I0503 10:39:58.492444 91530 net.cpp:165] Memory required for data: 3985981520
I0503 10:39:58.492458 91530 layer_factory.hpp:77] Creating layer scale4d_branch2a
I0503 10:39:58.492470 91530 net.cpp:106] Creating Layer scale4d_branch2a
I0503 10:39:58.492477 91530 net.cpp:454] scale4d_branch2a <- res4d_branch2a
I0503 10:39:58.492489 91530 net.cpp:397] scale4d_branch2a -> res4d_branch2a (in-place)
I0503 10:39:58.492539 91530 layer_factory.hpp:77] Creating layer scale4d_branch2a
I0503 10:39:58.492638 91530 net.cpp:150] Setting up scale4d_branch2a
I0503 10:39:58.492648 91530 net.cpp:157] Top shape: 20 256 14 14 (1003520)
I0503 10:39:58.492653 91530 net.cpp:165] Memory required for data: 3989995600
I0503 10:39:58.492660 91530 layer_factory.hpp:77] Creating layer res4d_branch2a_relu
I0503 10:39:58.492667 91530 net.cpp:106] Creating Layer res4d_branch2a_relu
I0503 10:39:58.492671 91530 net.cpp:454] res4d_branch2a_relu <- res4d_branch2a
I0503 10:39:58.492677 91530 net.cpp:397] res4d_branch2a_relu -> res4d_branch2a (in-place)
I0503 10:39:58.492683 91530 net.cpp:150] Setting up res4d_branch2a_relu
I0503 10:39:58.492689 91530 net.cpp:157] Top shape: 20 256 14 14 (1003520)
I0503 10:39:58.492693 91530 net.cpp:165] Memory required for data: 3994009680
I0503 10:39:58.492697 91530 layer_factory.hpp:77] Creating layer res4d_branch2b
I0503 10:39:58.492707 91530 net.cpp:106] Creating Layer res4d_branch2b
I0503 10:39:58.492712 91530 net.cpp:454] res4d_branch2b <- res4d_branch2a
I0503 10:39:58.492717 91530 net.cpp:411] res4d_branch2b -> res4d_branch2b
I0503 10:39:58.494160 91530 net.cpp:150] Setting up res4d_branch2b
I0503 10:39:58.494175 91530 net.cpp:157] Top shape: 20 256 14 14 (1003520)
I0503 10:39:58.494180 91530 net.cpp:165] Memory required for data: 3998023760
I0503 10:39:58.494187 91530 layer_factory.hpp:77] Creating layer bn4d_branch2b
I0503 10:39:58.494194 91530 net.cpp:106] Creating Layer bn4d_branch2b
I0503 10:39:58.494199 91530 net.cpp:454] bn4d_branch2b <- res4d_branch2b
I0503 10:39:58.494205 91530 net.cpp:397] bn4d_branch2b -> res4d_branch2b (in-place)
I0503 10:39:58.494369 91530 net.cpp:150] Setting up bn4d_branch2b
I0503 10:39:58.494377 91530 net.cpp:157] Top shape: 20 256 14 14 (1003520)
I0503 10:39:58.494382 91530 net.cpp:165] Memory required for data: 4002037840
I0503 10:39:58.494391 91530 layer_factory.hpp:77] Creating layer scale4d_branch2b
I0503 10:39:58.494398 91530 net.cpp:106] Creating Layer scale4d_branch2b
I0503 10:39:58.494402 91530 net.cpp:454] scale4d_branch2b <- res4d_branch2b
I0503 10:39:58.494408 91530 net.cpp:397] scale4d_branch2b -> res4d_branch2b (in-place)
I0503 10:39:58.494448 91530 layer_factory.hpp:77] Creating layer scale4d_branch2b
I0503 10:39:58.494550 91530 net.cpp:150] Setting up scale4d_branch2b
I0503 10:39:58.494560 91530 net.cpp:157] Top shape: 20 256 14 14 (1003520)
I0503 10:39:58.494563 91530 net.cpp:165] Memory required for data: 4006051920
I0503 10:39:58.494570 91530 layer_factory.hpp:77] Creating layer res4d_branch2b_relu
I0503 10:39:58.494582 91530 net.cpp:106] Creating Layer res4d_branch2b_relu
I0503 10:39:58.494587 91530 net.cpp:454] res4d_branch2b_relu <- res4d_branch2b
I0503 10:39:58.494595 91530 net.cpp:397] res4d_branch2b_relu -> res4d_branch2b (in-place)
I0503 10:39:58.494601 91530 net.cpp:150] Setting up res4d_branch2b_relu
I0503 10:39:58.494607 91530 net.cpp:157] Top shape: 20 256 14 14 (1003520)
I0503 10:39:58.494611 91530 net.cpp:165] Memory required for data: 4010066000
I0503 10:39:58.494616 91530 layer_factory.hpp:77] Creating layer res4d_branch2c
I0503 10:39:58.494623 91530 net.cpp:106] Creating Layer res4d_branch2c
I0503 10:39:58.494627 91530 net.cpp:454] res4d_branch2c <- res4d_branch2b
I0503 10:39:58.494635 91530 net.cpp:411] res4d_branch2c -> res4d_branch2c
I0503 10:39:58.495436 91530 net.cpp:150] Setting up res4d_branch2c
I0503 10:39:58.495451 91530 net.cpp:157] Top shape: 20 1024 14 14 (4014080)
I0503 10:39:58.495456 91530 net.cpp:165] Memory required for data: 4026122320
I0503 10:39:58.495462 91530 layer_factory.hpp:77] Creating layer bn4d_branch2c
I0503 10:39:58.495470 91530 net.cpp:106] Creating Layer bn4d_branch2c
I0503 10:39:58.495474 91530 net.cpp:454] bn4d_branch2c <- res4d_branch2c
I0503 10:39:58.495481 91530 net.cpp:397] bn4d_branch2c -> res4d_branch2c (in-place)
I0503 10:39:58.495651 91530 net.cpp:150] Setting up bn4d_branch2c
I0503 10:39:58.495659 91530 net.cpp:157] Top shape: 20 1024 14 14 (4014080)
I0503 10:39:58.495663 91530 net.cpp:165] Memory required for data: 4042178640
I0503 10:39:58.495672 91530 layer_factory.hpp:77] Creating layer scale4d_branch2c
I0503 10:39:58.495681 91530 net.cpp:106] Creating Layer scale4d_branch2c
I0503 10:39:58.495685 91530 net.cpp:454] scale4d_branch2c <- res4d_branch2c
I0503 10:39:58.495692 91530 net.cpp:397] scale4d_branch2c -> res4d_branch2c (in-place)
I0503 10:39:58.495728 91530 layer_factory.hpp:77] Creating layer scale4d_branch2c
I0503 10:39:58.495834 91530 net.cpp:150] Setting up scale4d_branch2c
I0503 10:39:58.495843 91530 net.cpp:157] Top shape: 20 1024 14 14 (4014080)
I0503 10:39:58.495847 91530 net.cpp:165] Memory required for data: 4058234960
I0503 10:39:58.495854 91530 layer_factory.hpp:77] Creating layer res4d
I0503 10:39:58.495862 91530 net.cpp:106] Creating Layer res4d
I0503 10:39:58.495867 91530 net.cpp:454] res4d <- res4c_res4c_relu_0_split_1
I0503 10:39:58.495873 91530 net.cpp:454] res4d <- res4d_branch2c
I0503 10:39:58.495880 91530 net.cpp:411] res4d -> res4d
I0503 10:39:58.495904 91530 net.cpp:150] Setting up res4d
I0503 10:39:58.495911 91530 net.cpp:157] Top shape: 20 1024 14 14 (4014080)
I0503 10:39:58.495916 91530 net.cpp:165] Memory required for data: 4074291280
I0503 10:39:58.495920 91530 layer_factory.hpp:77] Creating layer res4d_relu
I0503 10:39:58.495926 91530 net.cpp:106] Creating Layer res4d_relu
I0503 10:39:58.495930 91530 net.cpp:454] res4d_relu <- res4d
I0503 10:39:58.495936 91530 net.cpp:397] res4d_relu -> res4d (in-place)
I0503 10:39:58.495942 91530 net.cpp:150] Setting up res4d_relu
I0503 10:39:58.495947 91530 net.cpp:157] Top shape: 20 1024 14 14 (4014080)
I0503 10:39:58.495951 91530 net.cpp:165] Memory required for data: 4090347600
I0503 10:39:58.495955 91530 layer_factory.hpp:77] Creating layer res4d_res4d_relu_0_split
I0503 10:39:58.495966 91530 net.cpp:106] Creating Layer res4d_res4d_relu_0_split
I0503 10:39:58.495971 91530 net.cpp:454] res4d_res4d_relu_0_split <- res4d
I0503 10:39:58.495976 91530 net.cpp:411] res4d_res4d_relu_0_split -> res4d_res4d_relu_0_split_0
I0503 10:39:58.495983 91530 net.cpp:411] res4d_res4d_relu_0_split -> res4d_res4d_relu_0_split_1
I0503 10:39:58.496017 91530 net.cpp:150] Setting up res4d_res4d_relu_0_split
I0503 10:39:58.496024 91530 net.cpp:157] Top shape: 20 1024 14 14 (4014080)
I0503 10:39:58.496029 91530 net.cpp:157] Top shape: 20 1024 14 14 (4014080)
I0503 10:39:58.496033 91530 net.cpp:165] Memory required for data: 4122460240
I0503 10:39:58.496037 91530 layer_factory.hpp:77] Creating layer res4e_branch2a
I0503 10:39:58.496045 91530 net.cpp:106] Creating Layer res4e_branch2a
I0503 10:39:58.496054 91530 net.cpp:454] res4e_branch2a <- res4d_res4d_relu_0_split_0
I0503 10:39:58.496062 91530 net.cpp:411] res4e_branch2a -> res4e_branch2a
I0503 10:39:58.496891 91530 net.cpp:150] Setting up res4e_branch2a
I0503 10:39:58.496906 91530 net.cpp:157] Top shape: 20 256 14 14 (1003520)
I0503 10:39:58.496912 91530 net.cpp:165] Memory required for data: 4126474320
I0503 10:39:58.496917 91530 layer_factory.hpp:77] Creating layer bn4e_branch2a
I0503 10:39:58.496929 91530 net.cpp:106] Creating Layer bn4e_branch2a
I0503 10:39:58.496934 91530 net.cpp:454] bn4e_branch2a <- res4e_branch2a
I0503 10:39:58.496940 91530 net.cpp:397] bn4e_branch2a -> res4e_branch2a (in-place)
I0503 10:39:58.497108 91530 net.cpp:150] Setting up bn4e_branch2a
I0503 10:39:58.497117 91530 net.cpp:157] Top shape: 20 256 14 14 (1003520)
I0503 10:39:58.497122 91530 net.cpp:165] Memory required for data: 4130488400
I0503 10:39:58.497129 91530 layer_factory.hpp:77] Creating layer scale4e_branch2a
I0503 10:39:58.497138 91530 net.cpp:106] Creating Layer scale4e_branch2a
I0503 10:39:58.497143 91530 net.cpp:454] scale4e_branch2a <- res4e_branch2a
I0503 10:39:58.497148 91530 net.cpp:397] scale4e_branch2a -> res4e_branch2a (in-place)
I0503 10:39:58.497189 91530 layer_factory.hpp:77] Creating layer scale4e_branch2a
I0503 10:39:58.497290 91530 net.cpp:150] Setting up scale4e_branch2a
I0503 10:39:58.497299 91530 net.cpp:157] Top shape: 20 256 14 14 (1003520)
I0503 10:39:58.497304 91530 net.cpp:165] Memory required for data: 4134502480
I0503 10:39:58.497311 91530 layer_factory.hpp:77] Creating layer res4e_branch2a_relu
I0503 10:39:58.497318 91530 net.cpp:106] Creating Layer res4e_branch2a_relu
I0503 10:39:58.497323 91530 net.cpp:454] res4e_branch2a_relu <- res4e_branch2a
I0503 10:39:58.497328 91530 net.cpp:397] res4e_branch2a_relu -> res4e_branch2a (in-place)
I0503 10:39:58.497334 91530 net.cpp:150] Setting up res4e_branch2a_relu
I0503 10:39:58.497340 91530 net.cpp:157] Top shape: 20 256 14 14 (1003520)
I0503 10:39:58.497344 91530 net.cpp:165] Memory required for data: 4138516560
I0503 10:39:58.497349 91530 layer_factory.hpp:77] Creating layer res4e_branch2b
I0503 10:39:58.497359 91530 net.cpp:106] Creating Layer res4e_branch2b
I0503 10:39:58.497362 91530 net.cpp:454] res4e_branch2b <- res4e_branch2a
I0503 10:39:58.497370 91530 net.cpp:411] res4e_branch2b -> res4e_branch2b
I0503 10:39:58.498803 91530 net.cpp:150] Setting up res4e_branch2b
I0503 10:39:58.498819 91530 net.cpp:157] Top shape: 20 256 14 14 (1003520)
I0503 10:39:58.498824 91530 net.cpp:165] Memory required for data: 4142530640
I0503 10:39:58.498831 91530 layer_factory.hpp:77] Creating layer bn4e_branch2b
I0503 10:39:58.498837 91530 net.cpp:106] Creating Layer bn4e_branch2b
I0503 10:39:58.498842 91530 net.cpp:454] bn4e_branch2b <- res4e_branch2b
I0503 10:39:58.498852 91530 net.cpp:397] bn4e_branch2b -> res4e_branch2b (in-place)
I0503 10:39:58.499016 91530 net.cpp:150] Setting up bn4e_branch2b
I0503 10:39:58.499024 91530 net.cpp:157] Top shape: 20 256 14 14 (1003520)
I0503 10:39:58.499028 91530 net.cpp:165] Memory required for data: 4146544720
I0503 10:39:58.499037 91530 layer_factory.hpp:77] Creating layer scale4e_branch2b
I0503 10:39:58.499044 91530 net.cpp:106] Creating Layer scale4e_branch2b
I0503 10:39:58.499049 91530 net.cpp:454] scale4e_branch2b <- res4e_branch2b
I0503 10:39:58.499054 91530 net.cpp:397] scale4e_branch2b -> res4e_branch2b (in-place)
I0503 10:39:58.499094 91530 layer_factory.hpp:77] Creating layer scale4e_branch2b
I0503 10:39:58.499191 91530 net.cpp:150] Setting up scale4e_branch2b
I0503 10:39:58.499200 91530 net.cpp:157] Top shape: 20 256 14 14 (1003520)
I0503 10:39:58.499204 91530 net.cpp:165] Memory required for data: 4150558800
I0503 10:39:58.499212 91530 layer_factory.hpp:77] Creating layer res4e_branch2b_relu
I0503 10:39:58.499219 91530 net.cpp:106] Creating Layer res4e_branch2b_relu
I0503 10:39:58.499224 91530 net.cpp:454] res4e_branch2b_relu <- res4e_branch2b
I0503 10:39:58.499230 91530 net.cpp:397] res4e_branch2b_relu -> res4e_branch2b (in-place)
I0503 10:39:58.499243 91530 net.cpp:150] Setting up res4e_branch2b_relu
I0503 10:39:58.499249 91530 net.cpp:157] Top shape: 20 256 14 14 (1003520)
I0503 10:39:58.499253 91530 net.cpp:165] Memory required for data: 4154572880
I0503 10:39:58.499258 91530 layer_factory.hpp:77] Creating layer res4e_branch2c
I0503 10:39:58.499267 91530 net.cpp:106] Creating Layer res4e_branch2c
I0503 10:39:58.499272 91530 net.cpp:454] res4e_branch2c <- res4e_branch2b
I0503 10:39:58.499279 91530 net.cpp:411] res4e_branch2c -> res4e_branch2c
I0503 10:39:58.500077 91530 net.cpp:150] Setting up res4e_branch2c
I0503 10:39:58.500092 91530 net.cpp:157] Top shape: 20 1024 14 14 (4014080)
I0503 10:39:58.500097 91530 net.cpp:165] Memory required for data: 4170629200
I0503 10:39:58.500103 91530 layer_factory.hpp:77] Creating layer bn4e_branch2c
I0503 10:39:58.500110 91530 net.cpp:106] Creating Layer bn4e_branch2c
I0503 10:39:58.500115 91530 net.cpp:454] bn4e_branch2c <- res4e_branch2c
I0503 10:39:58.500121 91530 net.cpp:397] bn4e_branch2c -> res4e_branch2c (in-place)
I0503 10:39:58.500299 91530 net.cpp:150] Setting up bn4e_branch2c
I0503 10:39:58.500313 91530 net.cpp:157] Top shape: 20 1024 14 14 (4014080)
I0503 10:39:58.500318 91530 net.cpp:165] Memory required for data: 4186685520
I0503 10:39:58.500326 91530 layer_factory.hpp:77] Creating layer scale4e_branch2c
I0503 10:39:58.500334 91530 net.cpp:106] Creating Layer scale4e_branch2c
I0503 10:39:58.500337 91530 net.cpp:454] scale4e_branch2c <- res4e_branch2c
I0503 10:39:58.500344 91530 net.cpp:397] scale4e_branch2c -> res4e_branch2c (in-place)
I0503 10:39:58.500382 91530 layer_factory.hpp:77] Creating layer scale4e_branch2c
I0503 10:39:58.500521 91530 net.cpp:150] Setting up scale4e_branch2c
I0503 10:39:58.500535 91530 net.cpp:157] Top shape: 20 1024 14 14 (4014080)
I0503 10:39:58.500540 91530 net.cpp:165] Memory required for data: 4202741840
I0503 10:39:58.500546 91530 layer_factory.hpp:77] Creating layer res4e
I0503 10:39:58.500555 91530 net.cpp:106] Creating Layer res4e
I0503 10:39:58.500560 91530 net.cpp:454] res4e <- res4d_res4d_relu_0_split_1
I0503 10:39:58.500566 91530 net.cpp:454] res4e <- res4e_branch2c
I0503 10:39:58.500572 91530 net.cpp:411] res4e -> res4e
I0503 10:39:58.500598 91530 net.cpp:150] Setting up res4e
I0503 10:39:58.500607 91530 net.cpp:157] Top shape: 20 1024 14 14 (4014080)
I0503 10:39:58.500612 91530 net.cpp:165] Memory required for data: 4218798160
I0503 10:39:58.500615 91530 layer_factory.hpp:77] Creating layer res4e_relu
I0503 10:39:58.500622 91530 net.cpp:106] Creating Layer res4e_relu
I0503 10:39:58.500627 91530 net.cpp:454] res4e_relu <- res4e
I0503 10:39:58.500633 91530 net.cpp:397] res4e_relu -> res4e (in-place)
I0503 10:39:58.500639 91530 net.cpp:150] Setting up res4e_relu
I0503 10:39:58.500645 91530 net.cpp:157] Top shape: 20 1024 14 14 (4014080)
I0503 10:39:58.500649 91530 net.cpp:165] Memory required for data: 4234854480
I0503 10:39:58.500654 91530 layer_factory.hpp:77] Creating layer res4e_res4e_relu_0_split
I0503 10:39:58.500660 91530 net.cpp:106] Creating Layer res4e_res4e_relu_0_split
I0503 10:39:58.500664 91530 net.cpp:454] res4e_res4e_relu_0_split <- res4e
I0503 10:39:58.500670 91530 net.cpp:411] res4e_res4e_relu_0_split -> res4e_res4e_relu_0_split_0
I0503 10:39:58.500677 91530 net.cpp:411] res4e_res4e_relu_0_split -> res4e_res4e_relu_0_split_1
I0503 10:39:58.500712 91530 net.cpp:150] Setting up res4e_res4e_relu_0_split
I0503 10:39:58.500720 91530 net.cpp:157] Top shape: 20 1024 14 14 (4014080)
I0503 10:39:58.500725 91530 net.cpp:157] Top shape: 20 1024 14 14 (4014080)
I0503 10:39:58.500730 91530 net.cpp:165] Memory required for data: 4266967120
I0503 10:39:58.500733 91530 layer_factory.hpp:77] Creating layer res4f_branch2a
I0503 10:39:58.500741 91530 net.cpp:106] Creating Layer res4f_branch2a
I0503 10:39:58.500746 91530 net.cpp:454] res4f_branch2a <- res4e_res4e_relu_0_split_0
I0503 10:39:58.500753 91530 net.cpp:411] res4f_branch2a -> res4f_branch2a
I0503 10:39:58.501557 91530 net.cpp:150] Setting up res4f_branch2a
I0503 10:39:58.501572 91530 net.cpp:157] Top shape: 20 256 14 14 (1003520)
I0503 10:39:58.501581 91530 net.cpp:165] Memory required for data: 4270981200
I0503 10:39:58.501588 91530 layer_factory.hpp:77] Creating layer bn4f_branch2a
I0503 10:39:58.501596 91530 net.cpp:106] Creating Layer bn4f_branch2a
I0503 10:39:58.501601 91530 net.cpp:454] bn4f_branch2a <- res4f_branch2a
I0503 10:39:58.501607 91530 net.cpp:397] bn4f_branch2a -> res4f_branch2a (in-place)
I0503 10:39:58.501773 91530 net.cpp:150] Setting up bn4f_branch2a
I0503 10:39:58.501781 91530 net.cpp:157] Top shape: 20 256 14 14 (1003520)
I0503 10:39:58.501786 91530 net.cpp:165] Memory required for data: 4274995280
I0503 10:39:58.501794 91530 layer_factory.hpp:77] Creating layer scale4f_branch2a
I0503 10:39:58.501803 91530 net.cpp:106] Creating Layer scale4f_branch2a
I0503 10:39:58.501808 91530 net.cpp:454] scale4f_branch2a <- res4f_branch2a
I0503 10:39:58.501813 91530 net.cpp:397] scale4f_branch2a -> res4f_branch2a (in-place)
I0503 10:39:58.501852 91530 layer_factory.hpp:77] Creating layer scale4f_branch2a
I0503 10:39:58.501955 91530 net.cpp:150] Setting up scale4f_branch2a
I0503 10:39:58.501962 91530 net.cpp:157] Top shape: 20 256 14 14 (1003520)
I0503 10:39:58.501967 91530 net.cpp:165] Memory required for data: 4279009360
I0503 10:39:58.501973 91530 layer_factory.hpp:77] Creating layer res4f_branch2a_relu
I0503 10:39:58.501981 91530 net.cpp:106] Creating Layer res4f_branch2a_relu
I0503 10:39:58.501984 91530 net.cpp:454] res4f_branch2a_relu <- res4f_branch2a
I0503 10:39:58.501991 91530 net.cpp:397] res4f_branch2a_relu -> res4f_branch2a (in-place)
I0503 10:39:58.501998 91530 net.cpp:150] Setting up res4f_branch2a_relu
I0503 10:39:58.502004 91530 net.cpp:157] Top shape: 20 256 14 14 (1003520)
I0503 10:39:58.502008 91530 net.cpp:165] Memory required for data: 4283023440
I0503 10:39:58.502012 91530 layer_factory.hpp:77] Creating layer res4f_branch2b
I0503 10:39:58.502022 91530 net.cpp:106] Creating Layer res4f_branch2b
I0503 10:39:58.502025 91530 net.cpp:454] res4f_branch2b <- res4f_branch2a
I0503 10:39:58.502032 91530 net.cpp:411] res4f_branch2b -> res4f_branch2b
I0503 10:39:58.503465 91530 net.cpp:150] Setting up res4f_branch2b
I0503 10:39:58.503481 91530 net.cpp:157] Top shape: 20 256 14 14 (1003520)
I0503 10:39:58.503485 91530 net.cpp:165] Memory required for data: 4287037520
I0503 10:39:58.503492 91530 layer_factory.hpp:77] Creating layer bn4f_branch2b
I0503 10:39:58.503504 91530 net.cpp:106] Creating Layer bn4f_branch2b
I0503 10:39:58.503509 91530 net.cpp:454] bn4f_branch2b <- res4f_branch2b
I0503 10:39:58.503516 91530 net.cpp:397] bn4f_branch2b -> res4f_branch2b (in-place)
I0503 10:39:58.503690 91530 net.cpp:150] Setting up bn4f_branch2b
I0503 10:39:58.503697 91530 net.cpp:157] Top shape: 20 256 14 14 (1003520)
I0503 10:39:58.503702 91530 net.cpp:165] Memory required for data: 4291051600
I0503 10:39:58.503710 91530 layer_factory.hpp:77] Creating layer scale4f_branch2b
I0503 10:39:58.503717 91530 net.cpp:106] Creating Layer scale4f_branch2b
I0503 10:39:58.503722 91530 net.cpp:454] scale4f_branch2b <- res4f_branch2b
I0503 10:39:58.503731 91530 net.cpp:397] scale4f_branch2b -> res4f_branch2b (in-place)
I0503 10:39:58.503768 91530 layer_factory.hpp:77] Creating layer scale4f_branch2b
I0503 10:39:58.503867 91530 net.cpp:150] Setting up scale4f_branch2b
I0503 10:39:58.503877 91530 net.cpp:157] Top shape: 20 256 14 14 (1003520)
I0503 10:39:58.503881 91530 net.cpp:165] Memory required for data: 4295065680
I0503 10:39:58.503888 91530 layer_factory.hpp:77] Creating layer res4f_branch2b_relu
I0503 10:39:58.503895 91530 net.cpp:106] Creating Layer res4f_branch2b_relu
I0503 10:39:58.503900 91530 net.cpp:454] res4f_branch2b_relu <- res4f_branch2b
I0503 10:39:58.503906 91530 net.cpp:397] res4f_branch2b_relu -> res4f_branch2b (in-place)
I0503 10:39:58.503911 91530 net.cpp:150] Setting up res4f_branch2b_relu
I0503 10:39:58.503917 91530 net.cpp:157] Top shape: 20 256 14 14 (1003520)
I0503 10:39:58.503921 91530 net.cpp:165] Memory required for data: 4299079760
I0503 10:39:58.503926 91530 layer_factory.hpp:77] Creating layer res4f_branch2c
I0503 10:39:58.503940 91530 net.cpp:106] Creating Layer res4f_branch2c
I0503 10:39:58.503945 91530 net.cpp:454] res4f_branch2c <- res4f_branch2b
I0503 10:39:58.503952 91530 net.cpp:411] res4f_branch2c -> res4f_branch2c
I0503 10:39:58.504776 91530 net.cpp:150] Setting up res4f_branch2c
I0503 10:39:58.504791 91530 net.cpp:157] Top shape: 20 1024 14 14 (4014080)
I0503 10:39:58.504796 91530 net.cpp:165] Memory required for data: 4315136080
I0503 10:39:58.504803 91530 layer_factory.hpp:77] Creating layer bn4f_branch2c
I0503 10:39:58.504811 91530 net.cpp:106] Creating Layer bn4f_branch2c
I0503 10:39:58.504815 91530 net.cpp:454] bn4f_branch2c <- res4f_branch2c
I0503 10:39:58.504823 91530 net.cpp:397] bn4f_branch2c -> res4f_branch2c (in-place)
I0503 10:39:58.505007 91530 net.cpp:150] Setting up bn4f_branch2c
I0503 10:39:58.505015 91530 net.cpp:157] Top shape: 20 1024 14 14 (4014080)
I0503 10:39:58.505019 91530 net.cpp:165] Memory required for data: 4331192400
I0503 10:39:58.505071 91530 layer_factory.hpp:77] Creating layer scale4f_branch2c
I0503 10:39:58.505080 91530 net.cpp:106] Creating Layer scale4f_branch2c
I0503 10:39:58.505085 91530 net.cpp:454] scale4f_branch2c <- res4f_branch2c
I0503 10:39:58.505091 91530 net.cpp:397] scale4f_branch2c -> res4f_branch2c (in-place)
I0503 10:39:58.505131 91530 layer_factory.hpp:77] Creating layer scale4f_branch2c
I0503 10:39:58.505239 91530 net.cpp:150] Setting up scale4f_branch2c
I0503 10:39:58.505249 91530 net.cpp:157] Top shape: 20 1024 14 14 (4014080)
I0503 10:39:58.505252 91530 net.cpp:165] Memory required for data: 4347248720
I0503 10:39:58.505259 91530 layer_factory.hpp:77] Creating layer res4f
I0503 10:39:58.505266 91530 net.cpp:106] Creating Layer res4f
I0503 10:39:58.505271 91530 net.cpp:454] res4f <- res4e_res4e_relu_0_split_1
I0503 10:39:58.505276 91530 net.cpp:454] res4f <- res4f_branch2c
I0503 10:39:58.505285 91530 net.cpp:411] res4f -> res4f
I0503 10:39:58.505311 91530 net.cpp:150] Setting up res4f
I0503 10:39:58.505318 91530 net.cpp:157] Top shape: 20 1024 14 14 (4014080)
I0503 10:39:58.505322 91530 net.cpp:165] Memory required for data: 4363305040
I0503 10:39:58.505327 91530 layer_factory.hpp:77] Creating layer res4f_relu
I0503 10:39:58.505333 91530 net.cpp:106] Creating Layer res4f_relu
I0503 10:39:58.505337 91530 net.cpp:454] res4f_relu <- res4f
I0503 10:39:58.505343 91530 net.cpp:397] res4f_relu -> res4f (in-place)
I0503 10:39:58.505349 91530 net.cpp:150] Setting up res4f_relu
I0503 10:39:58.505355 91530 net.cpp:157] Top shape: 20 1024 14 14 (4014080)
I0503 10:39:58.505359 91530 net.cpp:165] Memory required for data: 4379361360
I0503 10:39:58.505363 91530 layer_factory.hpp:77] Creating layer res4f_res4f_relu_0_split
I0503 10:39:58.505369 91530 net.cpp:106] Creating Layer res4f_res4f_relu_0_split
I0503 10:39:58.505373 91530 net.cpp:454] res4f_res4f_relu_0_split <- res4f
I0503 10:39:58.505380 91530 net.cpp:411] res4f_res4f_relu_0_split -> res4f_res4f_relu_0_split_0
I0503 10:39:58.505388 91530 net.cpp:411] res4f_res4f_relu_0_split -> res4f_res4f_relu_0_split_1
I0503 10:39:58.505424 91530 net.cpp:150] Setting up res4f_res4f_relu_0_split
I0503 10:39:58.505431 91530 net.cpp:157] Top shape: 20 1024 14 14 (4014080)
I0503 10:39:58.505436 91530 net.cpp:157] Top shape: 20 1024 14 14 (4014080)
I0503 10:39:58.505440 91530 net.cpp:165] Memory required for data: 4411474000
I0503 10:39:58.505445 91530 layer_factory.hpp:77] Creating layer res5a_branch1
I0503 10:39:58.505452 91530 net.cpp:106] Creating Layer res5a_branch1
I0503 10:39:58.505457 91530 net.cpp:454] res5a_branch1 <- res4f_res4f_relu_0_split_0
I0503 10:39:58.505463 91530 net.cpp:411] res5a_branch1 -> res5a_branch1
I0503 10:39:58.510154 91530 net.cpp:150] Setting up res5a_branch1
I0503 10:39:58.510195 91530 net.cpp:157] Top shape: 20 2048 7 7 (2007040)
I0503 10:39:58.510200 91530 net.cpp:165] Memory required for data: 4419502160
I0503 10:39:58.510208 91530 layer_factory.hpp:77] Creating layer bn5a_branch1
I0503 10:39:58.510222 91530 net.cpp:106] Creating Layer bn5a_branch1
I0503 10:39:58.510228 91530 net.cpp:454] bn5a_branch1 <- res5a_branch1
I0503 10:39:58.510246 91530 net.cpp:397] bn5a_branch1 -> res5a_branch1 (in-place)
I0503 10:39:58.510452 91530 net.cpp:150] Setting up bn5a_branch1
I0503 10:39:58.510462 91530 net.cpp:157] Top shape: 20 2048 7 7 (2007040)
I0503 10:39:58.510467 91530 net.cpp:165] Memory required for data: 4427530320
I0503 10:39:58.510475 91530 layer_factory.hpp:77] Creating layer scale5a_branch1
I0503 10:39:58.510488 91530 net.cpp:106] Creating Layer scale5a_branch1
I0503 10:39:58.510493 91530 net.cpp:454] scale5a_branch1 <- res5a_branch1
I0503 10:39:58.510499 91530 net.cpp:397] scale5a_branch1 -> res5a_branch1 (in-place)
I0503 10:39:58.510542 91530 layer_factory.hpp:77] Creating layer scale5a_branch1
I0503 10:39:58.510655 91530 net.cpp:150] Setting up scale5a_branch1
I0503 10:39:58.510663 91530 net.cpp:157] Top shape: 20 2048 7 7 (2007040)
I0503 10:39:58.510668 91530 net.cpp:165] Memory required for data: 4435558480
I0503 10:39:58.510674 91530 layer_factory.hpp:77] Creating layer res5a_branch2a
I0503 10:39:58.510685 91530 net.cpp:106] Creating Layer res5a_branch2a
I0503 10:39:58.510691 91530 net.cpp:454] res5a_branch2a <- res4f_res4f_relu_0_split_1
I0503 10:39:58.510697 91530 net.cpp:411] res5a_branch2a -> res5a_branch2a
I0503 10:39:58.512044 91530 net.cpp:150] Setting up res5a_branch2a
I0503 10:39:58.512059 91530 net.cpp:157] Top shape: 20 512 7 7 (501760)
I0503 10:39:58.512064 91530 net.cpp:165] Memory required for data: 4437565520
I0503 10:39:58.512070 91530 layer_factory.hpp:77] Creating layer bn5a_branch2a
I0503 10:39:58.512079 91530 net.cpp:106] Creating Layer bn5a_branch2a
I0503 10:39:58.512084 91530 net.cpp:454] bn5a_branch2a <- res5a_branch2a
I0503 10:39:58.512089 91530 net.cpp:397] bn5a_branch2a -> res5a_branch2a (in-place)
I0503 10:39:58.512271 91530 net.cpp:150] Setting up bn5a_branch2a
I0503 10:39:58.512280 91530 net.cpp:157] Top shape: 20 512 7 7 (501760)
I0503 10:39:58.512284 91530 net.cpp:165] Memory required for data: 4439572560
I0503 10:39:58.512293 91530 layer_factory.hpp:77] Creating layer scale5a_branch2a
I0503 10:39:58.512300 91530 net.cpp:106] Creating Layer scale5a_branch2a
I0503 10:39:58.512305 91530 net.cpp:454] scale5a_branch2a <- res5a_branch2a
I0503 10:39:58.512311 91530 net.cpp:397] scale5a_branch2a -> res5a_branch2a (in-place)
I0503 10:39:58.512349 91530 layer_factory.hpp:77] Creating layer scale5a_branch2a
I0503 10:39:58.512476 91530 net.cpp:150] Setting up scale5a_branch2a
I0503 10:39:58.512490 91530 net.cpp:157] Top shape: 20 512 7 7 (501760)
I0503 10:39:58.512497 91530 net.cpp:165] Memory required for data: 4441579600
I0503 10:39:58.512508 91530 layer_factory.hpp:77] Creating layer res5a_branch2a_relu
I0503 10:39:58.512518 91530 net.cpp:106] Creating Layer res5a_branch2a_relu
I0503 10:39:58.512523 91530 net.cpp:454] res5a_branch2a_relu <- res5a_branch2a
I0503 10:39:58.512528 91530 net.cpp:397] res5a_branch2a_relu -> res5a_branch2a (in-place)
I0503 10:39:58.512537 91530 net.cpp:150] Setting up res5a_branch2a_relu
I0503 10:39:58.512543 91530 net.cpp:157] Top shape: 20 512 7 7 (501760)
I0503 10:39:58.512548 91530 net.cpp:165] Memory required for data: 4443586640
I0503 10:39:58.512552 91530 layer_factory.hpp:77] Creating layer res5a_branch2b
I0503 10:39:58.512560 91530 net.cpp:106] Creating Layer res5a_branch2b
I0503 10:39:58.512564 91530 net.cpp:454] res5a_branch2b <- res5a_branch2a
I0503 10:39:58.512570 91530 net.cpp:411] res5a_branch2b -> res5a_branch2b
I0503 10:39:58.517742 91530 net.cpp:150] Setting up res5a_branch2b
I0503 10:39:58.517783 91530 net.cpp:157] Top shape: 20 512 7 7 (501760)
I0503 10:39:58.517788 91530 net.cpp:165] Memory required for data: 4445593680
I0503 10:39:58.517797 91530 layer_factory.hpp:77] Creating layer bn5a_branch2b
I0503 10:39:58.517808 91530 net.cpp:106] Creating Layer bn5a_branch2b
I0503 10:39:58.517814 91530 net.cpp:454] bn5a_branch2b <- res5a_branch2b
I0503 10:39:58.517822 91530 net.cpp:397] bn5a_branch2b -> res5a_branch2b (in-place)
I0503 10:39:58.518018 91530 net.cpp:150] Setting up bn5a_branch2b
I0503 10:39:58.518026 91530 net.cpp:157] Top shape: 20 512 7 7 (501760)
I0503 10:39:58.518039 91530 net.cpp:165] Memory required for data: 4447600720
I0503 10:39:58.518049 91530 layer_factory.hpp:77] Creating layer scale5a_branch2b
I0503 10:39:58.518059 91530 net.cpp:106] Creating Layer scale5a_branch2b
I0503 10:39:58.518064 91530 net.cpp:454] scale5a_branch2b <- res5a_branch2b
I0503 10:39:58.518070 91530 net.cpp:397] scale5a_branch2b -> res5a_branch2b (in-place)
I0503 10:39:58.518115 91530 layer_factory.hpp:77] Creating layer scale5a_branch2b
I0503 10:39:58.518227 91530 net.cpp:150] Setting up scale5a_branch2b
I0503 10:39:58.518235 91530 net.cpp:157] Top shape: 20 512 7 7 (501760)
I0503 10:39:58.518240 91530 net.cpp:165] Memory required for data: 4449607760
I0503 10:39:58.518247 91530 layer_factory.hpp:77] Creating layer res5a_branch2b_relu
I0503 10:39:58.518254 91530 net.cpp:106] Creating Layer res5a_branch2b_relu
I0503 10:39:58.518260 91530 net.cpp:454] res5a_branch2b_relu <- res5a_branch2b
I0503 10:39:58.518266 91530 net.cpp:397] res5a_branch2b_relu -> res5a_branch2b (in-place)
I0503 10:39:58.518273 91530 net.cpp:150] Setting up res5a_branch2b_relu
I0503 10:39:58.518280 91530 net.cpp:157] Top shape: 20 512 7 7 (501760)
I0503 10:39:58.518283 91530 net.cpp:165] Memory required for data: 4451614800
I0503 10:39:58.518287 91530 layer_factory.hpp:77] Creating layer res5a_branch2c
I0503 10:39:58.518297 91530 net.cpp:106] Creating Layer res5a_branch2c
I0503 10:39:58.518302 91530 net.cpp:454] res5a_branch2c <- res5a_branch2b
I0503 10:39:58.518308 91530 net.cpp:411] res5a_branch2c -> res5a_branch2c
I0503 10:39:58.520747 91530 net.cpp:150] Setting up res5a_branch2c
I0503 10:39:58.520766 91530 net.cpp:157] Top shape: 20 2048 7 7 (2007040)
I0503 10:39:58.520771 91530 net.cpp:165] Memory required for data: 4459642960
I0503 10:39:58.520778 91530 layer_factory.hpp:77] Creating layer bn5a_branch2c
I0503 10:39:58.520787 91530 net.cpp:106] Creating Layer bn5a_branch2c
I0503 10:39:58.520793 91530 net.cpp:454] bn5a_branch2c <- res5a_branch2c
I0503 10:39:58.520799 91530 net.cpp:397] bn5a_branch2c -> res5a_branch2c (in-place)
I0503 10:39:58.520987 91530 net.cpp:150] Setting up bn5a_branch2c
I0503 10:39:58.520998 91530 net.cpp:157] Top shape: 20 2048 7 7 (2007040)
I0503 10:39:58.521001 91530 net.cpp:165] Memory required for data: 4467671120
I0503 10:39:58.521009 91530 layer_factory.hpp:77] Creating layer scale5a_branch2c
I0503 10:39:58.521018 91530 net.cpp:106] Creating Layer scale5a_branch2c
I0503 10:39:58.521021 91530 net.cpp:454] scale5a_branch2c <- res5a_branch2c
I0503 10:39:58.521029 91530 net.cpp:397] scale5a_branch2c -> res5a_branch2c (in-place)
I0503 10:39:58.521067 91530 layer_factory.hpp:77] Creating layer scale5a_branch2c
I0503 10:39:58.521178 91530 net.cpp:150] Setting up scale5a_branch2c
I0503 10:39:58.521188 91530 net.cpp:157] Top shape: 20 2048 7 7 (2007040)
I0503 10:39:58.521193 91530 net.cpp:165] Memory required for data: 4475699280
I0503 10:39:58.521199 91530 layer_factory.hpp:77] Creating layer res5a
I0503 10:39:58.521206 91530 net.cpp:106] Creating Layer res5a
I0503 10:39:58.521211 91530 net.cpp:454] res5a <- res5a_branch1
I0503 10:39:58.521216 91530 net.cpp:454] res5a <- res5a_branch2c
I0503 10:39:58.521222 91530 net.cpp:411] res5a -> res5a
I0503 10:39:58.521248 91530 net.cpp:150] Setting up res5a
I0503 10:39:58.521256 91530 net.cpp:157] Top shape: 20 2048 7 7 (2007040)
…
I0503 10:39:58.633313 91530 net.cpp:106] Creating Layer res4d_branch2a
I0503 10:39:58.633322 91530 net.cpp:454] res4d_branch2a <- res4c_res4c_relu_0_split_0
I0503 10:39:58.633335 91530 net.cpp:411] res4d_branch2a -> res4d_branch2a
I0503 10:39:58.634541 91530 net.cpp:150] Setting up res4d_branch2a
I0503 10:39:58.634562 91530 net.cpp:157] Top shape: 16 256 14 14 (802816)
I0503 10:39:58.634573 91530 net.cpp:165] Memory required for data: 3185574080
I0503 10:39:58.634583 91530 layer_factory.hpp:77] Creating layer bn4d_branch2a
I0503 10:39:58.634595 91530 net.cpp:106] Creating Layer bn4d_branch2a
I0503 10:39:58.634603 91530 net.cpp:454] bn4d_branch2a <- res4d_branch2a
I0503 10:39:58.634613 91530 net.cpp:397] bn4d_branch2a -> res4d_branch2a (in-place)
I0503 10:39:58.634871 91530 net.cpp:150] Setting up bn4d_branch2a
I0503 10:39:58.634886 91530 net.cpp:157] Top shape: 16 256 14 14 (802816)
I0503 10:39:58.634893 91530 net.cpp:165] Memory required for data: 3188785344
I0503 10:39:58.634910 91530 layer_factory.hpp:77] Creating layer scale4d_branch2a
I0503 10:39:58.634922 91530 net.cpp:106] Creating Layer scale4d_branch2a
I0503 10:39:58.634929 91530 net.cpp:454] scale4d_branch2a <- res4d_branch2a
I0503 10:39:58.634939 91530 net.cpp:397] scale4d_branch2a -> res4d_branch2a (in-place)
I0503 10:39:58.635002 91530 layer_factory.hpp:77] Creating layer scale4d_branch2a
I0503 10:39:58.635155 91530 net.cpp:150] Setting up scale4d_branch2a
I0503 10:39:58.635169 91530 net.cpp:157] Top shape: 16 256 14 14 (802816)
I0503 10:39:58.635175 91530 net.cpp:165] Memory required for data: 3191996608
I0503 10:39:58.635188 91530 layer_factory.hpp:77] Creating layer res4d_branch2a_relu
I0503 10:39:58.635200 91530 net.cpp:106] Creating Layer res4d_branch2a_relu
I0503 10:39:58.635208 91530 net.cpp:454] res4d_branch2a_relu <- res4d_branch2a
I0503 10:39:58.635218 91530 net.cpp:397] res4d_branch2a_relu -> res4d_branch2a (in-place)
I0503 10:39:58.635229 91530 net.cpp:150] Setting up res4d_branch2a_relu
I0503 10:39:58.635239 91530 net.cpp:157] Top shape: 16 256 14 14 (802816)
I0503 10:39:58.635246 91530 net.cpp:165] Memory required for data: 3195207872
I0503 10:39:58.635253 91530 layer_factory.hpp:77] Creating layer res4d_branch2b
I0503 10:39:58.635267 91530 net.cpp:106] Creating Layer res4d_branch2b
I0503 10:39:58.635274 91530 net.cpp:454] res4d_branch2b <- res4d_branch2a
I0503 10:39:58.635284 91530 net.cpp:411] res4d_branch2b -> res4d_branch2b
I0503 10:39:58.637313 91530 net.cpp:150] Setting up res4d_branch2b
I0503 10:39:58.637338 91530 net.cpp:157] Top shape: 16 256 14 14 (802816)
I0503 10:39:58.637346 91530 net.cpp:165] Memory required for data: 3198419136
I0503 10:39:58.637357 91530 layer_factory.hpp:77] Creating layer bn4d_branch2b
I0503 10:39:58.637372 91530 net.cpp:106] Creating Layer bn4d_branch2b
I0503 10:39:58.637380 91530 net.cpp:454] bn4d_branch2b <- res4d_branch2b
I0503 10:39:58.637403 91530 net.cpp:397] bn4d_branch2b -> res4d_branch2b (in-place)
I0503 10:39:58.637668 91530 net.cpp:150] Setting up bn4d_branch2b
I0503 10:39:58.637682 91530 net.cpp:157] Top shape: 16 256 14 14 (802816)
I0503 10:39:58.637691 91530 net.cpp:165] Memory required for data: 3201630400
I0503 10:39:58.637706 91530 layer_factory.hpp:77] Creating layer scale4d_branch2b
I0503 10:39:58.637722 91530 net.cpp:106] Creating Layer scale4d_branch2b
I0503 10:39:58.637732 91530 net.cpp:454] scale4d_branch2b <- res4d_branch2b
I0503 10:39:58.637742 91530 net.cpp:397] scale4d_branch2b -> res4d_branch2b (in-place)
I0503 10:39:58.637806 91530 layer_factory.hpp:77] Creating layer scale4d_branch2b
I0503 10:39:58.637960 91530 net.cpp:150] Setting up scale4d_branch2b
I0503 10:39:58.637974 91530 net.cpp:157] Top shape: 16 256 14 14 (802816)
I0503 10:39:58.637982 91530 net.cpp:165] Memory required for data: 3204841664
I0503 10:39:58.637994 91530 layer_factory.hpp:77] Creating layer res4d_branch2b_relu
I0503 10:39:58.638005 91530 net.cpp:106] Creating Layer res4d_branch2b_relu
I0503 10:39:58.638012 91530 net.cpp:454] res4d_branch2b_relu <- res4d_branch2b
I0503 10:39:58.638021 91530 net.cpp:397] res4d_branch2b_relu -> res4d_branch2b (in-place)
I0503 10:39:58.638032 91530 net.cpp:150] Setting up res4d_branch2b_relu
I0503 10:39:58.638041 91530 net.cpp:157] Top shape: 16 256 14 14 (802816)
I0503 10:39:58.638048 91530 net.cpp:165] Memory required for data: 3208052928
I0503 10:39:58.638056 91530 layer_factory.hpp:77] Creating layer res4d_branch2c
I0503 10:39:58.638070 91530 net.cpp:106] Creating Layer res4d_branch2c
I0503 10:39:58.638077 91530 net.cpp:454] res4d_branch2c <- res4d_branch2b
I0503 10:39:58.638090 91530 net.cpp:411] res4d_branch2c -> res4d_branch2c
I0503 10:39:58.639222 91530 net.cpp:150] Setting up res4d_branch2c
I0503 10:39:58.639243 91530 net.cpp:157] Top shape: 16 1024 14 14 (3211264)
I0503 10:39:58.639251 91530 net.cpp:165] Memory required for data: 3220897984
I0503 10:39:58.639262 91530 layer_factory.hpp:77] Creating layer bn4d_branch2c
I0503 10:39:58.639273 91530 net.cpp:106] Creating Layer bn4d_branch2c
I0503 10:39:58.639281 91530 net.cpp:454] bn4d_branch2c <- res4d_branch2c
I0503 10:39:58.639294 91530 net.cpp:397] bn4d_branch2c -> res4d_branch2c (in-place)
I0503 10:39:58.639575 91530 net.cpp:150] Setting up bn4d_branch2c
I0503 10:39:58.639590 91530 net.cpp:157] Top shape: 16 1024 14 14 (3211264)
I0503 10:39:58.639598 91530 net.cpp:165] Memory required for data: 3233743040
I0503 10:39:58.639612 91530 layer_factory.hpp:77] Creating layer scale4d_branch2c
I0503 10:39:58.639623 91530 net.cpp:106] Creating Layer scale4d_branch2c
I0503 10:39:58.639631 91530 net.cpp:454] scale4d_branch2c <- res4d_branch2c
I0503 10:39:58.639641 91530 net.cpp:397] scale4d_branch2c -> res4d_branch2c (in-place)
I0503 10:39:58.639703 91530 layer_factory.hpp:77] Creating layer scale4d_branch2c
I0503 10:39:58.639870 91530 net.cpp:150] Setting up scale4d_branch2c
I0503 10:39:58.639885 91530 net.cpp:157] Top shape: 16 1024 14 14 (3211264)
I0503 10:39:58.639892 91530 net.cpp:165] Memory required for data: 3246588096
I0503 10:39:58.639904 91530 layer_factory.hpp:77] Creating layer res4d
I0503 10:39:58.639917 91530 net.cpp:106] Creating Layer res4d
I0503 10:39:58.639925 91530 net.cpp:454] res4d <- res4c_res4c_relu_0_split_1
I0503 10:39:58.639935 91530 net.cpp:454] res4d <- res4d_branch2c
I0503 10:39:58.639945 91530 net.cpp:411] res4d -> res4d
I0503 10:39:58.639984 91530 net.cpp:150] Setting up res4d
I0503 10:39:58.639997 91530 net.cpp:157] Top shape: 16 1024 14 14 (3211264)
I0503 10:39:58.640005 91530 net.cpp:165] Memory required for data: 3259433152
I0503 10:39:58.640012 91530 layer_factory.hpp:77] Creating layer res4d_relu
I0503 10:39:58.640022 91530 net.cpp:106] Creating Layer res4d_relu
I0503 10:39:58.640029 91530 net.cpp:454] res4d_relu <- res4d
I0503 10:39:58.640040 91530 net.cpp:397] res4d_relu -> res4d (in-place)
I0503 10:39:58.640051 91530 net.cpp:150] Setting up res4d_relu
I0503 10:39:58.640061 91530 net.cpp:157] Top shape: 16 1024 14 14 (3211264)
I0503 10:39:58.640074 91530 net.cpp:165] Memory required for data: 3272278208
I0503 10:39:58.640082 91530 layer_factory.hpp:77] Creating layer res4d_res4d_relu_0_split
I0503 10:39:58.640092 91530 net.cpp:106] Creating Layer res4d_res4d_relu_0_split
I0503 10:39:58.640100 91530 net.cpp:454] res4d_res4d_relu_0_split <- res4d
I0503 10:39:58.640108 91530 net.cpp:411] res4d_res4d_relu_0_split -> res4d_res4d_relu_0_split_0
I0503 10:39:58.640120 91530 net.cpp:411] res4d_res4d_relu_0_split -> res4d_res4d_relu_0_split_1
I0503 10:39:58.640175 91530 net.cpp:150] Setting up res4d_res4d_relu_0_split
I0503 10:39:58.640187 91530 net.cpp:157] Top shape: 16 1024 14 14 (3211264)
I0503 10:39:58.640197 91530 net.cpp:157] Top shape: 16 1024 14 14 (3211264)
I0503 10:39:58.640202 91530 net.cpp:165] Memory required for data: 3297968320
I0503 10:39:58.640209 91530 layer_factory.hpp:77] Creating layer res4e_branch2a
I0503 10:39:58.640223 91530 net.cpp:106] Creating Layer res4e_branch2a
I0503 10:39:58.640231 91530 net.cpp:454] res4e_branch2a <- res4d_res4d_relu_0_split_0
I0503 10:39:58.640242 91530 net.cpp:411] res4e_branch2a -> res4e_branch2a
I0503 10:39:58.641371 91530 net.cpp:150] Setting up res4e_branch2a
I0503 10:39:58.641393 91530 net.cpp:157] Top shape: 16 256 14 14 (802816)
I0503 10:39:58.641402 91530 net.cpp:165] Memory required for data: 3301179584
I0503 10:39:58.641412 91530 layer_factory.hpp:77] Creating layer bn4e_branch2a
I0503 10:39:58.641423 91530 net.cpp:106] Creating Layer bn4e_branch2a
I0503 10:39:58.641432 91530 net.cpp:454] bn4e_branch2a <- res4e_branch2a
I0503 10:39:58.641441 91530 net.cpp:397] bn4e_branch2a -> res4e_branch2a (in-place)
I0503 10:39:58.641706 91530 net.cpp:150] Setting up bn4e_branch2a
I0503 10:39:58.641721 91530 net.cpp:157] Top shape: 16 256 14 14 (802816)
I0503 10:39:58.641729 91530 net.cpp:165] Memory required for data: 3304390848
I0503 10:39:58.641743 91530 layer_factory.hpp:77] Creating layer scale4e_branch2a
I0503 10:39:58.641755 91530 net.cpp:106] Creating Layer scale4e_branch2a
I0503 10:39:58.641762 91530 net.cpp:454] scale4e_branch2a <- res4e_branch2a
I0503 10:39:58.641772 91530 net.cpp:397] scale4e_branch2a -> res4e_branch2a (in-place)
I0503 10:39:58.641835 91530 layer_factory.hpp:77] Creating layer scale4e_branch2a
I0503 10:39:58.641991 91530 net.cpp:150] Setting up scale4e_branch2a
I0503 10:39:58.642005 91530 net.cpp:157] Top shape: 16 256 14 14 (802816)
I0503 10:39:58.642012 91530 net.cpp:165] Memory required for data: 3307602112
I0503 10:39:58.642024 91530 layer_factory.hpp:77] Creating layer res4e_branch2a_relu
I0503 10:39:58.642035 91530 net.cpp:106] Creating Layer res4e_branch2a_relu
I0503 10:39:58.642042 91530 net.cpp:454] res4e_branch2a_relu <- res4e_branch2a
I0503 10:39:58.642055 91530 net.cpp:397] res4e_branch2a_relu -> res4e_branch2a (in-place)
I0503 10:39:58.642066 91530 net.cpp:150] Setting up res4e_branch2a_relu
I0503 10:39:58.642076 91530 net.cpp:157] Top shape: 16 256 14 14 (802816)
I0503 10:39:58.642082 91530 net.cpp:165] Memory required for data: 3310813376
I0503 10:39:58.642089 91530 layer_factory.hpp:77] Creating layer res4e_branch2b
I0503 10:39:58.642102 91530 net.cpp:106] Creating Layer res4e_branch2b
I0503 10:39:58.642109 91530 net.cpp:454] res4e_branch2b <- res4e_branch2a
I0503 10:39:58.642122 91530 net.cpp:411] res4e_branch2b -> res4e_branch2b
I0503 10:39:58.644172 91530 net.cpp:150] Setting up res4e_branch2b
I0503 10:39:58.644196 91530 net.cpp:157] Top shape: 16 256 14 14 (802816)
I0503 10:39:58.644206 91530 net.cpp:165] Memory required for data: 3314024640
I0503 10:39:58.644217 91530 layer_factory.hpp:77] Creating layer bn4e_branch2b
I0503 10:39:58.644235 91530 net.cpp:106] Creating Layer bn4e_branch2b
I0503 10:39:58.644243 91530 net.cpp:454] bn4e_branch2b <- res4e_branch2b
I0503 10:39:58.644253 91530 net.cpp:397] bn4e_branch2b -> res4e_branch2b (in-place)
I0503 10:39:58.644527 91530 net.cpp:150] Setting up bn4e_branch2b
I0503 10:39:58.644544 91530 net.cpp:157] Top shape: 16 256 14 14 (802816)
I0503 10:39:58.644552 91530 net.cpp:165] Memory required for data: 3317235904
I0503 10:39:58.644577 91530 layer_factory.hpp:77] Creating layer scale4e_branch2b
I0503 10:39:58.644592 91530 net.cpp:106] Creating Layer scale4e_branch2b
I0503 10:39:58.644600 91530 net.cpp:454] scale4e_branch2b <- res4e_branch2b
I0503 10:39:58.644610 91530 net.cpp:397] scale4e_branch2b -> res4e_branch2b (in-place)
I0503 10:39:58.644675 91530 layer_factory.hpp:77] Creating layer scale4e_branch2b
I0503 10:39:58.644836 91530 net.cpp:150] Setting up scale4e_branch2b
I0503 10:39:58.644850 91530 net.cpp:157] Top shape: 16 256 14 14 (802816)
I0503 10:39:58.644857 91530 net.cpp:165] Memory required for data: 3320447168
I0503 10:39:58.644870 91530 layer_factory.hpp:77] Creating layer res4e_branch2b_relu
I0503 10:39:58.644881 91530 net.cpp:106] Creating Layer res4e_branch2b_relu
I0503 10:39:58.644887 91530 net.cpp:454] res4e_branch2b_relu <- res4e_branch2b
I0503 10:39:58.644899 91530 net.cpp:397] res4e_branch2b_relu -> res4e_branch2b (in-place)
I0503 10:39:58.644912 91530 net.cpp:150] Setting up res4e_branch2b_relu
I0503 10:39:58.644922 91530 net.cpp:157] Top shape: 16 256 14 14 (802816)
I0503 10:39:58.644928 91530 net.cpp:165] Memory required for data: 3323658432
I0503 10:39:58.644935 91530 layer_factory.hpp:77] Creating layer res4e_branch2c
I0503 10:39:58.644950 91530 net.cpp:106] Creating Layer res4e_branch2c
I0503 10:39:58.644958 91530 net.cpp:454] res4e_branch2c <- res4e_branch2b
I0503 10:39:58.644968 91530 net.cpp:411] res4e_branch2c -> res4e_branch2c
I0503 10:39:58.646121 91530 net.cpp:150] Setting up res4e_branch2c
I0503 10:39:58.646142 91530 net.cpp:157] Top shape: 16 1024 14 14 (3211264)
I0503 10:39:58.646150 91530 net.cpp:165] Memory required for data: 3336503488
I0503 10:39:58.646162 91530 layer_factory.hpp:77] Creating layer bn4e_branch2c
I0503 10:39:58.646174 91530 net.cpp:106] Creating Layer bn4e_branch2c
I0503 10:39:58.646183 91530 net.cpp:454] bn4e_branch2c <- res4e_branch2c
I0503 10:39:58.646193 91530 net.cpp:397] bn4e_branch2c -> res4e_branch2c (in-place)
I0503 10:39:58.646479 91530 net.cpp:150] Setting up bn4e_branch2c
I0503 10:39:58.646494 91530 net.cpp:157] Top shape: 16 1024 14 14 (3211264)
I0503 10:39:58.646502 91530 net.cpp:165] Memory required for data: 3349348544
I0503 10:39:58.646517 91530 layer_factory.hpp:77] Creating layer scale4e_branch2c
I0503 10:39:58.646528 91530 net.cpp:106] Creating Layer scale4e_branch2c
I0503 10:39:58.646536 91530 net.cpp:454] scale4e_branch2c <- res4e_branch2c
I0503 10:39:58.646548 91530 net.cpp:397] scale4e_branch2c -> res4e_branch2c (in-place)
I0503 10:39:58.646608 91530 layer_factory.hpp:77] Creating layer scale4e_branch2c
I0503 10:39:58.646775 91530 net.cpp:150] Setting up scale4e_branch2c
I0503 10:39:58.646791 91530 net.cpp:157] Top shape: 16 1024 14 14 (3211264)
I0503 10:39:58.646800 91530 net.cpp:165] Memory required for data: 3362193600
I0503 10:39:58.646811 91530 layer_factory.hpp:77] Creating layer res4e
I0503 10:39:58.646822 91530 net.cpp:106] Creating Layer res4e
I0503 10:39:58.646831 91530 net.cpp:454] res4e <- res4d_res4d_relu_0_split_1
I0503 10:39:58.646839 91530 net.cpp:454] res4e <- res4e_branch2c
I0503 10:39:58.646849 91530 net.cpp:411] res4e -> res4e
I0503 10:39:58.646889 91530 net.cpp:150] Setting up res4e
I0503 10:39:58.646903 91530 net.cpp:157] Top shape: 16 1024 14 14 (3211264)
I0503 10:39:58.646909 91530 net.cpp:165] Memory required for data: 3375038656
I0503 10:39:58.646916 91530 layer_factory.hpp:77] Creating layer res4e_relu
I0503 10:39:58.646929 91530 net.cpp:106] Creating Layer res4e_relu
I0503 10:39:58.646937 91530 net.cpp:454] res4e_relu <- res4e
I0503 10:39:58.646945 91530 net.cpp:397] res4e_relu -> res4e (in-place)
I0503 10:39:58.646956 91530 net.cpp:150] Setting up res4e_relu
I0503 10:39:58.646966 91530 net.cpp:157] Top shape: 16 1024 14 14 (3211264)
I0503 10:39:58.646973 91530 net.cpp:165] Memory required for data: 3387883712
I0503 10:39:58.646981 91530 layer_factory.hpp:77] Creating layer res4e_res4e_relu_0_split
I0503 10:39:58.646991 91530 net.cpp:106] Creating Layer res4e_res4e_relu_0_split
I0503 10:39:58.646997 91530 net.cpp:454] res4e_res4e_relu_0_split <- res4e
I0503 10:39:58.647014 91530 net.cpp:411] res4e_res4e_relu_0_split -> res4e_res4e_relu_0_split_0
I0503 10:39:58.647028 91530 net.cpp:411] res4e_res4e_relu_0_split -> res4e_res4e_relu_0_split_1
I0503 10:39:58.647083 91530 net.cpp:150] Setting up res4e_res4e_relu_0_split
I0503 10:39:58.647095 91530 net.cpp:157] Top shape: 16 1024 14 14 (3211264)
I0503 10:39:58.647104 91530 net.cpp:157] Top shape: 16 1024 14 14 (3211264)
I0503 10:39:58.647110 91530 net.cpp:165] Memory required for data: 3413573824
I0503 10:39:58.647119 91530 layer_factory.hpp:77] Creating layer res4f_branch2a
I0503 10:39:58.647132 91530 net.cpp:106] Creating Layer res4f_branch2a
I0503 10:39:58.647140 91530 net.cpp:454] res4f_branch2a <- res4e_res4e_relu_0_split_0
I0503 10:39:58.647151 91530 net.cpp:411] res4f_branch2a -> res4f_branch2a
I0503 10:39:58.648298 91530 net.cpp:150] Setting up res4f_branch2a
I0503 10:39:58.648319 91530 net.cpp:157] Top shape: 16 256 14 14 (802816)
I0503 10:39:58.648327 91530 net.cpp:165] Memory required for data: 3416785088
I0503 10:39:58.648339 91530 layer_factory.hpp:77] Creating layer bn4f_branch2a
I0503 10:39:58.648350 91530 net.cpp:106] Creating Layer bn4f_branch2a
I0503 10:39:58.648357 91530 net.cpp:454] bn4f_branch2a <- res4f_branch2a
I0503 10:39:58.648370 91530 net.cpp:397] bn4f_branch2a -> res4f_branch2a (in-place)
I0503 10:39:58.648638 91530 net.cpp:150] Setting up bn4f_branch2a
I0503 10:39:58.648654 91530 net.cpp:157] Top shape: 16 256 14 14 (802816)
I0503 10:39:58.648663 91530 net.cpp:165] Memory required for data: 3419996352
I0503 10:39:58.648677 91530 layer_factory.hpp:77] Creating layer scale4f_branch2a
I0503 10:39:58.648689 91530 net.cpp:106] Creating Layer scale4f_branch2a
I0503 10:39:58.648696 91530 net.cpp:454] scale4f_branch2a <- res4f_branch2a
I0503 10:39:58.648706 91530 net.cpp:397] scale4f_branch2a -> res4f_branch2a (in-place)
I0503 10:39:58.648771 91530 layer_factory.hpp:77] Creating layer scale4f_branch2a
I0503 10:39:58.648926 91530 net.cpp:150] Setting up scale4f_branch2a
I0503 10:39:58.648939 91530 net.cpp:157] Top shape: 16 256 14 14 (802816)
I0503 10:39:58.648947 91530 net.cpp:165] Memory required for data: 3423207616
I0503 10:39:58.648958 91530 layer_factory.hpp:77] Creating layer res4f_branch2a_relu
I0503 10:39:58.648968 91530 net.cpp:106] Creating Layer res4f_branch2a_relu
I0503 10:39:58.648978 91530 net.cpp:454] res4f_branch2a_relu <- res4f_branch2a
I0503 10:39:58.648990 91530 net.cpp:397] res4f_branch2a_relu -> res4f_branch2a (in-place)
I0503 10:39:58.649001 91530 net.cpp:150] Setting up res4f_branch2a_relu
I0503 10:39:58.649011 91530 net.cpp:157] Top shape: 16 256 14 14 (802816)
I0503 10:39:58.649019 91530 net.cpp:165] Memory required for data: 3426418880
I0503 10:39:58.649025 91530 layer_factory.hpp:77] Creating layer res4f_branch2b
I0503 10:39:58.649037 91530 net.cpp:106] Creating Layer res4f_branch2b
I0503 10:39:58.649045 91530 net.cpp:454] res4f_branch2b <- res4f_branch2a
I0503 10:39:58.649057 91530 net.cpp:411] res4f_branch2b -> res4f_branch2b
I0503 10:39:58.651109 91530 net.cpp:150] Setting up res4f_branch2b
I0503 10:39:58.651140 91530 net.cpp:157] Top shape: 16 256 14 14 (802816)
I0503 10:39:58.651149 91530 net.cpp:165] Memory required for data: 3429630144
I0503 10:39:58.651160 91530 layer_factory.hpp:77] Creating layer bn4f_branch2b
I0503 10:39:58.651172 91530 net.cpp:106] Creating Layer bn4f_branch2b
I0503 10:39:58.651180 91530 net.cpp:454] bn4f_branch2b <- res4f_branch2b
I0503 10:39:58.651191 91530 net.cpp:397] bn4f_branch2b -> res4f_branch2b (in-place)
I0503 10:39:58.651458 91530 net.cpp:150] Setting up bn4f_branch2b
I0503 10:39:58.651473 91530 net.cpp:157] Top shape: 16 256 14 14 (802816)
I0503 10:39:58.651480 91530 net.cpp:165] Memory required for data: 3432841408
I0503 10:39:58.651497 91530 layer_factory.hpp:77] Creating layer scale4f_branch2b
I0503 10:39:58.651510 91530 net.cpp:106] Creating Layer scale4f_branch2b
I0503 10:39:58.651517 91530 net.cpp:454] scale4f_branch2b <- res4f_branch2b
I0503 10:39:58.651527 91530 net.cpp:397] scale4f_branch2b -> res4f_branch2b (in-place)
I0503 10:39:58.651604 91530 layer_factory.hpp:77] Creating layer scale4f_branch2b
I0503 10:39:58.651763 91530 net.cpp:150] Setting up scale4f_branch2b
I0503 10:39:58.651777 91530 net.cpp:157] Top shape: 16 256 14 14 (802816)
I0503 10:39:58.651784 91530 net.cpp:165] Memory required for data: 3436052672
I0503 10:39:58.651796 91530 layer_factory.hpp:77] Creating layer res4f_branch2b_relu
I0503 10:39:58.651810 91530 net.cpp:106] Creating Layer res4f_branch2b_relu
I0503 10:39:58.651818 91530 net.cpp:454] res4f_branch2b_relu <- res4f_branch2b
I0503 10:39:58.651828 91530 net.cpp:397] res4f_branch2b_relu -> res4f_branch2b (in-place)
I0503 10:39:58.651839 91530 net.cpp:150] Setting up res4f_branch2b_relu
I0503 10:39:58.651849 91530 net.cpp:157] Top shape: 16 256 14 14 (802816)
I0503 10:39:58.651856 91530 net.cpp:165] Memory required for data: 3439263936
I0503 10:39:58.651864 91530 layer_factory.hpp:77] Creating layer res4f_branch2c
I0503 10:39:58.651880 91530 net.cpp:106] Creating Layer res4f_branch2c
I0503 10:39:58.651887 91530 net.cpp:454] res4f_branch2c <- res4f_branch2b
I0503 10:39:58.651897 91530 net.cpp:411] res4f_branch2c -> res4f_branch2c
I0503 10:39:58.653101 91530 net.cpp:150] Setting up res4f_branch2c
I0503 10:39:58.653125 91530 net.cpp:157] Top shape: 16 1024 14 14 (3211264)
I0503 10:39:58.653132 91530 net.cpp:165] Memory required for data: 3452108992
I0503 10:39:58.653143 91530 layer_factory.hpp:77] Creating layer bn4f_branch2c
I0503 10:39:58.653156 91530 net.cpp:106] Creating Layer bn4f_branch2c
I0503 10:39:58.653165 91530 net.cpp:454] bn4f_branch2c <- res4f_branch2c
I0503 10:39:58.653175 91530 net.cpp:397] bn4f_branch2c -> res4f_branch2c (in-place)
I0503 10:39:58.653460 91530 net.cpp:150] Setting up bn4f_branch2c
I0503 10:39:58.653475 91530 net.cpp:157] Top shape: 16 1024 14 14 (3211264)
I0503 10:39:58.653482 91530 net.cpp:165] Memory required for data: 3464954048
I0503 10:39:58.653548 91530 layer_factory.hpp:77] Creating layer scale4f_branch2c
I0503 10:39:58.653563 91530 net.cpp:106] Creating Layer scale4f_branch2c
I0503 10:39:58.653571 91530 net.cpp:454] scale4f_branch2c <- res4f_branch2c
I0503 10:39:58.653581 91530 net.cpp:397] scale4f_branch2c -> res4f_branch2c (in-place)
I0503 10:39:58.653646 91530 layer_factory.hpp:77] Creating layer scale4f_branch2c
I0503 10:39:58.653818 91530 net.cpp:150] Setting up scale4f_branch2c
I0503 10:39:58.653832 91530 net.cpp:157] Top shape: 16 1024 14 14 (3211264)
I0503 10:39:58.653841 91530 net.cpp:165] Memory required for data: 3477799104
I0503 10:39:58.653852 91530 layer_factory.hpp:77] Creating layer res4f
I0503 10:39:58.653864 91530 net.cpp:106] Creating Layer res4f
I0503 10:39:58.653872 91530 net.cpp:454] res4f <- res4e_res4e_relu_0_split_1
I0503 10:39:58.653882 91530 net.cpp:454] res4f <- res4f_branch2c
I0503 10:39:58.653893 91530 net.cpp:411] res4f -> res4f
I0503 10:39:58.653931 91530 net.cpp:150] Setting up res4f
I0503 10:39:58.653944 91530 net.cpp:157] Top shape: 16 1024 14 14 (3211264)
I0503 10:39:58.653951 91530 net.cpp:165] Memory required for data: 3490644160
I0503 10:39:58.653959 91530 layer_factory.hpp:77] Creating layer res4f_relu
I0503 10:39:58.653971 91530 net.cpp:106] Creating Layer res4f_relu
I0503 10:39:58.653978 91530 net.cpp:454] res4f_relu <- res4f
I0503 10:39:58.653988 91530 net.cpp:397] res4f_relu -> res4f (in-place)
I0503 10:39:58.654000 91530 net.cpp:150] Setting up res4f_relu
I0503 10:39:58.654009 91530 net.cpp:157] Top shape: 16 1024 14 14 (3211264)
I0503 10:39:58.654016 91530 net.cpp:165] Memory required for data: 3503489216
I0503 10:39:58.654023 91530 layer_factory.hpp:77] Creating layer res4f_res4f_relu_0_split
I0503 10:39:58.654036 91530 net.cpp:106] Creating Layer res4f_res4f_relu_0_split
I0503 10:39:58.654042 91530 net.cpp:454] res4f_res4f_relu_0_split <- res4f
I0503 10:39:58.654052 91530 net.cpp:411] res4f_res4f_relu_0_split -> res4f_res4f_relu_0_split_0
I0503 10:39:58.654063 91530 net.cpp:411] res4f_res4f_relu_0_split -> res4f_res4f_relu_0_split_1
I0503 10:39:58.654119 91530 net.cpp:150] Setting up res4f_res4f_relu_0_split
I0503 10:39:58.654137 91530 net.cpp:157] Top shape: 16 1024 14 14 (3211264)
I0503 10:39:58.654147 91530 net.cpp:157] Top shape: 16 1024 14 14 (3211264)
I0503 10:39:58.654155 91530 net.cpp:165] Memory required for data: 3529179328
I0503 10:39:58.654161 91530 layer_factory.hpp:77] Creating layer res5a_branch1
I0503 10:39:58.654173 91530 net.cpp:106] Creating Layer res5a_branch1
I0503 10:39:58.654181 91530 net.cpp:454] res5a_branch1 <- res4f_res4f_relu_0_split_0
I0503 10:39:58.654194 91530 net.cpp:411] res5a_branch1 -> res5a_branch1
I0503 10:39:58.659369 91530 net.cpp:150] Setting up res5a_branch1
I0503 10:39:58.659409 91530 net.cpp:157] Top shape: 16 2048 7 7 (1605632)
I0503 10:39:58.659415 91530 net.cpp:165] Memory required for data: 3535601856
I0503 10:39:58.659423 91530 layer_factory.hpp:77] Creating layer bn5a_branch1
I0503 10:39:58.659435 91530 net.cpp:106] Creating Layer bn5a_branch1
I0503 10:39:58.659441 91530 net.cpp:454] bn5a_branch1 <- res5a_branch1
I0503 10:39:58.659449 91530 net.cpp:397] bn5a_branch1 -> res5a_branch1 (in-place)
I0503 10:39:58.659677 91530 net.cpp:150] Setting up bn5a_branch1
I0503 10:39:58.659685 91530 net.cpp:157] Top shape: 16 2048 7 7 (1605632)
I0503 10:39:58.659690 91530 net.cpp:165] Memory required for data: 3542024384
I0503 10:39:58.659699 91530 layer_factory.hpp:77] Creating layer scale5a_branch1
I0503 10:39:58.659708 91530 net.cpp:106] Creating Layer scale5a_branch1
I0503 10:39:58.659713 91530 net.cpp:454] scale5a_branch1 <- res5a_branch1
I0503 10:39:58.659718 91530 net.cpp:397] scale5a_branch1 -> res5a_branch1 (in-place)
I0503 10:39:58.659768 91530 layer_factory.hpp:77] Creating layer scale5a_branch1
I0503 10:39:58.659893 91530 net.cpp:150] Setting up scale5a_branch1
I0503 10:39:58.659901 91530 net.cpp:157] Top shape: 16 2048 7 7 (1605632)
I0503 10:39:58.659906 91530 net.cpp:165] Memory required for data: 3548446912
I0503 10:39:58.659914 91530 layer_factory.hpp:77] Creating layer res5a_branch2a
I0503 10:39:58.659925 91530 net.cpp:106] Creating Layer res5a_branch2a
I0503 10:39:58.659930 91530 net.cpp:454] res5a_branch2a <- res4f_res4f_relu_0_split_1
I0503 10:39:58.659937 91530 net.cpp:411] res5a_branch2a -> res5a_branch2a
I0503 10:39:58.661357 91530 net.cpp:150] Setting up res5a_branch2a
I0503 10:39:58.661375 91530 net.cpp:157] Top shape: 16 512 7 7 (401408)
I0503 10:39:58.661380 91530 net.cpp:165] Memory required for data: 3550052544
I0503 10:39:58.661386 91530 layer_factory.hpp:77] Creating layer bn5a_branch2a
I0503 10:39:58.661396 91530 net.cpp:106] Creating Layer bn5a_branch2a
I0503 10:39:58.661402 91530 net.cpp:454] bn5a_branch2a <- res5a_branch2a
I0503 10:39:58.661408 91530 net.cpp:397] bn5a_branch2a -> res5a_branch2a (in-place)
I0503 10:39:58.661607 91530 net.cpp:150] Setting up bn5a_branch2a
I0503 10:39:58.661617 91530 net.cpp:157] Top shape: 16 512 7 7 (401408)
I0503 10:39:58.661622 91530 net.cpp:165] Memory required for data: 3551658176
I0503 10:39:58.661629 91530 layer_factory.hpp:77] Creating layer scale5a_branch2a
I0503 10:39:58.661638 91530 net.cpp:106] Creating Layer scale5a_branch2a
I0503 10:39:58.661643 91530 net.cpp:454] scale5a_branch2a <- res5a_branch2a
I0503 10:39:58.661649 91530 net.cpp:397] scale5a_branch2a -> res5a_branch2a (in-place)
I0503 10:39:58.661691 91530 layer_factory.hpp:77] Creating layer scale5a_branch2a
I0503 10:39:58.661810 91530 net.cpp:150] Setting up scale5a_branch2a
I0503 10:39:58.661819 91530 net.cpp:157] Top shape: 16 512 7 7 (401408)
I0503 10:39:58.661823 91530 net.cpp:165] Memory required for data: 3553263808
I0503 10:39:58.661830 91530 layer_factory.hpp:77] Creating layer res5a_branch2a_relu
I0503 10:39:58.661839 91530 net.cpp:106] Creating Layer res5a_branch2a_relu
I0503 10:39:58.661844 91530 net.cpp:454] res5a_branch2a_relu <- res5a_branch2a
I0503 10:39:58.661849 91530 net.cpp:397] res5a_branch2a_relu -> res5a_branch2a (in-place)
I0503 10:39:58.661856 91530 net.cpp:150] Setting up res5a_branch2a_relu
I0503 10:39:58.661862 91530 net.cpp:157] Top shape: 16 512 7 7 (401408)
I0503 10:39:58.661866 91530 net.cpp:165] Memory required for data: 3554869440
I0503 10:39:58.661878 91530 layer_factory.hpp:77] Creating layer res5a_branch2b
I0503 10:39:58.661888 91530 net.cpp:106] Creating Layer res5a_branch2b
I0503 10:39:58.661893 91530 net.cpp:454] res5a_branch2b <- res5a_branch2a
I0503 10:39:58.661901 91530 net.cpp:411] res5a_branch2b -> res5a_branch2b
I0503 10:39:58.667115 91530 net.cpp:150] Setting up res5a_branch2b
I0503 10:39:58.667156 91530 net.cpp:157] Top shape: 16 512 7 7 (401408)
I0503 10:39:58.667161 91530 net.cpp:165] Memory required for data: 3556475072
I0503 10:39:58.667171 91530 layer_factory.hpp:77] Creating layer bn5a_branch2b
I0503 10:39:58.667182 91530 net.cpp:106] Creating Layer bn5a_branch2b
I0503 10:39:58.667188 91530 net.cpp:454] bn5a_branch2b <- res5a_branch2b
I0503 10:39:58.667198 91530 net.cpp:397] bn5a_branch2b -> res5a_branch2b (in-place)
I0503 10:39:58.667413 91530 net.cpp:150] Setting up bn5a_branch2b
I0503 10:39:58.667423 91530 net.cpp:157] Top shape: 16 512 7 7 (401408)
I0503 10:39:58.667428 91530 net.cpp:165] Memory required for data: 3558080704
I0503 10:39:58.667438 91530 layer_factory.hpp:77] Creating layer scale5a_branch2b
I0503 10:39:58.667445 91530 net.cpp:106] Creating Layer scale5a_branch2b
I0503 10:39:58.667450 91530 net.cpp:454] scale5a_branch2b <- res5a_branch2b
I0503 10:39:58.667456 91530 net.cpp:397] scale5a_branch2b -> res5a_branch2b (in-place)
I0503 10:39:58.667507 91530 layer_factory.hpp:77] Creating layer scale5a_branch2b
I0503 10:39:58.667625 91530 net.cpp:150] Setting up scale5a_branch2b
I0503 10:39:58.667634 91530 net.cpp:157] Top shape: 16 512 7 7 (401408)
I0503 10:39:58.667639 91530 net.cpp:165] Memory required for data: 3559686336
I0503 10:39:58.667645 91530 layer_factory.hpp:77] Creating layer res5a_branch2b_relu
I0503 10:39:58.667654 91530 net.cpp:106] Creating Layer res5a_branch2b_relu
I0503 10:39:58.667659 91530 net.cpp:454] res5a_branch2b_relu <- res5a_branch2b
I0503 10:39:58.667665 91530 net.cpp:397] res5a_branch2b_relu -> res5a_branch2b (in-place)
I0503 10:39:58.667673 91530 net.cpp:150] Setting up res5a_branch2b_relu
I0503 10:39:58.667680 91530 net.cpp:157] Top shape: 16 512 7 7 (401408)
I0503 10:39:58.667683 91530 net.cpp:165] Memory required for data: 3561291968
I0503 10:39:58.667687 91530 layer_factory.hpp:77] Creating layer res5a_branch2c
I0503 10:39:58.667696 91530 net.cpp:106] Creating Layer res5a_branch2c
I0503 10:39:58.667701 91530 net.cpp:454] res5a_branch2c <- res5a_branch2b
I0503 10:39:58.667709 91530 net.cpp:411] res5a_branch2c -> res5a_branch2c
I0503 10:39:58.670181 91530 net.cpp:150] Setting up res5a_branch2c
I0503 10:39:58.670202 91530 net.cpp:157] Top shape: 16 2048 7 7 (1605632)
I0503 10:39:58.670207 91530 net.cpp:165] Memory required for data: 3567714496
I0503 10:39:58.670214 91530 layer_factory.hpp:77] Creating layer bn5a_branch2c
I0503 10:39:58.670222 91530 net.cpp:106] Creating Layer bn5a_branch2c
I0503 10:39:58.670228 91530 net.cpp:454] bn5a_branch2c <- res5a_branch2c
I0503 10:39:58.670234 91530 net.cpp:397] bn5a_branch2c -> res5a_branch2c (in-place)
I0503 10:39:58.670450 91530 net.cpp:150] Setting up bn5a_branch2c
I0503 10:39:58.670460 91530 net.cpp:157] Top shape: 16 2048 7 7 (1605632)
I0503 10:39:58.670464 91530 net.cpp:165] Memory required for data: 3574137024
I0503 10:39:58.670474 91530 layer_factory.hpp:77] Creating layer scale5a_branch2c
I0503 10:39:58.670482 91530 net.cpp:106] Creating Layer scale5a_branch2c
I0503 10:39:58.670487 91530 net.cpp:454] scale5a_branch2c <- res5a_branch2c
I0503 10:39:58.670493 91530 net.cpp:397] scale5a_branch2c -> res5a_branch2c (in-place)
I0503 10:39:58.670542 91530 layer_factory.hpp:77] Creating layer scale5a_branch2c
I0503 10:39:58.670668 91530 net.cpp:150] Setting up scale5a_branch2c
I0503 10:39:58.670677 91530 net.cpp:157] Top shape: 16 2048 7 7 (1605632)
I0503 10:39:58.670681 91530 net.cpp:165] Memory required for data: 3580559552
I0503 10:39:58.670688 91530 layer_factory.hpp:77] Creating layer res5a
I0503 10:39:58.670697 91530 net.cpp:106] Creating Layer res5a
I0503 10:39:58.670702 91530 net.cpp:454] res5a <- res5a_branch1
I0503 10:39:58.670717 91530 net.cpp:454] res5a <- res5a_branch2c
I0503 10:39:58.670723 91530 net.cpp:411] res5a -> res5a
I0503 10:39:58.670750 91530 net.cpp:150] Setting up res5a
I0503 10:39:58.670758 91530 net.cpp:157] Top shape: 16 2048 7 7 (1605632)
I0503 10:39:58.670763 91530 net.cpp:165] Memory required for data: 3586982080
I0503 10:39:58.670768 91530 layer_factory.hpp:77] Creating layer res5a_relu
I0503 10:39:58.670773 91530 net.cpp:106] Creating Layer res5a_relu
I0503 10:39:58.670778 91530 net.cpp:454] res5a_relu <- res5a
I0503 10:39:58.670785 91530 net.cpp:397] res5a_relu -> res5a (in-place)
I0503 10:39:58.670794 91530 net.cpp:150] Setting up res5a_relu
I0503 10:39:58.670799 91530 net.cpp:157] Top shape: 16 2048 7 7 (1605632)
I0503 10:39:58.670802 91530 net.cpp:165] Memory required for data: 3593404608
I0503 10:39:58.670807 91530 layer_factory.hpp:77] Creating layer res5a_res5a_relu_0_split
I0503 10:39:58.670814 91530 net.cpp:106] Creating Layer res5a_res5a_relu_0_split
I0503 10:39:58.670819 91530 net.cpp:454] res5a_res5a_relu_0_split <- res5a
I0503 10:39:58.670825 91530 net.cpp:411] res5a_res5a_relu_0_split -> res5a_res5a_relu_0_split_0
I0503 10:39:58.670831 91530 net.cpp:411] res5a_res5a_relu_0_split -> res5a_res5a_relu_0_split_1
I0503 10:39:58.670867 91530 net.cpp:150] Setting up res5a_res5a_relu_0_split
I0503 10:39:58.670876 91530 net.cpp:157] Top shape: 16 2048 7 7 (1605632)
I0503 10:39:58.670881 91530 net.cpp:157] Top shape: 16 2048 7 7 (1605632)
I0503 10:39:58.670884 91530 net.cpp:165] Memory required for data: 3606249664
I0503 10:39:58.670888 91530 layer_factory.hpp:77] Creating layer res5b_branch2a
I0503 10:39:58.670897 91530 net.cpp:106] Creating Layer res5b_branch2a
I0503 10:39:58.670902 91530 net.cpp:454] res5b_branch2a <- res5a_res5a_relu_0_split_0
I0503 10:39:58.670908 91530 net.cpp:411] res5b_branch2a -> res5b_branch2a
I0503 10:39:58.673358 91530 net.cpp:150] Setting up res5b_branch2a
I0503 10:39:58.673378 91530 net.cpp:157] Top shape: 16 512 7 7 (401408)
I0503 10:39:58.673384 91530 net.cpp:165] Memory required for data: 3607855296
I0503 10:39:58.673390 91530 layer_factory.hpp:77] Creating layer bn5b_branch2a
I0503 10:39:58.673401 91530 net.cpp:106] Creating Layer bn5b_branch2a
I0503 10:39:58.673406 91530 net.cpp:454] bn5b_branch2a <- res5b_branch2a
I0503 10:39:58.673413 91530 net.cpp:397] bn5b_branch2a -> res5b_branch2a (in-place)
I0503 10:39:58.673612 91530 net.cpp:150] Setting up bn5b_branch2a
I0503 10:39:58.673621 91530 net.cpp:157] Top shape: 16 512 7 7 (401408)
I0503 10:39:58.673626 91530 net.cpp:165] Memory required for data: 3609460928
I0503 10:39:58.673635 91530 layer_factory.hpp:77] Creating layer scale5b_branch2a
I0503 10:39:58.673645 91530 net.cpp:106] Creating Layer scale5b_branch2a
I0503 10:39:58.673650 91530 net.cpp:454] scale5b_branch2a <- res5b_branch2a
I0503 10:39:58.673655 91530 net.cpp:397] scale5b_branch2a -> res5b_branch2a (in-place)
I0503 10:39:58.673698 91530 layer_factory.hpp:77] Creating layer scale5b_branch2a
I0503 10:39:58.673820 91530 net.cpp:150] Setting up scale5b_branch2a
I0503 10:39:58.673828 91530 net.cpp:157] Top shape: 16 512 7 7 (401408)
I0503 10:39:58.673832 91530 net.cpp:165] Memory required for data: 3611066560
I0503 10:39:58.673840 91530 layer_factory.hpp:77] Creating layer res5b_branch2a_relu
I0503 10:39:58.673846 91530 net.cpp:106] Creating Layer res5b_branch2a_relu
I0503 10:39:58.673851 91530 net.cpp:454] res5b_branch2a_relu <- res5b_branch2a
I0503 10:39:58.673858 91530 net.cpp:397] res5b_branch2a_relu -> res5b_branch2a (in-place)
I0503 10:39:58.673866 91530 net.cpp:150] Setting up res5b_branch2a_relu
I0503 10:39:58.673871 91530 net.cpp:157] Top shape: 16 512 7 7 (401408)
I0503 10:39:58.673877 91530 net.cpp:165] Memory required for data: 3612672192
I0503 10:39:58.673880 91530 layer_factory.hpp:77] Creating layer res5b_branch2b
I0503 10:39:58.673888 91530 net.cpp:106] Creating Layer res5b_branch2b
I0503 10:39:58.673894 91530 net.cpp:454] res5b_branch2b <- res5b_branch2a
I0503 10:39:58.673902 91530 net.cpp:411] res5b_branch2b -> res5b_branch2b
I0503 10:39:58.679134 91530 net.cpp:150] Setting up res5b_branch2b
I0503 10:39:58.679184 91530 net.cpp:157] Top shape: 16 512 7 7 (401408)
I0503 10:39:58.679190 91530 net.cpp:165] Memory required for data: 3614277824
I0503 10:39:58.679199 91530 layer_factory.hpp:77] Creating layer bn5b_branch2b
I0503 10:39:58.679214 91530 net.cpp:106] Creating Layer bn5b_branch2b
I0503 10:39:58.679220 91530 net.cpp:454] bn5b_branch2b <- res5b_branch2b
I0503 10:39:58.679229 91530 net.cpp:397] bn5b_branch2b -> res5b_branch2b (in-place)
I0503 10:39:58.679450 91530 net.cpp:150] Setting up bn5b_branch2b
I0503 10:39:58.679460 91530 net.cpp:157] Top shape: 16 512 7 7 (401408)
I0503 10:39:58.679464 91530 net.cpp:165] Memory required for data: 3615883456
I0503 10:39:58.679472 91530 layer_factory.hpp:77] Creating layer scale5b_branch2b
I0503 10:39:58.679481 91530 net.cpp:106] Creating Layer scale5b_branch2b
I0503 10:39:58.679486 91530 net.cpp:454] scale5b_branch2b <- res5b_branch2b
I0503 10:39:58.679491 91530 net.cpp:397] scale5b_branch2b -> res5b_branch2b (in-place)
I0503 10:39:58.679543 91530 layer_factory.hpp:77] Creating layer scale5b_branch2b
I0503 10:39:58.679661 91530 net.cpp:150] Setting up scale5b_branch2b
I0503 10:39:58.679671 91530 net.cpp:157] Top shape: 16 512 7 7 (401408)
I0503 10:39:58.679674 91530 net.cpp:165] Memory required for data: 3617489088
I0503 10:39:58.679682 91530 layer_factory.hpp:77] Creating layer res5b_branch2b_relu
I0503 10:39:58.679692 91530 net.cpp:106] Creating Layer res5b_branch2b_relu
I0503 10:39:58.679697 91530 net.cpp:454] res5b_branch2b_relu <- res5b_branch2b
I0503 10:39:58.679702 91530 net.cpp:397] res5b_branch2b_relu -> res5b_branch2b (in-place)
I0503 10:39:58.679708 91530 net.cpp:150] Setting up res5b_branch2b_relu
I0503 10:39:58.679714 91530 net.cpp:157] Top shape: 16 512 7 7 (401408)
I0503 10:39:58.679718 91530 net.cpp:165] Memory required for data: 3619094720
I0503 10:39:58.679723 91530 layer_factory.hpp:77] Creating layer res5b_branch2c
I0503 10:39:58.679736 91530 net.cpp:106] Creating Layer res5b_branch2c
I0503 10:39:58.679740 91530 net.cpp:454] res5b_branch2c <- res5b_branch2b
I0503 10:39:58.679747 91530 net.cpp:411] res5b_branch2c -> res5b_branch2c
I0503 10:39:58.682229 91530 net.cpp:150] Setting up res5b_branch2c
I0503 10:39:58.682250 91530 net.cpp:157] Top shape: 16 2048 7 7 (1605632)
I0503 10:39:58.682255 91530 net.cpp:165] Memory required for data: 3625517248
I0503 10:39:58.682261 91530 layer_factory.hpp:77] Creating layer bn5b_branch2c
I0503 10:39:58.682270 91530 net.cpp:106] Creating Layer bn5b_branch2c
I0503 10:39:58.682276 91530 net.cpp:454] bn5b_branch2c <- res5b_branch2c
I0503 10:39:58.682281 91530 net.cpp:397] bn5b_branch2c -> res5b_branch2c (in-place)
I0503 10:39:58.682488 91530 net.cpp:150] Setting up bn5b_branch2c
I0503 10:39:58.682497 91530 net.cpp:157] Top shape: 16 2048 7 7 (1605632)
I0503 10:39:58.682502 91530 net.cpp:165] Memory required for data: 3631939776
I0503 10:39:58.682510 91530 layer_factory.hpp:77] Creating layer scale5b_branch2c
I0503 10:39:58.682518 91530 net.cpp:106] Creating Layer scale5b_branch2c
I0503 10:39:58.682523 91530 net.cpp:454] scale5b_branch2c <- res5b_branch2c
I0503 10:39:58.682528 91530 net.cpp:397] scale5b_branch2c -> res5b_branch2c (in-place)
I0503 10:39:58.682574 91530 layer_factory.hpp:77] Creating layer scale5b_branch2c
I0503 10:39:58.682695 91530 net.cpp:150] Setting up scale5b_branch2c
I0503 10:39:58.682704 91530 net.cpp:157] Top shape: 16 2048 7 7 (1605632)
I0503 10:39:58.682708 91530 net.cpp:165] Memory required for data: 3638362304
I0503 10:39:58.682715 91530 layer_factory.hpp:77] Creating layer res5b
I0503 10:39:58.682724 91530 net.cpp:106] Creating Layer res5b
I0503 10:39:58.682729 91530 net.cpp:454] res5b <- res5a_res5a_relu_0_split_1
I0503 10:39:58.682735 91530 net.cpp:454] res5b <- res5b_branch2c
I0503 10:39:58.682742 91530 net.cpp:411] res5b -> res5b
I0503 10:39:58.682768 91530 net.cpp:150] Setting up res5b
I0503 10:39:58.682775 91530 net.cpp:157] Top shape: 16 2048 7 7 (1605632)
I0503 10:39:58.682780 91530 net.cpp:165] Memory required for data: 3644784832
I0503 10:39:58.682790 91530 layer_factory.hpp:77] Creating layer res5b_relu
I0503 10:39:58.682799 91530 net.cpp:106] Creating Layer res5b_relu
I0503 10:39:58.682811 91530 net.cpp:454] res5b_relu <- res5b
I0503 10:39:58.682816 91530 net.cpp:397] res5b_relu -> res5b (in-place)
I0503 10:39:58.682823 91530 net.cpp:150] Setting up res5b_relu
I0503 10:39:58.682829 91530 net.cpp:157] Top shape: 16 2048 7 7 (1605632)
I0503 10:39:58.682833 91530 net.cpp:165] Memory required for data: 3651207360
I0503 10:39:58.682837 91530 layer_factory.hpp:77] Creating layer res5b_res5b_relu_0_split
I0503 10:39:58.682843 91530 net.cpp:106] Creating Layer res5b_res5b_relu_0_split
I0503 10:39:58.682847 91530 net.cpp:454] res5b_res5b_relu_0_split <- res5b
I0503 10:39:58.682853 91530 net.cpp:411] res5b_res5b_relu_0_split -> res5b_res5b_relu_0_split_0
I0503 10:39:58.682860 91530 net.cpp:411] res5b_res5b_relu_0_split -> res5b_res5b_relu_0_split_1
I0503 10:39:58.682901 91530 net.cpp:150] Setting up res5b_res5b_relu_0_split
I0503 10:39:58.682910 91530 net.cpp:157] Top shape: 16 2048 7 7 (1605632)
I0503 10:39:58.682915 91530 net.cpp:157] Top shape: 16 2048 7 7 (1605632)
I0503 10:39:58.682919 91530 net.cpp:165] Memory required for data: 3664052416
I0503 10:39:58.682924 91530 layer_factory.hpp:77] Creating layer res5c_branch2a
I0503 10:39:58.682932 91530 net.cpp:106] Creating Layer res5c_branch2a
I0503 10:39:58.682937 91530 net.cpp:454] res5c_branch2a <- res5b_res5b_relu_0_split_0
I0503 10:39:58.682945 91530 net.cpp:411] res5c_branch2a -> res5c_branch2a
I0503 10:39:58.685359 91530 net.cpp:150] Setting up res5c_branch2a
I0503 10:39:58.685379 91530 net.cpp:157] Top shape: 16 512 7 7 (401408)
I0503 10:39:58.685384 91530 net.cpp:165] Memory required for data: 3665658048
I0503 10:39:58.685390 91530 layer_factory.hpp:77] Creating layer bn5c_branch2a
I0503 10:39:58.685398 91530 net.cpp:106] Creating Layer bn5c_branch2a
I0503 10:39:58.685405 91530 net.cpp:454] bn5c_branch2a <- res5c_branch2a
I0503 10:39:58.685410 91530 net.cpp:397] bn5c_branch2a -> res5c_branch2a (in-place)
I0503 10:39:58.685609 91530 net.cpp:150] Setting up bn5c_branch2a
I0503 10:39:58.685619 91530 net.cpp:157] Top shape: 16 512 7 7 (401408)
I0503 10:39:58.685623 91530 net.cpp:165] Memory required for data: 3667263680
I0503 10:39:58.685632 91530 layer_factory.hpp:77] Creating layer scale5c_branch2a
I0503 10:39:58.685642 91530 net.cpp:106] Creating Layer scale5c_branch2a
I0503 10:39:58.685647 91530 net.cpp:454] scale5c_branch2a <- res5c_branch2a
I0503 10:39:58.685653 91530 net.cpp:397] scale5c_branch2a -> res5c_branch2a (in-place)
I0503 10:39:58.685698 91530 layer_factory.hpp:77] Creating layer scale5c_branch2a
I0503 10:39:58.685817 91530 net.cpp:150] Setting up scale5c_branch2a
I0503 10:39:58.685827 91530 net.cpp:157] Top shape: 16 512 7 7 (401408)
I0503 10:39:58.685830 91530 net.cpp:165] Memory required for data: 3668869312
I0503 10:39:58.685837 91530 layer_factory.hpp:77] Creating layer res5c_branch2a_relu
I0503 10:39:58.685847 91530 net.cpp:106] Creating Layer res5c_branch2a_relu
I0503 10:39:58.685852 91530 net.cpp:454] res5c_branch2a_relu <- res5c_branch2a
I0503 10:39:58.685856 91530 net.cpp:397] res5c_branch2a_relu -> res5c_branch2a (in-place)
I0503 10:39:58.685863 91530 net.cpp:150] Setting up res5c_branch2a_relu
I0503 10:39:58.685869 91530 net.cpp:157] Top shape: 16 512 7 7 (401408)
I0503 10:39:58.685873 91530 net.cpp:165] Memory required for data: 3670474944
I0503 10:39:58.685878 91530 layer_factory.hpp:77] Creating layer res5c_branch2b
I0503 10:39:58.685888 91530 net.cpp:106] Creating Layer res5c_branch2b
I0503 10:39:58.685892 91530 net.cpp:454] res5c_branch2b <- res5c_branch2a
I0503 10:39:58.685899 91530 net.cpp:411] res5c_branch2b -> res5c_branch2b
I0503 10:39:58.691154 91530 net.cpp:150] Setting up res5c_branch2b
I0503 10:39:58.691193 91530 net.cpp:157] Top shape: 16 512 7 7 (401408)
I0503 10:39:58.691200 91530 net.cpp:165] Memory required for data: 3672080576
I0503 10:39:58.691208 91530 layer_factory.hpp:77] Creating layer bn5c_branch2b
I0503 10:39:58.691225 91530 net.cpp:106] Creating Layer bn5c_branch2b
I0503 10:39:58.691239 91530 net.cpp:454] bn5c_branch2b <- res5c_branch2b
I0503 10:39:58.691248 91530 net.cpp:397] bn5c_branch2b -> res5c_branch2b (in-place)
I0503 10:39:58.691500 91530 net.cpp:150] Setting up bn5c_branch2b
I0503 10:39:58.691512 91530 net.cpp:157] Top shape: 16 512 7 7 (401408)
I0503 10:39:58.691517 91530 net.cpp:165] Memory required for data: 3673686208
I0503 10:39:58.691526 91530 layer_factory.hpp:77] Creating layer scale5c_branch2b
I0503 10:39:58.691535 91530 net.cpp:106] Creating Layer scale5c_branch2b
I0503 10:39:58.691540 91530 net.cpp:454] scale5c_branch2b <- res5c_branch2b
I0503 10:39:58.691553 91530 net.cpp:397] scale5c_branch2b -> res5c_branch2b (in-place)
I0503 10:39:58.691606 91530 layer_factory.hpp:77] Creating layer scale5c_branch2b
I0503 10:39:58.691726 91530 net.cpp:150] Setting up scale5c_branch2b
I0503 10:39:58.691742 91530 net.cpp:157] Top shape: 16 512 7 7 (401408)
I0503 10:39:58.691746 91530 net.cpp:165] Memory required for data: 3675291840
I0503 10:39:58.691753 91530 layer_factory.hpp:77] Creating layer res5c_branch2b_relu
I0503 10:39:58.691761 91530 net.cpp:106] Creating Layer res5c_branch2b_relu
I0503 10:39:58.691766 91530 net.cpp:454] res5c_branch2b_relu <- res5c_branch2b
I0503 10:39:58.691771 91530 net.cpp:397] res5c_branch2b_relu -> res5c_branch2b (in-place)
I0503 10:39:58.691777 91530 net.cpp:150] Setting up res5c_branch2b_relu
I0503 10:39:58.691783 91530 net.cpp:157] Top shape: 16 512 7 7 (401408)
I0503 10:39:58.691787 91530 net.cpp:165] Memory required for data: 3676897472
I0503 10:39:58.691792 91530 layer_factory.hpp:77] Creating layer res5c_branch2c
I0503 10:39:58.691802 91530 net.cpp:106] Creating Layer res5c_branch2c
I0503 10:39:58.691807 91530 net.cpp:454] res5c_branch2c <- res5c_branch2b
I0503 10:39:58.691815 91530 net.cpp:411] res5c_branch2c -> res5c_branch2c
I0503 10:39:58.694272 91530 net.cpp:150] Setting up res5c_branch2c
I0503 10:39:58.694293 91530 net.cpp:157] Top shape: 16 2048 7 7 (1605632)
I0503 10:39:58.694298 91530 net.cpp:165] Memory required for data: 3683320000
I0503 10:39:58.694304 91530 layer_factory.hpp:77] Creating layer bn5c_branch2c
I0503 10:39:58.694311 91530 net.cpp:106] Creating Layer bn5c_branch2c
I0503 10:39:58.694316 91530 net.cpp:454] bn5c_branch2c <- res5c_branch2c
I0503 10:39:58.694325 91530 net.cpp:397] bn5c_branch2c -> res5c_branch2c (in-place)
I0503 10:39:58.694545 91530 net.cpp:150] Setting up bn5c_branch2c
I0503 10:39:58.694553 91530 net.cpp:157] Top shape: 16 2048 7 7 (1605632)
I0503 10:39:58.694558 91530 net.cpp:165] Memory required for data: 3689742528
I0503 10:39:58.694566 91530 layer_factory.hpp:77] Creating layer scale5c_branch2c
I0503 10:39:58.694574 91530 net.cpp:106] Creating Layer scale5c_branch2c
I0503 10:39:58.694579 91530 net.cpp:454] scale5c_branch2c <- res5c_branch2c
I0503 10:39:58.694586 91530 net.cpp:397] scale5c_branch2c -> res5c_branch2c (in-place)
I0503 10:39:58.695106 91530 layer_factory.hpp:77] Creating layer scale5c_branch2c
I0503 10:39:58.695235 91530 net.cpp:150] Setting up scale5c_branch2c
I0503 10:39:58.695245 91530 net.cpp:157] Top shape: 16 2048 7 7 (1605632)
I0503 10:39:58.695250 91530 net.cpp:165] Memory required for data: 3696165056
I0503 10:39:58.695256 91530 layer_factory.hpp:77] Creating layer res5c
I0503 10:39:58.695264 91530 net.cpp:106] Creating Layer res5c
I0503 10:39:58.695269 91530 net.cpp:454] res5c <- res5b_res5b_relu_0_split_1
I0503 10:39:58.695276 91530 net.cpp:454] res5c <- res5c_branch2c
I0503 10:39:58.695281 91530 net.cpp:411] res5c -> res5c
I0503 10:39:58.695312 91530 net.cpp:150] Setting up res5c
I0503 10:39:58.695320 91530 net.cpp:157] Top shape: 16 2048 7 7 (1605632)
I0503 10:39:58.695325 91530 net.cpp:165] Memory required for data: 3702587584
I0503 10:39:58.695329 91530 layer_factory.hpp:77] Creating layer res5c_relu
I0503 10:39:58.695338 91530 net.cpp:106] Creating Layer res5c_relu
I0503 10:39:58.695343 91530 net.cpp:454] res5c_relu <- res5c
I0503 10:39:58.695348 91530 net.cpp:397] res5c_relu -> res5c (in-place)
I0503 10:39:58.695354 91530 net.cpp:150] Setting up res5c_relu
I0503 10:39:58.695368 91530 net.cpp:157] Top shape: 16 2048 7 7 (1605632)
I0503 10:39:58.695372 91530 net.cpp:165] Memory required for data: 3709010112
I0503 10:39:58.695376 91530 layer_factory.hpp:77] Creating layer pool5
I0503 10:39:58.695384 91530 net.cpp:106] Creating Layer pool5
I0503 10:39:58.695389 91530 net.cpp:454] pool5 <- res5c
I0503 10:39:58.695397 91530 net.cpp:411] pool5 -> pool5
I0503 10:39:58.695425 91530 net.cpp:150] Setting up pool5
I0503 10:39:58.695433 91530 net.cpp:157] Top shape: 16 2048 1 1 (32768)
I0503 10:39:58.695438 91530 net.cpp:165] Memory required for data: 3709141184
I0503 10:39:58.695442 91530 layer_factory.hpp:77] Creating layer fc497
I0503 10:39:58.695451 91530 net.cpp:106] Creating Layer fc497
I0503 10:39:58.695454 91530 net.cpp:454] fc497 <- pool5
I0503 10:39:58.695461 91530 net.cpp:411] fc497 -> fc497
I0503 10:39:58.698202 91530 net.cpp:150] Setting up fc497
I0503 10:39:58.698226 91530 net.cpp:157] Top shape: 16 497 (7952)
I0503 10:39:58.698231 91530 net.cpp:165] Memory required for data: 3709172992
I0503 10:39:58.698240 91530 layer_factory.hpp:77] Creating layer fc497_fc497_0_split
I0503 10:39:58.698247 91530 net.cpp:106] Creating Layer fc497_fc497_0_split
I0503 10:39:58.698252 91530 net.cpp:454] fc497_fc497_0_split <- fc497
I0503 10:39:58.698259 91530 net.cpp:411] fc497_fc497_0_split -> fc497_fc497_0_split_0
I0503 10:39:58.698267 91530 net.cpp:411] fc497_fc497_0_split -> fc497_fc497_0_split_1
I0503 10:39:58.698307 91530 net.cpp:150] Setting up fc497_fc497_0_split
I0503 10:39:58.698315 91530 net.cpp:157] Top shape: 16 497 (7952)
I0503 10:39:58.698320 91530 net.cpp:157] Top shape: 16 497 (7952)
I0503 10:39:58.698324 91530 net.cpp:165] Memory required for data: 3709236608
I0503 10:39:58.698329 91530 layer_factory.hpp:77] Creating layer accuracy
I0503 10:39:58.698336 91530 net.cpp:106] Creating Layer accuracy
I0503 10:39:58.698341 91530 net.cpp:454] accuracy <- fc497_fc497_0_split_0
I0503 10:39:58.698346 91530 net.cpp:454] accuracy <- label_data_1_split_0
I0503 10:39:58.698357 91530 net.cpp:411] accuracy -> accuracy
…
