…
I0504 21:12:22.002403 130347 net.cpp:322] The NetState phase (0) differed from the phase (1) specified by a rule in layer accuracy
I0504 21:12:22.003762 130347 net.cpp:49] Initializing net from parameters: 
name: "ResNet-50"
state {
  phase: TRAIN
}
layer {
  name: "data"
  type: "Data"
  top: "data"
  top: "label"
  include {
    phase: TRAIN
  }
  transform_param {
    mirror: true
    crop_size: 224
    mean_file: "/home/hzhang57/NEW_WORLD/Project_4_ROOT/CODES/RC_497/Param/mean.binaryproto"
  }
  data_param {
    source: "/home/hzhang57/NEW_WORLD/Project_4_ROOT/CODES/RC_497/Param/RC-train.leveldb"
    batch_size: 20
    backend: LMDB
  }
}
layer {
  name: "conv1"
  type: "Convolution"
  bottom: "data"
  top: "conv1"
  convolution_param {
    num_output: 64
    pad: 3
    kernel_size: 7
    stride: 2
  }
}
layer {
  name: "bn_conv1"
  type: "BatchNorm"
  bottom: "conv1"
  top: "conv1"
  batch_norm_param {
    use_global_stats: true
  }
}
layer {
  name: "scale_conv1"
  type: "Scale"
  bottom: "conv1"
  top: "conv1"
  scale_param {
    bias_term: true
  }
}
layer {
  name: "conv1_relu"
  type: "ReLU"
  bottom: "conv1"
  top: "conv1"
}
layer {
  name: "pool1"
  type: "Pooling"
  bottom: "conv1"
  top: "pool1"
  pooling_param {
    pool: MAX
    kernel_size: 3
    stride: 2
  }
}
layer {
  name: "res2a_branch1"
  type: "Convolution"
  bottom: "pool1"
  top: "res2a_branch1"
  convolution_param {
    num_output: 256
    bias_term: false
    pad: 0
    kernel_size: 1
    stride: 1
  }
}
layer {
  name: "bn2a_branch1"
  type: "BatchNorm"
  bottom: "res2a_branch1"
  top: "res2a_branch1"
  batch_norm_param {
    use_global_stats: true
  }
}
layer {
  name: "scale2a_branch1"
  type: "Scale"
  bottom: "res2a_branch1"
  top: "res2a_branch1"
  scale_param {
    bias_term: true
  }
}
layer {
  name: "res2a_branch2a"
  type: "Convolution"
  bottom: "pool1"
  top: "res2a_branch2a"
  convolution_param {
    num_output: 64
    bias_term: false
    pad: 0
    kernel_size: 1
    stride: 1
  }
}
layer {
  name: "bn2a_branch2a"
  type: "BatchNorm"
  bottom: "res2a_branch2a"
  top: "res2a_branch2a"
  batch_norm_param {
    use_global_stats: true
  }
}
layer {
  name: "scale2a_branch2a"
  type: "Scale"
  bottom: "res2a_branch2a"
  top: "res2a_branch2a"
  scale_param {
    bias_term: true
  }
}
layer {
  name: "res2a_branch2a_relu"
  type: "ReLU"
  bottom: "res2a_branch2a"
  top: "res2a_branch2a"
}
layer {
  name: "res2a_branch2b"
  type: "Convolution"
  bottom: "res2a_branch2a"
  top: "res2a_branch2b"
  convolution_param {
    num_output: 64
    bias_term: false
    pad: 1
    kernel_size: 3
    stride: 1
  }
}
layer {
  name: "bn2a_branch2b"
  type: "BatchNorm"
  bottom: "res2a_branch2b"
  top: "res2a_branch2b"
  batch_norm_param {
    use_global_stats: true
  }
}
layer {
  name: "scale2a_branch2b"
  type: "Scale"
  bottom: "res2a_branch2b"
  top: "res2a_branch2b"
  scale_param {
    bias_term: true
  }
}
layer {
  name: "res2a_branch2b_relu"
  type: "ReLU"
  bottom: "res2a_branch2b"
  top: "res2a_branch2b"
}
layer {
  name: "res2a_branch2c"
  type: "Convolution"
  bottom: "res2a_branch2b"
  top: "res2a_branch2c"
  convolution_param {
    num_output: 256
    bias_term: false
    pad: 0
    kernel_size: 1
    stride: 1
  }
}
layer {
  name: "bn2a_branch2c"
  type: "BatchNorm"
  bottom: "res2a_branch2c"
  top: "res2a_branch2c"
  batch_norm_param {
    use_global_stats: true
  }
}
layer {
  name: "scale2a_branch2c"
  type: "Scale"
  bottom: "res2a_branch2c"
  top: "res2a_branch2c"
  scale_param {
    bias_term: true
  }
}
layer {
  name: "res2a"
  type: "Eltwise"
  bottom: "res2a_branch1"
  bottom: "res2a_branch2c"
  top: "res2a"
}
layer {
  name: "res2a_relu"
  type: "ReLU"
  bottom: "res2a"
  top: "res2a"
}
layer {
  name: "res2b_branch2a"
  type: "Convolution"
  bottom: "res2a"
  top: "res2b_branch2a"
  convolution_param {
    num_output: 64
    bias_term: false
    pad: 0
    kernel_size: 1
    stride: 1
  }
}
layer {
  name: "bn2b_branch2a"
  type: "BatchNorm"
  bottom: "res2b_branch2a"
  top: "res2b_branch2a"
  batch_norm_param {
    use_global_stats: true
  }
}
layer {
  name: "scale2b_branch2a"
  type: "Scale"
  bottom: "res2b_branch2a"
  top: "res2b_branch2a"
  scale_param {
    bias_term: true
  }
}
layer {
  name: "res2b_branch2a_relu"
  type: "ReLU"
  bottom: "res2b_branch2a"
  top: "res2b_branch2a"
}
layer {
  name: "res2b_branch2b"
  type: "Convolution"
  bottom: "res2b_branch2a"
  top: "res2b_branch2b"
  convolution_param {
    num_output: 64
    bias_term: false
    pad: 1
    kernel_size: 3
    stride: 1
  }
}
layer {
  name: "bn2b_branch2b"
  type: "BatchNorm"
  bottom: "res2b_branch2b"
  top: "res2b_branch2b"
  batch_norm_param {
    use_global_stats: true
  }
}
layer {
  name: "scale2b_branch2b"
  type: "Scale"
  bottom: "res2b_branch2b"
  top: "res2b_branch2b"
  scale_param {
    bias_term: true
  }
}
layer {
  name: "res2b_branch2b_relu"
  type: "ReLU"
  bottom: "res2b_branch2b"
  top: "res2b_branch2b"
}
layer {
  name: "res2b_branch2c"
  type: "Convolution"
  bottom: "res2b_branch2b"
  top: "res2b_branch2c"
  convolution_param {
    num_output: 256
    bias_term: false
    pad: 0
    kernel_size: 1
    stride: 1
  }
}
layer {
  name: "bn2b_branch2c"
  type: "BatchNorm"
  bottom: "res2b_branch2c"
  top: "res2b_branch2c"
  batch_norm_param {
    use_global_stats: true
  }
}
layer {
  name: "scale2b_branch2c"
  type: "Scale"
  bottom: "res2b_branch2c"
  top: "res2b_branch2c"
  scale_param {
    bias_term: true
  }
}
layer {
  name: "res2b"
  type: "Eltwise"
  bottom: "res2a"
  bottom: "res2b_branch2c"
  top: "res2b"
}
layer {
  name: "res2b_relu"
  type: "ReLU"
  bottom: "res2b"
  top: "res2b"
}
layer {
  name: "res2c_branch2a"
  type: "Convolution"
  bottom: "res2b"
  top: "res2c_branch2a"
  convolution_param {
    num_output: 64
    bias_term: false
    pad: 0
    kernel_size: 1
    stride: 1
  }
}
layer {
  name: "bn2c_branch2a"
  type: "BatchNorm"
  bottom: "res2c_branch2a"
  top: "res2c_branch2a"
  batch_norm_param {
    use_global_stats: true
  }
}
layer {
  name: "scale2c_branch2a"
  type: "Scale"
  bottom: "res2c_branch2a"
  top: "res2c_branch2a"
  scale_param {
    bias_term: true
  }
}
layer {
  name: "res2c_branch2a_relu"
  type: "ReLU"
  bottom: "res2c_branch2a"
  top: "res2c_branch2a"
}
layer {
  name: "res2c_branch2b"
  type: "Convolution"
  bottom: "res2c_branch2a"
  top: "res2c_branch2b"
  convolution_param {
    num_output: 64
    bias_term: false
    pad: 1
    kernel_size: 3
    stride: 1
  }
}
layer {
  name: "bn2c_branch2b"
  type: "BatchNorm"
  bottom: "res2c_branch2b"
  top: "res2c_branch2b"
  batch_norm_param {
    use_global_stats: true
  }
}
layer {
  name: "scale2c_branch2b"
  type: "Scale"
  bottom: "res2c_branch2b"
  top: "res2c_branch2b"
  scale_param {
    bias_term: true
  }
}
layer {
  name: "res2c_branch2b_relu"
  type: "ReLU"
  bottom: "res2c_branch2b"
  top: "res2c_branch2b"
}
layer {
  name: "res2c_branch2c"
  type: "Convolution"
  bottom: "res2c_branch2b"
  top: "res2c_branch2c"
  convolution_param {
    num_output: 256
    bias_term: false
    pad: 0
    kernel_size: 1
    stride: 1
  }
}
layer {
  name: "bn2c_branch2c"
  type: "BatchNorm"
  bottom: "res2c_branch2c"
  top: "res2c_branch2c"
  batch_norm_param {
    use_global_stats: true
  }
}
layer {
  name: "scale2c_branch2c"
  type: "Scale"
  bottom: "res2c_branch2c"
  top: "res2c_branch2c"
  scale_param {
    bias_term: true
  }
}
layer {
  name: "res2c"
  type: "Eltwise"
  bottom: "res2b"
  bottom: "res2c_branch2c"
  top: "res2c"
}
layer {
  name: "res2c_relu"
  type: "ReLU"
  bottom: "res2c"
  top: "res2c"
}
layer {
  name: "res3a_branch1"
  type: "Convolution"
  bottom: "res2c"
  top: "res3a_branch1"
  convolution_param {
    num_output: 512
    bias_term: false
    pad: 0
    kernel_size: 1
    stride: 2
  }
}
layer {
  name: "bn3a_branch1"
  type: "BatchNorm"
  bottom: "res3a_branch1"
  top: "res3a_branch1"
  batch_norm_param {
    use_global_stats: true
  }
}
layer {
  name: "scale3a_branch1"
  type: "Scale"
  bottom: "res3a_branch1"
  top: "res3a_branch1"
  scale_param {
    bias_term: true
  }
}
layer {
  name: "res3a_branch2a"
  type: "Convolution"
  bottom: "res2c"
  top: "res3a_branch2a"
  convolution_param {
    num_output: 128
    bias_term: false
    pad: 0
    kernel_size: 1
    stride: 2
  }
}
layer {
  name: "bn3a_branch2a"
  type: "BatchNorm"
  bottom: "res3a_branch2a"
  top: "res3a_branch2a"
  batch_norm_param {
    use_global_stats: true
  }
}
layer {
  name: "scale3a_branch2a"
  type: "Scale"
  bottom: "res3a_branch2a"
  top: "res3a_branch2a"
  scale_param {
    bias_term: true
  }
}
layer {
  name: "res3a_branch2a_relu"
  type: "ReLU"
  bottom: "res3a_branch2a"
  top: "res3a_branch2a"
}
layer {
  name: "res3a_branch2b"
  type: "Convolution"
  bottom: "res3a_branch2a"
  top: "res3a_branch2b"
  convolution_param {
    num_output: 128
    bias_term: false
    pad: 1
    kernel_size: 3
    stride: 1
  }
}
layer {
  name: "bn3a_branch2b"
  type: "BatchNorm"
  bottom: "res3a_branch2b"
  top: "res3a_branch2b"
  batch_norm_param {
    use_global_stats: true
  }
}
layer {
  name: "scale3a_branch2b"
  type: "Scale"
  bottom: "res3a_branch2b"
  top: "res3a_branch2b"
  scale_param {
    bias_term: true
  }
}
layer {
  name: "res3a_branch2b_relu"
  type: "ReLU"
  bottom: "res3a_branch2b"
  top: "res3a_branch2b"
}
layer {
  name: "res3a_branch2c"
  type: "Convolution"
  bottom: "res3a_branch2b"
  top: "res3a_branch2c"
  convolution_param {
    num_output: 512
    bias_term: false
    pad: 0
    kernel_size: 1
    stride: 1
  }
}
layer {
  name: "bn3a_branch2c"
  type: "BatchNorm"
  bottom: "res3a_branch2c"
  top: "res3a_branch2c"
  batch_norm_param {
    use_global_stats: true
  }
}
layer {
  name: "scale3a_branch2c"
  type: "Scale"
  bottom: "res3a_branch2c"
  top: "res3a_branch2c"
  scale_param {
    bias_term: true
  }
}
layer {
  name: "res3a"
  type: "Eltwise"
  bottom: "res3a_branch1"
  bottom: "res3a_branch2c"
  top: "res3a"
}
layer {
  name: "res3a_relu"
  type: "ReLU"
  bottom: "res3a"
  top: "res3a"
}
layer {
  name: "res3b_branch2a"
  type: "Convolution"
  bottom: "res3a"
  top: "res3b_branch2a"
  convolution_param {
    num_output: 128
    bias_term: false
    pad: 0
    kernel_size: 1
    stride: 1
  }
}
layer {
  name: "bn3b_branch2a"
  type: "BatchNorm"
  bottom: "res3b_branch2a"
  top: "res3b_branch2a"
  batch_norm_param {
    use_global_stats: true
  }
}
layer {
  name: "scale3b_branch2a"
  type: "Scale"
  bottom: "res3b_branch2a"
  top: "res3b_branch2a"
  scale_param {
    bias_term: true
  }
}
layer {
  name: "res3b_branch2a_relu"
  type: "ReLU"
  bottom: "res3b_branch2a"
  top: "res3b_branch2a"
}
layer {
  name: "res3b_branch2b"
  type: "Convolution"
  bottom: "res3b_branch2a"
  top: "res3b_branch2b"
  convolution_param {
    num_output: 128
    bias_term: false
    pad: 1
    kernel_size: 3
    stride: 1
  }
}
layer {
  name: "bn3b_branch2b"
  type: "BatchNorm"
  bottom: "res3b_branch2b"
  top: "res3b_branch2b"
  batch_norm_param {
    use_global_stats: true
  }
}
layer {
  name: "scale3b_branch2b"
  type: "Scale"
  bottom: "res3b_branch2b"
  top: "res3b_branch2b"
  scale_param {
    bias_term: true
  }
}
layer {
  name: "res3b_branch2b_relu"
  type: "ReLU"
  bottom: "res3b_branch2b"
  top: "res3b_branch2b"
}
layer {
  name: "res3b_branch2c"
  type: "Convolution"
  bottom: "res3b_branch2b"
  top: "res3b_branch2c"
  convolution_param {
    num_output: 512
    bias_term: false
    pad: 0
    kernel_size: 1
    stride: 1
  }
}
layer {
  name: "bn3b_branch2c"
  type: "BatchNorm"
  bottom: "res3b_branch2c"
  top: "res3b_branch2c"
  batch_norm_param {
    use_global_stats: true
  }
}
layer {
  name: "scale3b_branch2c"
  type: "Scale"
  bottom: "res3b_branch2c"
  top: "res3b_branch2c"
  scale_param {
    bias_term: true
  }
}
layer {
  name: "res3b"
  type: "Eltwise"
  bottom: "res3a"
  bottom: "res3b_branch2c"
  top: "res3b"
}
layer {
  name: "res3b_relu"
  type: "ReLU"
  bottom: "res3b"
  top: "res3b"
}
layer {
  name: "res3c_branch2a"
  type: "Convolution"
  bottom: "res3b"
  top: "res3c_branch2a"
  convolution_param {
    num_output: 128
    bias_term: false
    pad: 0
    kernel_size: 1
    stride: 1
  }
}
layer {
  name: "bn3c_branch2a"
  type: "BatchNorm"
  bottom: "res3c_branch2a"
  top: "res3c_branch2a"
  batch_norm_param {
    use_global_stats: true
  }
}
layer {
  name: "scale3c_branch2a"
  type: "Scale"
  bottom: "res3c_branch2a"
  top: "res3c_branch2a"
  scale_param {
    bias_term: true
  }
}
layer {
  name: "res3c_branch2a_relu"
  type: "ReLU"
  bottom: "res3c_branch2a"
  top: "res3c_branch2a"
}
layer {
  name: "res3c_branch2b"
  type: "Convolution"
  bottom: "res3c_branch2a"
  top: "res3c_branch2b"
  convolution_param {
    num_output: 128
    bias_term: false
    pad: 1
    kernel_size: 3
    stride: 1
  }
}
layer {
  name: "bn3c_branch2b"
  type: "BatchNorm"
  bottom: "res3c_branch2b"
  top: "res3c_branch2b"
  batch_norm_param {
    use_global_stats: true
  }
}
layer {
  name: "scale3c_branch2b"
  type: "Scale"
  bottom: "res3c_branch2b"
  top: "res3c_branch2b"
  scale_param {
    bias_term: true
  }
}
layer {
  name: "res3c_branch2b_relu"
  type: "ReLU"
  bottom: "res3c_branch2b"
  top: "res3c_branch2b"
}
layer {
  name: "res3c_branch2c"
  type: "Convolution"
  bottom: "res3c_branch2b"
  top: "res3c_branch2c"
  convolution_param {
    num_output: 512
    bias_term: false
    pad: 0
    kernel_size: 1
    stride: 1
  }
}
layer {
  name: "bn3c_branch2c"
  type: "BatchNorm"
  bottom: "res3c_branch2c"
  top: "res3c_branch2c"
  batch_norm_param {
    use_global_stats: true
  }
}
layer {
  name: "scale3c_branch2c"
  type: "Scale"
  bottom: "res3c_branch2c"
  top: "res3c_branch2c"
  scale_param {
    bias_term: true
  }
}
layer {
  name: "res3c"
  type: "Eltwise"
  bottom: "res3b"
  bottom: "res3c_branch2c"
  top: "res3c"
}
layer {
  name: "res3c_relu"
  type: "ReLU"
  bottom: "res3c"
  top: "res3c"
}
layer {
  name: "res3d_branch2a"
  type: "Convolution"
  bottom: "res3c"
  top: "res3d_branch2a"
  convolution_param {
    num_output: 128
    bias_term: false
    pad: 0
    kernel_size: 1
    stride: 1
  }
}
layer {
  name: "bn3d_branch2a"
  type: "BatchNorm"
  bottom: "res3d_branch2a"
  top: "res3d_branch2a"
  batch_norm_param {
    use_global_stats: true
  }
}
layer {
  name: "scale3d_branch2a"
  type: "Scale"
  bottom: "res3d_branch2a"
  top: "res3d_branch2a"
  scale_param {
    bias_term: true
  }
}
layer {
  name: "res3d_branch2a_relu"
  type: "ReLU"
  bottom: "res3d_branch2a"
  top: "res3d_branch2a"
}
layer {
  name: "res3d_branch2b"
  type: "Convolution"
  bottom: "res3d_branch2a"
  top: "res3d_branch2b"
  convolution_param {
    num_output: 128
    bias_term: false
    pad: 1
    kernel_size: 3
    stride: 1
  }
}
layer {
  name: "bn3d_branch2b"
  type: "BatchNorm"
  bottom: "res3d_branch2b"
  top: "res3d_branch2b"
  batch_norm_param {
    use_global_stats: true
  }
}
layer {
  name: "scale3d_branch2b"
  type: "Scale"
  bottom: "res3d_branch2b"
  top: "res3d_branch2b"
  scale_param {
    bias_term: true
  }
}
layer {
  name: "res3d_branch2b_relu"
  type: "ReLU"
  bottom: "res3d_branch2b"
  top: "res3d_branch2b"
}
layer {
  name: "res3d_branch2c"
  type: "Convolution"
  bottom: "res3d_branch2b"
  top: "res3d_branch2c"
  convolution_param {
    num_output: 512
    bias_term: false
    pad: 0
    kernel_size: 1
    stride: 1
  }
}
layer {
  name: "bn3d_branch2c"
  type: "BatchNorm"
  bottom: "res3d_branch2c"
  top: "res3d_branch2c"
  batch_norm_param {
    use_global_stats: true
  }
}
layer {
  name: "scale3d_branch2c"
  type: "Scale"
  bottom: "res3d_branch2c"
  top: "res3d_branch2c"
  scale_param {
    bias_term: true
  }
}
layer {
  name: "res3d"
  type: "Eltwise"
  bottom: "res3c"
  bottom: "res3d_branch2c"
  top: "res3d"
}
layer {
  name: "res3d_relu"
  type: "ReLU"
  bottom: "res3d"
  top: "res3d"
}
layer {
  name: "res4a_branch1"
  type: "Convolution"
  bottom: "res3d"
  top: "res4a_branch1"
  convolution_param {
    num_output: 1024
    bias_term: false
    pad: 0
    kernel_size: 1
    stride: 2
  }
}
layer {
  name: "bn4a_branch1"
  type: "BatchNorm"
  bottom: "res4a_branch1"
  top: "res4a_branch1"
  batch_norm_param {
    use_global_stats: true
  }
}
layer {
  name: "scale4a_branch1"
  type: "Scale"
  bottom: "res4a_branch1"
  top: "res4a_branch1"
  scale_param {
    bias_term: true
  }
}
layer {
  name: "res4a_branch2a"
  type: "Convolution"
  bottom: "res3d"
  top: "res4a_branch2a"
  convolution_param {
    num_output: 256
    bias_term: false
    pad: 0
    kernel_size: 1
    stride: 2
  }
}
layer {
  name: "bn4a_branch2a"
  type: "BatchNorm"
  bottom: "res4a_branch2a"
  top: "res4a_branch2a"
  batch_norm_param {
    use_global_stats: true
  }
}
layer {
  name: "scale4a_branch2a"
  type: "Scale"
  bottom: "res4a_branch2a"
  top: "res4a_branch2a"
  scale_param {
    bias_term: true
  }
}
layer {
  name: "res4a_branch2a_relu"
  type: "ReLU"
  bottom: "res4a_branch2a"
  top: "res4a_branch2a"
}
layer {
  name: "res4a_branch2b"
  type: "Convolution"
  bottom: "res4a_branch2a"
  top: "res4a_branch2b"
  convolution_param {
    num_output: 256
    bias_term: false
    pad: 1
    kernel_size: 3
    stride: 1
  }
}
layer {
  name: "bn4a_branch2b"
  type: "BatchNorm"
  bottom: "res4a_branch2b"
  top: "res4a_branch2b"
  batch_norm_param {
    use_global_stats: true
  }
}
layer {
  name: "scale4a_branch2b"
  type: "Scale"
  bottom: "res4a_branch2b"
  top: "res4a_branch2b"
  scale_param {
    bias_term: true
  }
}
layer {
  name: "res4a_branch2b_relu"
  type: "ReLU"
  bottom: "res4a_branch2b"
  top: "res4a_branch2b"
}
layer {
  name: "res4a_branch2c"
  type: "Convolution"
  bottom: "res4a_branch2b"
  top: "res4a_branch2c"
  convolution_param {
    num_output: 1024
    bias_term: false
    pad: 0
    kernel_size: 1
    stride: 1
  }
}
layer {
  name: "bn4a_branch2c"
  type: "BatchNorm"
  bottom: "res4a_branch2c"
  top: "res4a_branch2c"
  batch_norm_param {
    use_global_stats: true
  }
}
layer {
  name: "scale4a_branch2c"
  type: "Scale"
  bottom: "res4a_branch2c"
  top: "res4a_branch2c"
  scale_param {
    bias_term: true
  }
}
layer {
  name: "res4a"
  type: "Eltwise"
  bottom: "res4a_branch1"
  bottom: "res4a_branch2c"
  top: "res4a"
}
layer {
  name: "res4a_relu"
  type: "ReLU"
  bottom: "res4a"
  top: "res4a"
}
layer {
  name: "res4b_branch2a"
  type: "Convolution"
  bottom: "res4a"
  top: "res4b_branch2a"
  convolution_param {
    num_output: 256
    bias_term: false
    pad: 0
    kernel_size: 1
    stride: 1
  }
}
layer {
  name: "bn4b_branch2a"
  type: "BatchNorm"
  bottom: "res4b_branch2a"
  top: "res4b_branch2a"
  batch_norm_param {
    use_global_stats: true
  }
}
layer {
  name: "scale4b_branch2a"
  type: "Scale"
  bottom: "res4b_branch2a"
  top: "res4b_branch2a"
  scale_param {
    bias_term: true
  }
}
layer {
  name: "res4b_branch2a_relu"
  type: "ReLU"
  bottom: "res4b_branch2a"
  top: "res4b_branch2a"
}
layer {
  name: "res4b_branch2b"
  type: "Convolution"
  bottom: "res4b_branch2a"
  top: "res4b_branch2b"
  convolution_param {
    num_output: 256
    bias_term: false
    pad: 1
    kernel_size: 3
    stride: 1
  }
}
layer {
  name: "bn4b_branch2b"
  type: "BatchNorm"
  bottom: "res4b_branch2b"
  top: "res4b_branch2b"
  batch_norm_param {
    use_global_stats: true
  }
}
layer {
  name: "scale4b_branch2b"
  type: "Scale"
  bottom: "res4b_branch2b"
  top: "res4b_branch2b"
  scale_param {
    bias_term: true
  }
}
layer {
  name: "res4b_branch2b_relu"
  type: "ReLU"
  bottom: "res4b_branch2b"
  top: "res4b_branch2b"
}
layer {
  name: "res4b_branch2c"
  type: "Convolution"
  bottom: "res4b_branch2b"
  top: "res4b_branch2c"
  convolution_param {
    num_output: 1024
    bias_term: false
    pad: 0
    kernel_size: 1
    stride: 1
  }
}
layer {
  name: "bn4b_branch2c"
  type: "BatchNorm"
  bottom: "res4b_branch2c"
  top: "res4b_branch2c"
  batch_norm_param {
    use_global_stats: true
  }
}
layer {
  name: "scale4b_branch2c"
  type: "Scale"
  bottom: "res4b_branch2c"
  top: "res4b_branch2c"
  scale_param {
    bias_term: true
  }
}
layer {
  name: "res4b"
  type: "Eltwise"
  bottom: "res4a"
  bottom: "res4b_branch2c"
  top: "res4b"
}
layer {
  name: "res4b_relu"
  type: "ReLU"
  bottom: "res4b"
  top: "res4b"
}
layer {
  name: "res4c_branch2a"
  type: "Convolution"
  bottom: "res4b"
  top: "res4c_branch2a"
  convolution_param {
    num_output: 256
    bias_term: false
    pad: 0
    kernel_size: 1
    stride: 1
  }
}
layer {
  name: "bn4c_branch2a"
  type: "BatchNorm"
  bottom: "res4c_branch2a"
  top: "res4c_branch2a"
  batch_norm_param {
    use_global_stats: true
  }
}
layer {
  name: "scale4c_branch2a"
  type: "Scale"
  bottom: "res4c_branch2a"
  top: "res4c_branch2a"
  scale_param {
    bias_term: true
  }
}
layer {
  name: "res4c_branch2a_relu"
  type: "ReLU"
  bottom: "res4c_branch2a"
  top: "res4c_branch2a"
}
layer {
  name: "res4c_branch2b"
  type: "Convolution"
  bottom: "res4c_branch2a"
  top: "res4c_branch2b"
  convolution_param {
    num_output: 256
    bias_term: false
    pad: 1
    kernel_size: 3
    stride: 1
  }
}
layer {
  name: "bn4c_branch2b"
  type: "BatchNorm"
  bottom: "res4c_branch2b"
  top: "res4c_branch2b"
  batch_norm_param {
    use_global_stats: true
  }
}
layer {
  name: "scale4c_branch2b"
  type: "Scale"
  bottom: "res4c_branch2b"
  top: "res4c_branch2b"
  scale_param {
    bias_term: true
  }
}
layer {
  name: "res4c_branch2b_relu"
  type: "ReLU"
  bottom: "res4c_branch2b"
  top: "res4c_branch2b"
}
layer {
  name: "res4c_branch2c"
  type: "Convolution"
  bottom: "res4c_branch2b"
  top: "res4c_branch2c"
  convolution_param {
    num_output: 1024
    bias_term: false
    pad: 0
    kernel_size: 1
    stride: 1
  }
}
layer {
  name: "bn4c_branch2c"
  type: "BatchNorm"
  bottom: "res4c_branch2c"
  top: "res4c_branch2c"
  batch_norm_param {
    use_global_stats: true
  }
}
layer {
  name: "scale4c_branch2c"
  type: "Scale"
  bottom: "res4c_branch2c"
  top: "res4c_branch2c"
  scale_param {
    bias_term: true
  }
}
layer {
  name: "res4c"
  type: "Eltwise"
  bottom: "res4b"
  bottom: "res4c_branch2c"
  top: "res4c"
}
layer {
  name: "res4c_relu"
  type: "ReLU"
  bottom: "res4c"
  top: "res4c"
}
layer {
  name: "res4d_branch2a"
  type: "Convolution"
  bottom: "res4c"
  top: "res4d_branch2a"
  convolution_param {
    num_output: 256
    bias_term: false
    pad: 0
    kernel_size: 1
    stride: 1
  }
}
layer {
  name: "bn4d_branch2a"
  type: "BatchNorm"
  bottom: "res4d_branch2a"
  top: "res4d_branch2a"
  batch_norm_param {
    use_global_stats: true
  }
}
layer {
  name: "scale4d_branch2a"
  type: "Scale"
  bottom: "res4d_branch2a"
  top: "res4d_branch2a"
  scale_param {
    bias_term: true
  }
}
layer {
  name: "res4d_branch2a_relu"
  type: "ReLU"
  bottom: "res4d_branch2a"
  top: "res4d_branch2a"
}
layer {
  name: "res4d_branch2b"
  type: "Convolution"
  bottom: "res4d_branch2a"
  top: "res4d_branch2b"
  convolution_param {
    num_output: 256
    bias_term: false
    pad: 1
    kernel_size: 3
    stride: 1
  }
}
layer {
  name: "bn4d_branch2b"
  type: "BatchNorm"
  bottom: "res4d_branch2b"
  top: "res4d_branch2b"
  batch_norm_param {
    use_global_stats: true
  }
}
layer {
  name: "scale4d_branch2b"
  type: "Scale"
  bottom: "res4d_branch2b"
  top: "res4d_branch2b"
  scale_param {
    bias_term: true
  }
}
layer {
  name: "res4d_branch2b_relu"
  type: "ReLU"
  bottom: "res4d_branch2b"
  top: "res4d_branch2b"
}
layer {
  name: "res4d_branch2c"
  type: "Convolution"
  bottom: "res4d_branch2b"
  top: "res4d_branch2c"
  convolution_param {
    num_output: 1024
    bias_term: false
    pad: 0
    kernel_size: 1
    stride: 1
  }
}
layer {
  name: "bn4d_branch2c"
  type: "BatchNorm"
  bottom: "res4d_branch2c"
  top: "res4d_branch2c"
  batch_norm_param {
    use_global_stats: true
  }
}
layer {
  name: "scale4d_branch2c"
  type: "Scale"
  bottom: "res4d_branch2c"
  top: "res4d_branch2c"
  scale_param {
    bias_term: true
  }
}
layer {
  name: "res4d"
  type: "Eltwise"
  bottom: "res4c"
  bottom: "res4d_branch2c"
  top: "res4d"
}
layer {
  name: "res4d_relu"
  type: "ReLU"
  bottom: "res4d"
  top: "res4d"
}
layer {
  name: "res4e_branch2a"
  type: "Convolution"
  bottom: "res4d"
  top: "res4e_branch2a"
  convolution_param {
    num_output: 256
    bias_term: false
    pad: 0
    kernel_size: 1
    stride: 1
  }
}
layer {
  name: "bn4e_branch2a"
  type: "BatchNorm"
  bottom: "res4e_branch2a"
  top: "res4e_branch2a"
  batch_norm_param {
    use_global_stats: true
  }
}
layer {
  name: "scale4e_branch2a"
  type: "Scale"
  bottom: "res4e_branch2a"
  top: "res4e_branch2a"
  scale_param {
    bias_term: true
  }
}
layer {
  name: "res4e_branch2a_relu"
  type: "ReLU"
  bottom: "res4e_branch2a"
  top: "res4e_branch2a"
}
layer {
  name: "res4e_branch2b"
  type: "Convolution"
  bottom: "res4e_branch2a"
  top: "res4e_branch2b"
  convolution_param {
    num_output: 256
    bias_term: false
    pad: 1
    kernel_size: 3
    stride: 1
  }
}
layer {
  name: "bn4e_branch2b"
  type: "BatchNorm"
  bottom: "res4e_branch2b"
  top: "res4e_branch2b"
  batch_norm_param {
    use_global_stats: true
  }
}
layer {
  name: "scale4e_branch2b"
  type: "Scale"
  bottom: "res4e_branch2b"
  top: "res4e_branch2b"
  scale_param {
    bias_term: true
  }
}
layer {
  name: "res4e_branch2b_relu"
  type: "ReLU"
  bottom: "res4e_branch2b"
  top: "res4e_branch2b"
}
layer {
  name: "res4e_branch2c"
  type: "Convolution"
  bottom: "res4e_branch2b"
  top: "res4e_branch2c"
  convolution_param {
    num_output: 1024
    bias_term: false
    pad: 0
    kernel_size: 1
    stride: 1
  }
}
layer {
  name: "bn4e_branch2c"
  type: "BatchNorm"
  bottom: "res4e_branch2c"
  top: "res4e_branch2c"
  batch_norm_param {
    use_global_stats: true
  }
}
layer {
  name: "scale4e_branch2c"
  type: "Scale"
  bottom: "res4e_branch2c"
  top: "res4e_branch2c"
  scale_param {
    bias_term: true
  }
}
layer {
  name: "res4e"
  type: "Eltwise"
  bottom: "res4d"
  bottom: "res4e_branch2c"
  top: "res4e"
}
layer {
  name: "res4e_relu"
  type: "ReLU"
  bottom: "res4e"
  top: "res4e"
}
layer {
  name: "res4f_branch2a"
  type: "Convolution"
  bottom: "res4e"
  top: "res4f_branch2a"
  convolution_param {
    num_output: 256
    bias_term: false
    pad: 0
    kernel_size: 1
    stride: 1
  }
}
layer {
  name: "bn4f_branch2a"
  type: "BatchNorm"
  bottom: "res4f_branch2a"
  top: "res4f_branch2a"
  batch_norm_param {
    use_global_stats: true
  }
}
layer {
  name: "scale4f_branch2a"
  type: "Scale"
  bottom: "res4f_branch2a"
  top: "res4f_branch2a"
  scale_param {
    bias_term: true
  }
}
layer {
  name: "res4f_branch2a_relu"
  type: "ReLU"
  bottom: "res4f_branch2a"
  top: "res4f_branch2a"
}
layer {
  name: "res4f_branch2b"
  type: "Convolution"
  bottom: "res4f_branch2a"
  top: "res4f_branch2b"
  convolution_param {
    num_output: 256
    bias_term: false
    pad: 1
    kernel_size: 3
    stride: 1
  }
}
layer {
  name: "bn4f_branch2b"
  type: "BatchNorm"
  bottom: "res4f_branch2b"
  top: "res4f_branch2b"
  batch_norm_param {
    use_global_stats: true
  }
}
layer {
  name: "scale4f_branch2b"
  type: "Scale"
  bottom: "res4f_branch2b"
  top: "res4f_branch2b"
  scale_param {
    bias_term: true
  }
}
layer {
  name: "res4f_branch2b_relu"
  type: "ReLU"
  bottom: "res4f_branch2b"
  top: "res4f_branch2b"
}
layer {
  name: "res4f_branch2c"
  type: "Convolution"
  bottom: "res4f_branch2b"
  top: "res4f_branch2c"
  convolution_param {
    num_output: 1024
    bias_term: false
    pad: 0
    kernel_size: 1
    stride: 1
  }
}
layer {
  name: "bn4f_branch2c"
  type: "BatchNorm"
  bottom: "res4f_branch2c"
  top: "res4f_branch2c"
  batch_norm_param {
    use_global_stats: true
  }
}
layer {
  name: "scale4f_branch2c"
  type: "Scale"
  bottom: "res4f_branch2c"
  top: "res4f_branch2c"
  scale_param {
    bias_term: true
  }
}
layer {
  name: "res4f"
  type: "Eltwise"
  bottom: "res4e"
  bottom: "res4f_branch2c"
  top: "res4f"
}
layer {
  name: "res4f_relu"
  type: "ReLU"
  bottom: "res4f"
  top: "res4f"
}
layer {
  name: "res5a_branch1"
  type: "Convolution"
  bottom: "res4f"
  top: "res5a_branch1"
  convolution_param {
    num_output: 2048
    bias_term: false
    pad: 0
    kernel_size: 1
    stride: 2
  }
}
layer {
  name: "bn5a_branch1"
  type: "BatchNorm"
  bottom: "res5a_branch1"
  top: "res5a_branch1"
  batch_norm_param {
    use_global_stats: true
  }
}
layer {
  name: "scale5a_branch1"
  type: "Scale"
  bottom: "res5a_branch1"
  top: "res5a_branch1"
  scale_param {
    bias_term: true
  }
}
layer {
  name: "res5a_branch2a"
  type: "Convolution"
  bottom: "res4f"
  top: "res5a_branch2a"
  convolution_param {
    num_output: 512
    bias_term: false
    pad: 0
    kernel_size: 1
    stride: 2
  }
}
layer {
  name: "bn5a_branch2a"
  type: "BatchNorm"
  bottom: "res5a_branch2a"
  top: "res5a_branch2a"
  batch_norm_param {
    use_global_stats: true
  }
}
layer {
  name: "scale5a_branch2a"
  type: "Scale"
  bottom: "res5a_branch2a"
  top: "res5a_branch2a"
  scale_param {
    bias_term: true
  }
}
layer {
  name: "res5a_branch2a_relu"
  type: "ReLU"
  bottom: "res5a_branch2a"
  top: "res5a_branch2a"
}
layer {
  name: "res5a_branch2b"
  type: "Convolution"
  bottom: "res5a_branch2a"
  top: "res5a_branch2b"
  convolution_param {
    num_output: 512
    bias_term: false
    pad: 1
    kernel_size: 3
    stride: 1
  }
}
layer {
  name: "bn5a_branch2b"
  type: "BatchNorm"
  bottom: "res5a_branch2b"
  top: "res5a_branch2b"
  batch_norm_param {
    use_global_stats: true
  }
}
layer {
  name: "scale5a_branch2b"
  type: "Scale"
  bottom: "res5a_branch2b"
  top: "res5a_branch2b"
  scale_param {
    bias_term: true
  }
}
layer {
  name: "res5a_branch2b_relu"
  type: "ReLU"
  bottom: "res5a_branch2b"
  top: "res5a_branch2b"
}
layer {
  name: "res5a_branch2c"
  type: "Convolution"
  bottom: "res5a_branch2b"
  top: "res5a_branch2c"
  convolution_param {
    num_output: 2048
    bias_term: false
    pad: 0
    kernel_size: 1
    stride: 1
  }
}
layer {
  name: "bn5a_branch2c
I0504 21:12:22.005220 130347 layer_factory.hpp:77] Creating layer data
I0504 21:12:22.032320 130347 net.cpp:106] Creating Layer data
I0504 21:12:22.032476 130347 net.cpp:411] data -> data
I0504 21:12:22.032532 130347 net.cpp:411] data -> label
I0504 21:12:22.032575 130347 data_transformer.cpp:25] Loading mean file from: /home/hzhang57/NEW_WORLD/Project_4_ROOT/CODES/RC_497/Param/mean.binaryproto
I0504 21:12:22.034145 130407 db_lmdb.cpp:38] Opened lmdb /home/hzhang57/NEW_WORLD/Project_4_ROOT/CODES/RC_497/Param/RC-train.leveldb
I0504 21:12:22.048920 130347 data_layer.cpp:41] output data size: 20,3,224,224
I0504 21:12:22.073863 130347 net.cpp:150] Setting up data
I0504 21:12:22.073914 130347 net.cpp:157] Top shape: 20 3 224 224 (3010560)
I0504 21:12:22.073923 130347 net.cpp:157] Top shape: 20 (20)
I0504 21:12:22.073930 130347 net.cpp:165] Memory required for data: 12042320
I0504 21:12:22.073945 130347 layer_factory.hpp:77] Creating layer conv1
I0504 21:12:22.073982 130347 net.cpp:106] Creating Layer conv1
I0504 21:12:22.073993 130347 net.cpp:454] conv1 <- data
I0504 21:12:22.074012 130347 net.cpp:411] conv1 -> conv1
I0504 21:12:22.075178 130347 net.cpp:150] Setting up conv1
I0504 21:12:22.075203 130347 net.cpp:157] Top shape: 20 64 112 112 (16056320)
I0504 21:12:22.075212 130347 net.cpp:165] Memory required for data: 76267600
I0504 21:12:22.075230 130347 layer_factory.hpp:77] Creating layer bn_conv1
I0504 21:12:22.075250 130347 net.cpp:106] Creating Layer bn_conv1
I0504 21:12:22.075258 130347 net.cpp:454] bn_conv1 <- conv1
I0504 21:12:22.075268 130347 net.cpp:397] bn_conv1 -> conv1 (in-place)
I0504 21:12:22.075479 130347 net.cpp:150] Setting up bn_conv1
I0504 21:12:22.075492 130347 net.cpp:157] Top shape: 20 64 112 112 (16056320)
I0504 21:12:22.075510 130347 net.cpp:165] Memory required for data: 140492880
I0504 21:12:22.075528 130347 layer_factory.hpp:77] Creating layer scale_conv1
I0504 21:12:22.075548 130347 net.cpp:106] Creating Layer scale_conv1
I0504 21:12:22.075554 130347 net.cpp:454] scale_conv1 <- conv1
I0504 21:12:22.075563 130347 net.cpp:397] scale_conv1 -> conv1 (in-place)
I0504 21:12:22.075616 130347 layer_factory.hpp:77] Creating layer scale_conv1
I0504 21:12:22.075767 130347 net.cpp:150] Setting up scale_conv1
I0504 21:12:22.075778 130347 net.cpp:157] Top shape: 20 64 112 112 (16056320)
I0504 21:12:22.075783 130347 net.cpp:165] Memory required for data: 204718160
I0504 21:12:22.075793 130347 layer_factory.hpp:77] Creating layer conv1_relu
I0504 21:12:22.075804 130347 net.cpp:106] Creating Layer conv1_relu
I0504 21:12:22.075811 130347 net.cpp:454] conv1_relu <- conv1
I0504 21:12:22.075819 130347 net.cpp:397] conv1_relu -> conv1 (in-place)
I0504 21:12:22.075829 130347 net.cpp:150] Setting up conv1_relu
I0504 21:12:22.075837 130347 net.cpp:157] Top shape: 20 64 112 112 (16056320)
I0504 21:12:22.075842 130347 net.cpp:165] Memory required for data: 268943440
I0504 21:12:22.075848 130347 layer_factory.hpp:77] Creating layer pool1
I0504 21:12:22.075858 130347 net.cpp:106] Creating Layer pool1
I0504 21:12:22.075865 130347 net.cpp:454] pool1 <- conv1
I0504 21:12:22.075872 130347 net.cpp:411] pool1 -> pool1
I0504 21:12:22.075932 130347 net.cpp:150] Setting up pool1
I0504 21:12:22.075943 130347 net.cpp:157] Top shape: 20 64 56 56 (4014080)
I0504 21:12:22.075949 130347 net.cpp:165] Memory required for data: 284999760
I0504 21:12:22.075956 130347 layer_factory.hpp:77] Creating layer pool1_pool1_0_split
I0504 21:12:22.075965 130347 net.cpp:106] Creating Layer pool1_pool1_0_split
I0504 21:12:22.075971 130347 net.cpp:454] pool1_pool1_0_split <- pool1
I0504 21:12:22.075980 130347 net.cpp:411] pool1_pool1_0_split -> pool1_pool1_0_split_0
I0504 21:12:22.075991 130347 net.cpp:411] pool1_pool1_0_split -> pool1_pool1_0_split_1
I0504 21:12:22.076028 130347 net.cpp:150] Setting up pool1_pool1_0_split
I0504 21:12:22.076038 130347 net.cpp:157] Top shape: 20 64 56 56 (4014080)
I0504 21:12:22.076045 130347 net.cpp:157] Top shape: 20 64 56 56 (4014080)
I0504 21:12:22.076050 130347 net.cpp:165] Memory required for data: 317112400
I0504 21:12:22.076056 130347 layer_factory.hpp:77] Creating layer res2a_branch1
I0504 21:12:22.076068 130347 net.cpp:106] Creating Layer res2a_branch1
I0504 21:12:22.076074 130347 net.cpp:454] res2a_branch1 <- pool1_pool1_0_split_0
I0504 21:12:22.076084 130347 net.cpp:411] res2a_branch1 -> res2a_branch1
I0504 21:12:22.076382 130347 net.cpp:150] Setting up res2a_branch1
I0504 21:12:22.076397 130347 net.cpp:157] Top shape: 20 256 56 56 (16056320)
I0504 21:12:22.076403 130347 net.cpp:165] Memory required for data: 381337680
I0504 21:12:22.076426 130347 layer_factory.hpp:77] Creating layer bn2a_branch1
I0504 21:12:22.076452 130347 net.cpp:106] Creating Layer bn2a_branch1
I0504 21:12:22.076459 130347 net.cpp:454] bn2a_branch1 <- res2a_branch1
I0504 21:12:22.076469 130347 net.cpp:397] bn2a_branch1 -> res2a_branch1 (in-place)
I0504 21:12:22.078613 130347 net.cpp:150] Setting up bn2a_branch1
I0504 21:12:22.078641 130347 net.cpp:157] Top shape: 20 256 56 56 (16056320)
I0504 21:12:22.078649 130347 net.cpp:165] Memory required for data: 445562960
I0504 21:12:22.078665 130347 layer_factory.hpp:77] Creating layer scale2a_branch1
I0504 21:12:22.078678 130347 net.cpp:106] Creating Layer scale2a_branch1
I0504 21:12:22.078693 130347 net.cpp:454] scale2a_branch1 <- res2a_branch1
I0504 21:12:22.078702 130347 net.cpp:397] scale2a_branch1 -> res2a_branch1 (in-place)
I0504 21:12:22.078753 130347 layer_factory.hpp:77] Creating layer scale2a_branch1
I0504 21:12:22.078873 130347 net.cpp:150] Setting up scale2a_branch1
I0504 21:12:22.078883 130347 net.cpp:157] Top shape: 20 256 56 56 (16056320)
I0504 21:12:22.078889 130347 net.cpp:165] Memory required for data: 509788240
I0504 21:12:22.078899 130347 layer_factory.hpp:77] Creating layer res2a_branch2a
I0504 21:12:22.078912 130347 net.cpp:106] Creating Layer res2a_branch2a
I0504 21:12:22.078927 130347 net.cpp:454] res2a_branch2a <- pool1_pool1_0_split_1
I0504 21:12:22.078938 130347 net.cpp:411] res2a_branch2a -> res2a_branch2a
I0504 21:12:22.079133 130347 net.cpp:150] Setting up res2a_branch2a
I0504 21:12:22.079144 130347 net.cpp:157] Top shape: 20 64 56 56 (4014080)
I0504 21:12:22.079151 130347 net.cpp:165] Memory required for data: 525844560
I0504 21:12:22.079159 130347 layer_factory.hpp:77] Creating layer bn2a_branch2a
I0504 21:12:22.079169 130347 net.cpp:106] Creating Layer bn2a_branch2a
I0504 21:12:22.079175 130347 net.cpp:454] bn2a_branch2a <- res2a_branch2a
I0504 21:12:22.079185 130347 net.cpp:397] bn2a_branch2a -> res2a_branch2a (in-place)
I0504 21:12:22.079377 130347 net.cpp:150] Setting up bn2a_branch2a
I0504 21:12:22.079387 130347 net.cpp:157] Top shape: 20 64 56 56 (4014080)
I0504 21:12:22.079393 130347 net.cpp:165] Memory required for data: 541900880
I0504 21:12:22.079409 130347 layer_factory.hpp:77] Creating layer scale2a_branch2a
I0504 21:12:22.079419 130347 net.cpp:106] Creating Layer scale2a_branch2a
I0504 21:12:22.079426 130347 net.cpp:454] scale2a_branch2a <- res2a_branch2a
I0504 21:12:22.079433 130347 net.cpp:397] scale2a_branch2a -> res2a_branch2a (in-place)
I0504 21:12:22.079478 130347 layer_factory.hpp:77] Creating layer scale2a_branch2a
I0504 21:12:22.079602 130347 net.cpp:150] Setting up scale2a_branch2a
I0504 21:12:22.079612 130347 net.cpp:157] Top shape: 20 64 56 56 (4014080)
I0504 21:12:22.079618 130347 net.cpp:165] Memory required for data: 557957200
I0504 21:12:22.079632 130347 layer_factory.hpp:77] Creating layer res2a_branch2a_relu
I0504 21:12:22.079641 130347 net.cpp:106] Creating Layer res2a_branch2a_relu
I0504 21:12:22.079648 130347 net.cpp:454] res2a_branch2a_relu <- res2a_branch2a
I0504 21:12:22.079656 130347 net.cpp:397] res2a_branch2a_relu -> res2a_branch2a (in-place)
I0504 21:12:22.079665 130347 net.cpp:150] Setting up res2a_branch2a_relu
I0504 21:12:22.079674 130347 net.cpp:157] Top shape: 20 64 56 56 (4014080)
I0504 21:12:22.079679 130347 net.cpp:165] Memory required for data: 574013520
I0504 21:12:22.079685 130347 layer_factory.hpp:77] Creating layer res2a_branch2b
I0504 21:12:22.079696 130347 net.cpp:106] Creating Layer res2a_branch2b
I0504 21:12:22.079702 130347 net.cpp:454] res2a_branch2b <- res2a_branch2a
I0504 21:12:22.079711 130347 net.cpp:411] res2a_branch2b -> res2a_branch2b
I0504 21:12:22.080643 130347 net.cpp:150] Setting up res2a_branch2b
I0504 21:12:22.080667 130347 net.cpp:157] Top shape: 20 64 56 56 (4014080)
I0504 21:12:22.080673 130347 net.cpp:165] Memory required for data: 590069840
I0504 21:12:22.080682 130347 layer_factory.hpp:77] Creating layer bn2a_branch2b
I0504 21:12:22.080693 130347 net.cpp:106] Creating Layer bn2a_branch2b
I0504 21:12:22.080699 130347 net.cpp:454] bn2a_branch2b <- res2a_branch2b
I0504 21:12:22.080708 130347 net.cpp:397] bn2a_branch2b -> res2a_branch2b (in-place)
I0504 21:12:22.080932 130347 net.cpp:150] Setting up bn2a_branch2b
I0504 21:12:22.080942 130347 net.cpp:157] Top shape: 20 64 56 56 (4014080)
I0504 21:12:22.080948 130347 net.cpp:165] Memory required for data: 606126160
I0504 21:12:22.080960 130347 layer_factory.hpp:77] Creating layer scale2a_branch2b
I0504 21:12:22.080971 130347 net.cpp:106] Creating Layer scale2a_branch2b
I0504 21:12:22.080977 130347 net.cpp:454] scale2a_branch2b <- res2a_branch2b
I0504 21:12:22.080986 130347 net.cpp:397] scale2a_branch2b -> res2a_branch2b (in-place)
I0504 21:12:22.081030 130347 layer_factory.hpp:77] Creating layer scale2a_branch2b
I0504 21:12:22.081156 130347 net.cpp:150] Setting up scale2a_branch2b
I0504 21:12:22.081167 130347 net.cpp:157] Top shape: 20 64 56 56 (4014080)
I0504 21:12:22.081173 130347 net.cpp:165] Memory required for data: 622182480
I0504 21:12:22.081182 130347 layer_factory.hpp:77] Creating layer res2a_branch2b_relu
I0504 21:12:22.081192 130347 net.cpp:106] Creating Layer res2a_branch2b_relu
I0504 21:12:22.081197 130347 net.cpp:454] res2a_branch2b_relu <- res2a_branch2b
I0504 21:12:22.081205 130347 net.cpp:397] res2a_branch2b_relu -> res2a_branch2b (in-place)
I0504 21:12:22.081223 130347 net.cpp:150] Setting up res2a_branch2b_relu
I0504 21:12:22.081230 130347 net.cpp:157] Top shape: 20 64 56 56 (4014080)
I0504 21:12:22.081235 130347 net.cpp:165] Memory required for data: 638238800
I0504 21:12:22.081241 130347 layer_factory.hpp:77] Creating layer res2a_branch2c
I0504 21:12:22.081253 130347 net.cpp:106] Creating Layer res2a_branch2c
I0504 21:12:22.081259 130347 net.cpp:454] res2a_branch2c <- res2a_branch2b
I0504 21:12:22.081267 130347 net.cpp:411] res2a_branch2c -> res2a_branch2c
I0504 21:12:22.081462 130347 net.cpp:150] Setting up res2a_branch2c
I0504 21:12:22.081473 130347 net.cpp:157] Top shape: 20 256 56 56 (16056320)
I0504 21:12:22.081480 130347 net.cpp:165] Memory required for data: 702464080
I0504 21:12:22.081486 130347 layer_factory.hpp:77] Creating layer bn2a_branch2c
I0504 21:12:22.081496 130347 net.cpp:106] Creating Layer bn2a_branch2c
I0504 21:12:22.081502 130347 net.cpp:454] bn2a_branch2c <- res2a_branch2c
I0504 21:12:22.081511 130347 net.cpp:397] bn2a_branch2c -> res2a_branch2c (in-place)
I0504 21:12:22.081696 130347 net.cpp:150] Setting up bn2a_branch2c
I0504 21:12:22.081707 130347 net.cpp:157] Top shape: 20 256 56 56 (16056320)
I0504 21:12:22.081712 130347 net.cpp:165] Memory required for data: 766689360
I0504 21:12:22.081722 130347 layer_factory.hpp:77] Creating layer scale2a_branch2c
I0504 21:12:22.081732 130347 net.cpp:106] Creating Layer scale2a_branch2c
I0504 21:12:22.081737 130347 net.cpp:454] scale2a_branch2c <- res2a_branch2c
I0504 21:12:22.081745 130347 net.cpp:397] scale2a_branch2c -> res2a_branch2c (in-place)
I0504 21:12:22.081789 130347 layer_factory.hpp:77] Creating layer scale2a_branch2c
I0504 21:12:22.081907 130347 net.cpp:150] Setting up scale2a_branch2c
I0504 21:12:22.081918 130347 net.cpp:157] Top shape: 20 256 56 56 (16056320)
I0504 21:12:22.081923 130347 net.cpp:165] Memory required for data: 830914640
I0504 21:12:22.081933 130347 layer_factory.hpp:77] Creating layer res2a
I0504 21:12:22.081941 130347 net.cpp:106] Creating Layer res2a
I0504 21:12:22.081948 130347 net.cpp:454] res2a <- res2a_branch1
I0504 21:12:22.081955 130347 net.cpp:454] res2a <- res2a_branch2c
I0504 21:12:22.081964 130347 net.cpp:411] res2a -> res2a
I0504 21:12:22.081992 130347 net.cpp:150] Setting up res2a
I0504 21:12:22.082001 130347 net.cpp:157] Top shape: 20 256 56 56 (16056320)
I0504 21:12:22.082007 130347 net.cpp:165] Memory required for data: 895139920
I0504 21:12:22.082012 130347 layer_factory.hpp:77] Creating layer res2a_relu
I0504 21:12:22.082021 130347 net.cpp:106] Creating Layer res2a_relu
I0504 21:12:22.082026 130347 net.cpp:454] res2a_relu <- res2a
I0504 21:12:22.082036 130347 net.cpp:397] res2a_relu -> res2a (in-place)
I0504 21:12:22.082043 130347 net.cpp:150] Setting up res2a_relu
I0504 21:12:22.082051 130347 net.cpp:157] Top shape: 20 256 56 56 (16056320)
I0504 21:12:22.082056 130347 net.cpp:165] Memory required for data: 959365200
I0504 21:12:22.082062 130347 layer_factory.hpp:77] Creating layer res2a_res2a_relu_0_split
I0504 21:12:22.082070 130347 net.cpp:106] Creating Layer res2a_res2a_relu_0_split
I0504 21:12:22.082075 130347 net.cpp:454] res2a_res2a_relu_0_split <- res2a
I0504 21:12:22.082083 130347 net.cpp:411] res2a_res2a_relu_0_split -> res2a_res2a_relu_0_split_0
I0504 21:12:22.082093 130347 net.cpp:411] res2a_res2a_relu_0_split -> res2a_res2a_relu_0_split_1
I0504 21:12:22.082129 130347 net.cpp:150] Setting up res2a_res2a_relu_0_split
I0504 21:12:22.082139 130347 net.cpp:157] Top shape: 20 256 56 56 (16056320)
I0504 21:12:22.082145 130347 net.cpp:157] Top shape: 20 256 56 56 (16056320)
I0504 21:12:22.082150 130347 net.cpp:165] Memory required for data: 1087815760
I0504 21:12:22.082155 130347 layer_factory.hpp:77] Creating layer res2b_branch2a
I0504 21:12:22.082166 130347 net.cpp:106] Creating Layer res2b_branch2a
I0504 21:12:22.082172 130347 net.cpp:454] res2b_branch2a <- res2a_res2a_relu_0_split_0
I0504 21:12:22.082181 130347 net.cpp:411] res2b_branch2a -> res2b_branch2a
I0504 21:12:22.082386 130347 net.cpp:150] Setting up res2b_branch2a
I0504 21:12:22.082397 130347 net.cpp:157] Top shape: 20 64 56 56 (4014080)
I0504 21:12:22.082403 130347 net.cpp:165] Memory required for data: 1103872080
I0504 21:12:22.082411 130347 layer_factory.hpp:77] Creating layer bn2b_branch2a
I0504 21:12:22.082420 130347 net.cpp:106] Creating Layer bn2b_branch2a
I0504 21:12:22.082427 130347 net.cpp:454] bn2b_branch2a <- res2b_branch2a
I0504 21:12:22.082434 130347 net.cpp:397] bn2b_branch2a -> res2b_branch2a (in-place)
I0504 21:12:22.082630 130347 net.cpp:150] Setting up bn2b_branch2a
I0504 21:12:22.082640 130347 net.cpp:157] Top shape: 20 64 56 56 (4014080)
I0504 21:12:22.082646 130347 net.cpp:165] Memory required for data: 1119928400
I0504 21:12:22.082664 130347 layer_factory.hpp:77] Creating layer scale2b_branch2a
I0504 21:12:22.082674 130347 net.cpp:106] Creating Layer scale2b_branch2a
I0504 21:12:22.082679 130347 net.cpp:454] scale2b_branch2a <- res2b_branch2a
I0504 21:12:22.082689 130347 net.cpp:397] scale2b_branch2a -> res2b_branch2a (in-place)
I0504 21:12:22.082731 130347 layer_factory.hpp:77] Creating layer scale2b_branch2a
I0504 21:12:22.082851 130347 net.cpp:150] Setting up scale2b_branch2a
I0504 21:12:22.082861 130347 net.cpp:157] Top shape: 20 64 56 56 (4014080)
I0504 21:12:22.082867 130347 net.cpp:165] Memory required for data: 1135984720
I0504 21:12:22.082876 130347 layer_factory.hpp:77] Creating layer res2b_branch2a_relu
I0504 21:12:22.082885 130347 net.cpp:106] Creating Layer res2b_branch2a_relu
I0504 21:12:22.082890 130347 net.cpp:454] res2b_branch2a_relu <- res2b_branch2a
I0504 21:12:22.082898 130347 net.cpp:397] res2b_branch2a_relu -> res2b_branch2a (in-place)
I0504 21:12:22.082907 130347 net.cpp:150] Setting up res2b_branch2a_relu
I0504 21:12:22.082917 130347 net.cpp:157] Top shape: 20 64 56 56 (4014080)
I0504 21:12:22.082923 130347 net.cpp:165] Memory required for data: 1152041040
I0504 21:12:22.082928 130347 layer_factory.hpp:77] Creating layer res2b_branch2b
I0504 21:12:22.082938 130347 net.cpp:106] Creating Layer res2b_branch2b
I0504 21:12:22.082944 130347 net.cpp:454] res2b_branch2b <- res2b_branch2a
I0504 21:12:22.082952 130347 net.cpp:411] res2b_branch2b -> res2b_branch2b
I0504 21:12:22.083173 130347 net.cpp:150] Setting up res2b_branch2b
I0504 21:12:22.083184 130347 net.cpp:157] Top shape: 20 64 56 56 (4014080)
I0504 21:12:22.083189 130347 net.cpp:165] Memory required for data: 1168097360
I0504 21:12:22.083196 130347 layer_factory.hpp:77] Creating layer bn2b_branch2b
I0504 21:12:22.083204 130347 net.cpp:106] Creating Layer bn2b_branch2b
I0504 21:12:22.083210 130347 net.cpp:454] bn2b_branch2b <- res2b_branch2b
I0504 21:12:22.083219 130347 net.cpp:397] bn2b_branch2b -> res2b_branch2b (in-place)
I0504 21:12:22.083410 130347 net.cpp:150] Setting up bn2b_branch2b
I0504 21:12:22.083420 130347 net.cpp:157] Top shape: 20 64 56 56 (4014080)
I0504 21:12:22.083426 130347 net.cpp:165] Memory required for data: 1184153680
I0504 21:12:22.083436 130347 layer_factory.hpp:77] Creating layer scale2b_branch2b
I0504 21:12:22.083446 130347 net.cpp:106] Creating Layer scale2b_branch2b
I0504 21:12:22.083451 130347 net.cpp:454] scale2b_branch2b <- res2b_branch2b
I0504 21:12:22.083459 130347 net.cpp:397] scale2b_branch2b -> res2b_branch2b (in-place)
I0504 21:12:22.083500 130347 layer_factory.hpp:77] Creating layer scale2b_branch2b
I0504 21:12:22.083621 130347 net.cpp:150] Setting up scale2b_branch2b
I0504 21:12:22.083631 130347 net.cpp:157] Top shape: 20 64 56 56 (4014080)
I0504 21:12:22.083636 130347 net.cpp:165] Memory required for data: 1200210000
I0504 21:12:22.083644 130347 layer_factory.hpp:77] Creating layer res2b_branch2b_relu
I0504 21:12:22.083653 130347 net.cpp:106] Creating Layer res2b_branch2b_relu
I0504 21:12:22.083659 130347 net.cpp:454] res2b_branch2b_relu <- res2b_branch2b
I0504 21:12:22.083667 130347 net.cpp:397] res2b_branch2b_relu -> res2b_branch2b (in-place)
I0504 21:12:22.083675 130347 net.cpp:150] Setting up res2b_branch2b_relu
I0504 21:12:22.083683 130347 net.cpp:157] Top shape: 20 64 56 56 (4014080)
I0504 21:12:22.083694 130347 net.cpp:165] Memory required for data: 1216266320
I0504 21:12:22.083700 130347 layer_factory.hpp:77] Creating layer res2b_branch2c
I0504 21:12:22.083714 130347 net.cpp:106] Creating Layer res2b_branch2c
I0504 21:12:22.083720 130347 net.cpp:454] res2b_branch2c <- res2b_branch2b
I0504 21:12:22.083729 130347 net.cpp:411] res2b_branch2c -> res2b_branch2c
I0504 21:12:22.083923 130347 net.cpp:150] Setting up res2b_branch2c
I0504 21:12:22.083935 130347 net.cpp:157] Top shape: 20 256 56 56 (16056320)
I0504 21:12:22.083940 130347 net.cpp:165] Memory required for data: 1280491600
I0504 21:12:22.083947 130347 layer_factory.hpp:77] Creating layer bn2b_branch2c
I0504 21:12:22.083956 130347 net.cpp:106] Creating Layer bn2b_branch2c
I0504 21:12:22.083962 130347 net.cpp:454] bn2b_branch2c <- res2b_branch2c
I0504 21:12:22.083971 130347 net.cpp:397] bn2b_branch2c -> res2b_branch2c (in-place)
I0504 21:12:22.084161 130347 net.cpp:150] Setting up bn2b_branch2c
I0504 21:12:22.084169 130347 net.cpp:157] Top shape: 20 256 56 56 (16056320)
I0504 21:12:22.084175 130347 net.cpp:165] Memory required for data: 1344716880
I0504 21:12:22.084185 130347 layer_factory.hpp:77] Creating layer scale2b_branch2c
I0504 21:12:22.084194 130347 net.cpp:106] Creating Layer scale2b_branch2c
I0504 21:12:22.084199 130347 net.cpp:454] scale2b_branch2c <- res2b_branch2c
I0504 21:12:22.084208 130347 net.cpp:397] scale2b_branch2c -> res2b_branch2c (in-place)
I0504 21:12:22.084249 130347 layer_factory.hpp:77] Creating layer scale2b_branch2c
I0504 21:12:22.084362 130347 net.cpp:150] Setting up scale2b_branch2c
I0504 21:12:22.084372 130347 net.cpp:157] Top shape: 20 256 56 56 (16056320)
I0504 21:12:22.084378 130347 net.cpp:165] Memory required for data: 1408942160
I0504 21:12:22.084386 130347 layer_factory.hpp:77] Creating layer res2b
I0504 21:12:22.084396 130347 net.cpp:106] Creating Layer res2b
I0504 21:12:22.084403 130347 net.cpp:454] res2b <- res2a_res2a_relu_0_split_1
I0504 21:12:22.084409 130347 net.cpp:454] res2b <- res2b_branch2c
I0504 21:12:22.084417 130347 net.cpp:411] res2b -> res2b
I0504 21:12:22.084460 130347 net.cpp:150] Setting up res2b
I0504 21:12:22.084472 130347 net.cpp:157] Top shape: 20 256 56 56 (16056320)
I0504 21:12:22.084478 130347 net.cpp:165] Memory required for data: 1473167440
I0504 21:12:22.084484 130347 layer_factory.hpp:77] Creating layer res2b_relu
I0504 21:12:22.084492 130347 net.cpp:106] Creating Layer res2b_relu
I0504 21:12:22.084498 130347 net.cpp:454] res2b_relu <- res2b
I0504 21:12:22.084506 130347 net.cpp:397] res2b_relu -> res2b (in-place)
I0504 21:12:22.084516 130347 net.cpp:150] Setting up res2b_relu
I0504 21:12:22.084522 130347 net.cpp:157] Top shape: 20 256 56 56 (16056320)
I0504 21:12:22.084527 130347 net.cpp:165] Memory required for data: 1537392720
I0504 21:12:22.084532 130347 layer_factory.hpp:77] Creating layer res2b_res2b_relu_0_split
I0504 21:12:22.084540 130347 net.cpp:106] Creating Layer res2b_res2b_relu_0_split
I0504 21:12:22.084547 130347 net.cpp:454] res2b_res2b_relu_0_split <- res2b
I0504 21:12:22.084554 130347 net.cpp:411] res2b_res2b_relu_0_split -> res2b_res2b_relu_0_split_0
I0504 21:12:22.084568 130347 net.cpp:411] res2b_res2b_relu_0_split -> res2b_res2b_relu_0_split_1
I0504 21:12:22.084604 130347 net.cpp:150] Setting up res2b_res2b_relu_0_split
I0504 21:12:22.084612 130347 net.cpp:157] Top shape: 20 256 56 56 (16056320)
I0504 21:12:22.084619 130347 net.cpp:157] Top shape: 20 256 56 56 (16056320)
I0504 21:12:22.084625 130347 net.cpp:165] Memory required for data: 1665843280
I0504 21:12:22.084630 130347 layer_factory.hpp:77] Creating layer res2c_branch2a
I0504 21:12:22.084640 130347 net.cpp:106] Creating Layer res2c_branch2a
I0504 21:12:22.084646 130347 net.cpp:454] res2c_branch2a <- res2b_res2b_relu_0_split_0
I0504 21:12:22.084656 130347 net.cpp:411] res2c_branch2a -> res2c_branch2a
I0504 21:12:22.084849 130347 net.cpp:150] Setting up res2c_branch2a
I0504 21:12:22.084859 130347 net.cpp:157] Top shape: 20 64 56 56 (4014080)
I0504 21:12:22.084866 130347 net.cpp:165] Memory required for data: 1681899600
I0504 21:12:22.084878 130347 layer_factory.hpp:77] Creating layer bn2c_branch2a
I0504 21:12:22.084888 130347 net.cpp:106] Creating Layer bn2c_branch2a
I0504 21:12:22.084895 130347 net.cpp:454] bn2c_branch2a <- res2c_branch2a
I0504 21:12:22.084903 130347 net.cpp:397] bn2c_branch2a -> res2c_branch2a (in-place)
I0504 21:12:22.085101 130347 net.cpp:150] Setting up bn2c_branch2a
I0504 21:12:22.085111 130347 net.cpp:157] Top shape: 20 64 56 56 (4014080)
I0504 21:12:22.085116 130347 net.cpp:165] Memory required for data: 1697955920
I0504 21:12:22.085127 130347 layer_factory.hpp:77] Creating layer scale2c_branch2a
I0504 21:12:22.085136 130347 net.cpp:106] Creating Layer scale2c_branch2a
I0504 21:12:22.085142 130347 net.cpp:454] scale2c_branch2a <- res2c_branch2a
I0504 21:12:22.085158 130347 net.cpp:397] scale2c_branch2a -> res2c_branch2a (in-place)
I0504 21:12:22.085204 130347 layer_factory.hpp:77] Creating layer scale2c_branch2a
I0504 21:12:22.085327 130347 net.cpp:150] Setting up scale2c_branch2a
I0504 21:12:22.085337 130347 net.cpp:157] Top shape: 20 64 56 56 (4014080)
I0504 21:12:22.085343 130347 net.cpp:165] Memory required for data: 1714012240
I0504 21:12:22.085351 130347 layer_factory.hpp:77] Creating layer res2c_branch2a_relu
I0504 21:12:22.085362 130347 net.cpp:106] Creating Layer res2c_branch2a_relu
I0504 21:12:22.085368 130347 net.cpp:454] res2c_branch2a_relu <- res2c_branch2a
I0504 21:12:22.085376 130347 net.cpp:397] res2c_branch2a_relu -> res2c_branch2a (in-place)
I0504 21:12:22.085393 130347 net.cpp:150] Setting up res2c_branch2a_relu
I0504 21:12:22.085400 130347 net.cpp:157] Top shape: 20 64 56 56 (4014080)
I0504 21:12:22.085407 130347 net.cpp:165] Memory required for data: 1730068560
I0504 21:12:22.085412 130347 layer_factory.hpp:77] Creating layer res2c_branch2b
I0504 21:12:22.085422 130347 net.cpp:106] Creating Layer res2c_branch2b
I0504 21:12:22.085427 130347 net.cpp:454] res2c_branch2b <- res2c_branch2a
I0504 21:12:22.085436 130347 net.cpp:411] res2c_branch2b -> res2c_branch2b
I0504 21:12:22.085659 130347 net.cpp:150] Setting up res2c_branch2b
I0504 21:12:22.085669 130347 net.cpp:157] Top shape: 20 64 56 56 (4014080)
I0504 21:12:22.085675 130347 net.cpp:165] Memory required for data: 1746124880
I0504 21:12:22.085682 130347 layer_factory.hpp:77] Creating layer bn2c_branch2b
I0504 21:12:22.085691 130347 net.cpp:106] Creating Layer bn2c_branch2b
I0504 21:12:22.085697 130347 net.cpp:454] bn2c_branch2b <- res2c_branch2b
I0504 21:12:22.085707 130347 net.cpp:397] bn2c_branch2b -> res2c_branch2b (in-place)
I0504 21:12:22.085909 130347 net.cpp:150] Setting up bn2c_branch2b
I0504 21:12:22.085919 130347 net.cpp:157] Top shape: 20 64 56 56 (4014080)
I0504 21:12:22.085924 130347 net.cpp:165] Memory required for data: 1762181200
I0504 21:12:22.085938 130347 layer_factory.hpp:77] Creating layer scale2c_branch2b
I0504 21:12:22.085947 130347 net.cpp:106] Creating Layer scale2c_branch2b
I0504 21:12:22.085952 130347 net.cpp:454] scale2c_branch2b <- res2c_branch2b
I0504 21:12:22.085963 130347 net.cpp:397] scale2c_branch2b -> res2c_branch2b (in-place)
I0504 21:12:22.086002 130347 layer_factory.hpp:77] Creating layer scale2c_branch2b
I0504 21:12:22.086128 130347 net.cpp:150] Setting up scale2c_branch2b
I0504 21:12:22.086138 130347 net.cpp:157] Top shape: 20 64 56 56 (4014080)
I0504 21:12:22.086143 130347 net.cpp:165] Memory required for data: 1778237520
I0504 21:12:22.086153 130347 layer_factory.hpp:77] Creating layer res2c_branch2b_relu
I0504 21:12:22.086160 130347 net.cpp:106] Creating Layer res2c_branch2b_relu
I0504 21:12:22.086166 130347 net.cpp:454] res2c_branch2b_relu <- res2c_branch2b
I0504 21:12:22.086176 130347 net.cpp:397] res2c_branch2b_relu -> res2c_branch2b (in-place)
I0504 21:12:22.086185 130347 net.cpp:150] Setting up res2c_branch2b_relu
I0504 21:12:22.086192 130347 net.cpp:157] Top shape: 20 64 56 56 (4014080)
I0504 21:12:22.086199 130347 net.cpp:165] Memory required for data: 1794293840
I0504 21:12:22.086204 130347 layer_factory.hpp:77] Creating layer res2c_branch2c
I0504 21:12:22.086215 130347 net.cpp:106] Creating Layer res2c_branch2c
I0504 21:12:22.086225 130347 net.cpp:454] res2c_branch2c <- res2c_branch2b
I0504 21:12:22.086235 130347 net.cpp:411] res2c_branch2c -> res2c_branch2c
I0504 21:12:22.086439 130347 net.cpp:150] Setting up res2c_branch2c
I0504 21:12:22.086450 130347 net.cpp:157] Top shape: 20 256 56 56 (16056320)
I0504 21:12:22.086457 130347 net.cpp:165] Memory required for data: 1858519120
I0504 21:12:22.086464 130347 layer_factory.hpp:77] Creating layer bn2c_branch2c
I0504 21:12:22.086472 130347 net.cpp:106] Creating Layer bn2c_branch2c
I0504 21:12:22.086478 130347 net.cpp:454] bn2c_branch2c <- res2c_branch2c
I0504 21:12:22.086488 130347 net.cpp:397] bn2c_branch2c -> res2c_branch2c (in-place)
I0504 21:12:22.086684 130347 net.cpp:150] Setting up bn2c_branch2c
I0504 21:12:22.086694 130347 net.cpp:157] Top shape: 20 256 56 56 (16056320)
I0504 21:12:22.086700 130347 net.cpp:165] Memory required for data: 1922744400
I0504 21:12:22.086724 130347 layer_factory.hpp:77] Creating layer scale2c_branch2c
I0504 21:12:22.086735 130347 net.cpp:106] Creating Layer scale2c_branch2c
I0504 21:12:22.086740 130347 net.cpp:454] scale2c_branch2c <- res2c_branch2c
I0504 21:12:22.086748 130347 net.cpp:397] scale2c_branch2c -> res2c_branch2c (in-place)
I0504 21:12:22.086792 130347 layer_factory.hpp:77] Creating layer scale2c_branch2c
I0504 21:12:22.086911 130347 net.cpp:150] Setting up scale2c_branch2c
I0504 21:12:22.086921 130347 net.cpp:157] Top shape: 20 256 56 56 (16056320)
I0504 21:12:22.086927 130347 net.cpp:165] Memory required for data: 1986969680
I0504 21:12:22.086935 130347 layer_factory.hpp:77] Creating layer res2c
I0504 21:12:22.086946 130347 net.cpp:106] Creating Layer res2c
I0504 21:12:22.086952 130347 net.cpp:454] res2c <- res2b_res2b_relu_0_split_1
I0504 21:12:22.086959 130347 net.cpp:454] res2c <- res2c_branch2c
I0504 21:12:22.086968 130347 net.cpp:411] res2c -> res2c
I0504 21:12:22.086994 130347 net.cpp:150] Setting up res2c
I0504 21:12:22.087003 130347 net.cpp:157] Top shape: 20 256 56 56 (16056320)
I0504 21:12:22.087008 130347 net.cpp:165] Memory required for data: 2051194960
I0504 21:12:22.087014 130347 layer_factory.hpp:77] Creating layer res2c_relu
I0504 21:12:22.087023 130347 net.cpp:106] Creating Layer res2c_relu
I0504 21:12:22.087029 130347 net.cpp:454] res2c_relu <- res2c
I0504 21:12:22.087038 130347 net.cpp:397] res2c_relu -> res2c (in-place)
I0504 21:12:22.087045 130347 net.cpp:150] Setting up res2c_relu
I0504 21:12:22.087052 130347 net.cpp:157] Top shape: 20 256 56 56 (16056320)
I0504 21:12:22.087057 130347 net.cpp:165] Memory required for data: 2115420240
I0504 21:12:22.087064 130347 layer_factory.hpp:77] Creating layer res2c_res2c_relu_0_split
I0504 21:12:22.087070 130347 net.cpp:106] Creating Layer res2c_res2c_relu_0_split
I0504 21:12:22.087076 130347 net.cpp:454] res2c_res2c_relu_0_split <- res2c
I0504 21:12:22.087085 130347 net.cpp:411] res2c_res2c_relu_0_split -> res2c_res2c_relu_0_split_0
I0504 21:12:22.087092 130347 net.cpp:411] res2c_res2c_relu_0_split -> res2c_res2c_relu_0_split_1
I0504 21:12:22.087129 130347 net.cpp:150] Setting up res2c_res2c_relu_0_split
I0504 21:12:22.087138 130347 net.cpp:157] Top shape: 20 256 56 56 (16056320)
I0504 21:12:22.087146 130347 net.cpp:157] Top shape: 20 256 56 56 (16056320)
I0504 21:12:22.087152 130347 net.cpp:165] Memory required for data: 2243870800
I0504 21:12:22.087157 130347 layer_factory.hpp:77] Creating layer res3a_branch1
I0504 21:12:22.087167 130347 net.cpp:106] Creating Layer res3a_branch1
I0504 21:12:22.087172 130347 net.cpp:454] res3a_branch1 <- res2c_res2c_relu_0_split_0
I0504 21:12:22.087182 130347 net.cpp:411] res3a_branch1 -> res3a_branch1
I0504 21:12:22.088218 130347 net.cpp:150] Setting up res3a_branch1
I0504 21:12:22.088239 130347 net.cpp:157] Top shape: 20 512 28 28 (8028160)
I0504 21:12:22.088245 130347 net.cpp:165] Memory required for data: 2275983440
I0504 21:12:22.088254 130347 layer_factory.hpp:77] Creating layer bn3a_branch1
I0504 21:12:22.088264 130347 net.cpp:106] Creating Layer bn3a_branch1
I0504 21:12:22.088271 130347 net.cpp:454] bn3a_branch1 <- res3a_branch1
I0504 21:12:22.088289 130347 net.cpp:397] bn3a_branch1 -> res3a_branch1 (in-place)
I0504 21:12:22.089154 130347 net.cpp:150] Setting up bn3a_branch1
I0504 21:12:22.089174 130347 net.cpp:157] Top shape: 20 512 28 28 (8028160)
I0504 21:12:22.089180 130347 net.cpp:165] Memory required for data: 2308096080
I0504 21:12:22.089192 130347 layer_factory.hpp:77] Creating layer scale3a_branch1
I0504 21:12:22.089202 130347 net.cpp:106] Creating Layer scale3a_branch1
I0504 21:12:22.089210 130347 net.cpp:454] scale3a_branch1 <- res3a_branch1
I0504 21:12:22.089220 130347 net.cpp:397] scale3a_branch1 -> res3a_branch1 (in-place)
I0504 21:12:22.089272 130347 layer_factory.hpp:77] Creating layer scale3a_branch1
I0504 21:12:22.089403 130347 net.cpp:150] Setting up scale3a_branch1
I0504 21:12:22.089414 130347 net.cpp:157] Top shape: 20 512 28 28 (8028160)
I0504 21:12:22.089421 130347 net.cpp:165] Memory required for data: 2340208720
I0504 21:12:22.089429 130347 layer_factory.hpp:77] Creating layer res3a_branch2a
I0504 21:12:22.089442 130347 net.cpp:106] Creating Layer res3a_branch2a
I0504 21:12:22.089449 130347 net.cpp:454] res3a_branch2a <- res2c_res2c_relu_0_split_1
I0504 21:12:22.089457 130347 net.cpp:411] res3a_branch2a -> res3a_branch2a
I0504 21:12:22.089684 130347 net.cpp:150] Setting up res3a_branch2a
I0504 21:12:22.089696 130347 net.cpp:157] Top shape: 20 128 28 28 (2007040)
I0504 21:12:22.089702 130347 net.cpp:165] Memory required for data: 2348236880
I0504 21:12:22.089709 130347 layer_factory.hpp:77] Creating layer bn3a_branch2a
I0504 21:12:22.089720 130347 net.cpp:106] Creating Layer bn3a_branch2a
I0504 21:12:22.089727 130347 net.cpp:454] bn3a_branch2a <- res3a_branch2a
I0504 21:12:22.089735 130347 net.cpp:397] bn3a_branch2a -> res3a_branch2a (in-place)
I0504 21:12:22.089937 130347 net.cpp:150] Setting up bn3a_branch2a
I0504 21:12:22.089947 130347 net.cpp:157] Top shape: 20 128 28 28 (2007040)
I0504 21:12:22.089953 130347 net.cpp:165] Memory required for data: 2356265040
I0504 21:12:22.089964 130347 layer_factory.hpp:77] Creating layer scale3a_branch2a
I0504 21:12:22.089973 130347 net.cpp:106] Creating Layer scale3a_branch2a
I0504 21:12:22.089980 130347 net.cpp:454] scale3a_branch2a <- res3a_branch2a
I0504 21:12:22.090013 130347 net.cpp:397] scale3a_branch2a -> res3a_branch2a (in-place)
I0504 21:12:22.090059 130347 layer_factory.hpp:77] Creating layer scale3a_branch2a
I0504 21:12:22.090178 130347 net.cpp:150] Setting up scale3a_branch2a
I0504 21:12:22.090188 130347 net.cpp:157] Top shape: 20 128 28 28 (2007040)
I0504 21:12:22.090193 130347 net.cpp:165] Memory required for data: 2364293200
I0504 21:12:22.090203 130347 layer_factory.hpp:77] Creating layer res3a_branch2a_relu
I0504 21:12:22.090210 130347 net.cpp:106] Creating Layer res3a_branch2a_relu
I0504 21:12:22.090216 130347 net.cpp:454] res3a_branch2a_relu <- res3a_branch2a
I0504 21:12:22.090224 130347 net.cpp:397] res3a_branch2a_relu -> res3a_branch2a (in-place)
I0504 21:12:22.090232 130347 net.cpp:150] Setting up res3a_branch2a_relu
I0504 21:12:22.090240 130347 net.cpp:157] Top shape: 20 128 28 28 (2007040)
I0504 21:12:22.090245 130347 net.cpp:165] Memory required for data: 2372321360
I0504 21:12:22.090251 130347 layer_factory.hpp:77] Creating layer res3a_branch2b
I0504 21:12:22.090263 130347 net.cpp:106] Creating Layer res3a_branch2b
I0504 21:12:22.090270 130347 net.cpp:454] res3a_branch2b <- res3a_branch2a
I0504 21:12:22.090279 130347 net.cpp:411] res3a_branch2b -> res3a_branch2b
I0504 21:12:22.091213 130347 net.cpp:150] Setting up res3a_branch2b
I0504 21:12:22.091231 130347 net.cpp:157] Top shape: 20 128 28 28 (2007040)
I0504 21:12:22.091238 130347 net.cpp:165] Memory required for data: 2380349520
I0504 21:12:22.091246 130347 layer_factory.hpp:77] Creating layer bn3a_branch2b
I0504 21:12:22.091259 130347 net.cpp:106] Creating Layer bn3a_branch2b
I0504 21:12:22.091265 130347 net.cpp:454] bn3a_branch2b <- res3a_branch2b
I0504 21:12:22.091274 130347 net.cpp:397] bn3a_branch2b -> res3a_branch2b (in-place)
I0504 21:12:22.091480 130347 net.cpp:150] Setting up bn3a_branch2b
I0504 21:12:22.091503 130347 net.cpp:157] Top shape: 20 128 28 28 (2007040)
I0504 21:12:22.091509 130347 net.cpp:165] Memory required for data: 2388377680
I0504 21:12:22.091521 130347 layer_factory.hpp:77] Creating layer scale3a_branch2b
I0504 21:12:22.091529 130347 net.cpp:106] Creating Layer scale3a_branch2b
I0504 21:12:22.091536 130347 net.cpp:454] scale3a_branch2b <- res3a_branch2b
I0504 21:12:22.091547 130347 net.cpp:397] scale3a_branch2b -> res3a_branch2b (in-place)
I0504 21:12:22.091588 130347 layer_factory.hpp:77] Creating layer scale3a_branch2b
I0504 21:12:22.091713 130347 net.cpp:150] Setting up scale3a_branch2b
I0504 21:12:22.091725 130347 net.cpp:157] Top shape: 20 128 28 28 (2007040)
I0504 21:12:22.091732 130347 net.cpp:165] Memory required for data: 2396405840
I0504 21:12:22.091740 130347 layer_factory.hpp:77] Creating layer res3a_branch2b_relu
I0504 21:12:22.091748 130347 net.cpp:106] Creating Layer res3a_branch2b_relu
I0504 21:12:22.091754 130347 net.cpp:454] res3a_branch2b_relu <- res3a_branch2b
I0504 21:12:22.091761 130347 net.cpp:397] res3a_branch2b_relu -> res3a_branch2b (in-place)
I0504 21:12:22.091770 130347 net.cpp:150] Setting up res3a_branch2b_relu
I0504 21:12:22.091778 130347 net.cpp:157] Top shape: 20 128 28 28 (2007040)
I0504 21:12:22.091783 130347 net.cpp:165] Memory required for data: 2404434000
I0504 21:12:22.091789 130347 layer_factory.hpp:77] Creating layer res3a_branch2c
I0504 21:12:22.091800 130347 net.cpp:106] Creating Layer res3a_branch2c
I0504 21:12:22.091806 130347 net.cpp:454] res3a_branch2c <- res3a_branch2b
I0504 21:12:22.091814 130347 net.cpp:411] res3a_branch2c -> res3a_branch2c
I0504 21:12:22.092087 130347 net.cpp:150] Setting up res3a_branch2c
I0504 21:12:22.092097 130347 net.cpp:157] Top shape: 20 512 28 28 (8028160)
I0504 21:12:22.092103 130347 net.cpp:165] Memory required for data: 2436546640
I0504 21:12:22.092111 130347 layer_factory.hpp:77] Creating layer bn3a_branch2c
I0504 21:12:22.092128 130347 net.cpp:106] Creating Layer bn3a_branch2c
I0504 21:12:22.092134 130347 net.cpp:454] bn3a_branch2c <- res3a_branch2c
I0504 21:12:22.092144 130347 net.cpp:397] bn3a_branch2c -> res3a_branch2c (in-place)
I0504 21:12:22.092340 130347 net.cpp:150] Setting up bn3a_branch2c
I0504 21:12:22.092351 130347 net.cpp:157] Top shape: 20 512 28 28 (8028160)
I0504 21:12:22.092356 130347 net.cpp:165] Memory required for data: 2468659280
I0504 21:12:22.092368 130347 layer_factory.hpp:77] Creating layer scale3a_branch2c
I0504 21:12:22.092376 130347 net.cpp:106] Creating Layer scale3a_branch2c
I0504 21:12:22.092382 130347 net.cpp:454] scale3a_branch2c <- res3a_branch2c
I0504 21:12:22.092389 130347 net.cpp:397] scale3a_branch2c -> res3a_branch2c (in-place)
I0504 21:12:22.092452 130347 layer_factory.hpp:77] Creating layer scale3a_branch2c
I0504 21:12:22.092576 130347 net.cpp:150] Setting up scale3a_branch2c
I0504 21:12:22.092586 130347 net.cpp:157] Top shape: 20 512 28 28 (8028160)
I0504 21:12:22.092592 130347 net.cpp:165] Memory required for data: 2500771920
I0504 21:12:22.092600 130347 layer_factory.hpp:77] Creating layer res3a
I0504 21:12:22.092610 130347 net.cpp:106] Creating Layer res3a
I0504 21:12:22.092617 130347 net.cpp:454] res3a <- res3a_branch1
I0504 21:12:22.092623 130347 net.cpp:454] res3a <- res3a_branch2c
I0504 21:12:22.092633 130347 net.cpp:411] res3a -> res3a
I0504 21:12:22.092679 130347 net.cpp:150] Setting up res3a
I0504 21:12:22.092689 130347 net.cpp:157] Top shape: 20 512 28 28 (8028160)
I0504 21:12:22.092695 130347 net.cpp:165] Memory required for data: 2532884560
I0504 21:12:22.092700 130347 layer_factory.hpp:77] Creating layer res3a_relu
I0504 21:12:22.092711 130347 net.cpp:106] Creating Layer res3a_relu
I0504 21:12:22.092717 130347 net.cpp:454] res3a_relu <- res3a
I0504 21:12:22.092725 130347 net.cpp:397] res3a_relu -> res3a (in-place)
I0504 21:12:22.092733 130347 net.cpp:150] Setting up res3a_relu
I0504 21:12:22.092741 130347 net.cpp:157] Top shape: 20 512 28 28 (8028160)
I0504 21:12:22.092746 130347 net.cpp:165] Memory required for data: 2564997200
I0504 21:12:22.092757 130347 layer_factory.hpp:77] Creating layer res3a_res3a_relu_0_split
I0504 21:12:22.092768 130347 net.cpp:106] Creating Layer res3a_res3a_relu_0_split
I0504 21:12:22.092774 130347 net.cpp:454] res3a_res3a_relu_0_split <- res3a
I0504 21:12:22.092782 130347 net.cpp:411] res3a_res3a_relu_0_split -> res3a_res3a_relu_0_split_0
I0504 21:12:22.092790 130347 net.cpp:411] res3a_res3a_relu_0_split -> res3a_res3a_relu_0_split_1
I0504 21:12:22.092833 130347 net.cpp:150] Setting up res3a_res3a_relu_0_split
I0504 21:12:22.092844 130347 net.cpp:157] Top shape: 20 512 28 28 (8028160)
I0504 21:12:22.092849 130347 net.cpp:157] Top shape: 20 512 28 28 (8028160)
I0504 21:12:22.092855 130347 net.cpp:165] Memory required for data: 2629222480
I0504 21:12:22.092860 130347 layer_factory.hpp:77] Creating layer res3b_branch2a
I0504 21:12:22.092872 130347 net.cpp:106] Creating Layer res3b_branch2a
I0504 21:12:22.092880 130347 net.cpp:454] res3b_branch2a <- res3a_res3a_relu_0_split_0
I0504 21:12:22.092887 130347 net.cpp:411] res3b_branch2a -> res3b_branch2a
I0504 21:12:22.093791 130347 net.cpp:150] Setting up res3b_branch2a
I0504 21:12:22.093809 130347 net.cpp:157] Top shape: 20 128 28 28 (2007040)
I0504 21:12:22.093816 130347 net.cpp:165] Memory required for data: 2637250640
I0504 21:12:22.093824 130347 layer_factory.hpp:77] Creating layer bn3b_branch2a
I0504 21:12:22.093837 130347 net.cpp:106] Creating Layer bn3b_branch2a
I0504 21:12:22.093843 130347 net.cpp:454] bn3b_branch2a <- res3b_branch2a
I0504 21:12:22.093852 130347 net.cpp:397] bn3b_branch2a -> res3b_branch2a (in-place)
I0504 21:12:22.094065 130347 net.cpp:150] Setting up bn3b_branch2a
I0504 21:12:22.094076 130347 net.cpp:157] Top shape: 20 128 28 28 (2007040)
I0504 21:12:22.094082 130347 net.cpp:165] Memory required for data: 2645278800
I0504 21:12:22.094094 130347 layer_factory.hpp:77] Creating layer scale3b_branch2a
I0504 21:12:22.094102 130347 net.cpp:106] Creating Layer scale3b_branch2a
I0504 21:12:22.094108 130347 net.cpp:454] scale3b_branch2a <- res3b_branch2a
I0504 21:12:22.094118 130347 net.cpp:397] scale3b_branch2a -> res3b_branch2a (in-place)
I0504 21:12:22.094161 130347 layer_factory.hpp:77] Creating layer scale3b_branch2a
I0504 21:12:22.094290 130347 net.cpp:150] Setting up scale3b_branch2a
I0504 21:12:22.094303 130347 net.cpp:157] Top shape: 20 128 28 28 (2007040)
I0504 21:12:22.094308 130347 net.cpp:165] Memory required for data: 2653306960
I0504 21:12:22.094318 130347 layer_factory.hpp:77] Creating layer res3b_branch2a_relu
I0504 21:12:22.094326 130347 net.cpp:106] Creating Layer res3b_branch2a_relu
I0504 21:12:22.094332 130347 net.cpp:454] res3b_branch2a_relu <- res3b_branch2a
I0504 21:12:22.094341 130347 net.cpp:397] res3b_branch2a_relu -> res3b_branch2a (in-place)
I0504 21:12:22.094348 130347 net.cpp:150] Setting up res3b_branch2a_relu
I0504 21:12:22.094357 130347 net.cpp:157] Top shape: 20 128 28 28 (2007040)
I0504 21:12:22.094362 130347 net.cpp:165] Memory required for data: 2661335120
I0504 21:12:22.094367 130347 layer_factory.hpp:77] Creating layer res3b_branch2b
I0504 21:12:22.094379 130347 net.cpp:106] Creating Layer res3b_branch2b
I0504 21:12:22.094385 130347 net.cpp:454] res3b_branch2b <- res3b_branch2a
I0504 21:12:22.094394 130347 net.cpp:411] res3b_branch2b -> res3b_branch2b
I0504 21:12:22.095338 130347 net.cpp:150] Setting up res3b_branch2b
I0504 21:12:22.095357 130347 net.cpp:157] Top shape: 20 128 28 28 (2007040)
I0504 21:12:22.095363 130347 net.cpp:165] Memory required for data: 2669363280
I0504 21:12:22.095371 130347 layer_factory.hpp:77] Creating layer bn3b_branch2b
I0504 21:12:22.095381 130347 net.cpp:106] Creating Layer bn3b_branch2b
I0504 21:12:22.095387 130347 net.cpp:454] bn3b_branch2b <- res3b_branch2b
I0504 21:12:22.095398 130347 net.cpp:397] bn3b_branch2b -> res3b_branch2b (in-place)
I0504 21:12:22.095602 130347 net.cpp:150] Setting up bn3b_branch2b
I0504 21:12:22.095612 130347 net.cpp:157] Top shape: 20 128 28 28 (2007040)
I0504 21:12:22.095618 130347 net.cpp:165] Memory required for data: 2677391440
I0504 21:12:22.095634 130347 layer_factory.hpp:77] Creating layer scale3b_branch2b
I0504 21:12:22.095644 130347 net.cpp:106] Creating Layer scale3b_branch2b
I0504 21:12:22.095650 130347 net.cpp:454] scale3b_branch2b <- res3b_branch2b
I0504 21:12:22.095659 130347 net.cpp:397] scale3b_branch2b -> res3b_branch2b (in-place)
I0504 21:12:22.095703 130347 layer_factory.hpp:77] Creating layer scale3b_branch2b
I0504 21:12:22.095824 130347 net.cpp:150] Setting up scale3b_branch2b
I0504 21:12:22.095834 130347 net.cpp:157] Top shape: 20 128 28 28 (2007040)
I0504 21:12:22.095839 130347 net.cpp:165] Memory required for data: 2685419600
I0504 21:12:22.095849 130347 layer_factory.hpp:77] Creating layer res3b_branch2b_relu
I0504 21:12:22.095857 130347 net.cpp:106] Creating Layer res3b_branch2b_relu
I0504 21:12:22.095865 130347 net.cpp:454] res3b_branch2b_relu <- res3b_branch2b
I0504 21:12:22.095872 130347 net.cpp:397] res3b_branch2b_relu -> res3b_branch2b (in-place)
I0504 21:12:22.095880 130347 net.cpp:150] Setting up res3b_branch2b_relu
I0504 21:12:22.095888 130347 net.cpp:157] Top shape: 20 128 28 28 (2007040)
I0504 21:12:22.095893 130347 net.cpp:165] Memory required for data: 2693447760
I0504 21:12:22.095899 130347 layer_factory.hpp:77] Creating layer res3b_branch2c
I0504 21:12:22.095908 130347 net.cpp:106] Creating Layer res3b_branch2c
I0504 21:12:22.095914 130347 net.cpp:454] res3b_branch2c <- res3b_branch2b
I0504 21:12:22.095924 130347 net.cpp:411] res3b_branch2c -> res3b_branch2c
I0504 21:12:22.096179 130347 net.cpp:150] Setting up res3b_branch2c
I0504 21:12:22.096189 130347 net.cpp:157] Top shape: 20 512 28 28 (8028160)
I0504 21:12:22.096194 130347 net.cpp:165] Memory required for data: 2725560400
I0504 21:12:22.096202 130347 layer_factory.hpp:77] Creating layer bn3b_branch2c
I0504 21:12:22.096213 130347 net.cpp:106] Creating Layer bn3b_branch2c
I0504 21:12:22.096220 130347 net.cpp:454] bn3b_branch2c <- res3b_branch2c
I0504 21:12:22.096226 130347 net.cpp:397] bn3b_branch2c -> res3b_branch2c (in-place)
I0504 21:12:22.096431 130347 net.cpp:150] Setting up bn3b_branch2c
I0504 21:12:22.096451 130347 net.cpp:157] Top shape: 20 512 28 28 (8028160)
I0504 21:12:22.096457 130347 net.cpp:165] Memory required for data: 2757673040
I0504 21:12:22.096468 130347 layer_factory.hpp:77] Creating layer scale3b_branch2c
I0504 21:12:22.096483 130347 net.cpp:106] Creating Layer scale3b_branch2c
I0504 21:12:22.096490 130347 net.cpp:454] scale3b_branch2c <- res3b_branch2c
I0504 21:12:22.096498 130347 net.cpp:397] scale3b_branch2c -> res3b_branch2c (in-place)
I0504 21:12:22.096546 130347 layer_factory.hpp:77] Creating layer scale3b_branch2c
I0504 21:12:22.096681 130347 net.cpp:150] Setting up scale3b_branch2c
I0504 21:12:22.096691 130347 net.cpp:157] Top shape: 20 512 28 28 (8028160)
I0504 21:12:22.096696 130347 net.cpp:165] Memory required for data: 2789785680
I0504 21:12:22.096705 130347 layer_factory.hpp:77] Creating layer res3b
I0504 21:12:22.096719 130347 net.cpp:106] Creating Layer res3b
I0504 21:12:22.096724 130347 net.cpp:454] res3b <- res3a_res3a_relu_0_split_1
I0504 21:12:22.096732 130347 net.cpp:454] res3b <- res3b_branch2c
I0504 21:12:22.096742 130347 net.cpp:411] res3b -> res3b
I0504 21:12:22.096770 130347 net.cpp:150] Setting up res3b
I0504 21:12:22.096781 130347 net.cpp:157] Top shape: 20 512 28 28 (8028160)
I0504 21:12:22.096786 130347 net.cpp:165] Memory required for data: 2821898320
I0504 21:12:22.096792 130347 layer_factory.hpp:77] Creating layer res3b_relu
I0504 21:12:22.096804 130347 net.cpp:106] Creating Layer res3b_relu
I0504 21:12:22.096810 130347 net.cpp:454] res3b_relu <- res3b
I0504 21:12:22.096817 130347 net.cpp:397] res3b_relu -> res3b (in-place)
I0504 21:12:22.096825 130347 net.cpp:150] Setting up res3b_relu
I0504 21:12:22.096832 130347 net.cpp:157] Top shape: 20 512 28 28 (8028160)
I0504 21:12:22.096837 130347 net.cpp:165] Memory required for data: 2854010960
I0504 21:12:22.096843 130347 layer_factory.hpp:77] Creating layer res3b_res3b_relu_0_split
I0504 21:12:22.096851 130347 net.cpp:106] Creating Layer res3b_res3b_relu_0_split
I0504 21:12:22.096863 130347 net.cpp:454] res3b_res3b_relu_0_split <- res3b
I0504 21:12:22.096873 130347 net.cpp:411] res3b_res3b_relu_0_split -> res3b_res3b_relu_0_split_0
I0504 21:12:22.096882 130347 net.cpp:411] res3b_res3b_relu_0_split -> res3b_res3b_relu_0_split_1
I0504 21:12:22.096920 130347 net.cpp:150] Setting up res3b_res3b_relu_0_split
I0504 21:12:22.096928 130347 net.cpp:157] Top shape: 20 512 28 28 (8028160)
I0504 21:12:22.096935 130347 net.cpp:157] Top shape: 20 512 28 28 (8028160)
I0504 21:12:22.096940 130347 net.cpp:165] Memory required for data: 2918236240
I0504 21:12:22.096946 130347 layer_factory.hpp:77] Creating layer res3c_branch2a
I0504 21:12:22.096957 130347 net.cpp:106] Creating Layer res3c_branch2a
I0504 21:12:22.096964 130347 net.cpp:454] res3c_branch2a <- res3b_res3b_relu_0_split_0
I0504 21:12:22.096972 130347 net.cpp:411] res3c_branch2a -> res3c_branch2a
I0504 21:12:22.097230 130347 net.cpp:150] Setting up res3c_branch2a
I0504 21:12:22.097241 130347 net.cpp:157] Top shape: 20 128 28 28 (2007040)
I0504 21:12:22.097246 130347 net.cpp:165] Memory required for data: 2926264400
I0504 21:12:22.097254 130347 layer_factory.hpp:77] Creating layer bn3c_branch2a
I0504 21:12:22.097270 130347 net.cpp:106] Creating Layer bn3c_branch2a
I0504 21:12:22.097276 130347 net.cpp:454] bn3c_branch2a <- res3c_branch2a
I0504 21:12:22.097285 130347 net.cpp:397] bn3c_branch2a -> res3c_branch2a (in-place)
I0504 21:12:22.097484 130347 net.cpp:150] Setting up bn3c_branch2a
I0504 21:12:22.097494 130347 net.cpp:157] Top shape: 20 128 28 28 (2007040)
I0504 21:12:22.097501 130347 net.cpp:165] Memory required for data: 2934292560
I0504 21:12:22.097510 130347 layer_factory.hpp:77] Creating layer scale3c_branch2a
I0504 21:12:22.097519 130347 net.cpp:106] Creating Layer scale3c_branch2a
I0504 21:12:22.097524 130347 net.cpp:454] scale3c_branch2a <- res3c_branch2a
I0504 21:12:22.097532 130347 net.cpp:397] scale3c_branch2a -> res3c_branch2a (in-place)
I0504 21:12:22.097575 130347 layer_factory.hpp:77] Creating layer scale3c_branch2a
I0504 21:12:22.097697 130347 net.cpp:150] Setting up scale3c_branch2a
I0504 21:12:22.097707 130347 net.cpp:157] Top shape: 20 128 28 28 (2007040)
I0504 21:12:22.097712 130347 net.cpp:165] Memory required for data: 2942320720
I0504 21:12:22.097721 130347 layer_factory.hpp:77] Creating layer res3c_branch2a_relu
I0504 21:12:22.097729 130347 net.cpp:106] Creating Layer res3c_branch2a_relu
I0504 21:12:22.097734 130347 net.cpp:454] res3c_branch2a_relu <- res3c_branch2a
I0504 21:12:22.097744 130347 net.cpp:397] res3c_branch2a_relu -> res3c_branch2a (in-place)
I0504 21:12:22.097753 130347 net.cpp:150] Setting up res3c_branch2a_relu
I0504 21:12:22.097759 130347 net.cpp:157] Top shape: 20 128 28 28 (2007040)
I0504 21:12:22.097764 130347 net.cpp:165] Memory required for data: 2950348880
I0504 21:12:22.097770 130347 layer_factory.hpp:77] Creating layer res3c_branch2b
I0504 21:12:22.097779 130347 net.cpp:106] Creating Layer res3c_branch2b
I0504 21:12:22.097784 130347 net.cpp:454] res3c_branch2b <- res3c_branch2a
I0504 21:12:22.097795 130347 net.cpp:411] res3c_branch2b -> res3c_branch2b
I0504 21:12:22.098793 130347 net.cpp:150] Setting up res3c_branch2b
I0504 21:12:22.098812 130347 net.cpp:157] Top shape: 20 128 28 28 (2007040)
I0504 21:12:22.098819 130347 net.cpp:165] Memory required for data: 2958377040
I0504 21:12:22.098826 130347 layer_factory.hpp:77] Creating layer bn3c_branch2b
I0504 21:12:22.098836 130347 net.cpp:106] Creating Layer bn3c_branch2b
I0504 21:12:22.098842 130347 net.cpp:454] bn3c_branch2b <- res3c_branch2b
I0504 21:12:22.098850 130347 net.cpp:397] bn3c_branch2b -> res3c_branch2b (in-place)
I0504 21:12:22.099061 130347 net.cpp:150] Setting up bn3c_branch2b
I0504 21:12:22.099071 130347 net.cpp:157] Top shape: 20 128 28 28 (2007040)
I0504 21:12:22.099077 130347 net.cpp:165] Memory required for data: 2966405200
I0504 21:12:22.099088 130347 layer_factory.hpp:77] Creating layer scale3c_branch2b
I0504 21:12:22.099097 130347 net.cpp:106] Creating Layer scale3c_branch2b
I0504 21:12:22.099104 130347 net.cpp:454] scale3c_branch2b <- res3c_branch2b
I0504 21:12:22.099118 130347 net.cpp:397] scale3c_branch2b -> res3c_branch2b (in-place)
I0504 21:12:22.099169 130347 layer_factory.hpp:77] Creating layer scale3c_branch2b
I0504 21:12:22.099295 130347 net.cpp:150] Setting up scale3c_branch2b
I0504 21:12:22.099305 130347 net.cpp:157] Top shape: 20 128 28 28 (2007040)
I0504 21:12:22.099311 130347 net.cpp:165] Memory required for data: 2974433360
I0504 21:12:22.099320 130347 layer_factory.hpp:77] Creating layer res3c_branch2b_relu
I0504 21:12:22.099330 130347 net.cpp:106] Creating Layer res3c_branch2b_relu
I0504 21:12:22.099336 130347 net.cpp:454] res3c_branch2b_relu <- res3c_branch2b
I0504 21:12:22.099344 130347 net.cpp:397] res3c_branch2b_relu -> res3c_branch2b (in-place)
I0504 21:12:22.099352 130347 net.cpp:150] Setting up res3c_branch2b_relu
I0504 21:12:22.099359 130347 net.cpp:157] Top shape: 20 128 28 28 (2007040)
I0504 21:12:22.099365 130347 net.cpp:165] Memory required for data: 2982461520
I0504 21:12:22.099370 130347 layer_factory.hpp:77] Creating layer res3c_branch2c
I0504 21:12:22.099382 130347 net.cpp:106] Creating Layer res3c_branch2c
I0504 21:12:22.099388 130347 net.cpp:454] res3c_branch2c <- res3c_branch2b
I0504 21:12:22.099396 130347 net.cpp:411] res3c_branch2c -> res3c_branch2c
I0504 21:12:22.099665 130347 net.cpp:150] Setting up res3c_branch2c
I0504 21:12:22.099678 130347 net.cpp:157] Top shape: 20 512 28 28 (8028160)
I0504 21:12:22.099683 130347 net.cpp:165] Memory required for data: 3014574160
I0504 21:12:22.099690 130347 layer_factory.hpp:77] Creating layer bn3c_branch2c
I0504 21:12:22.099699 130347 net.cpp:106] Creating Layer bn3c_branch2c
I0504 21:12:22.099704 130347 net.cpp:454] bn3c_branch2c <- res3c_branch2c
I0504 21:12:22.099714 130347 net.cpp:397] bn3c_branch2c -> res3c_branch2c (in-place)
I0504 21:12:22.099920 130347 net.cpp:150] Setting up bn3c_branch2c
I0504 21:12:22.099930 130347 net.cpp:157] Top shape: 20 512 28 28 (8028160)
I0504 21:12:22.099936 130347 net.cpp:165] Memory required for data: 3046686800
I0504 21:12:22.099946 130347 layer_factory.hpp:77] Creating layer scale3c_branch2c
I0504 21:12:22.099954 130347 net.cpp:106] Creating Layer scale3c_branch2c
I0504 21:12:22.099961 130347 net.cpp:454] scale3c_branch2c <- res3c_branch2c
I0504 21:12:22.099967 130347 net.cpp:397] scale3c_branch2c -> res3c_branch2c (in-place)
I0504 21:12:22.100013 130347 layer_factory.hpp:77] Creating layer scale3c_branch2c
I0504 21:12:22.100131 130347 net.cpp:150] Setting up scale3c_branch2c
I0504 21:12:22.100141 130347 net.cpp:157] Top shape: 20 512 28 28 (8028160)
I0504 21:12:22.100145 130347 net.cpp:165] Memory required for data: 3078799440
I0504 21:12:22.100154 130347 layer_factory.hpp:77] Creating layer res3c
I0504 21:12:22.100163 130347 net.cpp:106] Creating Layer res3c
I0504 21:12:22.100172 130347 net.cpp:454] res3c <- res3b_res3b_relu_0_split_1
I0504 21:12:22.100178 130347 net.cpp:454] res3c <- res3c_branch2c
I0504 21:12:22.100186 130347 net.cpp:411] res3c -> res3c
I0504 21:12:22.100213 130347 net.cpp:150] Setting up res3c
I0504 21:12:22.100221 130347 net.cpp:157] Top shape: 20 512 28 28 (8028160)
I0504 21:12:22.100226 130347 net.cpp:165] Memory required for data: 3110912080
I0504 21:12:22.100232 130347 layer_factory.hpp:77] Creating layer res3c_relu
I0504 21:12:22.100242 130347 net.cpp:106] Creating Layer res3c_relu
I0504 21:12:22.100249 130347 net.cpp:454] res3c_relu <- res3c
I0504 21:12:22.100255 130347 net.cpp:397] res3c_relu -> res3c (in-place)
I0504 21:12:22.100265 130347 net.cpp:150] Setting up res3c_relu
I0504 21:12:22.100272 130347 net.cpp:157] Top shape: 20 512 28 28 (8028160)
I0504 21:12:22.100277 130347 net.cpp:165] Memory required for data: 3143024720
I0504 21:12:22.100283 130347 layer_factory.hpp:77] Creating layer res3c_res3c_relu_0_split
I0504 21:12:22.100291 130347 net.cpp:106] Creating Layer res3c_res3c_relu_0_split
I0504 21:12:22.100296 130347 net.cpp:454] res3c_res3c_relu_0_split <- res3c
I0504 21:12:22.100303 130347 net.cpp:411] res3c_res3c_relu_0_split -> res3c_res3c_relu_0_split_0
I0504 21:12:22.100312 130347 net.cpp:411] res3c_res3c_relu_0_split -> res3c_res3c_relu_0_split_1
I0504 21:12:22.100358 130347 net.cpp:150] Setting up res3c_res3c_relu_0_split
I0504 21:12:22.100368 130347 net.cpp:157] Top shape: 20 512 28 28 (8028160)
I0504 21:12:22.100374 130347 net.cpp:157] Top shape: 20 512 28 28 (8028160)
I0504 21:12:22.100379 130347 net.cpp:165] Memory required for data: 3207250000
I0504 21:12:22.100385 130347 layer_factory.hpp:77] Creating layer res3d_branch2a
I0504 21:12:22.100397 130347 net.cpp:106] Creating Layer res3d_branch2a
I0504 21:12:22.100404 130347 net.cpp:454] res3d_branch2a <- res3c_res3c_relu_0_split_0
I0504 21:12:22.100411 130347 net.cpp:411] res3d_branch2a -> res3d_branch2a
I0504 21:12:22.101357 130347 net.cpp:150] Setting up res3d_branch2a
I0504 21:12:22.101377 130347 net.cpp:157] Top shape: 20 128 28 28 (2007040)
I0504 21:12:22.101383 130347 net.cpp:165] Memory required for data: 3215278160
I0504 21:12:22.101398 130347 layer_factory.hpp:77] Creating layer bn3d_branch2a
I0504 21:12:22.101408 130347 net.cpp:106] Creating Layer bn3d_branch2a
I0504 21:12:22.101413 130347 net.cpp:454] bn3d_branch2a <- res3d_branch2a
I0504 21:12:22.101428 130347 net.cpp:397] bn3d_branch2a -> res3d_branch2a (in-place)
I0504 21:12:22.101636 130347 net.cpp:150] Setting up bn3d_branch2a
I0504 21:12:22.101647 130347 net.cpp:157] Top shape: 20 128 28 28 (2007040)
I0504 21:12:22.101652 130347 net.cpp:165] Memory required for data: 3223306320
I0504 21:12:22.101691 130347 layer_factory.hpp:77] Creating layer scale3d_branch2a
I0504 21:12:22.101701 130347 net.cpp:106] Creating Layer scale3d_branch2a
I0504 21:12:22.101707 130347 net.cpp:454] scale3d_branch2a <- res3d_branch2a
I0504 21:12:22.101714 130347 net.cpp:397] scale3d_branch2a -> res3d_branch2a (in-place)
I0504 21:12:22.101768 130347 layer_factory.hpp:77] Creating layer scale3d_branch2a
I0504 21:12:22.101892 130347 net.cpp:150] Setting up scale3d_branch2a
I0504 21:12:22.101902 130347 net.cpp:157] Top shape: 20 128 28 28 (2007040)
I0504 21:12:22.101908 130347 net.cpp:165] Memory required for data: 3231334480
I0504 21:12:22.101917 130347 layer_factory.hpp:77] Creating layer res3d_branch2a_relu
I0504 21:12:22.101940 130347 net.cpp:106] Creating Layer res3d_branch2a_relu
I0504 21:12:22.101946 130347 net.cpp:454] res3d_branch2a_relu <- res3d_branch2a
I0504 21:12:22.101954 130347 net.cpp:397] res3d_branch2a_relu -> res3d_branch2a (in-place)
I0504 21:12:22.101963 130347 net.cpp:150] Setting up res3d_branch2a_relu
I0504 21:12:22.101975 130347 net.cpp:157] Top shape: 20 128 28 28 (2007040)
I0504 21:12:22.101980 130347 net.cpp:165] Memory required for data: 3239362640
I0504 21:12:22.101986 130347 layer_factory.hpp:77] Creating layer res3d_branch2b
I0504 21:12:22.101996 130347 net.cpp:106] Creating Layer res3d_branch2b
I0504 21:12:22.102002 130347 net.cpp:454] res3d_branch2b <- res3d_branch2a
I0504 21:12:22.102010 130347 net.cpp:411] res3d_branch2b -> res3d_branch2b
I0504 21:12:22.102960 130347 net.cpp:150] Setting up res3d_branch2b
I0504 21:12:22.102979 130347 net.cpp:157] Top shape: 20 128 28 28 (2007040)
I0504 21:12:22.102985 130347 net.cpp:165] Memory required for data: 3247390800
I0504 21:12:22.102994 130347 layer_factory.hpp:77] Creating layer bn3d_branch2b
I0504 21:12:22.103003 130347 net.cpp:106] Creating Layer bn3d_branch2b
I0504 21:12:22.103010 130347 net.cpp:454] bn3d_branch2b <- res3d_branch2b
I0504 21:12:22.103018 130347 net.cpp:397] bn3d_branch2b -> res3d_branch2b (in-place)
I0504 21:12:22.103243 130347 net.cpp:150] Setting up bn3d_branch2b
I0504 21:12:22.103253 130347 net.cpp:157] Top shape: 20 128 28 28 (2007040)
I0504 21:12:22.103260 130347 net.cpp:165] Memory required for data: 3255418960
I0504 21:12:22.103269 130347 layer_factory.hpp:77] Creating layer scale3d_branch2b
I0504 21:12:22.103281 130347 net.cpp:106] Creating Layer scale3d_branch2b
I0504 21:12:22.103287 130347 net.cpp:454] scale3d_branch2b <- res3d_branch2b
I0504 21:12:22.103294 130347 net.cpp:397] scale3d_branch2b -> res3d_branch2b (in-place)
I0504 21:12:22.103341 130347 layer_factory.hpp:77] Creating layer scale3d_branch2b
I0504 21:12:22.103473 130347 net.cpp:150] Setting up scale3d_branch2b
I0504 21:12:22.103484 130347 net.cpp:157] Top shape: 20 128 28 28 (2007040)
I0504 21:12:22.103489 130347 net.cpp:165] Memory required for data: 3263447120
I0504 21:12:22.103498 130347 layer_factory.hpp:77] Creating layer res3d_branch2b_relu
I0504 21:12:22.103507 130347 net.cpp:106] Creating Layer res3d_branch2b_relu
I0504 21:12:22.103513 130347 net.cpp:454] res3d_branch2b_relu <- res3d_branch2b
I0504 21:12:22.103525 130347 net.cpp:397] res3d_branch2b_relu -> res3d_branch2b (in-place)
I0504 21:12:22.103535 130347 net.cpp:150] Setting up res3d_branch2b_relu
I0504 21:12:22.103543 130347 net.cpp:157] Top shape: 20 128 28 28 (2007040)
I0504 21:12:22.103549 130347 net.cpp:165] Memory required for data: 3271475280
I0504 21:12:22.103554 130347 layer_factory.hpp:77] Creating layer res3d_branch2c
I0504 21:12:22.103565 130347 net.cpp:106] Creating Layer res3d_branch2c
I0504 21:12:22.103571 130347 net.cpp:454] res3d_branch2c <- res3d_branch2b
I0504 21:12:22.103579 130347 net.cpp:411] res3d_branch2c -> res3d_branch2c
I0504 21:12:22.103843 130347 net.cpp:150] Setting up res3d_branch2c
I0504 21:12:22.103854 130347 net.cpp:157] Top shape: 20 512 28 28 (8028160)
I0504 21:12:22.103860 130347 net.cpp:165] Memory required for data: 3303587920
I0504 21:12:22.103868 130347 layer_factory.hpp:77] Creating layer bn3d_branch2c
I0504 21:12:22.103875 130347 net.cpp:106] Creating Layer bn3d_branch2c
I0504 21:12:22.103881 130347 net.cpp:454] bn3d_branch2c <- res3d_branch2c
I0504 21:12:22.103891 130347 net.cpp:397] bn3d_branch2c -> res3d_branch2c (in-place)
I0504 21:12:22.104110 130347 net.cpp:150] Setting up bn3d_branch2c
I0504 21:12:22.104120 130347 net.cpp:157] Top shape: 20 512 28 28 (8028160)
I0504 21:12:22.104125 130347 net.cpp:165] Memory required for data: 3335700560
I0504 21:12:22.104135 130347 layer_factory.hpp:77] Creating layer scale3d_branch2c
I0504 21:12:22.104145 130347 net.cpp:106] Creating Layer scale3d_branch2c
I0504 21:12:22.104151 130347 net.cpp:454] scale3d_branch2c <- res3d_branch2c
I0504 21:12:22.104157 130347 net.cpp:397] scale3d_branch2c -> res3d_branch2c (in-place)
I0504 21:12:22.104205 130347 layer_factory.hpp:77] Creating layer scale3d_branch2c
I0504 21:12:22.104331 130347 net.cpp:150] Setting up scale3d_branch2c
I0504 21:12:22.104341 130347 net.cpp:157] Top shape: 20 512 28 28 (8028160)
I0504 21:12:22.104346 130347 net.cpp:165] Memory required for data: 3367813200
I0504 21:12:22.104356 130347 layer_factory.hpp:77] Creating layer res3d
I0504 21:12:22.104364 130347 net.cpp:106] Creating Layer res3d
I0504 21:12:22.104372 130347 net.cpp:454] res3d <- res3c_res3c_relu_0_split_1
I0504 21:12:22.104379 130347 net.cpp:454] res3d <- res3d_branch2c
I0504 21:12:22.104387 130347 net.cpp:411] res3d -> res3d
I0504 21:12:22.104413 130347 net.cpp:150] Setting up res3d
I0504 21:12:22.104423 130347 net.cpp:157] Top shape: 20 512 28 28 (8028160)
I0504 21:12:22.104428 130347 net.cpp:165] Memory required for data: 3399925840
I0504 21:12:22.104441 130347 layer_factory.hpp:77] Creating layer res3d_relu
I0504 21:12:22.104462 130347 net.cpp:106] Creating Layer res3d_relu
I0504 21:12:22.104475 130347 net.cpp:454] res3d_relu <- res3d
I0504 21:12:22.104482 130347 net.cpp:397] res3d_relu -> res3d (in-place)
I0504 21:12:22.104492 130347 net.cpp:150] Setting up res3d_relu
I0504 21:12:22.104501 130347 net.cpp:157] Top shape: 20 512 28 28 (8028160)
I0504 21:12:22.104506 130347 net.cpp:165] Memory required for data: 3432038480
I0504 21:12:22.104511 130347 layer_factory.hpp:77] Creating layer res3d_res3d_relu_0_split
I0504 21:12:22.104519 130347 net.cpp:106] Creating Layer res3d_res3d_relu_0_split
I0504 21:12:22.104524 130347 net.cpp:454] res3d_res3d_relu_0_split <- res3d
I0504 21:12:22.104532 130347 net.cpp:411] res3d_res3d_relu_0_split -> res3d_res3d_relu_0_split_0
I0504 21:12:22.104540 130347 net.cpp:411] res3d_res3d_relu_0_split -> res3d_res3d_relu_0_split_1
I0504 21:12:22.104586 130347 net.cpp:150] Setting up res3d_res3d_relu_0_split
I0504 21:12:22.104595 130347 net.cpp:157] Top shape: 20 512 28 28 (8028160)
I0504 21:12:22.104609 130347 net.cpp:157] Top shape: 20 512 28 28 (8028160)
I0504 21:12:22.104615 130347 net.cpp:165] Memory required for data: 3496263760
I0504 21:12:22.104620 130347 layer_factory.hpp:77] Creating layer res4a_branch1
I0504 21:12:22.104632 130347 net.cpp:106] Creating Layer res4a_branch1
I0504 21:12:22.104640 130347 net.cpp:454] res4a_branch1 <- res3d_res3d_relu_0_split_0
I0504 21:12:22.104647 130347 net.cpp:411] res4a_branch1 -> res4a_branch1
I0504 21:12:22.106389 130347 net.cpp:150] Setting up res4a_branch1
I0504 21:12:22.106410 130347 net.cpp:157] Top shape: 20 1024 14 14 (4014080)
I0504 21:12:22.106416 130347 net.cpp:165] Memory required for data: 3512320080
I0504 21:12:22.106425 130347 layer_factory.hpp:77] Creating layer bn4a_branch1
I0504 21:12:22.106436 130347 net.cpp:106] Creating Layer bn4a_branch1
I0504 21:12:22.106441 130347 net.cpp:454] bn4a_branch1 <- res4a_branch1
I0504 21:12:22.106451 130347 net.cpp:397] bn4a_branch1 -> res4a_branch1 (in-place)
I0504 21:12:22.106676 130347 net.cpp:150] Setting up bn4a_branch1
I0504 21:12:22.106688 130347 net.cpp:157] Top shape: 20 1024 14 14 (4014080)
I0504 21:12:22.106693 130347 net.cpp:165] Memory required for data: 3528376400
I0504 21:12:22.106703 130347 layer_factory.hpp:77] Creating layer scale4a_branch1
I0504 21:12:22.106712 130347 net.cpp:106] Creating Layer scale4a_branch1
I0504 21:12:22.106719 130347 net.cpp:454] scale4a_branch1 <- res4a_branch1
I0504 21:12:22.106725 130347 net.cpp:397] scale4a_branch1 -> res4a_branch1 (in-place)
I0504 21:12:22.106771 130347 layer_factory.hpp:77] Creating layer scale4a_branch1
I0504 21:12:22.106897 130347 net.cpp:150] Setting up scale4a_branch1
I0504 21:12:22.106906 130347 net.cpp:157] Top shape: 20 1024 14 14 (4014080)
I0504 21:12:22.106912 130347 net.cpp:165] Memory required for data: 3544432720
I0504 21:12:22.106920 130347 layer_factory.hpp:77] Creating layer res4a_branch2a
I0504 21:12:22.106933 130347 net.cpp:106] Creating Layer res4a_branch2a
I0504 21:12:22.106940 130347 net.cpp:454] res4a_branch2a <- res3d_res3d_relu_0_split_1
I0504 21:12:22.106947 130347 net.cpp:411] res4a_branch2a -> res4a_branch2a
I0504 21:12:22.108543 130347 net.cpp:150] Setting up res4a_branch2a
I0504 21:12:22.108566 130347 net.cpp:157] Top shape: 20 256 14 14 (1003520)
I0504 21:12:22.108583 130347 net.cpp:165] Memory required for data: 3548446800
I0504 21:12:22.108592 130347 layer_factory.hpp:77] Creating layer bn4a_branch2a
I0504 21:12:22.108602 130347 net.cpp:106] Creating Layer bn4a_branch2a
I0504 21:12:22.108608 130347 net.cpp:454] bn4a_branch2a <- res4a_branch2a
I0504 21:12:22.108618 130347 net.cpp:397] bn4a_branch2a -> res4a_branch2a (in-place)
I0504 21:12:22.108824 130347 net.cpp:150] Setting up bn4a_branch2a
I0504 21:12:22.108834 130347 net.cpp:157] Top shape: 20 256 14 14 (1003520)
I0504 21:12:22.108839 130347 net.cpp:165] Memory required for data: 3552460880
I0504 21:12:22.108850 130347 layer_factory.hpp:77] Creating layer scale4a_branch2a
I0504 21:12:22.108858 130347 net.cpp:106] Creating Layer scale4a_branch2a
I0504 21:12:22.108863 130347 net.cpp:454] scale4a_branch2a <- res4a_branch2a
I0504 21:12:22.108871 130347 net.cpp:397] scale4a_branch2a -> res4a_branch2a (in-place)
I0504 21:12:22.108916 130347 layer_factory.hpp:77] Creating layer scale4a_branch2a
I0504 21:12:22.109030 130347 net.cpp:150] Setting up scale4a_branch2a
I0504 21:12:22.109038 130347 net.cpp:157] Top shape: 20 256 14 14 (1003520)
I0504 21:12:22.109045 130347 net.cpp:165] Memory required for data: 3556474960
I0504 21:12:22.109052 130347 layer_factory.hpp:77] Creating layer res4a_branch2a_relu
I0504 21:12:22.109061 130347 net.cpp:106] Creating Layer res4a_branch2a_relu
I0504 21:12:22.109069 130347 net.cpp:454] res4a_branch2a_relu <- res4a_branch2a
I0504 21:12:22.109076 130347 net.cpp:397] res4a_branch2a_relu -> res4a_branch2a (in-place)
I0504 21:12:22.109084 130347 net.cpp:150] Setting up res4a_branch2a_relu
I0504 21:12:22.109091 130347 net.cpp:157] Top shape: 20 256 14 14 (1003520)
I0504 21:12:22.109097 130347 net.cpp:165] Memory required for data: 3560489040
I0504 21:12:22.109112 130347 layer_factory.hpp:77] Creating layer res4a_branch2b
I0504 21:12:22.109122 130347 net.cpp:106] Creating Layer res4a_branch2b
I0504 21:12:22.109127 130347 net.cpp:454] res4a_branch2b <- res4a_branch2a
I0504 21:12:22.109138 130347 net.cpp:411] res4a_branch2b -> res4a_branch2b
I0504 21:12:22.111068 130347 net.cpp:150] Setting up res4a_branch2b
I0504 21:12:22.111090 130347 net.cpp:157] Top shape: 20 256 14 14 (1003520)
I0504 21:12:22.111096 130347 net.cpp:165] Memory required for data: 3564503120
I0504 21:12:22.111104 130347 layer_factory.hpp:77] Creating layer bn4a_branch2b
I0504 21:12:22.111114 130347 net.cpp:106] Creating Layer bn4a_branch2b
I0504 21:12:22.111120 130347 net.cpp:454] bn4a_branch2b <- res4a_branch2b
I0504 21:12:22.111129 130347 net.cpp:397] bn4a_branch2b -> res4a_branch2b (in-place)
I0504 21:12:22.111335 130347 net.cpp:150] Setting up bn4a_branch2b
I0504 21:12:22.111345 130347 net.cpp:157] Top shape: 20 256 14 14 (1003520)
I0504 21:12:22.111351 130347 net.cpp:165] Memory required for data: 3568517200
I0504 21:12:22.111362 130347 layer_factory.hpp:77] Creating layer scale4a_branch2b
I0504 21:12:22.111371 130347 net.cpp:106] Creating Layer scale4a_branch2b
I0504 21:12:22.111377 130347 net.cpp:454] scale4a_branch2b <- res4a_branch2b
I0504 21:12:22.111384 130347 net.cpp:397] scale4a_branch2b -> res4a_branch2b (in-place)
I0504 21:12:22.111433 130347 layer_factory.hpp:77] Creating layer scale4a_branch2b
I0504 21:12:22.111552 130347 net.cpp:150] Setting up scale4a_branch2b
I0504 21:12:22.111562 130347 net.cpp:157] Top shape: 20 256 14 14 (1003520)
I0504 21:12:22.111567 130347 net.cpp:165] Memory required for data: 3572531280
I0504 21:12:22.111577 130347 layer_factory.hpp:77] Creating layer res4a_branch2b_relu
I0504 21:12:22.111588 130347 net.cpp:106] Creating Layer res4a_branch2b_relu
I0504 21:12:22.111593 130347 net.cpp:454] res4a_branch2b_relu <- res4a_branch2b
I0504 21:12:22.111600 130347 net.cpp:397] res4a_branch2b_relu -> res4a_branch2b (in-place)
I0504 21:12:22.111608 130347 net.cpp:150] Setting up res4a_branch2b_relu
I0504 21:12:22.111615 130347 net.cpp:157] Top shape: 20 256 14 14 (1003520)
I0504 21:12:22.111620 130347 net.cpp:165] Memory required for data: 3576545360
I0504 21:12:22.111626 130347 layer_factory.hpp:77] Creating layer res4a_branch2c
I0504 21:12:22.111637 130347 net.cpp:106] Creating Layer res4a_branch2c
I0504 21:12:22.111644 130347 net.cpp:454] res4a_branch2c <- res4a_branch2b
I0504 21:12:22.111651 130347 net.cpp:411] res4a_branch2c -> res4a_branch2c
I0504 21:12:22.112742 130347 net.cpp:150] Setting up res4a_branch2c
I0504 21:12:22.112762 130347 net.cpp:157] Top shape: 20 1024 14 14 (4014080)
I0504 21:12:22.112768 130347 net.cpp:165] Memory required for data: 3592601680
I0504 21:12:22.112777 130347 layer_factory.hpp:77] Creating layer bn4a_branch2c
I0504 21:12:22.112788 130347 net.cpp:106] Creating Layer bn4a_branch2c
I0504 21:12:22.112795 130347 net.cpp:454] bn4a_branch2c <- res4a_branch2c
I0504 21:12:22.112803 130347 net.cpp:397] bn4a_branch2c -> res4a_branch2c (in-place)
I0504 21:12:22.113018 130347 net.cpp:150] Setting up bn4a_branch2c
I0504 21:12:22.113028 130347 net.cpp:157] Top shape: 20 1024 14 14 (4014080)
I0504 21:12:22.113034 130347 net.cpp:165] Memory required for data: 3608658000
I0504 21:12:22.113044 130347 layer_factory.hpp:77] Creating layer scale4a_branch2c
I0504 21:12:22.113054 130347 net.cpp:106] Creating Layer scale4a_branch2c
I0504 21:12:22.113060 130347 net.cpp:454] scale4a_branch2c <- res4a_branch2c
I0504 21:12:22.113067 130347 net.cpp:397] scale4a_branch2c -> res4a_branch2c (in-place)
I0504 21:12:22.113111 130347 layer_factory.hpp:77] Creating layer scale4a_branch2c
I0504 21:12:22.113239 130347 net.cpp:150] Setting up scale4a_branch2c
I0504 21:12:22.113248 130347 net.cpp:157] Top shape: 20 1024 14 14 (4014080)
I0504 21:12:22.113253 130347 net.cpp:165] Memory required for data: 3624714320
I0504 21:12:22.113267 130347 layer_factory.hpp:77] Creating layer res4a
I0504 21:12:22.113276 130347 net.cpp:106] Creating Layer res4a
I0504 21:12:22.113292 130347 net.cpp:454] res4a <- res4a_branch1
I0504 21:12:22.113301 130347 net.cpp:454] res4a <- res4a_branch2c
I0504 21:12:22.113311 130347 net.cpp:411] res4a -> res4a
I0504 21:12:22.113337 130347 net.cpp:150] Setting up res4a
I0504 21:12:22.113348 130347 net.cpp:157] Top shape: 20 1024 14 14 (4014080)
I0504 21:12:22.113354 130347 net.cpp:165] Memory required for data: 3640770640
I0504 21:12:22.113359 130347 layer_factory.hpp:77] Creating layer res4a_relu
I0504 21:12:22.113368 130347 net.cpp:106] Creating Layer res4a_relu
I0504 21:12:22.113373 130347 net.cpp:454] res4a_relu <- res4a
I0504 21:12:22.113379 130347 net.cpp:397] res4a_relu -> res4a (in-place)
I0504 21:12:22.113387 130347 net.cpp:150] Setting up res4a_relu
I0504 21:12:22.113394 130347 net.cpp:157] Top shape: 20 1024 14 14 (4014080)
I0504 21:12:22.113400 130347 net.cpp:165] Memory required for data: 3656826960
I0504 21:12:22.113405 130347 layer_factory.hpp:77] Creating layer res4a_res4a_relu_0_split
I0504 21:12:22.113414 130347 net.cpp:106] Creating Layer res4a_res4a_relu_0_split
I0504 21:12:22.113418 130347 net.cpp:454] res4a_res4a_relu_0_split <- res4a
I0504 21:12:22.113427 130347 net.cpp:411] res4a_res4a_relu_0_split -> res4a_res4a_relu_0_split_0
I0504 21:12:22.113436 130347 net.cpp:411] res4a_res4a_relu_0_split -> res4a_res4a_relu_0_split_1
I0504 21:12:22.113493 130347 net.cpp:150] Setting up res4a_res4a_relu_0_split
I0504 21:12:22.113502 130347 net.cpp:157] Top shape: 20 1024 14 14 (4014080)
I0504 21:12:22.113508 130347 net.cpp:157] Top shape: 20 1024 14 14 (4014080)
I0504 21:12:22.113514 130347 net.cpp:165] Memory required for data: 3688939600
I0504 21:12:22.113519 130347 layer_factory.hpp:77] Creating layer res4b_branch2a
I0504 21:12:22.113553 130347 net.cpp:106] Creating Layer res4b_branch2a
I0504 21:12:22.113559 130347 net.cpp:454] res4b_branch2a <- res4a_res4a_relu_0_split_0
I0504 21:12:22.113570 130347 net.cpp:411] res4b_branch2a -> res4b_branch2a
I0504 21:12:22.114637 130347 net.cpp:150] Setting up res4b_branch2a
I0504 21:12:22.114655 130347 net.cpp:157] Top shape: 20 256 14 14 (1003520)
I0504 21:12:22.114661 130347 net.cpp:165] Memory required for data: 3692953680
I0504 21:12:22.114670 130347 layer_factory.hpp:77] Creating layer bn4b_branch2a
I0504 21:12:22.114680 130347 net.cpp:106] Creating Layer bn4b_branch2a
I0504 21:12:22.114686 130347 net.cpp:454] bn4b_branch2a <- res4b_branch2a
I0504 21:12:22.114696 130347 net.cpp:397] bn4b_branch2a -> res4b_branch2a (in-place)
I0504 21:12:22.114926 130347 net.cpp:150] Setting up bn4b_branch2a
I0504 21:12:22.114938 130347 net.cpp:157] Top shape: 20 256 14 14 (1003520)
I0504 21:12:22.114943 130347 net.cpp:165] Memory required for data: 3696967760
I0504 21:12:22.114953 130347 layer_factory.hpp:77] Creating layer scale4b_branch2a
I0504 21:12:22.114962 130347 net.cpp:106] Creating Layer scale4b_branch2a
I0504 21:12:22.114967 130347 net.cpp:454] scale4b_branch2a <- res4b_branch2a
I0504 21:12:22.114975 130347 net.cpp:397] scale4b_branch2a -> res4b_branch2a (in-place)
I0504 21:12:22.115025 130347 layer_factory.hpp:77] Creating layer scale4b_branch2a
I0504 21:12:22.115144 130347 net.cpp:150] Setting up scale4b_branch2a
I0504 21:12:22.115152 130347 net.cpp:157] Top shape: 20 256 14 14 (1003520)
I0504 21:12:22.115157 130347 net.cpp:165] Memory required for data: 3700981840
I0504 21:12:22.115166 130347 layer_factory.hpp:77] Creating layer res4b_branch2a_relu
I0504 21:12:22.115175 130347 net.cpp:106] Creating Layer res4b_branch2a_relu
I0504 21:12:22.115180 130347 net.cpp:454] res4b_branch2a_relu <- res4b_branch2a
I0504 21:12:22.115190 130347 net.cpp:397] res4b_branch2a_relu -> res4b_branch2a (in-place)
I0504 21:12:22.115198 130347 net.cpp:150] Setting up res4b_branch2a_relu
I0504 21:12:22.115206 130347 net.cpp:157] Top shape: 20 256 14 14 (1003520)
I0504 21:12:22.115211 130347 net.cpp:165] Memory required for data: 3704995920
I0504 21:12:22.115216 130347 layer_factory.hpp:77] Creating layer res4b_branch2b
I0504 21:12:22.115226 130347 net.cpp:106] Creating Layer res4b_branch2b
I0504 21:12:22.115241 130347 net.cpp:454] res4b_branch2b <- res4b_branch2a
I0504 21:12:22.115252 130347 net.cpp:411] res4b_branch2b -> res4b_branch2b
I0504 21:12:22.117269 130347 net.cpp:150] Setting up res4b_branch2b
I0504 21:12:22.117290 130347 net.cpp:157] Top shape: 20 256 14 14 (1003520)
I0504 21:12:22.117295 130347 net.cpp:165] Memory required for data: 3709010000
I0504 21:12:22.117302 130347 layer_factory.hpp:77] Creating layer bn4b_branch2b
I0504 21:12:22.117311 130347 net.cpp:106] Creating Layer bn4b_branch2b
I0504 21:12:22.117318 130347 net.cpp:454] bn4b_branch2b <- res4b_branch2b
I0504 21:12:22.117326 130347 net.cpp:397] bn4b_branch2b -> res4b_branch2b (in-place)
I0504 21:12:22.117523 130347 net.cpp:150] Setting up bn4b_branch2b
I0504 21:12:22.117532 130347 net.cpp:157] Top shape: 20 256 14 14 (1003520)
I0504 21:12:22.117537 130347 net.cpp:165] Memory required for data: 3713024080
I0504 21:12:22.117547 130347 layer_factory.hpp:77] Creating layer scale4b_branch2b
I0504 21:12:22.117558 130347 net.cpp:106] Creating Layer scale4b_branch2b
I0504 21:12:22.117564 130347 net.cpp:454] scale4b_branch2b <- res4b_branch2b
I0504 21:12:22.117576 130347 net.cpp:397] scale4b_branch2b -> res4b_branch2b (in-place)
I0504 21:12:22.117624 130347 layer_factory.hpp:77] Creating layer scale4b_branch2b
I0504 21:12:22.117744 130347 net.cpp:150] Setting up scale4b_branch2b
I0504 21:12:22.117753 130347 net.cpp:157] Top shape: 20 256 14 14 (1003520)
I0504 21:12:22.117758 130347 net.cpp:165] Memory required for data: 3717038160
I0504 21:12:22.117766 130347 layer_factory.hpp:77] Creating layer res4b_branch2b_relu
I0504 21:12:22.117776 130347 net.cpp:106] Creating Layer res4b_branch2b_relu
I0504 21:12:22.117782 130347 net.cpp:454] res4b_branch2b_relu <- res4b_branch2b
I0504 21:12:22.117789 130347 net.cpp:397] res4b_branch2b_relu -> res4b_branch2b (in-place)
I0504 21:12:22.117797 130347 net.cpp:150] Setting up res4b_branch2b_relu
I0504 21:12:22.117805 130347 net.cpp:157] Top shape: 20 256 14 14 (1003520)
I0504 21:12:22.117810 130347 net.cpp:165] Memory required for data: 3721052240
I0504 21:12:22.117815 130347 layer_factory.hpp:77] Creating layer res4b_branch2c
I0504 21:12:22.117826 130347 net.cpp:106] Creating Layer res4b_branch2c
I0504 21:12:22.117832 130347 net.cpp:454] res4b_branch2c <- res4b_branch2b
I0504 21:12:22.117840 130347 net.cpp:411] res4b_branch2c -> res4b_branch2c
I0504 21:12:22.118939 130347 net.cpp:150] Setting up res4b_branch2c
I0504 21:12:22.118957 130347 net.cpp:157] Top shape: 20 1024 14 14 (4014080)
I0504 21:12:22.118963 130347 net.cpp:165] Memory required for data: 3737108560
I0504 21:12:22.118970 130347 layer_factory.hpp:77] Creating layer bn4b_branch2c
I0504 21:12:22.118983 130347 net.cpp:106] Creating Layer bn4b_branch2c
I0504 21:12:22.118988 130347 net.cpp:454] bn4b_branch2c <- res4b_branch2c
I0504 21:12:22.118996 130347 net.cpp:397] bn4b_branch2c -> res4b_branch2c (in-place)
I0504 21:12:22.119216 130347 net.cpp:150] Setting up bn4b_branch2c
I0504 21:12:22.119226 130347 net.cpp:157] Top shape: 20 1024 14 14 (4014080)
I0504 21:12:22.119232 130347 net.cpp:165] Memory required for data: 3753164880
I0504 21:12:22.119242 130347 layer_factory.hpp:77] Creating layer scale4b_branch2c
I0504 21:12:22.119251 130347 net.cpp:106] Creating Layer scale4b_branch2c
I0504 21:12:22.119256 130347 net.cpp:454] scale4b_branch2c <- res4b_branch2c
I0504 21:12:22.119266 130347 net.cpp:397] scale4b_branch2c -> res4b_branch2c (in-place)
I0504 21:12:22.119307 130347 layer_factory.hpp:77] Creating layer scale4b_branch2c
I0504 21:12:22.119432 130347 net.cpp:150] Setting up scale4b_branch2c
I0504 21:12:22.119442 130347 net.cpp:157] Top shape: 20 1024 14 14 (4014080)
I0504 21:12:22.119447 130347 net.cpp:165] Memory required for data: 3769221200
I0504 21:12:22.119456 130347 layer_factory.hpp:77] Creating layer res4b
I0504 21:12:22.119464 130347 net.cpp:106] Creating Layer res4b
I0504 21:12:22.119470 130347 net.cpp:454] res4b <- res4a_res4a_relu_0_split_1
I0504 21:12:22.119477 130347 net.cpp:454] res4b <- res4b_branch2c
I0504 21:12:22.119484 130347 net.cpp:411] res4b -> res4b
I0504 21:12:22.119524 130347 net.cpp:150] Setting up res4b
I0504 21:12:22.119532 130347 net.cpp:157] Top shape: 20 1024 14 14 (4014080)
I0504 21:12:22.119537 130347 net.cpp:165] Memory required for data: 3785277520
I0504 21:12:22.119542 130347 layer_factory.hpp:77] Creating layer res4b_relu
I0504 21:12:22.119557 130347 net.cpp:106] Creating Layer res4b_relu
I0504 21:12:22.119563 130347 net.cpp:454] res4b_relu <- res4b
I0504 21:12:22.119570 130347 net.cpp:397] res4b_relu -> res4b (in-place)
I0504 21:12:22.119577 130347 net.cpp:150] Setting up res4b_relu
I0504 21:12:22.119585 130347 net.cpp:157] Top shape: 20 1024 14 14 (4014080)
I0504 21:12:22.119590 130347 net.cpp:165] Memory required for data: 3801333840
I0504 21:12:22.119595 130347 layer_factory.hpp:77] Creating layer res4b_res4b_relu_0_split
I0504 21:12:22.119601 130347 net.cpp:106] Creating Layer res4b_res4b_relu_0_split
I0504 21:12:22.119607 130347 net.cpp:454] res4b_res4b_relu_0_split <- res4b
I0504 21:12:22.119616 130347 net.cpp:411] res4b_res4b_relu_0_split -> res4b_res4b_relu_0_split_0
I0504 21:12:22.119624 130347 net.cpp:411] res4b_res4b_relu_0_split -> res4b_res4b_relu_0_split_1
I0504 21:12:22.119662 130347 net.cpp:150] Setting up res4b_res4b_relu_0_split
I0504 21:12:22.119669 130347 net.cpp:157] Top shape: 20 1024 14 14 (4014080)
I0504 21:12:22.119676 130347 net.cpp:157] Top shape: 20 1024 14 14 (4014080)
I0504 21:12:22.119680 130347 net.cpp:165] Memory required for data: 3833446480
I0504 21:12:22.119686 130347 layer_factory.hpp:77] Creating layer res4c_branch2a
I0504 21:12:22.119698 130347 net.cpp:106] Creating Layer res4c_branch2a
I0504 21:12:22.119704 130347 net.cpp:454] res4c_branch2a <- res4b_res4b_relu_0_split_0
I0504 21:12:22.119710 130347 net.cpp:411] res4c_branch2a -> res4c_branch2a
I0504 21:12:22.120731 130347 net.cpp:150] Setting up res4c_branch2a
I0504 21:12:22.120750 130347 net.cpp:157] Top shape: 20 256 14 14 (1003520)
I0504 21:12:22.120755 130347 net.cpp:165] Memory required for data: 3837460560
I0504 21:12:22.120764 130347 layer_factory.hpp:77] Creating layer bn4c_branch2a
I0504 21:12:22.120774 130347 net.cpp:106] Creating Layer bn4c_branch2a
I0504 21:12:22.120780 130347 net.cpp:454] bn4c_branch2a <- res4c_branch2a
I0504 21:12:22.120789 130347 net.cpp:397] bn4c_branch2a -> res4c_branch2a (in-place)
I0504 21:12:22.120985 130347 net.cpp:150] Setting up bn4c_branch2a
I0504 21:12:22.120995 130347 net.cpp:157] Top shape: 20 256 14 14 (1003520)
I0504 21:12:22.121000 130347 net.cpp:165] Memory required for data: 3841474640
I0504 21:12:22.121009 130347 layer_factory.hpp:77] Creating layer scale4c_branch2a
I0504 21:12:22.121017 130347 net.cpp:106] Creating Layer scale4c_branch2a
I0504 21:12:22.121023 130347 net.cpp:454] scale4c_branch2a <- res4c_branch2a
I0504 21:12:22.121031 130347 net.cpp:397] scale4c_branch2a -> res4c_branch2a (in-place)
I0504 21:12:22.121074 130347 layer_factory.hpp:77] Creating layer scale4c_branch2a
I0504 21:12:22.121201 130347 net.cpp:150] Setting up scale4c_branch2a
I0504 21:12:22.121211 130347 net.cpp:157] Top shape: 20 256 14 14 (1003520)
I0504 21:12:22.121215 130347 net.cpp:165] Memory required for data: 3845488720
I0504 21:12:22.121223 130347 layer_factory.hpp:77] Creating layer res4c_branch2a_relu
I0504 21:12:22.121233 130347 net.cpp:106] Creating Layer res4c_branch2a_relu
I0504 21:12:22.121239 130347 net.cpp:454] res4c_branch2a_relu <- res4c_branch2a
I0504 21:12:22.121246 130347 net.cpp:397] res4c_branch2a_relu -> res4c_branch2a (in-place)
I0504 21:12:22.121253 130347 net.cpp:150] Setting up res4c_branch2a_relu
I0504 21:12:22.121260 130347 net.cpp:157] Top shape: 20 256 14 14 (1003520)
I0504 21:12:22.121265 130347 net.cpp:165] Memory required for data: 3849502800
I0504 21:12:22.121270 130347 layer_factory.hpp:77] Creating layer res4c_branch2b
I0504 21:12:22.121281 130347 net.cpp:106] Creating Layer res4c_branch2b
I0504 21:12:22.121287 130347 net.cpp:454] res4c_branch2b <- res4c_branch2a
I0504 21:12:22.121294 130347 net.cpp:411] res4c_branch2b -> res4c_branch2b
I0504 21:12:22.123098 130347 net.cpp:150] Setting up res4c_branch2b
I0504 21:12:22.123122 130347 net.cpp:157] Top shape: 20 256 14 14 (1003520)
I0504 21:12:22.123129 130347 net.cpp:165] Memory required for data: 3853516880
I0504 21:12:22.123136 130347 layer_factory.hpp:77] Creating layer bn4c_branch2b
I0504 21:12:22.123148 130347 net.cpp:106] Creating Layer bn4c_branch2b
I0504 21:12:22.123154 130347 net.cpp:454] bn4c_branch2b <- res4c_branch2b
I0504 21:12:22.123162 130347 net.cpp:397] bn4c_branch2b -> res4c_branch2b (in-place)
I0504 21:12:22.123364 130347 net.cpp:150] Setting up bn4c_branch2b
I0504 21:12:22.123373 130347 net.cpp:157] Top shape: 20 256 14 14 (1003520)
I0504 21:12:22.123378 130347 net.cpp:165] Memory required for data: 3857530960
I0504 21:12:22.123389 130347 layer_factory.hpp:77] Creating layer scale4c_branch2b
I0504 21:12:22.123396 130347 net.cpp:106] Creating Layer scale4c_branch2b
I0504 21:12:22.123402 130347 net.cpp:454] scale4c_branch2b <- res4c_branch2b
I0504 21:12:22.123411 130347 net.cpp:397] scale4c_branch2b -> res4c_branch2b (in-place)
I0504 21:12:22.123455 130347 layer_factory.hpp:77] Creating layer scale4c_branch2b
I0504 21:12:22.123569 130347 net.cpp:150] Setting up scale4c_branch2b
I0504 21:12:22.123579 130347 net.cpp:157] Top shape: 20 256 14 14 (1003520)
I0504 21:12:22.123584 130347 net.cpp:165] Memory required for data: 3861545040
I0504 21:12:22.123591 130347 layer_factory.hpp:77] Creating layer res4c_branch2b_relu
I0504 21:12:22.123600 130347 net.cpp:106] Creating Layer res4c_branch2b_relu
I0504 21:12:22.123605 130347 net.cpp:454] res4c_branch2b_relu <- res4c_branch2b
I0504 21:12:22.123611 130347 net.cpp:397] res4c_branch2b_relu -> res4c_branch2b (in-place)
I0504 21:12:22.123618 130347 net.cpp:150] Setting up res4c_branch2b_relu
I0504 21:12:22.123625 130347 net.cpp:157] Top shape: 20 256 14 14 (1003520)
I0504 21:12:22.123630 130347 net.cpp:165] Memory required for data: 3865559120
I0504 21:12:22.123634 130347 layer_factory.hpp:77] Creating layer res4c_branch2c
I0504 21:12:22.123646 130347 net.cpp:106] Creating Layer res4c_branch2c
I0504 21:12:22.123651 130347 net.cpp:454] res4c_branch2c <- res4c_branch2b
I0504 21:12:22.123661 130347 net.cpp:411] res4c_branch2c -> res4c_branch2c
I0504 21:12:22.124680 130347 net.cpp:150] Setting up res4c_branch2c
I0504 21:12:22.124698 130347 net.cpp:157] Top shape: 20 1024 14 14 (4014080)
I0504 21:12:22.124703 130347 net.cpp:165] Memory required for data: 3881615440
I0504 21:12:22.124711 130347 layer_factory.hpp:77] Creating layer bn4c_branch2c
I0504 21:12:22.124721 130347 net.cpp:106] Creating Layer bn4c_branch2c
I0504 21:12:22.124727 130347 net.cpp:454] bn4c_branch2c <- res4c_branch2c
I0504 21:12:22.124735 130347 net.cpp:397] bn4c_branch2c -> res4c_branch2c (in-place)
I0504 21:12:22.124946 130347 net.cpp:150] Setting up bn4c_branch2c
I0504 21:12:22.124956 130347 net.cpp:157] Top shape: 20 1024 14 14 (4014080)
I0504 21:12:22.124961 130347 net.cpp:165] Memory required for data: 3897671760
I0504 21:12:22.124971 130347 layer_factory.hpp:77] Creating layer scale4c_branch2c
I0504 21:12:22.124980 130347 net.cpp:106] Creating Layer scale4c_branch2c
I0504 21:12:22.124985 130347 net.cpp:454] scale4c_branch2c <- res4c_branch2c
I0504 21:12:22.124992 130347 net.cpp:397] scale4c_branch2c -> res4c_branch2c (in-place)
I0504 21:12:22.125036 130347 layer_factory.hpp:77] Creating layer scale4c_branch2c
I0504 21:12:22.125164 130347 net.cpp:150] Setting up scale4c_branch2c
I0504 21:12:22.125174 130347 net.cpp:157] Top shape: 20 1024 14 14 (4014080)
I0504 21:12:22.125180 130347 net.cpp:165] Memory required for data: 3913728080
I0504 21:12:22.125187 130347 layer_factory.hpp:77] Creating layer res4c
I0504 21:12:22.125196 130347 net.cpp:106] Creating Layer res4c
I0504 21:12:22.125201 130347 net.cpp:454] res4c <- res4b_res4b_relu_0_split_1
I0504 21:12:22.125208 130347 net.cpp:454] res4c <- res4c_branch2c
I0504 21:12:22.125217 130347 net.cpp:411] res4c -> res4c
I0504 21:12:22.125244 130347 net.cpp:150] Setting up res4c
I0504 21:12:22.125252 130347 net.cpp:157] Top shape: 20 1024 14 14 (4014080)
I0504 21:12:22.125257 130347 net.cpp:165] Memory required for data: 3929784400
I0504 21:12:22.125268 130347 layer_factory.hpp:77] Creating layer res4c_relu
I0504 21:12:22.125278 130347 net.cpp:106] Creating Layer res4c_relu
I0504 21:12:22.125284 130347 net.cpp:454] res4c_relu <- res4c
I0504 21:12:22.125291 130347 net.cpp:397] res4c_relu -> res4c (in-place)
I0504 21:12:22.125298 130347 net.cpp:150] Setting up res4c_relu
I0504 21:12:22.125305 130347 net.cpp:157] Top shape: 20 1024 14 14 (4014080)
I0504 21:12:22.125310 130347 net.cpp:165] Memory required for data: 3945840720
I0504 21:12:22.125315 130347 layer_factory.hpp:77] Creating layer res4c_res4c_relu_0_split
I0504 21:12:22.125324 130347 net.cpp:106] Creating Layer res4c_res4c_relu_0_split
I0504 21:12:22.125329 130347 net.cpp:454] res4c_res4c_relu_0_split <- res4c
I0504 21:12:22.125336 130347 net.cpp:411] res4c_res4c_relu_0_split -> res4c_res4c_relu_0_split_0
I0504 21:12:22.125345 130347 net.cpp:411] res4c_res4c_relu_0_split -> res4c_res4c_relu_0_split_1
I0504 21:12:22.125383 130347 net.cpp:150] Setting up res4c_res4c_relu_0_split
I0504 21:12:22.125391 130347 net.cpp:157] Top shape: 20 1024 14 14 (4014080)
I0504 21:12:22.125397 130347 net.cpp:157] Top shape: 20 1024 14 14 (4014080)
I0504 21:12:22.125402 130347 net.cpp:165] Memory required for data: 3977953360
I0504 21:12:22.125411 130347 layer_factory.hpp:77] Creating layer res4d_branch2a
I0504 21:12:22.125419 130347 net.cpp:106] Creating Layer res4d_branch2a
I0504 21:12:22.125425 130347 net.cpp:454] res4d_branch2a <- res4c_res4c_relu_0_split_0
I0504 21:12:22.125434 130347 net.cpp:411] res4d_branch2a -> res4d_branch2a
I0504 21:12:22.126394 130347 net.cpp:150] Setting up res4d_branch2a
I0504 21:12:22.126410 130347 net.cpp:157] Top shape: 20 256 14 14 (1003520)
I0504 21:12:22.126415 130347 net.cpp:165] Memory required for data: 3981967440
I0504 21:12:22.126423 130347 layer_factory.hpp:77] Creating layer bn4d_branch2a
I0504 21:12:22.126431 130347 net.cpp:106] Creating Layer bn4d_branch2a
I0504 21:12:22.126437 130347 net.cpp:454] bn4d_branch2a <- res4d_branch2a
I0504 21:12:22.126444 130347 net.cpp:397] bn4d_branch2a -> res4d_branch2a (in-place)
I0504 21:12:22.126646 130347 net.cpp:150] Setting up bn4d_branch2a
I0504 21:12:22.126657 130347 net.cpp:157] Top shape: 20 256 14 14 (1003520)
I0504 21:12:22.126663 130347 net.cpp:165] Memory required for data: 3985981520
I0504 21:12:22.126675 130347 layer_factory.hpp:77] Creating layer scale4d_branch2a
I0504 21:12:22.126685 130347 net.cpp:106] Creating Layer scale4d_branch2a
I0504 21:12:22.126690 130347 net.cpp:454] scale4d_branch2a <- res4d_branch2a
I0504 21:12:22.126698 130347 net.cpp:397] scale4d_branch2a -> res4d_branch2a (in-place)
I0504 21:12:22.126744 130347 layer_factory.hpp:77] Creating layer scale4d_branch2a
I0504 21:12:22.126879 130347 net.cpp:150] Setting up scale4d_branch2a
I0504 21:12:22.126893 130347 net.cpp:157] Top shape: 20 256 14 14 (1003520)
I0504 21:12:22.126900 130347 net.cpp:165] Memory required for data: 3989995600
I0504 21:12:22.126912 130347 layer_factory.hpp:77] Creating layer res4d_branch2a_relu
I0504 21:12:22.126926 130347 net.cpp:106] Creating Layer res4d_branch2a_relu
I0504 21:12:22.126935 130347 net.cpp:454] res4d_branch2a_relu <- res4d_branch2a
I0504 21:12:22.126943 130347 net.cpp:397] res4d_branch2a_relu -> res4d_branch2a (in-place)
I0504 21:12:22.126951 130347 net.cpp:150] Setting up res4d_branch2a_relu
I0504 21:12:22.126958 130347 net.cpp:157] Top shape: 20 256 14 14 (1003520)
I0504 21:12:22.126963 130347 net.cpp:165] Memory required for data: 3994009680
I0504 21:12:22.126968 130347 layer_factory.hpp:77] Creating layer res4d_branch2b
I0504 21:12:22.126979 130347 net.cpp:106] Creating Layer res4d_branch2b
I0504 21:12:22.126986 130347 net.cpp:454] res4d_branch2b <- res4d_branch2a
I0504 21:12:22.126992 130347 net.cpp:411] res4d_branch2b -> res4d_branch2b
I0504 21:12:22.128836 130347 net.cpp:150] Setting up res4d_branch2b
I0504 21:12:22.128855 130347 net.cpp:157] Top shape: 20 256 14 14 (1003520)
I0504 21:12:22.128861 130347 net.cpp:165] Memory required for data: 3998023760
I0504 21:12:22.128875 130347 layer_factory.hpp:77] Creating layer bn4d_branch2b
I0504 21:12:22.128890 130347 net.cpp:106] Creating Layer bn4d_branch2b
I0504 21:12:22.128896 130347 net.cpp:454] bn4d_branch2b <- res4d_branch2b
I0504 21:12:22.128904 130347 net.cpp:397] bn4d_branch2b -> res4d_branch2b (in-place)
I0504 21:12:22.129102 130347 net.cpp:150] Setting up bn4d_branch2b
I0504 21:12:22.129112 130347 net.cpp:157] Top shape: 20 256 14 14 (1003520)
I0504 21:12:22.129117 130347 net.cpp:165] Memory required for data: 4002037840
I0504 21:12:22.129127 130347 layer_factory.hpp:77] Creating layer scale4d_branch2b
I0504 21:12:22.129137 130347 net.cpp:106] Creating Layer scale4d_branch2b
I0504 21:12:22.129142 130347 net.cpp:454] scale4d_branch2b <- res4d_branch2b
I0504 21:12:22.129149 130347 net.cpp:397] scale4d_branch2b -> res4d_branch2b (in-place)
I0504 21:12:22.129195 130347 layer_factory.hpp:77] Creating layer scale4d_branch2b
I0504 21:12:22.129315 130347 net.cpp:150] Setting up scale4d_branch2b
I0504 21:12:22.129324 130347 net.cpp:157] Top shape: 20 256 14 14 (1003520)
I0504 21:12:22.129329 130347 net.cpp:165] Memory required for data: 4006051920
I0504 21:12:22.129338 130347 layer_factory.hpp:77] Creating layer res4d_branch2b_relu
I0504 21:12:22.129345 130347 net.cpp:106] Creating Layer res4d_branch2b_relu
I0504 21:12:22.129350 130347 net.cpp:454] res4d_branch2b_relu <- res4d_branch2b
I0504 21:12:22.129359 130347 net.cpp:397] res4d_branch2b_relu -> res4d_branch2b (in-place)
I0504 21:12:22.129367 130347 net.cpp:150] Setting up res4d_branch2b_relu
I0504 21:12:22.129374 130347 net.cpp:157] Top shape: 20 256 14 14 (1003520)
I0504 21:12:22.129379 130347 net.cpp:165] Memory required for data: 4010066000
I0504 21:12:22.129384 130347 layer_factory.hpp:77] Creating layer res4d_branch2c
I0504 21:12:22.129392 130347 net.cpp:106] Creating Layer res4d_branch2c
I0504 21:12:22.129397 130347 net.cpp:454] res4d_branch2c <- res4d_branch2b
I0504 21:12:22.129406 130347 net.cpp:411] res4d_branch2c -> res4d_branch2c
I0504 21:12:22.130352 130347 net.cpp:150] Setting up res4d_branch2c
I0504 21:12:22.130374 130347 net.cpp:157] Top shape: 20 1024 14 14 (4014080)
I0504 21:12:22.130380 130347 net.cpp:165] Memory required for data: 4026122320
I0504 21:12:22.130388 130347 layer_factory.hpp:77] Creating layer bn4d_branch2c
I0504 21:12:22.130403 130347 net.cpp:106] Creating Layer bn4d_branch2c
I0504 21:12:22.130409 130347 net.cpp:454] bn4d_branch2c <- res4d_branch2c
I0504 21:12:22.130416 130347 net.cpp:397] bn4d_branch2c -> res4d_branch2c (in-place)
I0504 21:12:22.130616 130347 net.cpp:150] Setting up bn4d_branch2c
I0504 21:12:22.130625 130347 net.cpp:157] Top shape: 20 1024 14 14 (4014080)
I0504 21:12:22.130631 130347 net.cpp:165] Memory required for data: 4042178640
I0504 21:12:22.130640 130347 layer_factory.hpp:77] Creating layer scale4d_branch2c
I0504 21:12:22.130648 130347 net.cpp:106] Creating Layer scale4d_branch2c
I0504 21:12:22.130655 130347 net.cpp:454] scale4d_branch2c <- res4d_branch2c
I0504 21:12:22.130661 130347 net.cpp:397] scale4d_branch2c -> res4d_branch2c (in-place)
I0504 21:12:22.130702 130347 layer_factory.hpp:77] Creating layer scale4d_branch2c
I0504 21:12:22.130822 130347 net.cpp:150] Setting up scale4d_branch2c
I0504 21:12:22.130831 130347 net.cpp:157] Top shape: 20 1024 14 14 (4014080)
I0504 21:12:22.130836 130347 net.cpp:165] Memory required for data: 4058234960
I0504 21:12:22.130844 130347 layer_factory.hpp:77] Creating layer res4d
I0504 21:12:22.130853 130347 net.cpp:106] Creating Layer res4d
I0504 21:12:22.130859 130347 net.cpp:454] res4d <- res4c_res4c_relu_0_split_1
I0504 21:12:22.130866 130347 net.cpp:454] res4d <- res4d_branch2c
I0504 21:12:22.130872 130347 net.cpp:411] res4d -> res4d
I0504 21:12:22.130899 130347 net.cpp:150] Setting up res4d
I0504 21:12:22.130908 130347 net.cpp:157] Top shape: 20 1024 14 14 (4014080)
I0504 21:12:22.130913 130347 net.cpp:165] Memory required for data: 4074291280
I0504 21:12:22.130918 130347 layer_factory.hpp:77] Creating layer res4d_relu
I0504 21:12:22.130924 130347 net.cpp:106] Creating Layer res4d_relu
I0504 21:12:22.130935 130347 net.cpp:454] res4d_relu <- res4d
I0504 21:12:22.130944 130347 net.cpp:397] res4d_relu -> res4d (in-place)
I0504 21:12:22.130952 130347 net.cpp:150] Setting up res4d_relu
I0504 21:12:22.130959 130347 net.cpp:157] Top shape: 20 1024 14 14 (4014080)
I0504 21:12:22.130964 130347 net.cpp:165] Memory required for data: 4090347600
I0504 21:12:22.130969 130347 layer_factory.hpp:77] Creating layer res4d_res4d_relu_0_split
I0504 21:12:22.130975 130347 net.cpp:106] Creating Layer res4d_res4d_relu_0_split
I0504 21:12:22.130980 130347 net.cpp:454] res4d_res4d_relu_0_split <- res4d
I0504 21:12:22.130986 130347 net.cpp:411] res4d_res4d_relu_0_split -> res4d_res4d_relu_0_split_0
I0504 21:12:22.130995 130347 net.cpp:411] res4d_res4d_relu_0_split -> res4d_res4d_relu_0_split_1
I0504 21:12:22.131032 130347 net.cpp:150] Setting up res4d_res4d_relu_0_split
I0504 21:12:22.131041 130347 net.cpp:157] Top shape: 20 1024 14 14 (4014080)
I0504 21:12:22.131047 130347 net.cpp:157] Top shape: 20 1024 14 14 (4014080)
I0504 21:12:22.131052 130347 net.cpp:165] Memory required for data: 4122460240
I0504 21:12:22.131057 130347 layer_factory.hpp:77] Creating layer res4e_branch2a
I0504 21:12:22.131070 130347 net.cpp:106] Creating Layer res4e_branch2a
I0504 21:12:22.131077 130347 net.cpp:454] res4e_branch2a <- res4d_res4d_relu_0_split_0
I0504 21:12:22.131083 130347 net.cpp:411] res4e_branch2a -> res4e_branch2a
I0504 21:12:22.132127 130347 net.cpp:150] Setting up res4e_branch2a
I0504 21:12:22.132144 130347 net.cpp:157] Top shape: 20 256 14 14 (1003520)
I0504 21:12:22.132150 130347 net.cpp:165] Memory required for data: 4126474320
I0504 21:12:22.132158 130347 layer_factory.hpp:77] Creating layer bn4e_branch2a
I0504 21:12:22.132166 130347 net.cpp:106] Creating Layer bn4e_branch2a
I0504 21:12:22.132174 130347 net.cpp:454] bn4e_branch2a <- res4e_branch2a
I0504 21:12:22.132182 130347 net.cpp:397] bn4e_branch2a -> res4e_branch2a (in-place)
I0504 21:12:22.132385 130347 net.cpp:150] Setting up bn4e_branch2a
I0504 21:12:22.132393 130347 net.cpp:157] Top shape: 20 256 14 14 (1003520)
I0504 21:12:22.132398 130347 net.cpp:165] Memory required for data: 4130488400
I0504 21:12:22.132407 130347 layer_factory.hpp:77] Creating layer scale4e_branch2a
I0504 21:12:22.132416 130347 net.cpp:106] Creating Layer scale4e_branch2a
I0504 21:12:22.132421 130347 net.cpp:454] scale4e_branch2a <- res4e_branch2a
I0504 21:12:22.132427 130347 net.cpp:397] scale4e_branch2a -> res4e_branch2a (in-place)
I0504 21:12:22.132479 130347 layer_factory.hpp:77] Creating layer scale4e_branch2a
I0504 21:12:22.132596 130347 net.cpp:150] Setting up scale4e_branch2a
I0504 21:12:22.132604 130347 net.cpp:157] Top shape: 20 256 14 14 (1003520)
I0504 21:12:22.132609 130347 net.cpp:165] Memory required for data: 4134502480
I0504 21:12:22.132617 130347 layer_factory.hpp:77] Creating layer res4e_branch2a_relu
I0504 21:12:22.132625 130347 net.cpp:106] Creating Layer res4e_branch2a_relu
I0504 21:12:22.132630 130347 net.cpp:454] res4e_branch2a_relu <- res4e_branch2a
I0504 21:12:22.132638 130347 net.cpp:397] res4e_branch2a_relu -> res4e_branch2a (in-place)
I0504 21:12:22.132647 130347 net.cpp:150] Setting up res4e_branch2a_relu
I0504 21:12:22.132653 130347 net.cpp:157] Top shape: 20 256 14 14 (1003520)
I0504 21:12:22.132658 130347 net.cpp:165] Memory required for data: 4138516560
I0504 21:12:22.132663 130347 layer_factory.hpp:77] Creating layer res4e_branch2b
I0504 21:12:22.132671 130347 net.cpp:106] Creating Layer res4e_branch2b
I0504 21:12:22.132676 130347 net.cpp:454] res4e_branch2b <- res4e_branch2a
I0504 21:12:22.132685 130347 net.cpp:411] res4e_branch2b -> res4e_branch2b
I0504 21:12:22.135448 130347 net.cpp:150] Setting up res4e_branch2b
I0504 21:12:22.135470 130347 net.cpp:157] Top shape: 20 256 14 14 (1003520)
I0504 21:12:22.135476 130347 net.cpp:165] Memory required for data: 4142530640
I0504 21:12:22.135485 130347 layer_factory.hpp:77] Creating layer bn4e_branch2b
I0504 21:12:22.135494 130347 net.cpp:106] Creating Layer bn4e_branch2b
I0504 21:12:22.135500 130347 net.cpp:454] bn4e_branch2b <- res4e_branch2b
I0504 21:12:22.135514 130347 net.cpp:397] bn4e_branch2b -> res4e_branch2b (in-place)
I0504 21:12:22.135713 130347 net.cpp:150] Setting up bn4e_branch2b
I0504 21:12:22.135723 130347 net.cpp:157] Top shape: 20 256 14 14 (1003520)
I0504 21:12:22.135728 130347 net.cpp:165] Memory required for data: 4146544720
I0504 21:12:22.135738 130347 layer_factory.hpp:77] Creating layer scale4e_branch2b
I0504 21:12:22.135749 130347 net.cpp:106] Creating Layer scale4e_branch2b
I0504 21:12:22.135756 130347 net.cpp:454] scale4e_branch2b <- res4e_branch2b
I0504 21:12:22.135764 130347 net.cpp:397] scale4e_branch2b -> res4e_branch2b (in-place)
I0504 21:12:22.135823 130347 layer_factory.hpp:77] Creating layer scale4e_branch2b
I0504 21:12:22.135939 130347 net.cpp:150] Setting up scale4e_branch2b
I0504 21:12:22.135948 130347 net.cpp:157] Top shape: 20 256 14 14 (1003520)
I0504 21:12:22.135953 130347 net.cpp:165] Memory required for data: 4150558800
I0504 21:12:22.135962 130347 layer_factory.hpp:77] Creating layer res4e_branch2b_relu
I0504 21:12:22.135969 130347 net.cpp:106] Creating Layer res4e_branch2b_relu
I0504 21:12:22.135975 130347 net.cpp:454] res4e_branch2b_relu <- res4e_branch2b
I0504 21:12:22.135983 130347 net.cpp:397] res4e_branch2b_relu -> res4e_branch2b (in-place)
I0504 21:12:22.135992 130347 net.cpp:150] Setting up res4e_branch2b_relu
I0504 21:12:22.135998 130347 net.cpp:157] Top shape: 20 256 14 14 (1003520)
I0504 21:12:22.136003 130347 net.cpp:165] Memory required for data: 4154572880
I0504 21:12:22.136008 130347 layer_factory.hpp:77] Creating layer res4e_branch2c
I0504 21:12:22.136019 130347 net.cpp:106] Creating Layer res4e_branch2c
I0504 21:12:22.136024 130347 net.cpp:454] res4e_branch2c <- res4e_branch2b
I0504 21:12:22.136031 130347 net.cpp:411] res4e_branch2c -> res4e_branch2c
I0504 21:12:22.137080 130347 net.cpp:150] Setting up res4e_branch2c
I0504 21:12:22.137099 130347 net.cpp:157] Top shape: 20 1024 14 14 (4014080)
I0504 21:12:22.137105 130347 net.cpp:165] Memory required for data: 4170629200
I0504 21:12:22.137112 130347 layer_factory.hpp:77] Creating layer bn4e_branch2c
I0504 21:12:22.137123 130347 net.cpp:106] Creating Layer bn4e_branch2c
I0504 21:12:22.137130 130347 net.cpp:454] bn4e_branch2c <- res4e_branch2c
I0504 21:12:22.137137 130347 net.cpp:397] bn4e_branch2c -> res4e_branch2c (in-place)
I0504 21:12:22.137354 130347 net.cpp:150] Setting up bn4e_branch2c
I0504 21:12:22.137364 130347 net.cpp:157] Top shape: 20 1024 14 14 (4014080)
I0504 21:12:22.137369 130347 net.cpp:165] Memory required for data: 4186685520
I0504 21:12:22.137379 130347 layer_factory.hpp:77] Creating layer scale4e_branch2c
I0504 21:12:22.137387 130347 net.cpp:106] Creating Layer scale4e_branch2c
I0504 21:12:22.137393 130347 net.cpp:454] scale4e_branch2c <- res4e_branch2c
I0504 21:12:22.137401 130347 net.cpp:397] scale4e_branch2c -> res4e_branch2c (in-place)
I0504 21:12:22.137444 130347 layer_factory.hpp:77] Creating layer scale4e_branch2c
I0504 21:12:22.137575 130347 net.cpp:150] Setting up scale4e_branch2c
I0504 21:12:22.137585 130347 net.cpp:157] Top shape: 20 1024 14 14 (4014080)
I0504 21:12:22.137590 130347 net.cpp:165] Memory required for data: 4202741840
I0504 21:12:22.137598 130347 layer_factory.hpp:77] Creating layer res4e
I0504 21:12:22.137606 130347 net.cpp:106] Creating Layer res4e
I0504 21:12:22.137612 130347 net.cpp:454] res4e <- res4d_res4d_relu_0_split_1
I0504 21:12:22.137619 130347 net.cpp:454] res4e <- res4e_branch2c
I0504 21:12:22.137625 130347 net.cpp:411] res4e -> res4e
I0504 21:12:22.137661 130347 net.cpp:150] Setting up res4e
I0504 21:12:22.137670 130347 net.cpp:157] Top shape: 20 1024 14 14 (4014080)
I0504 21:12:22.137675 130347 net.cpp:165] Memory required for data: 4218798160
I0504 21:12:22.137679 130347 layer_factory.hpp:77] Creating layer res4e_relu
I0504 21:12:22.137689 130347 net.cpp:106] Creating Layer res4e_relu
I0504 21:12:22.137694 130347 net.cpp:454] res4e_relu <- res4e
I0504 21:12:22.137701 130347 net.cpp:397] res4e_relu -> res4e (in-place)
I0504 21:12:22.137708 130347 net.cpp:150] Setting up res4e_relu
I0504 21:12:22.137720 130347 net.cpp:157] Top shape: 20 1024 14 14 (4014080)
I0504 21:12:22.137725 130347 net.cpp:165] Memory required for data: 4234854480
I0504 21:12:22.137730 130347 layer_factory.hpp:77] Creating layer res4e_res4e_relu_0_split
I0504 21:12:22.137738 130347 net.cpp:106] Creating Layer res4e_res4e_relu_0_split
I0504 21:12:22.137743 130347 net.cpp:454] res4e_res4e_relu_0_split <- res4e
I0504 21:12:22.137751 130347 net.cpp:411] res4e_res4e_relu_0_split -> res4e_res4e_relu_0_split_0
I0504 21:12:22.137760 130347 net.cpp:411] res4e_res4e_relu_0_split -> res4e_res4e_relu_0_split_1
I0504 21:12:22.137796 130347 net.cpp:150] Setting up res4e_res4e_relu_0_split
I0504 21:12:22.137804 130347 net.cpp:157] Top shape: 20 1024 14 14 (4014080)
I0504 21:12:22.137810 130347 net.cpp:157] Top shape: 20 1024 14 14 (4014080)
I0504 21:12:22.137815 130347 net.cpp:165] Memory required for data: 4266967120
I0504 21:12:22.137820 130347 layer_factory.hpp:77] Creating layer res4f_branch2a
I0504 21:12:22.137831 130347 net.cpp:106] Creating Layer res4f_branch2a
I0504 21:12:22.137837 130347 net.cpp:454] res4f_branch2a <- res4e_res4e_relu_0_split_0
I0504 21:12:22.137845 130347 net.cpp:411] res4f_branch2a -> res4f_branch2a
I0504 21:12:22.138828 130347 net.cpp:150] Setting up res4f_branch2a
I0504 21:12:22.138845 130347 net.cpp:157] Top shape: 20 256 14 14 (1003520)
I0504 21:12:22.138851 130347 net.cpp:165] Memory required for data: 4270981200
I0504 21:12:22.138859 130347 layer_factory.hpp:77] Creating layer bn4f_branch2a
I0504 21:12:22.138867 130347 net.cpp:106] Creating Layer bn4f_branch2a
I0504 21:12:22.138873 130347 net.cpp:454] bn4f_branch2a <- res4f_branch2a
I0504 21:12:22.138882 130347 net.cpp:397] bn4f_branch2a -> res4f_branch2a (in-place)
I0504 21:12:22.139098 130347 net.cpp:150] Setting up bn4f_branch2a
I0504 21:12:22.139108 130347 net.cpp:157] Top shape: 20 256 14 14 (1003520)
I0504 21:12:22.139113 130347 net.cpp:165] Memory required for data: 4274995280
I0504 21:12:22.139123 130347 layer_factory.hpp:77] Creating layer scale4f_branch2a
I0504 21:12:22.139132 130347 net.cpp:106] Creating Layer scale4f_branch2a
I0504 21:12:22.139137 130347 net.cpp:454] scale4f_branch2a <- res4f_branch2a
I0504 21:12:22.139143 130347 net.cpp:397] scale4f_branch2a -> res4f_branch2a (in-place)
I0504 21:12:22.139189 130347 layer_factory.hpp:77] Creating layer scale4f_branch2a
I0504 21:12:22.139304 130347 net.cpp:150] Setting up scale4f_branch2a
I0504 21:12:22.139313 130347 net.cpp:157] Top shape: 20 256 14 14 (1003520)
I0504 21:12:22.139318 130347 net.cpp:165] Memory required for data: 4279009360
I0504 21:12:22.139327 130347 layer_factory.hpp:77] Creating layer res4f_branch2a_relu
I0504 21:12:22.139335 130347 net.cpp:106] Creating Layer res4f_branch2a_relu
I0504 21:12:22.139341 130347 net.cpp:454] res4f_branch2a_relu <- res4f_branch2a
I0504 21:12:22.139348 130347 net.cpp:397] res4f_branch2a_relu -> res4f_branch2a (in-place)
I0504 21:12:22.139355 130347 net.cpp:150] Setting up res4f_branch2a_relu
I0504 21:12:22.139361 130347 net.cpp:157] Top shape: 20 256 14 14 (1003520)
I0504 21:12:22.139366 130347 net.cpp:165] Memory required for data: 4283023440
I0504 21:12:22.139371 130347 layer_factory.hpp:77] Creating layer res4f_branch2b
I0504 21:12:22.139382 130347 net.cpp:106] Creating Layer res4f_branch2b
I0504 21:12:22.139387 130347 net.cpp:454] res4f_branch2b <- res4f_branch2a
I0504 21:12:22.139395 130347 net.cpp:411] res4f_branch2b -> res4f_branch2b
I0504 21:12:22.141085 130347 net.cpp:150] Setting up res4f_branch2b
I0504 21:12:22.141101 130347 net.cpp:157] Top shape: 20 256 14 14 (1003520)
I0504 21:12:22.141106 130347 net.cpp:165] Memory required for data: 4287037520
I0504 21:12:22.141113 130347 layer_factory.hpp:77] Creating layer bn4f_branch2b
I0504 21:12:22.141120 130347 net.cpp:106] Creating Layer bn4f_branch2b
I0504 21:12:22.141125 130347 net.cpp:454] bn4f_branch2b <- res4f_branch2b
I0504 21:12:22.141131 130347 net.cpp:397] bn4f_branch2b -> res4f_branch2b (in-place)
I0504 21:12:22.141314 130347 net.cpp:150] Setting up bn4f_branch2b
I0504 21:12:22.141327 130347 net.cpp:157] Top shape: 20 256 14 14 (1003520)
I0504 21:12:22.141332 130347 net.cpp:165] Memory required for data: 4291051600
I0504 21:12:22.141341 130347 layer_factory.hpp:77] Creating layer scale4f_branch2b
I0504 21:12:22.141348 130347 net.cpp:106] Creating Layer scale4f_branch2b
I0504 21:12:22.141353 130347 net.cpp:454] scale4f_branch2b <- res4f_branch2b
I0504 21:12:22.141360 130347 net.cpp:397] scale4f_branch2b -> res4f_branch2b (in-place)
I0504 21:12:22.141402 130347 layer_factory.hpp:77] Creating layer scale4f_branch2b
I0504 21:12:22.141511 130347 net.cpp:150] Setting up scale4f_branch2b
I0504 21:12:22.141520 130347 net.cpp:157] Top shape: 20 256 14 14 (1003520)
I0504 21:12:22.141525 130347 net.cpp:165] Memory required for data: 4295065680
I0504 21:12:22.141531 130347 layer_factory.hpp:77] Creating layer res4f_branch2b_relu
I0504 21:12:22.141540 130347 net.cpp:106] Creating Layer res4f_branch2b_relu
I0504 21:12:22.141544 130347 net.cpp:454] res4f_branch2b_relu <- res4f_branch2b
I0504 21:12:22.141551 130347 net.cpp:397] res4f_branch2b_relu -> res4f_branch2b (in-place)
I0504 21:12:22.141556 130347 net.cpp:150] Setting up res4f_branch2b_relu
I0504 21:12:22.141562 130347 net.cpp:157] Top shape: 20 256 14 14 (1003520)
I0504 21:12:22.141566 130347 net.cpp:165] Memory required for data: 4299079760
I0504 21:12:22.141571 130347 layer_factory.hpp:77] Creating layer res4f_branch2c
I0504 21:12:22.141593 130347 net.cpp:106] Creating Layer res4f_branch2c
I0504 21:12:22.141597 130347 net.cpp:454] res4f_branch2c <- res4f_branch2b
I0504 21:12:22.141604 130347 net.cpp:411] res4f_branch2c -> res4f_branch2c
I0504 21:12:22.142444 130347 net.cpp:150] Setting up res4f_branch2c
I0504 21:12:22.142459 130347 net.cpp:157] Top shape: 20 1024 14 14 (4014080)
I0504 21:12:22.142464 130347 net.cpp:165] Memory required for data: 4315136080
I0504 21:12:22.142470 130347 layer_factory.hpp:77] Creating layer bn4f_branch2c
I0504 21:12:22.142484 130347 net.cpp:106] Creating Layer bn4f_branch2c
I0504 21:12:22.142490 130347 net.cpp:454] bn4f_branch2c <- res4f_branch2c
I0504 21:12:22.142496 130347 net.cpp:397] bn4f_branch2c -> res4f_branch2c (in-place)
I0504 21:12:22.142698 130347 net.cpp:150] Setting up bn4f_branch2c
I0504 21:12:22.142705 130347 net.cpp:157] Top shape: 20 1024 14 14 (4014080)
I0504 21:12:22.142710 130347 net.cpp:165] Memory required for data: 4331192400
I0504 21:12:22.142763 130347 layer_factory.hpp:77] Creating layer scale4f_branch2c
I0504 21:12:22.142774 130347 net.cpp:106] Creating Layer scale4f_branch2c
I0504 21:12:22.142779 130347 net.cpp:454] scale4f_branch2c <- res4f_branch2c
I0504 21:12:22.142786 130347 net.cpp:397] scale4f_branch2c -> res4f_branch2c (in-place)
I0504 21:12:22.142827 130347 layer_factory.hpp:77] Creating layer scale4f_branch2c
I0504 21:12:22.142946 130347 net.cpp:150] Setting up scale4f_branch2c
I0504 21:12:22.142952 130347 net.cpp:157] Top shape: 20 1024 14 14 (4014080)
I0504 21:12:22.142957 130347 net.cpp:165] Memory required for data: 4347248720
I0504 21:12:22.142963 130347 layer_factory.hpp:77] Creating layer res4f
I0504 21:12:22.142972 130347 net.cpp:106] Creating Layer res4f
I0504 21:12:22.142977 130347 net.cpp:454] res4f <- res4e_res4e_relu_0_split_1
I0504 21:12:22.142982 130347 net.cpp:454] res4f <- res4f_branch2c
I0504 21:12:22.142988 130347 net.cpp:411] res4f -> res4f
I0504 21:12:22.143010 130347 net.cpp:150] Setting up res4f
I0504 21:12:22.143018 130347 net.cpp:157] Top shape: 20 1024 14 14 (4014080)
I0504 21:12:22.143021 130347 net.cpp:165] Memory required for data: 4363305040
I0504 21:12:22.143026 130347 layer_factory.hpp:77] Creating layer res4f_relu
I0504 21:12:22.143034 130347 net.cpp:106] Creating Layer res4f_relu
I0504 21:12:22.143039 130347 net.cpp:454] res4f_relu <- res4f
I0504 21:12:22.143044 130347 net.cpp:397] res4f_relu -> res4f (in-place)
I0504 21:12:22.143052 130347 net.cpp:150] Setting up res4f_relu
I0504 21:12:22.143060 130347 net.cpp:157] Top shape: 20 1024 14 14 (4014080)
I0504 21:12:22.143070 130347 net.cpp:165] Memory required for data: 4379361360
I0504 21:12:22.143079 130347 layer_factory.hpp:77] Creating layer res4f_res4f_relu_0_split
I0504 21:12:22.143086 130347 net.cpp:106] Creating Layer res4f_res4f_relu_0_split
I0504 21:12:22.143090 130347 net.cpp:454] res4f_res4f_relu_0_split <- res4f
I0504 21:12:22.143096 130347 net.cpp:411] res4f_res4f_relu_0_split -> res4f_res4f_relu_0_split_0
I0504 21:12:22.143102 130347 net.cpp:411] res4f_res4f_relu_0_split -> res4f_res4f_relu_0_split_1
I0504 21:12:22.143137 130347 net.cpp:150] Setting up res4f_res4f_relu_0_split
I0504 21:12:22.143144 130347 net.cpp:157] Top shape: 20 1024 14 14 (4014080)
I0504 21:12:22.143149 130347 net.cpp:157] Top shape: 20 1024 14 14 (4014080)
I0504 21:12:22.143153 130347 net.cpp:165] Memory required for data: 4411474000
I0504 21:12:22.143157 130347 layer_factory.hpp:77] Creating layer res5a_branch1
I0504 21:12:22.143167 130347 net.cpp:106] Creating Layer res5a_branch1
I0504 21:12:22.143172 130347 net.cpp:454] res5a_branch1 <- res4f_res4f_relu_0_split_0
I0504 21:12:22.143178 130347 net.cpp:411] res5a_branch1 -> res5a_branch1
I0504 21:12:22.148226 130347 net.cpp:150] Setting up res5a_branch1
I0504 21:12:22.148267 130347 net.cpp:157] Top shape: 20 2048 7 7 (2007040)
I0504 21:12:22.148272 130347 net.cpp:165] Memory required for data: 4419502160
I0504 21:12:22.148293 130347 layer_factory.hpp:77] Creating layer bn5a_branch1
I0504 21:12:22.148305 130347 net.cpp:106] Creating Layer bn5a_branch1
I0504 21:12:22.148311 130347 net.cpp:454] bn5a_branch1 <- res5a_branch1
I0504 21:12:22.148319 130347 net.cpp:397] bn5a_branch1 -> res5a_branch1 (in-place)
I0504 21:12:22.148538 130347 net.cpp:150] Setting up bn5a_branch1
I0504 21:12:22.148548 130347 net.cpp:157] Top shape: 20 2048 7 7 (2007040)
I0504 21:12:22.148553 130347 net.cpp:165] Memory required for data: 4427530320
I0504 21:12:22.148561 130347 layer_factory.hpp:77] Creating layer scale5a_branch1
I0504 21:12:22.148571 130347 net.cpp:106] Creating Layer scale5a_branch1
I0504 21:12:22.148576 130347 net.cpp:454] scale5a_branch1 <- res5a_branch1
I0504 21:12:22.148581 130347 net.cpp:397] scale5a_branch1 -> res5a_branch1 (in-place)
I0504 21:12:22.148627 130347 layer_factory.hpp:77] Creating layer scale5a_branch1
I0504 21:12:22.148752 130347 net.cpp:150] Setting up scale5a_branch1
I0504 21:12:22.148761 130347 net.cpp:157] Top shape: 20 2048 7 7 (2007040)
I0504 21:12:22.148764 130347 net.cpp:165] Memory required for data: 4435558480
I0504 21:12:22.148772 130347 layer_factory.hpp:77] Creating layer res5a_branch2a
I0504 21:12:22.148783 130347 net.cpp:106] Creating Layer res5a_branch2a
I0504 21:12:22.148789 130347 net.cpp:454] res5a_branch2a <- res4f_res4f_relu_0_split_1
I0504 21:12:22.148797 130347 net.cpp:411] res5a_branch2a -> res5a_branch2a
I0504 21:12:22.150339 130347 net.cpp:150] Setting up res5a_branch2a
I0504 21:12:22.150357 130347 net.cpp:157] Top shape: 20 512 7 7 (501760)
I0504 21:12:22.150360 130347 net.cpp:165] Memory required for data: 4437565520
I0504 21:12:22.150367 130347 layer_factory.hpp:77] Creating layer bn5a_branch2a
I0504 21:12:22.150377 130347 net.cpp:106] Creating Layer bn5a_branch2a
I0504 21:12:22.150383 130347 net.cpp:454] bn5a_branch2a <- res5a_branch2a
I0504 21:12:22.150389 130347 net.cpp:397] bn5a_branch2a -> res5a_branch2a (in-place)
I0504 21:12:22.150574 130347 net.cpp:150] Setting up bn5a_branch2a
I0504 21:12:22.150594 130347 net.cpp:157] Top shape: 20 512 7 7 (501760)
I0504 21:12:22.150599 130347 net.cpp:165] Memory required for data: 4439572560
I0504 21:12:22.150609 130347 layer_factory.hpp:77] Creating layer scale5a_branch2a
I0504 21:12:22.150616 130347 net.cpp:106] Creating Layer scale5a_branch2a
I0504 21:12:22.150621 130347 net.cpp:454] scale5a_branch2a <- res5a_branch2a
I0504 21:12:22.150629 130347 net.cpp:397] scale5a_branch2a -> res5a_branch2a (in-place)
I0504 21:12:22.150674 130347 layer_factory.hpp:77] Creating layer scale5a_branch2a
I0504 21:12:22.150784 130347 net.cpp:150] Setting up scale5a_branch2a
I0504 21:12:22.150792 130347 net.cpp:157] Top shape: 20 512 7 7 (501760)
I0504 21:12:22.150797 130347 net.cpp:165] Memory required for data: 4441579600
I0504 21:12:22.150811 130347 layer_factory.hpp:77] Creating layer res5a_branch2a_relu
I0504 21:12:22.150820 130347 net.cpp:106] Creating Layer res5a_branch2a_relu
I0504 21:12:22.150825 130347 net.cpp:454] res5a_branch2a_relu <- res5a_branch2a
I0504 21:12:22.150830 130347 net.cpp:397] res5a_branch2a_relu -> res5a_branch2a (in-place)
I0504 21:12:22.150837 130347 net.cpp:150] Setting up res5a_branch2a_relu
I0504 21:12:22.150843 130347 net.cpp:157] Top shape: 20 512 7 7 (501760)
I0504 21:12:22.150847 130347 net.cpp:165] Memory required for data: 4443586640
I0504 21:12:22.150851 130347 layer_factory.hpp:77] Creating layer res5a_branch2b
I0504 21:12:22.150862 130347 net.cpp:106] Creating Layer res5a_branch2b
I0504 21:12:22.150867 130347 net.cpp:454] res5a_branch2b <- res5a_branch2a
I0504 21:12:22.150873 130347 net.cpp:411] res5a_branch2b -> res5a_branch2b
I0504 21:12:22.157076 130347 net.cpp:150] Setting up res5a_branch2b
I0504 21:12:22.157125 130347 net.cpp:157] Top shape: 20 512 7 7 (501760)
I0504 21:12:22.157131 130347 net.cpp:165] Memory required for data: 4445593680
I0504 21:12:22.157141 130347 layer_factory.hpp:77] Creating layer bn5a_branch2b
I0504 21:12:22.157155 130347 net.cpp:106] Creating Layer bn5a_branch2b
I0504 21:12:22.157161 130347 net.cpp:454] bn5a_branch2b <- res5a_branch2b
I0504 21:12:22.157172 130347 net.cpp:397] bn5a_branch2b -> res5a_branch2b (in-place)
I0504 21:12:22.157376 130347 net.cpp:150] Setting up bn5a_branch2b
I0504 21:12:22.157383 130347 net.cpp:157] Top shape: 20 512 7 7 (501760)
I0504 21:12:22.157399 130347 net.cpp:165] Memory required for data: 4447600720
I0504 21:12:22.157408 130347 layer_factory.hpp:77] Creating layer scale5a_branch2b
I0504 21:12:22.157418 130347 net.cpp:106] Creating Layer scale5a_branch2b
I0504 21:12:22.157423 130347 net.cpp:454] scale5a_branch2b <- res5a_branch2b
I0504 21:12:22.157428 130347 net.cpp:397] scale5a_branch2b -> res5a_branch2b (in-place)
I0504 21:12:22.157475 130347 layer_factory.hpp:77] Creating layer scale5a_branch2b
I0504 21:12:22.157587 130347 net.cpp:150] Setting up scale5a_branch2b
I0504 21:12:22.157594 130347 net.cpp:157] Top shape: 20 512 7 7 (501760)
I0504 21:12:22.157598 130347 net.cpp:165] Memory required for data: 4449607760
I0504 21:12:22.157606 130347 layer_factory.hpp:77] Creating layer res5a_branch2b_relu
I0504 21:12:22.157614 130347 net.cpp:106] Creating Layer res5a_branch2b_relu
I0504 21:12:22.157619 130347 net.cpp:454] res5a_branch2b_relu <- res5a_branch2b
I0504 21:12:22.157627 130347 net.cpp:397] res5a_branch2b_relu -> res5a_branch2b (in-place)
I0504 21:12:22.157634 130347 net.cpp:150] Setting up res5a_branch2b_relu
I0504 21:12:22.157640 130347 net.cpp:157] Top shape: 20 512 7 7 (501760)
I0504 21:12:22.157644 130347 net.cpp:165] Memory required for data: 4451614800
I0504 21:12:22.157649 130347 layer_factory.hpp:77] Creating layer res5a_branch2c
I0504 21:12:22.157658 130347 net.cpp:106] Creating Layer res5a_branch2c
I0504 21:12:22.157662 130347 net.cpp:454] res5a_branch2c <- res5a_branch2b
I0504 21:12:22.157671 130347 net.cpp:411] res5a_branch2c -> res5a_branch2c
I0504 21:12:22.160707 130347 net.cpp:150] Setting up res5a_branch2c
I0504 21:12:22.160738 130347 net.cpp:157] Top shape: 20 2048 7 7 (2007040)
I0504 21:12:22.160743 130347 net.cpp:165] Memory required for data: 4459642960
…
I0504 21:12:22.268751 130347 net.cpp:397] bn4d_branch2a -> res4d_branch2a (in-place)
I0504 21:12:22.269043 130347 net.cpp:150] Setting up bn4d_branch2a
I0504 21:12:22.269057 130347 net.cpp:157] Top shape: 16 256 14 14 (802816)
I0504 21:12:22.269064 130347 net.cpp:165] Memory required for data: 3188785344
I0504 21:12:22.269078 130347 layer_factory.hpp:77] Creating layer scale4d_branch2a
I0504 21:12:22.269088 130347 net.cpp:106] Creating Layer scale4d_branch2a
I0504 21:12:22.269096 130347 net.cpp:454] scale4d_branch2a <- res4d_branch2a
I0504 21:12:22.269105 130347 net.cpp:397] scale4d_branch2a -> res4d_branch2a (in-place)
I0504 21:12:22.269170 130347 layer_factory.hpp:77] Creating layer scale4d_branch2a
I0504 21:12:22.269327 130347 net.cpp:150] Setting up scale4d_branch2a
I0504 21:12:22.269340 130347 net.cpp:157] Top shape: 16 256 14 14 (802816)
I0504 21:12:22.269346 130347 net.cpp:165] Memory required for data: 3191996608
I0504 21:12:22.269357 130347 layer_factory.hpp:77] Creating layer res4d_branch2a_relu
I0504 21:12:22.269371 130347 net.cpp:106] Creating Layer res4d_branch2a_relu
I0504 21:12:22.269378 130347 net.cpp:454] res4d_branch2a_relu <- res4d_branch2a
I0504 21:12:22.269387 130347 net.cpp:397] res4d_branch2a_relu -> res4d_branch2a (in-place)
I0504 21:12:22.269397 130347 net.cpp:150] Setting up res4d_branch2a_relu
I0504 21:12:22.269407 130347 net.cpp:157] Top shape: 16 256 14 14 (802816)
I0504 21:12:22.269412 130347 net.cpp:165] Memory required for data: 3195207872
I0504 21:12:22.269419 130347 layer_factory.hpp:77] Creating layer res4d_branch2b
I0504 21:12:22.269434 130347 net.cpp:106] Creating Layer res4d_branch2b
I0504 21:12:22.269441 130347 net.cpp:454] res4d_branch2b <- res4d_branch2a
I0504 21:12:22.269451 130347 net.cpp:411] res4d_branch2b -> res4d_branch2b
I0504 21:12:22.271682 130347 net.cpp:150] Setting up res4d_branch2b
I0504 21:12:22.271705 130347 net.cpp:157] Top shape: 16 256 14 14 (802816)
I0504 21:12:22.271713 130347 net.cpp:165] Memory required for data: 3198419136
I0504 21:12:22.271723 130347 layer_factory.hpp:77] Creating layer bn4d_branch2b
I0504 21:12:22.271733 130347 net.cpp:106] Creating Layer bn4d_branch2b
I0504 21:12:22.271741 130347 net.cpp:454] bn4d_branch2b <- res4d_branch2b
I0504 21:12:22.271750 130347 net.cpp:397] bn4d_branch2b -> res4d_branch2b (in-place)
I0504 21:12:22.272032 130347 net.cpp:150] Setting up bn4d_branch2b
I0504 21:12:22.272043 130347 net.cpp:157] Top shape: 16 256 14 14 (802816)
I0504 21:12:22.272050 130347 net.cpp:165] Memory required for data: 3201630400
I0504 21:12:22.272061 130347 layer_factory.hpp:77] Creating layer scale4d_branch2b
I0504 21:12:22.272071 130347 net.cpp:106] Creating Layer scale4d_branch2b
I0504 21:12:22.272078 130347 net.cpp:454] scale4d_branch2b <- res4d_branch2b
I0504 21:12:22.272086 130347 net.cpp:397] scale4d_branch2b -> res4d_branch2b (in-place)
I0504 21:12:22.272162 130347 layer_factory.hpp:77] Creating layer scale4d_branch2b
I0504 21:12:22.272327 130347 net.cpp:150] Setting up scale4d_branch2b
I0504 21:12:22.272341 130347 net.cpp:157] Top shape: 16 256 14 14 (802816)
I0504 21:12:22.272354 130347 net.cpp:165] Memory required for data: 3204841664
I0504 21:12:22.272367 130347 layer_factory.hpp:77] Creating layer res4d_branch2b_relu
I0504 21:12:22.272380 130347 net.cpp:106] Creating Layer res4d_branch2b_relu
I0504 21:12:22.272388 130347 net.cpp:454] res4d_branch2b_relu <- res4d_branch2b
I0504 21:12:22.272397 130347 net.cpp:397] res4d_branch2b_relu -> res4d_branch2b (in-place)
I0504 21:12:22.272408 130347 net.cpp:150] Setting up res4d_branch2b_relu
I0504 21:12:22.272416 130347 net.cpp:157] Top shape: 16 256 14 14 (802816)
I0504 21:12:22.272423 130347 net.cpp:165] Memory required for data: 3208052928
I0504 21:12:22.272429 130347 layer_factory.hpp:77] Creating layer res4d_branch2c
I0504 21:12:22.272451 130347 net.cpp:106] Creating Layer res4d_branch2c
I0504 21:12:22.272461 130347 net.cpp:454] res4d_branch2c <- res4d_branch2b
I0504 21:12:22.272470 130347 net.cpp:411] res4d_branch2c -> res4d_branch2c
I0504 21:12:22.273730 130347 net.cpp:150] Setting up res4d_branch2c
I0504 21:12:22.273751 130347 net.cpp:157] Top shape: 16 1024 14 14 (3211264)
I0504 21:12:22.273761 130347 net.cpp:165] Memory required for data: 3220897984
I0504 21:12:22.273769 130347 layer_factory.hpp:77] Creating layer bn4d_branch2c
I0504 21:12:22.273787 130347 net.cpp:106] Creating Layer bn4d_branch2c
I0504 21:12:22.273797 130347 net.cpp:454] bn4d_branch2c <- res4d_branch2c
I0504 21:12:22.273805 130347 net.cpp:397] bn4d_branch2c -> res4d_branch2c (in-place)
I0504 21:12:22.274099 130347 net.cpp:150] Setting up bn4d_branch2c
I0504 21:12:22.274112 130347 net.cpp:157] Top shape: 16 1024 14 14 (3211264)
I0504 21:12:22.274119 130347 net.cpp:165] Memory required for data: 3233743040
I0504 21:12:22.274150 130347 layer_factory.hpp:77] Creating layer scale4d_branch2c
I0504 21:12:22.274164 130347 net.cpp:106] Creating Layer scale4d_branch2c
I0504 21:12:22.274173 130347 net.cpp:454] scale4d_branch2c <- res4d_branch2c
I0504 21:12:22.274180 130347 net.cpp:397] scale4d_branch2c -> res4d_branch2c (in-place)
I0504 21:12:22.274245 130347 layer_factory.hpp:77] Creating layer scale4d_branch2c
I0504 21:12:22.274405 130347 net.cpp:150] Setting up scale4d_branch2c
I0504 21:12:22.274415 130347 net.cpp:157] Top shape: 16 1024 14 14 (3211264)
I0504 21:12:22.274421 130347 net.cpp:165] Memory required for data: 3246588096
I0504 21:12:22.274431 130347 layer_factory.hpp:77] Creating layer res4d
I0504 21:12:22.274443 130347 net.cpp:106] Creating Layer res4d
I0504 21:12:22.274451 130347 net.cpp:454] res4d <- res4c_res4c_relu_0_split_1
I0504 21:12:22.274457 130347 net.cpp:454] res4d <- res4d_branch2c
I0504 21:12:22.274467 130347 net.cpp:411] res4d -> res4d
I0504 21:12:22.274508 130347 net.cpp:150] Setting up res4d
I0504 21:12:22.274519 130347 net.cpp:157] Top shape: 16 1024 14 14 (3211264)
I0504 21:12:22.274525 130347 net.cpp:165] Memory required for data: 3259433152
I0504 21:12:22.274533 130347 layer_factory.hpp:77] Creating layer res4d_relu
I0504 21:12:22.274543 130347 net.cpp:106] Creating Layer res4d_relu
I0504 21:12:22.274549 130347 net.cpp:454] res4d_relu <- res4d
I0504 21:12:22.274556 130347 net.cpp:397] res4d_relu -> res4d (in-place)
I0504 21:12:22.274567 130347 net.cpp:150] Setting up res4d_relu
I0504 21:12:22.274575 130347 net.cpp:157] Top shape: 16 1024 14 14 (3211264)
I0504 21:12:22.274582 130347 net.cpp:165] Memory required for data: 3272278208
I0504 21:12:22.274588 130347 layer_factory.hpp:77] Creating layer res4d_res4d_relu_0_split
I0504 21:12:22.274598 130347 net.cpp:106] Creating Layer res4d_res4d_relu_0_split
I0504 21:12:22.274605 130347 net.cpp:454] res4d_res4d_relu_0_split <- res4d
I0504 21:12:22.274616 130347 net.cpp:411] res4d_res4d_relu_0_split -> res4d_res4d_relu_0_split_0
I0504 21:12:22.274626 130347 net.cpp:411] res4d_res4d_relu_0_split -> res4d_res4d_relu_0_split_1
I0504 21:12:22.274682 130347 net.cpp:150] Setting up res4d_res4d_relu_0_split
I0504 21:12:22.274693 130347 net.cpp:157] Top shape: 16 1024 14 14 (3211264)
I0504 21:12:22.274700 130347 net.cpp:157] Top shape: 16 1024 14 14 (3211264)
I0504 21:12:22.274713 130347 net.cpp:165] Memory required for data: 3297968320
I0504 21:12:22.274721 130347 layer_factory.hpp:77] Creating layer res4e_branch2a
I0504 21:12:22.274734 130347 net.cpp:106] Creating Layer res4e_branch2a
I0504 21:12:22.274741 130347 net.cpp:454] res4e_branch2a <- res4d_res4d_relu_0_split_0
I0504 21:12:22.274750 130347 net.cpp:411] res4e_branch2a -> res4e_branch2a
I0504 21:12:22.276017 130347 net.cpp:150] Setting up res4e_branch2a
I0504 21:12:22.276037 130347 net.cpp:157] Top shape: 16 256 14 14 (802816)
I0504 21:12:22.276046 130347 net.cpp:165] Memory required for data: 3301179584
I0504 21:12:22.276056 130347 layer_factory.hpp:77] Creating layer bn4e_branch2a
I0504 21:12:22.276069 130347 net.cpp:106] Creating Layer bn4e_branch2a
I0504 21:12:22.276077 130347 net.cpp:454] bn4e_branch2a <- res4e_branch2a
I0504 21:12:22.276088 130347 net.cpp:397] bn4e_branch2a -> res4e_branch2a (in-place)
I0504 21:12:22.276370 130347 net.cpp:150] Setting up bn4e_branch2a
I0504 21:12:22.276383 130347 net.cpp:157] Top shape: 16 256 14 14 (802816)
I0504 21:12:22.276389 130347 net.cpp:165] Memory required for data: 3304390848
I0504 21:12:22.276401 130347 layer_factory.hpp:77] Creating layer scale4e_branch2a
I0504 21:12:22.276412 130347 net.cpp:106] Creating Layer scale4e_branch2a
I0504 21:12:22.276418 130347 net.cpp:454] scale4e_branch2a <- res4e_branch2a
I0504 21:12:22.276429 130347 net.cpp:397] scale4e_branch2a -> res4e_branch2a (in-place)
I0504 21:12:22.276489 130347 layer_factory.hpp:77] Creating layer scale4e_branch2a
I0504 21:12:22.276656 130347 net.cpp:150] Setting up scale4e_branch2a
I0504 21:12:22.276669 130347 net.cpp:157] Top shape: 16 256 14 14 (802816)
I0504 21:12:22.276675 130347 net.cpp:165] Memory required for data: 3307602112
I0504 21:12:22.276686 130347 layer_factory.hpp:77] Creating layer res4e_branch2a_relu
I0504 21:12:22.276697 130347 net.cpp:106] Creating Layer res4e_branch2a_relu
I0504 21:12:22.276705 130347 net.cpp:454] res4e_branch2a_relu <- res4e_branch2a
I0504 21:12:22.276713 130347 net.cpp:397] res4e_branch2a_relu -> res4e_branch2a (in-place)
I0504 21:12:22.276722 130347 net.cpp:150] Setting up res4e_branch2a_relu
I0504 21:12:22.276729 130347 net.cpp:157] Top shape: 16 256 14 14 (802816)
I0504 21:12:22.276736 130347 net.cpp:165] Memory required for data: 3310813376
I0504 21:12:22.276742 130347 layer_factory.hpp:77] Creating layer res4e_branch2b
I0504 21:12:22.276757 130347 net.cpp:106] Creating Layer res4e_branch2b
I0504 21:12:22.276765 130347 net.cpp:454] res4e_branch2b <- res4e_branch2a
I0504 21:12:22.276777 130347 net.cpp:411] res4e_branch2b -> res4e_branch2b
I0504 21:12:22.279014 130347 net.cpp:150] Setting up res4e_branch2b
I0504 21:12:22.279038 130347 net.cpp:157] Top shape: 16 256 14 14 (802816)
I0504 21:12:22.279047 130347 net.cpp:165] Memory required for data: 3314024640
I0504 21:12:22.279057 130347 layer_factory.hpp:77] Creating layer bn4e_branch2b
I0504 21:12:22.279069 130347 net.cpp:106] Creating Layer bn4e_branch2b
I0504 21:12:22.279078 130347 net.cpp:454] bn4e_branch2b <- res4e_branch2b
I0504 21:12:22.279098 130347 net.cpp:397] bn4e_branch2b -> res4e_branch2b (in-place)
I0504 21:12:22.279387 130347 net.cpp:150] Setting up bn4e_branch2b
I0504 21:12:22.279400 130347 net.cpp:157] Top shape: 16 256 14 14 (802816)
I0504 21:12:22.279408 130347 net.cpp:165] Memory required for data: 3317235904
I0504 21:12:22.279422 130347 layer_factory.hpp:77] Creating layer scale4e_branch2b
I0504 21:12:22.279433 130347 net.cpp:106] Creating Layer scale4e_branch2b
I0504 21:12:22.279441 130347 net.cpp:454] scale4e_branch2b <- res4e_branch2b
I0504 21:12:22.279450 130347 net.cpp:397] scale4e_branch2b -> res4e_branch2b (in-place)
I0504 21:12:22.280504 130347 layer_factory.hpp:77] Creating layer scale4e_branch2b
I0504 21:12:22.280685 130347 net.cpp:150] Setting up scale4e_branch2b
I0504 21:12:22.280699 130347 net.cpp:157] Top shape: 16 256 14 14 (802816)
I0504 21:12:22.280704 130347 net.cpp:165] Memory required for data: 3320447168
I0504 21:12:22.280716 130347 layer_factory.hpp:77] Creating layer res4e_branch2b_relu
I0504 21:12:22.280735 130347 net.cpp:106] Creating Layer res4e_branch2b_relu
I0504 21:12:22.280742 130347 net.cpp:454] res4e_branch2b_relu <- res4e_branch2b
I0504 21:12:22.280755 130347 net.cpp:397] res4e_branch2b_relu -> res4e_branch2b (in-place)
I0504 21:12:22.280766 130347 net.cpp:150] Setting up res4e_branch2b_relu
I0504 21:12:22.280776 130347 net.cpp:157] Top shape: 16 256 14 14 (802816)
I0504 21:12:22.280781 130347 net.cpp:165] Memory required for data: 3323658432
I0504 21:12:22.280788 130347 layer_factory.hpp:77] Creating layer res4e_branch2c
I0504 21:12:22.280800 130347 net.cpp:106] Creating Layer res4e_branch2c
I0504 21:12:22.280807 130347 net.cpp:454] res4e_branch2c <- res4e_branch2b
I0504 21:12:22.280820 130347 net.cpp:411] res4e_branch2c -> res4e_branch2c
I0504 21:12:22.282111 130347 net.cpp:150] Setting up res4e_branch2c
I0504 21:12:22.282133 130347 net.cpp:157] Top shape: 16 1024 14 14 (3211264)
I0504 21:12:22.282140 130347 net.cpp:165] Memory required for data: 3336503488
I0504 21:12:22.282151 130347 layer_factory.hpp:77] Creating layer bn4e_branch2c
I0504 21:12:22.282162 130347 net.cpp:106] Creating Layer bn4e_branch2c
I0504 21:12:22.282171 130347 net.cpp:454] bn4e_branch2c <- res4e_branch2c
I0504 21:12:22.282181 130347 net.cpp:397] bn4e_branch2c -> res4e_branch2c (in-place)
I0504 21:12:22.282485 130347 net.cpp:150] Setting up bn4e_branch2c
I0504 21:12:22.282498 130347 net.cpp:157] Top shape: 16 1024 14 14 (3211264)
I0504 21:12:22.282505 130347 net.cpp:165] Memory required for data: 3349348544
I0504 21:12:22.282519 130347 layer_factory.hpp:77] Creating layer scale4e_branch2c
I0504 21:12:22.282533 130347 net.cpp:106] Creating Layer scale4e_branch2c
I0504 21:12:22.282541 130347 net.cpp:454] scale4e_branch2c <- res4e_branch2c
I0504 21:12:22.282551 130347 net.cpp:397] scale4e_branch2c -> res4e_branch2c (in-place)
I0504 21:12:22.282618 130347 layer_factory.hpp:77] Creating layer scale4e_branch2c
I0504 21:12:22.282785 130347 net.cpp:150] Setting up scale4e_branch2c
I0504 21:12:22.282798 130347 net.cpp:157] Top shape: 16 1024 14 14 (3211264)
I0504 21:12:22.282804 130347 net.cpp:165] Memory required for data: 3362193600
I0504 21:12:22.282812 130347 layer_factory.hpp:77] Creating layer res4e
I0504 21:12:22.282824 130347 net.cpp:106] Creating Layer res4e
I0504 21:12:22.282831 130347 net.cpp:454] res4e <- res4d_res4d_relu_0_split_1
I0504 21:12:22.282838 130347 net.cpp:454] res4e <- res4e_branch2c
I0504 21:12:22.282846 130347 net.cpp:411] res4e -> res4e
I0504 21:12:22.282882 130347 net.cpp:150] Setting up res4e
I0504 21:12:22.282893 130347 net.cpp:157] Top shape: 16 1024 14 14 (3211264)
I0504 21:12:22.282898 130347 net.cpp:165] Memory required for data: 3375038656
I0504 21:12:22.282904 130347 layer_factory.hpp:77] Creating layer res4e_relu
I0504 21:12:22.282913 130347 net.cpp:106] Creating Layer res4e_relu
I0504 21:12:22.282919 130347 net.cpp:454] res4e_relu <- res4e
I0504 21:12:22.282929 130347 net.cpp:397] res4e_relu -> res4e (in-place)
I0504 21:12:22.282939 130347 net.cpp:150] Setting up res4e_relu
I0504 21:12:22.282949 130347 net.cpp:157] Top shape: 16 1024 14 14 (3211264)
I0504 21:12:22.282954 130347 net.cpp:165] Memory required for data: 3387883712
I0504 21:12:22.282959 130347 layer_factory.hpp:77] Creating layer res4e_res4e_relu_0_split
I0504 21:12:22.282968 130347 net.cpp:106] Creating Layer res4e_res4e_relu_0_split
I0504 21:12:22.282974 130347 net.cpp:454] res4e_res4e_relu_0_split <- res4e
I0504 21:12:22.282982 130347 net.cpp:411] res4e_res4e_relu_0_split -> res4e_res4e_relu_0_split_0
I0504 21:12:22.282994 130347 net.cpp:411] res4e_res4e_relu_0_split -> res4e_res4e_relu_0_split_1
I0504 21:12:22.283051 130347 net.cpp:150] Setting up res4e_res4e_relu_0_split
I0504 21:12:22.283061 130347 net.cpp:157] Top shape: 16 1024 14 14 (3211264)
I0504 21:12:22.283069 130347 net.cpp:157] Top shape: 16 1024 14 14 (3211264)
I0504 21:12:22.283077 130347 net.cpp:165] Memory required for data: 3413573824
I0504 21:12:22.283083 130347 layer_factory.hpp:77] Creating layer res4f_branch2a
I0504 21:12:22.283094 130347 net.cpp:106] Creating Layer res4f_branch2a
I0504 21:12:22.283109 130347 net.cpp:454] res4f_branch2a <- res4e_res4e_relu_0_split_0
I0504 21:12:22.283119 130347 net.cpp:411] res4f_branch2a -> res4f_branch2a
I0504 21:12:22.284304 130347 net.cpp:150] Setting up res4f_branch2a
I0504 21:12:22.284319 130347 net.cpp:157] Top shape: 16 256 14 14 (802816)
I0504 21:12:22.284324 130347 net.cpp:165] Memory required for data: 3416785088
I0504 21:12:22.284332 130347 layer_factory.hpp:77] Creating layer bn4f_branch2a
I0504 21:12:22.284342 130347 net.cpp:106] Creating Layer bn4f_branch2a
I0504 21:12:22.284346 130347 net.cpp:454] bn4f_branch2a <- res4f_branch2a
I0504 21:12:22.284353 130347 net.cpp:397] bn4f_branch2a -> res4f_branch2a (in-place)
I0504 21:12:22.284544 130347 net.cpp:150] Setting up bn4f_branch2a
I0504 21:12:22.284554 130347 net.cpp:157] Top shape: 16 256 14 14 (802816)
I0504 21:12:22.284559 130347 net.cpp:165] Memory required for data: 3419996352
I0504 21:12:22.284567 130347 layer_factory.hpp:77] Creating layer scale4f_branch2a
I0504 21:12:22.284577 130347 net.cpp:106] Creating Layer scale4f_branch2a
I0504 21:12:22.284582 130347 net.cpp:454] scale4f_branch2a <- res4f_branch2a
I0504 21:12:22.284589 130347 net.cpp:397] scale4f_branch2a -> res4f_branch2a (in-place)
I0504 21:12:22.284632 130347 layer_factory.hpp:77] Creating layer scale4f_branch2a
I0504 21:12:22.284744 130347 net.cpp:150] Setting up scale4f_branch2a
I0504 21:12:22.284751 130347 net.cpp:157] Top shape: 16 256 14 14 (802816)
I0504 21:12:22.284756 130347 net.cpp:165] Memory required for data: 3423207616
I0504 21:12:22.284764 130347 layer_factory.hpp:77] Creating layer res4f_branch2a_relu
I0504 21:12:22.284770 130347 net.cpp:106] Creating Layer res4f_branch2a_relu
I0504 21:12:22.284775 130347 net.cpp:454] res4f_branch2a_relu <- res4f_branch2a
I0504 21:12:22.284781 130347 net.cpp:397] res4f_branch2a_relu -> res4f_branch2a (in-place)
I0504 21:12:22.284788 130347 net.cpp:150] Setting up res4f_branch2a_relu
I0504 21:12:22.284795 130347 net.cpp:157] Top shape: 16 256 14 14 (802816)
I0504 21:12:22.284798 130347 net.cpp:165] Memory required for data: 3426418880
I0504 21:12:22.284802 130347 layer_factory.hpp:77] Creating layer res4f_branch2b
I0504 21:12:22.284811 130347 net.cpp:106] Creating Layer res4f_branch2b
I0504 21:12:22.284816 130347 net.cpp:454] res4f_branch2b <- res4f_branch2a
I0504 21:12:22.284823 130347 net.cpp:411] res4f_branch2b -> res4f_branch2b
I0504 21:12:22.286329 130347 net.cpp:150] Setting up res4f_branch2b
I0504 21:12:22.286344 130347 net.cpp:157] Top shape: 16 256 14 14 (802816)
I0504 21:12:22.286348 130347 net.cpp:165] Memory required for data: 3429630144
I0504 21:12:22.286355 130347 layer_factory.hpp:77] Creating layer bn4f_branch2b
I0504 21:12:22.286363 130347 net.cpp:106] Creating Layer bn4f_branch2b
I0504 21:12:22.286370 130347 net.cpp:454] bn4f_branch2b <- res4f_branch2b
I0504 21:12:22.286375 130347 net.cpp:397] bn4f_branch2b -> res4f_branch2b (in-place)
I0504 21:12:22.286553 130347 net.cpp:150] Setting up bn4f_branch2b
I0504 21:12:22.286562 130347 net.cpp:157] Top shape: 16 256 14 14 (802816)
I0504 21:12:22.286566 130347 net.cpp:165] Memory required for data: 3432841408
I0504 21:12:22.286576 130347 layer_factory.hpp:77] Creating layer scale4f_branch2b
I0504 21:12:22.286582 130347 net.cpp:106] Creating Layer scale4f_branch2b
I0504 21:12:22.286587 130347 net.cpp:454] scale4f_branch2b <- res4f_branch2b
I0504 21:12:22.286592 130347 net.cpp:397] scale4f_branch2b -> res4f_branch2b (in-place)
I0504 21:12:22.286636 130347 layer_factory.hpp:77] Creating layer scale4f_branch2b
I0504 21:12:22.286741 130347 net.cpp:150] Setting up scale4f_branch2b
I0504 21:12:22.286748 130347 net.cpp:157] Top shape: 16 256 14 14 (802816)
I0504 21:12:22.286753 130347 net.cpp:165] Memory required for data: 3436052672
I0504 21:12:22.286759 130347 layer_factory.hpp:77] Creating layer res4f_branch2b_relu
I0504 21:12:22.286768 130347 net.cpp:106] Creating Layer res4f_branch2b_relu
I0504 21:12:22.286772 130347 net.cpp:454] res4f_branch2b_relu <- res4f_branch2b
I0504 21:12:22.286783 130347 net.cpp:397] res4f_branch2b_relu -> res4f_branch2b (in-place)
I0504 21:12:22.286790 130347 net.cpp:150] Setting up res4f_branch2b_relu
I0504 21:12:22.286797 130347 net.cpp:157] Top shape: 16 256 14 14 (802816)
I0504 21:12:22.286800 130347 net.cpp:165] Memory required for data: 3439263936
I0504 21:12:22.286804 130347 layer_factory.hpp:77] Creating layer res4f_branch2c
I0504 21:12:22.286814 130347 net.cpp:106] Creating Layer res4f_branch2c
I0504 21:12:22.286819 130347 net.cpp:454] res4f_branch2c <- res4f_branch2b
I0504 21:12:22.286825 130347 net.cpp:411] res4f_branch2c -> res4f_branch2c
I0504 21:12:22.287659 130347 net.cpp:150] Setting up res4f_branch2c
I0504 21:12:22.287674 130347 net.cpp:157] Top shape: 16 1024 14 14 (3211264)
I0504 21:12:22.287679 130347 net.cpp:165] Memory required for data: 3452108992
I0504 21:12:22.287685 130347 layer_factory.hpp:77] Creating layer bn4f_branch2c
I0504 21:12:22.287693 130347 net.cpp:106] Creating Layer bn4f_branch2c
I0504 21:12:22.287698 130347 net.cpp:454] bn4f_branch2c <- res4f_branch2c
I0504 21:12:22.287704 130347 net.cpp:397] bn4f_branch2c -> res4f_branch2c (in-place)
I0504 21:12:22.287900 130347 net.cpp:150] Setting up bn4f_branch2c
I0504 21:12:22.287909 130347 net.cpp:157] Top shape: 16 1024 14 14 (3211264)
I0504 21:12:22.287914 130347 net.cpp:165] Memory required for data: 3464954048
I0504 21:12:22.287967 130347 layer_factory.hpp:77] Creating layer scale4f_branch2c
I0504 21:12:22.287977 130347 net.cpp:106] Creating Layer scale4f_branch2c
I0504 21:12:22.287983 130347 net.cpp:454] scale4f_branch2c <- res4f_branch2c
I0504 21:12:22.287988 130347 net.cpp:397] scale4f_branch2c -> res4f_branch2c (in-place)
I0504 21:12:22.288033 130347 layer_factory.hpp:77] Creating layer scale4f_branch2c
I0504 21:12:22.288147 130347 net.cpp:150] Setting up scale4f_branch2c
I0504 21:12:22.288156 130347 net.cpp:157] Top shape: 16 1024 14 14 (3211264)
I0504 21:12:22.288161 130347 net.cpp:165] Memory required for data: 3477799104
I0504 21:12:22.288167 130347 layer_factory.hpp:77] Creating layer res4f
I0504 21:12:22.288174 130347 net.cpp:106] Creating Layer res4f
I0504 21:12:22.288179 130347 net.cpp:454] res4f <- res4e_res4e_relu_0_split_1
I0504 21:12:22.288184 130347 net.cpp:454] res4f <- res4f_branch2c
I0504 21:12:22.288190 130347 net.cpp:411] res4f -> res4f
I0504 21:12:22.288216 130347 net.cpp:150] Setting up res4f
I0504 21:12:22.288224 130347 net.cpp:157] Top shape: 16 1024 14 14 (3211264)
I0504 21:12:22.288229 130347 net.cpp:165] Memory required for data: 3490644160
I0504 21:12:22.288234 130347 layer_factory.hpp:77] Creating layer res4f_relu
I0504 21:12:22.288240 130347 net.cpp:106] Creating Layer res4f_relu
I0504 21:12:22.288244 130347 net.cpp:454] res4f_relu <- res4f
I0504 21:12:22.288250 130347 net.cpp:397] res4f_relu -> res4f (in-place)
I0504 21:12:22.288256 130347 net.cpp:150] Setting up res4f_relu
I0504 21:12:22.288262 130347 net.cpp:157] Top shape: 16 1024 14 14 (3211264)
I0504 21:12:22.288266 130347 net.cpp:165] Memory required for data: 3503489216
I0504 21:12:22.288270 130347 layer_factory.hpp:77] Creating layer res4f_res4f_relu_0_split
I0504 21:12:22.288276 130347 net.cpp:106] Creating Layer res4f_res4f_relu_0_split
I0504 21:12:22.288280 130347 net.cpp:454] res4f_res4f_relu_0_split <- res4f
I0504 21:12:22.288287 130347 net.cpp:411] res4f_res4f_relu_0_split -> res4f_res4f_relu_0_split_0
I0504 21:12:22.288295 130347 net.cpp:411] res4f_res4f_relu_0_split -> res4f_res4f_relu_0_split_1
I0504 21:12:22.288331 130347 net.cpp:150] Setting up res4f_res4f_relu_0_split
I0504 21:12:22.288337 130347 net.cpp:157] Top shape: 16 1024 14 14 (3211264)
I0504 21:12:22.288342 130347 net.cpp:157] Top shape: 16 1024 14 14 (3211264)
I0504 21:12:22.288347 130347 net.cpp:165] Memory required for data: 3529179328
I0504 21:12:22.288352 130347 layer_factory.hpp:77] Creating layer res5a_branch1
I0504 21:12:22.288362 130347 net.cpp:106] Creating Layer res5a_branch1
I0504 21:12:22.288367 130347 net.cpp:454] res5a_branch1 <- res4f_res4f_relu_0_split_0
I0504 21:12:22.288372 130347 net.cpp:411] res5a_branch1 -> res5a_branch1
I0504 21:12:22.293457 130347 net.cpp:150] Setting up res5a_branch1
I0504 21:12:22.293486 130347 net.cpp:157] Top shape: 16 2048 7 7 (1605632)
I0504 21:12:22.293491 130347 net.cpp:165] Memory required for data: 3535601856
I0504 21:12:22.293499 130347 layer_factory.hpp:77] Creating layer bn5a_branch1
I0504 21:12:22.293511 130347 net.cpp:106] Creating Layer bn5a_branch1
I0504 21:12:22.293517 130347 net.cpp:454] bn5a_branch1 <- res5a_branch1
I0504 21:12:22.293525 130347 net.cpp:397] bn5a_branch1 -> res5a_branch1 (in-place)
I0504 21:12:22.293759 130347 net.cpp:150] Setting up bn5a_branch1
I0504 21:12:22.293768 130347 net.cpp:157] Top shape: 16 2048 7 7 (1605632)
I0504 21:12:22.293773 130347 net.cpp:165] Memory required for data: 3542024384
I0504 21:12:22.293782 130347 layer_factory.hpp:77] Creating layer scale5a_branch1
I0504 21:12:22.293790 130347 net.cpp:106] Creating Layer scale5a_branch1
I0504 21:12:22.293795 130347 net.cpp:454] scale5a_branch1 <- res5a_branch1
I0504 21:12:22.293803 130347 net.cpp:397] scale5a_branch1 -> res5a_branch1 (in-place)
I0504 21:12:22.293850 130347 layer_factory.hpp:77] Creating layer scale5a_branch1
I0504 21:12:22.294004 130347 net.cpp:150] Setting up scale5a_branch1
I0504 21:12:22.294018 130347 net.cpp:157] Top shape: 16 2048 7 7 (1605632)
I0504 21:12:22.294023 130347 net.cpp:165] Memory required for data: 3548446912
I0504 21:12:22.294034 130347 layer_factory.hpp:77] Creating layer res5a_branch2a
I0504 21:12:22.294047 130347 net.cpp:106] Creating Layer res5a_branch2a
I0504 21:12:22.294054 130347 net.cpp:454] res5a_branch2a <- res4f_res4f_relu_0_split_1
I0504 21:12:22.294066 130347 net.cpp:411] res5a_branch2a -> res5a_branch2a
I0504 21:12:22.295557 130347 net.cpp:150] Setting up res5a_branch2a
I0504 21:12:22.295572 130347 net.cpp:157] Top shape: 16 512 7 7 (401408)
I0504 21:12:22.295578 130347 net.cpp:165] Memory required for data: 3550052544
I0504 21:12:22.295584 130347 layer_factory.hpp:77] Creating layer bn5a_branch2a
I0504 21:12:22.295593 130347 net.cpp:106] Creating Layer bn5a_branch2a
I0504 21:12:22.295598 130347 net.cpp:454] bn5a_branch2a <- res5a_branch2a
I0504 21:12:22.295604 130347 net.cpp:397] bn5a_branch2a -> res5a_branch2a (in-place)
I0504 21:12:22.295809 130347 net.cpp:150] Setting up bn5a_branch2a
I0504 21:12:22.295817 130347 net.cpp:157] Top shape: 16 512 7 7 (401408)
I0504 21:12:22.295821 130347 net.cpp:165] Memory required for data: 3551658176
I0504 21:12:22.295832 130347 layer_factory.hpp:77] Creating layer scale5a_branch2a
I0504 21:12:22.295840 130347 net.cpp:106] Creating Layer scale5a_branch2a
I0504 21:12:22.295845 130347 net.cpp:454] scale5a_branch2a <- res5a_branch2a
I0504 21:12:22.295851 130347 net.cpp:397] scale5a_branch2a -> res5a_branch2a (in-place)
I0504 21:12:22.295897 130347 layer_factory.hpp:77] Creating layer scale5a_branch2a
I0504 21:12:22.296023 130347 net.cpp:150] Setting up scale5a_branch2a
I0504 21:12:22.296036 130347 net.cpp:157] Top shape: 16 512 7 7 (401408)
I0504 21:12:22.296041 130347 net.cpp:165] Memory required for data: 3553263808
I0504 21:12:22.296049 130347 layer_factory.hpp:77] Creating layer res5a_branch2a_relu
I0504 21:12:22.296059 130347 net.cpp:106] Creating Layer res5a_branch2a_relu
I0504 21:12:22.296064 130347 net.cpp:454] res5a_branch2a_relu <- res5a_branch2a
I0504 21:12:22.296071 130347 net.cpp:397] res5a_branch2a_relu -> res5a_branch2a (in-place)
I0504 21:12:22.296077 130347 net.cpp:150] Setting up res5a_branch2a_relu
I0504 21:12:22.296082 130347 net.cpp:157] Top shape: 16 512 7 7 (401408)
I0504 21:12:22.296087 130347 net.cpp:165] Memory required for data: 3554869440
I0504 21:12:22.296097 130347 layer_factory.hpp:77] Creating layer res5a_branch2b
I0504 21:12:22.296113 130347 net.cpp:106] Creating Layer res5a_branch2b
I0504 21:12:22.296116 130347 net.cpp:454] res5a_branch2b <- res5a_branch2a
I0504 21:12:22.296123 130347 net.cpp:411] res5a_branch2b -> res5a_branch2b
I0504 21:12:22.301666 130347 net.cpp:150] Setting up res5a_branch2b
I0504 21:12:22.301687 130347 net.cpp:157] Top shape: 16 512 7 7 (401408)
I0504 21:12:22.301692 130347 net.cpp:165] Memory required for data: 3556475072
I0504 21:12:22.301705 130347 layer_factory.hpp:77] Creating layer bn5a_branch2b
I0504 21:12:22.301718 130347 net.cpp:106] Creating Layer bn5a_branch2b
I0504 21:12:22.301724 130347 net.cpp:454] bn5a_branch2b <- res5a_branch2b
I0504 21:12:22.301731 130347 net.cpp:397] bn5a_branch2b -> res5a_branch2b (in-place)
I0504 21:12:22.301925 130347 net.cpp:150] Setting up bn5a_branch2b
I0504 21:12:22.301934 130347 net.cpp:157] Top shape: 16 512 7 7 (401408)
I0504 21:12:22.301939 130347 net.cpp:165] Memory required for data: 3558080704
I0504 21:12:22.301947 130347 layer_factory.hpp:77] Creating layer scale5a_branch2b
I0504 21:12:22.301956 130347 net.cpp:106] Creating Layer scale5a_branch2b
I0504 21:12:22.301961 130347 net.cpp:454] scale5a_branch2b <- res5a_branch2b
I0504 21:12:22.301967 130347 net.cpp:397] scale5a_branch2b -> res5a_branch2b (in-place)
I0504 21:12:22.302011 130347 layer_factory.hpp:77] Creating layer scale5a_branch2b
I0504 21:12:22.302124 130347 net.cpp:150] Setting up scale5a_branch2b
I0504 21:12:22.302132 130347 net.cpp:157] Top shape: 16 512 7 7 (401408)
I0504 21:12:22.302136 130347 net.cpp:165] Memory required for data: 3559686336
I0504 21:12:22.302144 130347 layer_factory.hpp:77] Creating layer res5a_branch2b_relu
I0504 21:12:22.302150 130347 net.cpp:106] Creating Layer res5a_branch2b_relu
I0504 21:12:22.302155 130347 net.cpp:454] res5a_branch2b_relu <- res5a_branch2b
I0504 21:12:22.302160 130347 net.cpp:397] res5a_branch2b_relu -> res5a_branch2b (in-place)
I0504 21:12:22.302167 130347 net.cpp:150] Setting up res5a_branch2b_relu
I0504 21:12:22.302172 130347 net.cpp:157] Top shape: 16 512 7 7 (401408)
I0504 21:12:22.302177 130347 net.cpp:165] Memory required for data: 3561291968
I0504 21:12:22.302181 130347 layer_factory.hpp:77] Creating layer res5a_branch2c
I0504 21:12:22.302191 130347 net.cpp:106] Creating Layer res5a_branch2c
I0504 21:12:22.302196 130347 net.cpp:454] res5a_branch2c <- res5a_branch2b
I0504 21:12:22.302203 130347 net.cpp:411] res5a_branch2c -> res5a_branch2c
I0504 21:12:22.305124 130347 net.cpp:150] Setting up res5a_branch2c
I0504 21:12:22.305142 130347 net.cpp:157] Top shape: 16 2048 7 7 (1605632)
I0504 21:12:22.305147 130347 net.cpp:165] Memory required for data: 3567714496
I0504 21:12:22.305155 130347 layer_factory.hpp:77] Creating layer bn5a_branch2c
I0504 21:12:22.305162 130347 net.cpp:106] Creating Layer bn5a_branch2c
I0504 21:12:22.305167 130347 net.cpp:454] bn5a_branch2c <- res5a_branch2c
I0504 21:12:22.305176 130347 net.cpp:397] bn5a_branch2c -> res5a_branch2c (in-place)
I0504 21:12:22.305393 130347 net.cpp:150] Setting up bn5a_branch2c
I0504 21:12:22.305402 130347 net.cpp:157] Top shape: 16 2048 7 7 (1605632)
I0504 21:12:22.305408 130347 net.cpp:165] Memory required for data: 3574137024
I0504 21:12:22.305415 130347 layer_factory.hpp:77] Creating layer scale5a_branch2c
I0504 21:12:22.305423 130347 net.cpp:106] Creating Layer scale5a_branch2c
I0504 21:12:22.305428 130347 net.cpp:454] scale5a_branch2c <- res5a_branch2c
I0504 21:12:22.305433 130347 net.cpp:397] scale5a_branch2c -> res5a_branch2c (in-place)
I0504 21:12:22.305480 130347 layer_factory.hpp:77] Creating layer scale5a_branch2c
I0504 21:12:22.305598 130347 net.cpp:150] Setting up scale5a_branch2c
I0504 21:12:22.305606 130347 net.cpp:157] Top shape: 16 2048 7 7 (1605632)
I0504 21:12:22.305610 130347 net.cpp:165] Memory required for data: 3580559552
I0504 21:12:22.305630 130347 layer_factory.hpp:77] Creating layer res5a
I0504 21:12:22.305639 130347 net.cpp:106] Creating Layer res5a
I0504 21:12:22.305644 130347 net.cpp:454] res5a <- res5a_branch1
I0504 21:12:22.305660 130347 net.cpp:454] res5a <- res5a_branch2c
I0504 21:12:22.305666 130347 net.cpp:411] res5a -> res5a
I0504 21:12:22.305692 130347 net.cpp:150] Setting up res5a
I0504 21:12:22.305699 130347 net.cpp:157] Top shape: 16 2048 7 7 (1605632)
I0504 21:12:22.305703 130347 net.cpp:165] Memory required for data: 3586982080
I0504 21:12:22.305708 130347 layer_factory.hpp:77] Creating layer res5a_relu
I0504 21:12:22.305714 130347 net.cpp:106] Creating Layer res5a_relu
I0504 21:12:22.305724 130347 net.cpp:454] res5a_relu <- res5a
I0504 21:12:22.305732 130347 net.cpp:397] res5a_relu -> res5a (in-place)
I0504 21:12:22.305739 130347 net.cpp:150] Setting up res5a_relu
I0504 21:12:22.305744 130347 net.cpp:157] Top shape: 16 2048 7 7 (1605632)
I0504 21:12:22.305748 130347 net.cpp:165] Memory required for data: 3593404608
I0504 21:12:22.305752 130347 layer_factory.hpp:77] Creating layer res5a_res5a_relu_0_split
I0504 21:12:22.305759 130347 net.cpp:106] Creating Layer res5a_res5a_relu_0_split
I0504 21:12:22.305763 130347 net.cpp:454] res5a_res5a_relu_0_split <- res5a
I0504 21:12:22.305768 130347 net.cpp:411] res5a_res5a_relu_0_split -> res5a_res5a_relu_0_split_0
I0504 21:12:22.305775 130347 net.cpp:411] res5a_res5a_relu_0_split -> res5a_res5a_relu_0_split_1
I0504 21:12:22.305811 130347 net.cpp:150] Setting up res5a_res5a_relu_0_split
I0504 21:12:22.305819 130347 net.cpp:157] Top shape: 16 2048 7 7 (1605632)
I0504 21:12:22.305824 130347 net.cpp:157] Top shape: 16 2048 7 7 (1605632)
I0504 21:12:22.305827 130347 net.cpp:165] Memory required for data: 3606249664
I0504 21:12:22.305831 130347 layer_factory.hpp:77] Creating layer res5b_branch2a
I0504 21:12:22.305841 130347 net.cpp:106] Creating Layer res5b_branch2a
I0504 21:12:22.305846 130347 net.cpp:454] res5b_branch2a <- res5a_res5a_relu_0_split_0
I0504 21:12:22.305852 130347 net.cpp:411] res5b_branch2a -> res5b_branch2a
I0504 21:12:22.308243 130347 net.cpp:150] Setting up res5b_branch2a
I0504 21:12:22.308259 130347 net.cpp:157] Top shape: 16 512 7 7 (401408)
I0504 21:12:22.308264 130347 net.cpp:165] Memory required for data: 3607855296
I0504 21:12:22.308269 130347 layer_factory.hpp:77] Creating layer bn5b_branch2a
I0504 21:12:22.308276 130347 net.cpp:106] Creating Layer bn5b_branch2a
I0504 21:12:22.308281 130347 net.cpp:454] bn5b_branch2a <- res5b_branch2a
I0504 21:12:22.308287 130347 net.cpp:397] bn5b_branch2a -> res5b_branch2a (in-place)
I0504 21:12:22.308490 130347 net.cpp:150] Setting up bn5b_branch2a
I0504 21:12:22.308500 130347 net.cpp:157] Top shape: 16 512 7 7 (401408)
I0504 21:12:22.308503 130347 net.cpp:165] Memory required for data: 3609460928
I0504 21:12:22.308512 130347 layer_factory.hpp:77] Creating layer scale5b_branch2a
I0504 21:12:22.308519 130347 net.cpp:106] Creating Layer scale5b_branch2a
I0504 21:12:22.308524 130347 net.cpp:454] scale5b_branch2a <- res5b_branch2a
I0504 21:12:22.308529 130347 net.cpp:397] scale5b_branch2a -> res5b_branch2a (in-place)
I0504 21:12:22.308571 130347 layer_factory.hpp:77] Creating layer scale5b_branch2a
I0504 21:12:22.308688 130347 net.cpp:150] Setting up scale5b_branch2a
I0504 21:12:22.308696 130347 net.cpp:157] Top shape: 16 512 7 7 (401408)
I0504 21:12:22.308701 130347 net.cpp:165] Memory required for data: 3611066560
I0504 21:12:22.308707 130347 layer_factory.hpp:77] Creating layer res5b_branch2a_relu
I0504 21:12:22.308714 130347 net.cpp:106] Creating Layer res5b_branch2a_relu
I0504 21:12:22.308718 130347 net.cpp:454] res5b_branch2a_relu <- res5b_branch2a
I0504 21:12:22.308725 130347 net.cpp:397] res5b_branch2a_relu -> res5b_branch2a (in-place)
I0504 21:12:22.308732 130347 net.cpp:150] Setting up res5b_branch2a_relu
I0504 21:12:22.308738 130347 net.cpp:157] Top shape: 16 512 7 7 (401408)
I0504 21:12:22.308743 130347 net.cpp:165] Memory required for data: 3612672192
I0504 21:12:22.308746 130347 layer_factory.hpp:77] Creating layer res5b_branch2b
I0504 21:12:22.308766 130347 net.cpp:106] Creating Layer res5b_branch2b
I0504 21:12:22.308770 130347 net.cpp:454] res5b_branch2b <- res5b_branch2a
I0504 21:12:22.308779 130347 net.cpp:411] res5b_branch2b -> res5b_branch2b
I0504 21:12:22.315129 130347 net.cpp:150] Setting up res5b_branch2b
I0504 21:12:22.315172 130347 net.cpp:157] Top shape: 16 512 7 7 (401408)
I0504 21:12:22.315177 130347 net.cpp:165] Memory required for data: 3614277824
I0504 21:12:22.315187 130347 layer_factory.hpp:77] Creating layer bn5b_branch2b
I0504 21:12:22.315201 130347 net.cpp:106] Creating Layer bn5b_branch2b
I0504 21:12:22.315208 130347 net.cpp:454] bn5b_branch2b <- res5b_branch2b
I0504 21:12:22.315228 130347 net.cpp:397] bn5b_branch2b -> res5b_branch2b (in-place)
I0504 21:12:22.315462 130347 net.cpp:150] Setting up bn5b_branch2b
I0504 21:12:22.315484 130347 net.cpp:157] Top shape: 16 512 7 7 (401408)
I0504 21:12:22.315487 130347 net.cpp:165] Memory required for data: 3615883456
I0504 21:12:22.315496 130347 layer_factory.hpp:77] Creating layer scale5b_branch2b
I0504 21:12:22.315508 130347 net.cpp:106] Creating Layer scale5b_branch2b
I0504 21:12:22.315513 130347 net.cpp:454] scale5b_branch2b <- res5b_branch2b
I0504 21:12:22.315520 130347 net.cpp:397] scale5b_branch2b -> res5b_branch2b (in-place)
I0504 21:12:22.315573 130347 layer_factory.hpp:77] Creating layer scale5b_branch2b
I0504 21:12:22.315696 130347 net.cpp:150] Setting up scale5b_branch2b
I0504 21:12:22.315704 130347 net.cpp:157] Top shape: 16 512 7 7 (401408)
I0504 21:12:22.315708 130347 net.cpp:165] Memory required for data: 3617489088
I0504 21:12:22.315716 130347 layer_factory.hpp:77] Creating layer res5b_branch2b_relu
I0504 21:12:22.315724 130347 net.cpp:106] Creating Layer res5b_branch2b_relu
I0504 21:12:22.315729 130347 net.cpp:454] res5b_branch2b_relu <- res5b_branch2b
I0504 21:12:22.315737 130347 net.cpp:397] res5b_branch2b_relu -> res5b_branch2b (in-place)
I0504 21:12:22.315744 130347 net.cpp:150] Setting up res5b_branch2b_relu
I0504 21:12:22.315749 130347 net.cpp:157] Top shape: 16 512 7 7 (401408)
I0504 21:12:22.315754 130347 net.cpp:165] Memory required for data: 3619094720
I0504 21:12:22.315758 130347 layer_factory.hpp:77] Creating layer res5b_branch2c
I0504 21:12:22.315770 130347 net.cpp:106] Creating Layer res5b_branch2c
I0504 21:12:22.315774 130347 net.cpp:454] res5b_branch2c <- res5b_branch2b
I0504 21:12:22.315780 130347 net.cpp:411] res5b_branch2c -> res5b_branch2c
I0504 21:12:22.318850 130347 net.cpp:150] Setting up res5b_branch2c
I0504 21:12:22.318886 130347 net.cpp:157] Top shape: 16 2048 7 7 (1605632)
I0504 21:12:22.318892 130347 net.cpp:165] Memory required for data: 3625517248
I0504 21:12:22.318900 130347 layer_factory.hpp:77] Creating layer bn5b_branch2c
I0504 21:12:22.318915 130347 net.cpp:106] Creating Layer bn5b_branch2c
I0504 21:12:22.318922 130347 net.cpp:454] bn5b_branch2c <- res5b_branch2c
I0504 21:12:22.318930 130347 net.cpp:397] bn5b_branch2c -> res5b_branch2c (in-place)
I0504 21:12:22.319160 130347 net.cpp:150] Setting up bn5b_branch2c
I0504 21:12:22.319169 130347 net.cpp:157] Top shape: 16 2048 7 7 (1605632)
I0504 21:12:22.319174 130347 net.cpp:165] Memory required for data: 3631939776
I0504 21:12:22.319182 130347 layer_factory.hpp:77] Creating layer scale5b_branch2c
I0504 21:12:22.319190 130347 net.cpp:106] Creating Layer scale5b_branch2c
I0504 21:12:22.319195 130347 net.cpp:454] scale5b_branch2c <- res5b_branch2c
I0504 21:12:22.319203 130347 net.cpp:397] scale5b_branch2c -> res5b_branch2c (in-place)
I0504 21:12:22.319267 130347 layer_factory.hpp:77] Creating layer scale5b_branch2c
I0504 21:12:22.319407 130347 net.cpp:150] Setting up scale5b_branch2c
I0504 21:12:22.319417 130347 net.cpp:157] Top shape: 16 2048 7 7 (1605632)
I0504 21:12:22.319422 130347 net.cpp:165] Memory required for data: 3638362304
I0504 21:12:22.319429 130347 layer_factory.hpp:77] Creating layer res5b
I0504 21:12:22.319437 130347 net.cpp:106] Creating Layer res5b
I0504 21:12:22.319442 130347 net.cpp:454] res5b <- res5a_res5a_relu_0_split_1
I0504 21:12:22.319447 130347 net.cpp:454] res5b <- res5b_branch2c
I0504 21:12:22.319453 130347 net.cpp:411] res5b -> res5b
I0504 21:12:22.319480 130347 net.cpp:150] Setting up res5b
I0504 21:12:22.319489 130347 net.cpp:157] Top shape: 16 2048 7 7 (1605632)
I0504 21:12:22.319492 130347 net.cpp:165] Memory required for data: 3644784832
I0504 21:12:22.319496 130347 layer_factory.hpp:77] Creating layer res5b_relu
I0504 21:12:22.319506 130347 net.cpp:106] Creating Layer res5b_relu
I0504 21:12:22.319511 130347 net.cpp:454] res5b_relu <- res5b
I0504 21:12:22.319516 130347 net.cpp:397] res5b_relu -> res5b (in-place)
I0504 21:12:22.319524 130347 net.cpp:150] Setting up res5b_relu
I0504 21:12:22.319540 130347 net.cpp:157] Top shape: 16 2048 7 7 (1605632)
I0504 21:12:22.319545 130347 net.cpp:165] Memory required for data: 3651207360
I0504 21:12:22.319561 130347 layer_factory.hpp:77] Creating layer res5b_res5b_relu_0_split
I0504 21:12:22.319568 130347 net.cpp:106] Creating Layer res5b_res5b_relu_0_split
I0504 21:12:22.319572 130347 net.cpp:454] res5b_res5b_relu_0_split <- res5b
I0504 21:12:22.319578 130347 net.cpp:411] res5b_res5b_relu_0_split -> res5b_res5b_relu_0_split_0
I0504 21:12:22.319587 130347 net.cpp:411] res5b_res5b_relu_0_split -> res5b_res5b_relu_0_split_1
I0504 21:12:22.319622 130347 net.cpp:150] Setting up res5b_res5b_relu_0_split
I0504 21:12:22.319629 130347 net.cpp:157] Top shape: 16 2048 7 7 (1605632)
I0504 21:12:22.319635 130347 net.cpp:157] Top shape: 16 2048 7 7 (1605632)
I0504 21:12:22.319639 130347 net.cpp:165] Memory required for data: 3664052416
I0504 21:12:22.319643 130347 layer_factory.hpp:77] Creating layer res5c_branch2a
I0504 21:12:22.319661 130347 net.cpp:106] Creating Layer res5c_branch2a
I0504 21:12:22.319667 130347 net.cpp:454] res5c_branch2a <- res5b_res5b_relu_0_split_0
I0504 21:12:22.319674 130347 net.cpp:411] res5c_branch2a -> res5c_branch2a
I0504 21:12:22.322466 130347 net.cpp:150] Setting up res5c_branch2a
I0504 21:12:22.322487 130347 net.cpp:157] Top shape: 16 512 7 7 (401408)
I0504 21:12:22.322492 130347 net.cpp:165] Memory required for data: 3665658048
I0504 21:12:22.322500 130347 layer_factory.hpp:77] Creating layer bn5c_branch2a
I0504 21:12:22.322509 130347 net.cpp:106] Creating Layer bn5c_branch2a
I0504 21:12:22.322515 130347 net.cpp:454] bn5c_branch2a <- res5c_branch2a
I0504 21:12:22.322523 130347 net.cpp:397] bn5c_branch2a -> res5c_branch2a (in-place)
I0504 21:12:22.322734 130347 net.cpp:150] Setting up bn5c_branch2a
I0504 21:12:22.322744 130347 net.cpp:157] Top shape: 16 512 7 7 (401408)
I0504 21:12:22.322748 130347 net.cpp:165] Memory required for data: 3667263680
I0504 21:12:22.322757 130347 layer_factory.hpp:77] Creating layer scale5c_branch2a
I0504 21:12:22.322765 130347 net.cpp:106] Creating Layer scale5c_branch2a
I0504 21:12:22.322770 130347 net.cpp:454] scale5c_branch2a <- res5c_branch2a
I0504 21:12:22.322777 130347 net.cpp:397] scale5c_branch2a -> res5c_branch2a (in-place)
I0504 21:12:22.322827 130347 layer_factory.hpp:77] Creating layer scale5c_branch2a
I0504 21:12:22.322948 130347 net.cpp:150] Setting up scale5c_branch2a
I0504 21:12:22.322957 130347 net.cpp:157] Top shape: 16 512 7 7 (401408)
I0504 21:12:22.322962 130347 net.cpp:165] Memory required for data: 3668869312
I0504 21:12:22.322968 130347 layer_factory.hpp:77] Creating layer res5c_branch2a_relu
I0504 21:12:22.322978 130347 net.cpp:106] Creating Layer res5c_branch2a_relu
I0504 21:12:22.322983 130347 net.cpp:454] res5c_branch2a_relu <- res5c_branch2a
I0504 21:12:22.322989 130347 net.cpp:397] res5c_branch2a_relu -> res5c_branch2a (in-place)
I0504 21:12:22.322996 130347 net.cpp:150] Setting up res5c_branch2a_relu
I0504 21:12:22.323002 130347 net.cpp:157] Top shape: 16 512 7 7 (401408)
I0504 21:12:22.323006 130347 net.cpp:165] Memory required for data: 3670474944
I0504 21:12:22.323010 130347 layer_factory.hpp:77] Creating layer res5c_branch2b
I0504 21:12:22.323022 130347 net.cpp:106] Creating Layer res5c_branch2b
I0504 21:12:22.323026 130347 net.cpp:454] res5c_branch2b <- res5c_branch2a
I0504 21:12:22.323034 130347 net.cpp:411] res5c_branch2b -> res5c_branch2b
I0504 21:12:22.328274 130347 net.cpp:150] Setting up res5c_branch2b
I0504 21:12:22.328296 130347 net.cpp:157] Top shape: 16 512 7 7 (401408)
I0504 21:12:22.328301 130347 net.cpp:165] Memory required for data: 3672080576
I0504 21:12:22.328308 130347 layer_factory.hpp:77] Creating layer bn5c_branch2b
I0504 21:12:22.328318 130347 net.cpp:106] Creating Layer bn5c_branch2b
I0504 21:12:22.328323 130347 net.cpp:454] bn5c_branch2b <- res5c_branch2b
I0504 21:12:22.328330 130347 net.cpp:397] bn5c_branch2b -> res5c_branch2b (in-place)
I0504 21:12:22.328557 130347 net.cpp:150] Setting up bn5c_branch2b
I0504 21:12:22.328568 130347 net.cpp:157] Top shape: 16 512 7 7 (401408)
I0504 21:12:22.328580 130347 net.cpp:165] Memory required for data: 3673686208
I0504 21:12:22.328593 130347 layer_factory.hpp:77] Creating layer scale5c_branch2b
I0504 21:12:22.328601 130347 net.cpp:106] Creating Layer scale5c_branch2b
I0504 21:12:22.328606 130347 net.cpp:454] scale5c_branch2b <- res5c_branch2b
I0504 21:12:22.328613 130347 net.cpp:397] scale5c_branch2b -> res5c_branch2b (in-place)
I0504 21:12:22.328668 130347 layer_factory.hpp:77] Creating layer scale5c_branch2b
I0504 21:12:22.328789 130347 net.cpp:150] Setting up scale5c_branch2b
I0504 21:12:22.328799 130347 net.cpp:157] Top shape: 16 512 7 7 (401408)
I0504 21:12:22.328802 130347 net.cpp:165] Memory required for data: 3675291840
I0504 21:12:22.328810 130347 layer_factory.hpp:77] Creating layer res5c_branch2b_relu
I0504 21:12:22.328819 130347 net.cpp:106] Creating Layer res5c_branch2b_relu
I0504 21:12:22.328824 130347 net.cpp:454] res5c_branch2b_relu <- res5c_branch2b
I0504 21:12:22.328830 130347 net.cpp:397] res5c_branch2b_relu -> res5c_branch2b (in-place)
I0504 21:12:22.328837 130347 net.cpp:150] Setting up res5c_branch2b_relu
I0504 21:12:22.328843 130347 net.cpp:157] Top shape: 16 512 7 7 (401408)
I0504 21:12:22.328847 130347 net.cpp:165] Memory required for data: 3676897472
I0504 21:12:22.328851 130347 layer_factory.hpp:77] Creating layer res5c_branch2c
I0504 21:12:22.328863 130347 net.cpp:106] Creating Layer res5c_branch2c
I0504 21:12:22.328867 130347 net.cpp:454] res5c_branch2c <- res5c_branch2b
I0504 21:12:22.328873 130347 net.cpp:411] res5c_branch2c -> res5c_branch2c
I0504 21:12:22.331393 130347 net.cpp:150] Setting up res5c_branch2c
I0504 21:12:22.331423 130347 net.cpp:157] Top shape: 16 2048 7 7 (1605632)
I0504 21:12:22.331429 130347 net.cpp:165] Memory required for data: 3683320000
I0504 21:12:22.331435 130347 layer_factory.hpp:77] Creating layer bn5c_branch2c
I0504 21:12:22.331449 130347 net.cpp:106] Creating Layer bn5c_branch2c
I0504 21:12:22.331455 130347 net.cpp:454] bn5c_branch2c <- res5c_branch2c
I0504 21:12:22.331462 130347 net.cpp:397] bn5c_branch2c -> res5c_branch2c (in-place)
I0504 21:12:22.331698 130347 net.cpp:150] Setting up bn5c_branch2c
I0504 21:12:22.331707 130347 net.cpp:157] Top shape: 16 2048 7 7 (1605632)
I0504 21:12:22.331712 130347 net.cpp:165] Memory required for data: 3689742528
I0504 21:12:22.331719 130347 layer_factory.hpp:77] Creating layer scale5c_branch2c
I0504 21:12:22.331729 130347 net.cpp:106] Creating Layer scale5c_branch2c
I0504 21:12:22.331735 130347 net.cpp:454] scale5c_branch2c <- res5c_branch2c
I0504 21:12:22.331740 130347 net.cpp:397] scale5c_branch2c -> res5c_branch2c (in-place)
I0504 21:12:22.332334 130347 layer_factory.hpp:77] Creating layer scale5c_branch2c
I0504 21:12:22.332487 130347 net.cpp:150] Setting up scale5c_branch2c
I0504 21:12:22.332499 130347 net.cpp:157] Top shape: 16 2048 7 7 (1605632)
I0504 21:12:22.332509 130347 net.cpp:165] Memory required for data: 3696165056
I0504 21:12:22.332516 130347 layer_factory.hpp:77] Creating layer res5c
I0504 21:12:22.332526 130347 net.cpp:106] Creating Layer res5c
I0504 21:12:22.332532 130347 net.cpp:454] res5c <- res5b_res5b_relu_0_split_1
I0504 21:12:22.332538 130347 net.cpp:454] res5c <- res5c_branch2c
I0504 21:12:22.332556 130347 net.cpp:411] res5c -> res5c
I0504 21:12:22.332592 130347 net.cpp:150] Setting up res5c
I0504 21:12:22.332600 130347 net.cpp:157] Top shape: 16 2048 7 7 (1605632)
I0504 21:12:22.332605 130347 net.cpp:165] Memory required for data: 3702587584
I0504 21:12:22.332609 130347 layer_factory.hpp:77] Creating layer res5c_relu
I0504 21:12:22.332628 130347 net.cpp:106] Creating Layer res5c_relu
I0504 21:12:22.332633 130347 net.cpp:454] res5c_relu <- res5c
I0504 21:12:22.332640 130347 net.cpp:397] res5c_relu -> res5c (in-place)
I0504 21:12:22.332648 130347 net.cpp:150] Setting up res5c_relu
I0504 21:12:22.332653 130347 net.cpp:157] Top shape: 16 2048 7 7 (1605632)
I0504 21:12:22.332658 130347 net.cpp:165] Memory required for data: 3709010112
I0504 21:12:22.332662 130347 layer_factory.hpp:77] Creating layer pool5
I0504 21:12:22.332675 130347 net.cpp:106] Creating Layer pool5
I0504 21:12:22.332681 130347 net.cpp:454] pool5 <- res5c
I0504 21:12:22.332689 130347 net.cpp:411] pool5 -> pool5
I0504 21:12:22.332716 130347 net.cpp:150] Setting up pool5
I0504 21:12:22.332725 130347 net.cpp:157] Top shape: 16 2048 1 1 (32768)
I0504 21:12:22.332728 130347 net.cpp:165] Memory required for data: 3709141184
I0504 21:12:22.332732 130347 layer_factory.hpp:77] Creating layer fc497
I0504 21:12:22.332743 130347 net.cpp:106] Creating Layer fc497
I0504 21:12:22.332748 130347 net.cpp:454] fc497 <- pool5
I0504 21:12:22.332754 130347 net.cpp:411] fc497 -> fc497
I0504 21:12:22.335675 130347 net.cpp:150] Setting up fc497
I0504 21:12:22.335705 130347 net.cpp:157] Top shape: 16 497 (7952)
I0504 21:12:22.335710 130347 net.cpp:165] Memory required for data: 3709172992
I0504 21:12:22.335719 130347 layer_factory.hpp:77] Creating layer fc497_fc497_0_split
I0504 21:12:22.335732 130347 net.cpp:106] Creating Layer fc497_fc497_0_split
I0504 21:12:22.335737 130347 net.cpp:454] fc497_fc497_0_split <- fc497
I0504 21:12:22.335746 130347 net.cpp:411] fc497_fc497_0_split -> fc497_fc497_0_split_0
I0504 21:12:22.335754 130347 net.cpp:411] fc497_fc497_0_split -> fc497_fc497_0_split_1
I0504 21:12:22.335798 130347 net.cpp:150] Setting up fc497_fc497_0_split
I0504 21:12:22.335805 130347 net.cpp:157] Top shape: 16 497 (7952)
I0504 21:12:22.335810 130347 net.cpp:157] Top shape: 16 497 (7952)
I0504 21:12:22.335814 130347 net.cpp:165] Memory required for data: 3709236608
I0504 21:12:22.335819 130347 layer_factory.hpp:77] Creating layer accuracy
I0504 21:12:22.335827 130347 net.cpp:106] Creating Layer accuracy
I0504 21:12:22.335831 130347 net.cpp:454] accuracy <- fc497_fc497_0_split_0
I0504 21:12:22.335837 130347 net.cpp:454] accuracy <- label_data_1_split_0
I0504 21:12:22.335844 130347 net.cpp:411] accuracy -> accuracy
…
