…
I0503 20:29:48.364920 124174 net.cpp:322] The NetState phase (0) differed from the phase (1) specified by a rule in layer accuracy
I0503 20:29:48.365566 124174 net.cpp:49] Initializing net from parameters: 
name: "ResNet-50"
state {
  phase: TRAIN
}
layer {
  name: "data"
  type: "Data"
  top: "data"
  top: "label"
  include {
    phase: TRAIN
  }
  transform_param {
    mirror: true
    crop_size: 224
    mean_file: "/home/hzhang57/NEW_WORLD/Project_4_ROOT/CODES/RC_497/Param/mean.binaryproto"
  }
  data_param {
    source: "/home/hzhang57/NEW_WORLD/Project_4_ROOT/CODES/RC_497/Param/RC-train.leveldb"
    batch_size: 20
    backend: LMDB
  }
}
layer {
  name: "conv1"
  type: "Convolution"
  bottom: "data"
  top: "conv1"
  convolution_param {
    num_output: 64
    pad: 3
    kernel_size: 7
    stride: 2
  }
}
layer {
  name: "bn_conv1"
  type: "BatchNorm"
  bottom: "conv1"
  top: "conv1"
  batch_norm_param {
    use_global_stats: true
  }
}
layer {
  name: "scale_conv1"
  type: "Scale"
  bottom: "conv1"
  top: "conv1"
  scale_param {
    bias_term: true
  }
}
layer {
  name: "conv1_relu"
  type: "ReLU"
  bottom: "conv1"
  top: "conv1"
}
layer {
  name: "pool1"
  type: "Pooling"
  bottom: "conv1"
  top: "pool1"
  pooling_param {
    pool: MAX
    kernel_size: 3
    stride: 2
  }
}
layer {
  name: "res2a_branch1"
  type: "Convolution"
  bottom: "pool1"
  top: "res2a_branch1"
  convolution_param {
    num_output: 256
    bias_term: false
    pad: 0
    kernel_size: 1
    stride: 1
  }
}
layer {
  name: "bn2a_branch1"
  type: "BatchNorm"
  bottom: "res2a_branch1"
  top: "res2a_branch1"
  batch_norm_param {
    use_global_stats: true
  }
}
layer {
  name: "scale2a_branch1"
  type: "Scale"
  bottom: "res2a_branch1"
  top: "res2a_branch1"
  scale_param {
    bias_term: true
  }
}
layer {
  name: "res2a_branch2a"
  type: "Convolution"
  bottom: "pool1"
  top: "res2a_branch2a"
  convolution_param {
    num_output: 64
    bias_term: false
    pad: 0
    kernel_size: 1
    stride: 1
  }
}
layer {
  name: "bn2a_branch2a"
  type: "BatchNorm"
  bottom: "res2a_branch2a"
  top: "res2a_branch2a"
  batch_norm_param {
    use_global_stats: true
  }
}
layer {
  name: "scale2a_branch2a"
  type: "Scale"
  bottom: "res2a_branch2a"
  top: "res2a_branch2a"
  scale_param {
    bias_term: true
  }
}
layer {
  name: "res2a_branch2a_relu"
  type: "ReLU"
  bottom: "res2a_branch2a"
  top: "res2a_branch2a"
}
layer {
  name: "res2a_branch2b"
  type: "Convolution"
  bottom: "res2a_branch2a"
  top: "res2a_branch2b"
  convolution_param {
    num_output: 64
    bias_term: false
    pad: 1
    kernel_size: 3
    stride: 1
  }
}
layer {
  name: "bn2a_branch2b"
  type: "BatchNorm"
  bottom: "res2a_branch2b"
  top: "res2a_branch2b"
  batch_norm_param {
    use_global_stats: true
  }
}
layer {
  name: "scale2a_branch2b"
  type: "Scale"
  bottom: "res2a_branch2b"
  top: "res2a_branch2b"
  scale_param {
    bias_term: true
  }
}
layer {
  name: "res2a_branch2b_relu"
  type: "ReLU"
  bottom: "res2a_branch2b"
  top: "res2a_branch2b"
}
layer {
  name: "res2a_branch2c"
  type: "Convolution"
  bottom: "res2a_branch2b"
  top: "res2a_branch2c"
  convolution_param {
    num_output: 256
    bias_term: false
    pad: 0
    kernel_size: 1
    stride: 1
  }
}
layer {
  name: "bn2a_branch2c"
  type: "BatchNorm"
  bottom: "res2a_branch2c"
  top: "res2a_branch2c"
  batch_norm_param {
    use_global_stats: true
  }
}
layer {
  name: "scale2a_branch2c"
  type: "Scale"
  bottom: "res2a_branch2c"
  top: "res2a_branch2c"
  scale_param {
    bias_term: true
  }
}
layer {
  name: "res2a"
  type: "Eltwise"
  bottom: "res2a_branch1"
  bottom: "res2a_branch2c"
  top: "res2a"
}
layer {
  name: "res2a_relu"
  type: "ReLU"
  bottom: "res2a"
  top: "res2a"
}
layer {
  name: "res2b_branch2a"
  type: "Convolution"
  bottom: "res2a"
  top: "res2b_branch2a"
  convolution_param {
    num_output: 64
    bias_term: false
    pad: 0
    kernel_size: 1
    stride: 1
  }
}
layer {
  name: "bn2b_branch2a"
  type: "BatchNorm"
  bottom: "res2b_branch2a"
  top: "res2b_branch2a"
  batch_norm_param {
    use_global_stats: true
  }
}
layer {
  name: "scale2b_branch2a"
  type: "Scale"
  bottom: "res2b_branch2a"
  top: "res2b_branch2a"
  scale_param {
    bias_term: true
  }
}
layer {
  name: "res2b_branch2a_relu"
  type: "ReLU"
  bottom: "res2b_branch2a"
  top: "res2b_branch2a"
}
layer {
  name: "res2b_branch2b"
  type: "Convolution"
  bottom: "res2b_branch2a"
  top: "res2b_branch2b"
  convolution_param {
    num_output: 64
    bias_term: false
    pad: 1
    kernel_size: 3
    stride: 1
  }
}
layer {
  name: "bn2b_branch2b"
  type: "BatchNorm"
  bottom: "res2b_branch2b"
  top: "res2b_branch2b"
  batch_norm_param {
    use_global_stats: true
  }
}
layer {
  name: "scale2b_branch2b"
  type: "Scale"
  bottom: "res2b_branch2b"
  top: "res2b_branch2b"
  scale_param {
    bias_term: true
  }
}
layer {
  name: "res2b_branch2b_relu"
  type: "ReLU"
  bottom: "res2b_branch2b"
  top: "res2b_branch2b"
}
layer {
  name: "res2b_branch2c"
  type: "Convolution"
  bottom: "res2b_branch2b"
  top: "res2b_branch2c"
  convolution_param {
    num_output: 256
    bias_term: false
    pad: 0
    kernel_size: 1
    stride: 1
  }
}
layer {
  name: "bn2b_branch2c"
  type: "BatchNorm"
  bottom: "res2b_branch2c"
  top: "res2b_branch2c"
  batch_norm_param {
    use_global_stats: true
  }
}
layer {
  name: "scale2b_branch2c"
  type: "Scale"
  bottom: "res2b_branch2c"
  top: "res2b_branch2c"
  scale_param {
    bias_term: true
  }
}
layer {
  name: "res2b"
  type: "Eltwise"
  bottom: "res2a"
  bottom: "res2b_branch2c"
  top: "res2b"
}
layer {
  name: "res2b_relu"
  type: "ReLU"
  bottom: "res2b"
  top: "res2b"
}
layer {
  name: "res2c_branch2a"
  type: "Convolution"
  bottom: "res2b"
  top: "res2c_branch2a"
  convolution_param {
    num_output: 64
    bias_term: false
    pad: 0
    kernel_size: 1
    stride: 1
  }
}
layer {
  name: "bn2c_branch2a"
  type: "BatchNorm"
  bottom: "res2c_branch2a"
  top: "res2c_branch2a"
  batch_norm_param {
    use_global_stats: true
  }
}
layer {
  name: "scale2c_branch2a"
  type: "Scale"
  bottom: "res2c_branch2a"
  top: "res2c_branch2a"
  scale_param {
    bias_term: true
  }
}
layer {
  name: "res2c_branch2a_relu"
  type: "ReLU"
  bottom: "res2c_branch2a"
  top: "res2c_branch2a"
}
layer {
  name: "res2c_branch2b"
  type: "Convolution"
  bottom: "res2c_branch2a"
  top: "res2c_branch2b"
  convolution_param {
    num_output: 64
    bias_term: false
    pad: 1
    kernel_size: 3
    stride: 1
  }
}
layer {
  name: "bn2c_branch2b"
  type: "BatchNorm"
  bottom: "res2c_branch2b"
  top: "res2c_branch2b"
  batch_norm_param {
    use_global_stats: true
  }
}
layer {
  name: "scale2c_branch2b"
  type: "Scale"
  bottom: "res2c_branch2b"
  top: "res2c_branch2b"
  scale_param {
    bias_term: true
  }
}
layer {
  name: "res2c_branch2b_relu"
  type: "ReLU"
  bottom: "res2c_branch2b"
  top: "res2c_branch2b"
}
layer {
  name: "res2c_branch2c"
  type: "Convolution"
  bottom: "res2c_branch2b"
  top: "res2c_branch2c"
  convolution_param {
    num_output: 256
    bias_term: false
    pad: 0
    kernel_size: 1
    stride: 1
  }
}
layer {
  name: "bn2c_branch2c"
  type: "BatchNorm"
  bottom: "res2c_branch2c"
  top: "res2c_branch2c"
  batch_norm_param {
    use_global_stats: true
  }
}
layer {
  name: "scale2c_branch2c"
  type: "Scale"
  bottom: "res2c_branch2c"
  top: "res2c_branch2c"
  scale_param {
    bias_term: true
  }
}
layer {
  name: "res2c"
  type: "Eltwise"
  bottom: "res2b"
  bottom: "res2c_branch2c"
  top: "res2c"
}
layer {
  name: "res2c_relu"
  type: "ReLU"
  bottom: "res2c"
  top: "res2c"
}
layer {
  name: "res3a_branch1"
  type: "Convolution"
  bottom: "res2c"
  top: "res3a_branch1"
  convolution_param {
    num_output: 512
    bias_term: false
    pad: 0
    kernel_size: 1
    stride: 2
  }
}
layer {
  name: "bn3a_branch1"
  type: "BatchNorm"
  bottom: "res3a_branch1"
  top: "res3a_branch1"
  batch_norm_param {
    use_global_stats: true
  }
}
layer {
  name: "scale3a_branch1"
  type: "Scale"
  bottom: "res3a_branch1"
  top: "res3a_branch1"
  scale_param {
    bias_term: true
  }
}
layer {
  name: "res3a_branch2a"
  type: "Convolution"
  bottom: "res2c"
  top: "res3a_branch2a"
  convolution_param {
    num_output: 128
    bias_term: false
    pad: 0
    kernel_size: 1
    stride: 2
  }
}
layer {
  name: "bn3a_branch2a"
  type: "BatchNorm"
  bottom: "res3a_branch2a"
  top: "res3a_branch2a"
  batch_norm_param {
    use_global_stats: true
  }
}
layer {
  name: "scale3a_branch2a"
  type: "Scale"
  bottom: "res3a_branch2a"
  top: "res3a_branch2a"
  scale_param {
    bias_term: true
  }
}
layer {
  name: "res3a_branch2a_relu"
  type: "ReLU"
  bottom: "res3a_branch2a"
  top: "res3a_branch2a"
}
layer {
  name: "res3a_branch2b"
  type: "Convolution"
  bottom: "res3a_branch2a"
  top: "res3a_branch2b"
  convolution_param {
    num_output: 128
    bias_term: false
    pad: 1
    kernel_size: 3
    stride: 1
  }
}
layer {
  name: "bn3a_branch2b"
  type: "BatchNorm"
  bottom: "res3a_branch2b"
  top: "res3a_branch2b"
  batch_norm_param {
    use_global_stats: true
  }
}
layer {
  name: "scale3a_branch2b"
  type: "Scale"
  bottom: "res3a_branch2b"
  top: "res3a_branch2b"
  scale_param {
    bias_term: true
  }
}
layer {
  name: "res3a_branch2b_relu"
  type: "ReLU"
  bottom: "res3a_branch2b"
  top: "res3a_branch2b"
}
layer {
  name: "res3a_branch2c"
  type: "Convolution"
  bottom: "res3a_branch2b"
  top: "res3a_branch2c"
  convolution_param {
    num_output: 512
    bias_term: false
    pad: 0
    kernel_size: 1
    stride: 1
  }
}
layer {
  name: "bn3a_branch2c"
  type: "BatchNorm"
  bottom: "res3a_branch2c"
  top: "res3a_branch2c"
  batch_norm_param {
    use_global_stats: true
  }
}
layer {
  name: "scale3a_branch2c"
  type: "Scale"
  bottom: "res3a_branch2c"
  top: "res3a_branch2c"
  scale_param {
    bias_term: true
  }
}
layer {
  name: "res3a"
  type: "Eltwise"
  bottom: "res3a_branch1"
  bottom: "res3a_branch2c"
  top: "res3a"
}
layer {
  name: "res3a_relu"
  type: "ReLU"
  bottom: "res3a"
  top: "res3a"
}
layer {
  name: "res3b_branch2a"
  type: "Convolution"
  bottom: "res3a"
  top: "res3b_branch2a"
  convolution_param {
    num_output: 128
    bias_term: false
    pad: 0
    kernel_size: 1
    stride: 1
  }
}
layer {
  name: "bn3b_branch2a"
  type: "BatchNorm"
  bottom: "res3b_branch2a"
  top: "res3b_branch2a"
  batch_norm_param {
    use_global_stats: true
  }
}
layer {
  name: "scale3b_branch2a"
  type: "Scale"
  bottom: "res3b_branch2a"
  top: "res3b_branch2a"
  scale_param {
    bias_term: true
  }
}
layer {
  name: "res3b_branch2a_relu"
  type: "ReLU"
  bottom: "res3b_branch2a"
  top: "res3b_branch2a"
}
layer {
  name: "res3b_branch2b"
  type: "Convolution"
  bottom: "res3b_branch2a"
  top: "res3b_branch2b"
  convolution_param {
    num_output: 128
    bias_term: false
    pad: 1
    kernel_size: 3
    stride: 1
  }
}
layer {
  name: "bn3b_branch2b"
  type: "BatchNorm"
  bottom: "res3b_branch2b"
  top: "res3b_branch2b"
  batch_norm_param {
    use_global_stats: true
  }
}
layer {
  name: "scale3b_branch2b"
  type: "Scale"
  bottom: "res3b_branch2b"
  top: "res3b_branch2b"
  scale_param {
    bias_term: true
  }
}
layer {
  name: "res3b_branch2b_relu"
  type: "ReLU"
  bottom: "res3b_branch2b"
  top: "res3b_branch2b"
}
layer {
  name: "res3b_branch2c"
  type: "Convolution"
  bottom: "res3b_branch2b"
  top: "res3b_branch2c"
  convolution_param {
    num_output: 512
    bias_term: false
    pad: 0
    kernel_size: 1
    stride: 1
  }
}
layer {
  name: "bn3b_branch2c"
  type: "BatchNorm"
  bottom: "res3b_branch2c"
  top: "res3b_branch2c"
  batch_norm_param {
    use_global_stats: true
  }
}
layer {
  name: "scale3b_branch2c"
  type: "Scale"
  bottom: "res3b_branch2c"
  top: "res3b_branch2c"
  scale_param {
    bias_term: true
  }
}
layer {
  name: "res3b"
  type: "Eltwise"
  bottom: "res3a"
  bottom: "res3b_branch2c"
  top: "res3b"
}
layer {
  name: "res3b_relu"
  type: "ReLU"
  bottom: "res3b"
  top: "res3b"
}
layer {
  name: "res3c_branch2a"
  type: "Convolution"
  bottom: "res3b"
  top: "res3c_branch2a"
  convolution_param {
    num_output: 128
    bias_term: false
    pad: 0
    kernel_size: 1
    stride: 1
  }
}
layer {
  name: "bn3c_branch2a"
  type: "BatchNorm"
  bottom: "res3c_branch2a"
  top: "res3c_branch2a"
  batch_norm_param {
    use_global_stats: true
  }
}
layer {
  name: "scale3c_branch2a"
  type: "Scale"
  bottom: "res3c_branch2a"
  top: "res3c_branch2a"
  scale_param {
    bias_term: true
  }
}
layer {
  name: "res3c_branch2a_relu"
  type: "ReLU"
  bottom: "res3c_branch2a"
  top: "res3c_branch2a"
}
layer {
  name: "res3c_branch2b"
  type: "Convolution"
  bottom: "res3c_branch2a"
  top: "res3c_branch2b"
  convolution_param {
    num_output: 128
    bias_term: false
    pad: 1
    kernel_size: 3
    stride: 1
  }
}
layer {
  name: "bn3c_branch2b"
  type: "BatchNorm"
  bottom: "res3c_branch2b"
  top: "res3c_branch2b"
  batch_norm_param {
    use_global_stats: true
  }
}
layer {
  name: "scale3c_branch2b"
  type: "Scale"
  bottom: "res3c_branch2b"
  top: "res3c_branch2b"
  scale_param {
    bias_term: true
  }
}
layer {
  name: "res3c_branch2b_relu"
  type: "ReLU"
  bottom: "res3c_branch2b"
  top: "res3c_branch2b"
}
layer {
  name: "res3c_branch2c"
  type: "Convolution"
  bottom: "res3c_branch2b"
  top: "res3c_branch2c"
  convolution_param {
    num_output: 512
    bias_term: false
    pad: 0
    kernel_size: 1
    stride: 1
  }
}
layer {
  name: "bn3c_branch2c"
  type: "BatchNorm"
  bottom: "res3c_branch2c"
  top: "res3c_branch2c"
  batch_norm_param {
    use_global_stats: true
  }
}
layer {
  name: "scale3c_branch2c"
  type: "Scale"
  bottom: "res3c_branch2c"
  top: "res3c_branch2c"
  scale_param {
    bias_term: true
  }
}
layer {
  name: "res3c"
  type: "Eltwise"
  bottom: "res3b"
  bottom: "res3c_branch2c"
  top: "res3c"
}
layer {
  name: "res3c_relu"
  type: "ReLU"
  bottom: "res3c"
  top: "res3c"
}
layer {
  name: "res3d_branch2a"
  type: "Convolution"
  bottom: "res3c"
  top: "res3d_branch2a"
  convolution_param {
    num_output: 128
    bias_term: false
    pad: 0
    kernel_size: 1
    stride: 1
  }
}
layer {
  name: "bn3d_branch2a"
  type: "BatchNorm"
  bottom: "res3d_branch2a"
  top: "res3d_branch2a"
  batch_norm_param {
    use_global_stats: true
  }
}
layer {
  name: "scale3d_branch2a"
  type: "Scale"
  bottom: "res3d_branch2a"
  top: "res3d_branch2a"
  scale_param {
    bias_term: true
  }
}
layer {
  name: "res3d_branch2a_relu"
  type: "ReLU"
  bottom: "res3d_branch2a"
  top: "res3d_branch2a"
}
layer {
  name: "res3d_branch2b"
  type: "Convolution"
  bottom: "res3d_branch2a"
  top: "res3d_branch2b"
  convolution_param {
    num_output: 128
    bias_term: false
    pad: 1
    kernel_size: 3
    stride: 1
  }
}
layer {
  name: "bn3d_branch2b"
  type: "BatchNorm"
  bottom: "res3d_branch2b"
  top: "res3d_branch2b"
  batch_norm_param {
    use_global_stats: true
  }
}
layer {
  name: "scale3d_branch2b"
  type: "Scale"
  bottom: "res3d_branch2b"
  top: "res3d_branch2b"
  scale_param {
    bias_term: true
  }
}
layer {
  name: "res3d_branch2b_relu"
  type: "ReLU"
  bottom: "res3d_branch2b"
  top: "res3d_branch2b"
}
layer {
  name: "res3d_branch2c"
  type: "Convolution"
  bottom: "res3d_branch2b"
  top: "res3d_branch2c"
  convolution_param {
    num_output: 512
    bias_term: false
    pad: 0
    kernel_size: 1
    stride: 1
  }
}
layer {
  name: "bn3d_branch2c"
  type: "BatchNorm"
  bottom: "res3d_branch2c"
  top: "res3d_branch2c"
  batch_norm_param {
    use_global_stats: true
  }
}
layer {
  name: "scale3d_branch2c"
  type: "Scale"
  bottom: "res3d_branch2c"
  top: "res3d_branch2c"
  scale_param {
    bias_term: true
  }
}
layer {
  name: "res3d"
  type: "Eltwise"
  bottom: "res3c"
  bottom: "res3d_branch2c"
  top: "res3d"
}
layer {
  name: "res3d_relu"
  type: "ReLU"
  bottom: "res3d"
  top: "res3d"
}
layer {
  name: "res4a_branch1"
  type: "Convolution"
  bottom: "res3d"
  top: "res4a_branch1"
  convolution_param {
    num_output: 1024
    bias_term: false
    pad: 0
    kernel_size: 1
    stride: 2
  }
}
layer {
  name: "bn4a_branch1"
  type: "BatchNorm"
  bottom: "res4a_branch1"
  top: "res4a_branch1"
  batch_norm_param {
    use_global_stats: true
  }
}
layer {
  name: "scale4a_branch1"
  type: "Scale"
  bottom: "res4a_branch1"
  top: "res4a_branch1"
  scale_param {
    bias_term: true
  }
}
layer {
  name: "res4a_branch2a"
  type: "Convolution"
  bottom: "res3d"
  top: "res4a_branch2a"
  convolution_param {
    num_output: 256
    bias_term: false
    pad: 0
    kernel_size: 1
    stride: 2
  }
}
layer {
  name: "bn4a_branch2a"
  type: "BatchNorm"
  bottom: "res4a_branch2a"
  top: "res4a_branch2a"
  batch_norm_param {
    use_global_stats: true
  }
}
layer {
  name: "scale4a_branch2a"
  type: "Scale"
  bottom: "res4a_branch2a"
  top: "res4a_branch2a"
  scale_param {
    bias_term: true
  }
}
layer {
  name: "res4a_branch2a_relu"
  type: "ReLU"
  bottom: "res4a_branch2a"
  top: "res4a_branch2a"
}
layer {
  name: "res4a_branch2b"
  type: "Convolution"
  bottom: "res4a_branch2a"
  top: "res4a_branch2b"
  convolution_param {
    num_output: 256
    bias_term: false
    pad: 1
    kernel_size: 3
    stride: 1
  }
}
layer {
  name: "bn4a_branch2b"
  type: "BatchNorm"
  bottom: "res4a_branch2b"
  top: "res4a_branch2b"
  batch_norm_param {
    use_global_stats: true
  }
}
layer {
  name: "scale4a_branch2b"
  type: "Scale"
  bottom: "res4a_branch2b"
  top: "res4a_branch2b"
  scale_param {
    bias_term: true
  }
}
layer {
  name: "res4a_branch2b_relu"
  type: "ReLU"
  bottom: "res4a_branch2b"
  top: "res4a_branch2b"
}
layer {
  name: "res4a_branch2c"
  type: "Convolution"
  bottom: "res4a_branch2b"
  top: "res4a_branch2c"
  convolution_param {
    num_output: 1024
    bias_term: false
    pad: 0
    kernel_size: 1
    stride: 1
  }
}
layer {
  name: "bn4a_branch2c"
  type: "BatchNorm"
  bottom: "res4a_branch2c"
  top: "res4a_branch2c"
  batch_norm_param {
    use_global_stats: true
  }
}
layer {
  name: "scale4a_branch2c"
  type: "Scale"
  bottom: "res4a_branch2c"
  top: "res4a_branch2c"
  scale_param {
    bias_term: true
  }
}
layer {
  name: "res4a"
  type: "Eltwise"
  bottom: "res4a_branch1"
  bottom: "res4a_branch2c"
  top: "res4a"
}
layer {
  name: "res4a_relu"
  type: "ReLU"
  bottom: "res4a"
  top: "res4a"
}
layer {
  name: "res4b_branch2a"
  type: "Convolution"
  bottom: "res4a"
  top: "res4b_branch2a"
  convolution_param {
    num_output: 256
    bias_term: false
    pad: 0
    kernel_size: 1
    stride: 1
  }
}
layer {
  name: "bn4b_branch2a"
  type: "BatchNorm"
  bottom: "res4b_branch2a"
  top: "res4b_branch2a"
  batch_norm_param {
    use_global_stats: true
  }
}
layer {
  name: "scale4b_branch2a"
  type: "Scale"
  bottom: "res4b_branch2a"
  top: "res4b_branch2a"
  scale_param {
    bias_term: true
  }
}
layer {
  name: "res4b_branch2a_relu"
  type: "ReLU"
  bottom: "res4b_branch2a"
  top: "res4b_branch2a"
}
layer {
  name: "res4b_branch2b"
  type: "Convolution"
  bottom: "res4b_branch2a"
  top: "res4b_branch2b"
  convolution_param {
    num_output: 256
    bias_term: false
    pad: 1
    kernel_size: 3
    stride: 1
  }
}
layer {
  name: "bn4b_branch2b"
  type: "BatchNorm"
  bottom: "res4b_branch2b"
  top: "res4b_branch2b"
  batch_norm_param {
    use_global_stats: true
  }
}
layer {
  name: "scale4b_branch2b"
  type: "Scale"
  bottom: "res4b_branch2b"
  top: "res4b_branch2b"
  scale_param {
    bias_term: true
  }
}
layer {
  name: "res4b_branch2b_relu"
  type: "ReLU"
  bottom: "res4b_branch2b"
  top: "res4b_branch2b"
}
layer {
  name: "res4b_branch2c"
  type: "Convolution"
  bottom: "res4b_branch2b"
  top: "res4b_branch2c"
  convolution_param {
    num_output: 1024
    bias_term: false
    pad: 0
    kernel_size: 1
    stride: 1
  }
}
layer {
  name: "bn4b_branch2c"
  type: "BatchNorm"
  bottom: "res4b_branch2c"
  top: "res4b_branch2c"
  batch_norm_param {
    use_global_stats: true
  }
}
layer {
  name: "scale4b_branch2c"
  type: "Scale"
  bottom: "res4b_branch2c"
  top: "res4b_branch2c"
  scale_param {
    bias_term: true
  }
}
layer {
  name: "res4b"
  type: "Eltwise"
  bottom: "res4a"
  bottom: "res4b_branch2c"
  top: "res4b"
}
layer {
  name: "res4b_relu"
  type: "ReLU"
  bottom: "res4b"
  top: "res4b"
}
layer {
  name: "res4c_branch2a"
  type: "Convolution"
  bottom: "res4b"
  top: "res4c_branch2a"
  convolution_param {
    num_output: 256
    bias_term: false
    pad: 0
    kernel_size: 1
    stride: 1
  }
}
layer {
  name: "bn4c_branch2a"
  type: "BatchNorm"
  bottom: "res4c_branch2a"
  top: "res4c_branch2a"
  batch_norm_param {
    use_global_stats: true
  }
}
layer {
  name: "scale4c_branch2a"
  type: "Scale"
  bottom: "res4c_branch2a"
  top: "res4c_branch2a"
  scale_param {
    bias_term: true
  }
}
layer {
  name: "res4c_branch2a_relu"
  type: "ReLU"
  bottom: "res4c_branch2a"
  top: "res4c_branch2a"
}
layer {
  name: "res4c_branch2b"
  type: "Convolution"
  bottom: "res4c_branch2a"
  top: "res4c_branch2b"
  convolution_param {
    num_output: 256
    bias_term: false
    pad: 1
    kernel_size: 3
    stride: 1
  }
}
layer {
  name: "bn4c_branch2b"
  type: "BatchNorm"
  bottom: "res4c_branch2b"
  top: "res4c_branch2b"
  batch_norm_param {
    use_global_stats: true
  }
}
layer {
  name: "scale4c_branch2b"
  type: "Scale"
  bottom: "res4c_branch2b"
  top: "res4c_branch2b"
  scale_param {
    bias_term: true
  }
}
layer {
  name: "res4c_branch2b_relu"
  type: "ReLU"
  bottom: "res4c_branch2b"
  top: "res4c_branch2b"
}
layer {
  name: "res4c_branch2c"
  type: "Convolution"
  bottom: "res4c_branch2b"
  top: "res4c_branch2c"
  convolution_param {
    num_output: 1024
    bias_term: false
    pad: 0
    kernel_size: 1
    stride: 1
  }
}
layer {
  name: "bn4c_branch2c"
  type: "BatchNorm"
  bottom: "res4c_branch2c"
  top: "res4c_branch2c"
  batch_norm_param {
    use_global_stats: true
  }
}
layer {
  name: "scale4c_branch2c"
  type: "Scale"
  bottom: "res4c_branch2c"
  top: "res4c_branch2c"
  scale_param {
    bias_term: true
  }
}
layer {
  name: "res4c"
  type: "Eltwise"
  bottom: "res4b"
  bottom: "res4c_branch2c"
  top: "res4c"
}
layer {
  name: "res4c_relu"
  type: "ReLU"
  bottom: "res4c"
  top: "res4c"
}
layer {
  name: "res4d_branch2a"
  type: "Convolution"
  bottom: "res4c"
  top: "res4d_branch2a"
  convolution_param {
    num_output: 256
    bias_term: false
    pad: 0
    kernel_size: 1
    stride: 1
  }
}
layer {
  name: "bn4d_branch2a"
  type: "BatchNorm"
  bottom: "res4d_branch2a"
  top: "res4d_branch2a"
  batch_norm_param {
    use_global_stats: true
  }
}
layer {
  name: "scale4d_branch2a"
  type: "Scale"
  bottom: "res4d_branch2a"
  top: "res4d_branch2a"
  scale_param {
    bias_term: true
  }
}
layer {
  name: "res4d_branch2a_relu"
  type: "ReLU"
  bottom: "res4d_branch2a"
  top: "res4d_branch2a"
}
layer {
  name: "res4d_branch2b"
  type: "Convolution"
  bottom: "res4d_branch2a"
  top: "res4d_branch2b"
  convolution_param {
    num_output: 256
    bias_term: false
    pad: 1
    kernel_size: 3
    stride: 1
  }
}
layer {
  name: "bn4d_branch2b"
  type: "BatchNorm"
  bottom: "res4d_branch2b"
  top: "res4d_branch2b"
  batch_norm_param {
    use_global_stats: true
  }
}
layer {
  name: "scale4d_branch2b"
  type: "Scale"
  bottom: "res4d_branch2b"
  top: "res4d_branch2b"
  scale_param {
    bias_term: true
  }
}
layer {
  name: "res4d_branch2b_relu"
  type: "ReLU"
  bottom: "res4d_branch2b"
  top: "res4d_branch2b"
}
layer {
  name: "res4d_branch2c"
  type: "Convolution"
  bottom: "res4d_branch2b"
  top: "res4d_branch2c"
  convolution_param {
    num_output: 1024
    bias_term: false
    pad: 0
    kernel_size: 1
    stride: 1
  }
}
layer {
  name: "bn4d_branch2c"
  type: "BatchNorm"
  bottom: "res4d_branch2c"
  top: "res4d_branch2c"
  batch_norm_param {
    use_global_stats: true
  }
}
layer {
  name: "scale4d_branch2c"
  type: "Scale"
  bottom: "res4d_branch2c"
  top: "res4d_branch2c"
  scale_param {
    bias_term: true
  }
}
layer {
  name: "res4d"
  type: "Eltwise"
  bottom: "res4c"
  bottom: "res4d_branch2c"
  top: "res4d"
}
layer {
  name: "res4d_relu"
  type: "ReLU"
  bottom: "res4d"
  top: "res4d"
}
layer {
  name: "res4e_branch2a"
  type: "Convolution"
  bottom: "res4d"
  top: "res4e_branch2a"
  convolution_param {
    num_output: 256
    bias_term: false
    pad: 0
    kernel_size: 1
    stride: 1
  }
}
layer {
  name: "bn4e_branch2a"
  type: "BatchNorm"
  bottom: "res4e_branch2a"
  top: "res4e_branch2a"
  batch_norm_param {
    use_global_stats: true
  }
}
layer {
  name: "scale4e_branch2a"
  type: "Scale"
  bottom: "res4e_branch2a"
  top: "res4e_branch2a"
  scale_param {
    bias_term: true
  }
}
layer {
  name: "res4e_branch2a_relu"
  type: "ReLU"
  bottom: "res4e_branch2a"
  top: "res4e_branch2a"
}
layer {
  name: "res4e_branch2b"
  type: "Convolution"
  bottom: "res4e_branch2a"
  top: "res4e_branch2b"
  convolution_param {
    num_output: 256
    bias_term: false
    pad: 1
    kernel_size: 3
    stride: 1
  }
}
layer {
  name: "bn4e_branch2b"
  type: "BatchNorm"
  bottom: "res4e_branch2b"
  top: "res4e_branch2b"
  batch_norm_param {
    use_global_stats: true
  }
}
layer {
  name: "scale4e_branch2b"
  type: "Scale"
  bottom: "res4e_branch2b"
  top: "res4e_branch2b"
  scale_param {
    bias_term: true
  }
}
layer {
  name: "res4e_branch2b_relu"
  type: "ReLU"
  bottom: "res4e_branch2b"
  top: "res4e_branch2b"
}
layer {
  name: "res4e_branch2c"
  type: "Convolution"
  bottom: "res4e_branch2b"
  top: "res4e_branch2c"
  convolution_param {
    num_output: 1024
    bias_term: false
    pad: 0
    kernel_size: 1
    stride: 1
  }
}
layer {
  name: "bn4e_branch2c"
  type: "BatchNorm"
  bottom: "res4e_branch2c"
  top: "res4e_branch2c"
  batch_norm_param {
    use_global_stats: true
  }
}
layer {
  name: "scale4e_branch2c"
  type: "Scale"
  bottom: "res4e_branch2c"
  top: "res4e_branch2c"
  scale_param {
    bias_term: true
  }
}
layer {
  name: "res4e"
  type: "Eltwise"
  bottom: "res4d"
  bottom: "res4e_branch2c"
  top: "res4e"
}
layer {
  name: "res4e_relu"
  type: "ReLU"
  bottom: "res4e"
  top: "res4e"
}
layer {
  name: "res4f_branch2a"
  type: "Convolution"
  bottom: "res4e"
  top: "res4f_branch2a"
  convolution_param {
    num_output: 256
    bias_term: false
    pad: 0
    kernel_size: 1
    stride: 1
  }
}
layer {
  name: "bn4f_branch2a"
  type: "BatchNorm"
  bottom: "res4f_branch2a"
  top: "res4f_branch2a"
  batch_norm_param {
    use_global_stats: true
  }
}
layer {
  name: "scale4f_branch2a"
  type: "Scale"
  bottom: "res4f_branch2a"
  top: "res4f_branch2a"
  scale_param {
    bias_term: true
  }
}
layer {
  name: "res4f_branch2a_relu"
  type: "ReLU"
  bottom: "res4f_branch2a"
  top: "res4f_branch2a"
}
layer {
  name: "res4f_branch2b"
  type: "Convolution"
  bottom: "res4f_branch2a"
  top: "res4f_branch2b"
  convolution_param {
    num_output: 256
    bias_term: false
    pad: 1
    kernel_size: 3
    stride: 1
  }
}
layer {
  name: "bn4f_branch2b"
  type: "BatchNorm"
  bottom: "res4f_branch2b"
  top: "res4f_branch2b"
  batch_norm_param {
    use_global_stats: true
  }
}
layer {
  name: "scale4f_branch2b"
  type: "Scale"
  bottom: "res4f_branch2b"
  top: "res4f_branch2b"
  scale_param {
    bias_term: true
  }
}
layer {
  name: "res4f_branch2b_relu"
  type: "ReLU"
  bottom: "res4f_branch2b"
  top: "res4f_branch2b"
}
layer {
  name: "res4f_branch2c"
  type: "Convolution"
  bottom: "res4f_branch2b"
  top: "res4f_branch2c"
  convolution_param {
    num_output: 1024
    bias_term: false
    pad: 0
    kernel_size: 1
    stride: 1
  }
}
layer {
  name: "bn4f_branch2c"
  type: "BatchNorm"
  bottom: "res4f_branch2c"
  top: "res4f_branch2c"
  batch_norm_param {
    use_global_stats: true
  }
}
layer {
  name: "scale4f_branch2c"
  type: "Scale"
  bottom: "res4f_branch2c"
  top: "res4f_branch2c"
  scale_param {
    bias_term: true
  }
}
layer {
  name: "res4f"
  type: "Eltwise"
  bottom: "res4e"
  bottom: "res4f_branch2c"
  top: "res4f"
}
layer {
  name: "res4f_relu"
  type: "ReLU"
  bottom: "res4f"
  top: "res4f"
}
layer {
  name: "res5a_branch1"
  type: "Convolution"
  bottom: "res4f"
  top: "res5a_branch1"
  convolution_param {
    num_output: 2048
    bias_term: false
    pad: 0
    kernel_size: 1
    stride: 2
  }
}
layer {
  name: "bn5a_branch1"
  type: "BatchNorm"
  bottom: "res5a_branch1"
  top: "res5a_branch1"
  batch_norm_param {
    use_global_stats: true
  }
}
layer {
  name: "scale5a_branch1"
  type: "Scale"
  bottom: "res5a_branch1"
  top: "res5a_branch1"
  scale_param {
    bias_term: true
  }
}
layer {
  name: "res5a_branch2a"
  type: "Convolution"
  bottom: "res4f"
  top: "res5a_branch2a"
  convolution_param {
    num_output: 512
    bias_term: false
    pad: 0
    kernel_size: 1
    stride: 2
  }
}
layer {
  name: "bn5a_branch2a"
  type: "BatchNorm"
  bottom: "res5a_branch2a"
  top: "res5a_branch2a"
  batch_norm_param {
    use_global_stats: true
  }
}
layer {
  name: "scale5a_branch2a"
  type: "Scale"
  bottom: "res5a_branch2a"
  top: "res5a_branch2a"
  scale_param {
    bias_term: true
  }
}
layer {
  name: "res5a_branch2a_relu"
  type: "ReLU"
  bottom: "res5a_branch2a"
  top: "res5a_branch2a"
}
layer {
  name: "res5a_branch2b"
  type: "Convolution"
  bottom: "res5a_branch2a"
  top: "res5a_branch2b"
  convolution_param {
    num_output: 512
    bias_term: false
    pad: 1
    kernel_size: 3
    stride: 1
  }
}
layer {
  name: "bn5a_branch2b"
  type: "BatchNorm"
  bottom: "res5a_branch2b"
  top: "res5a_branch2b"
  batch_norm_param {
    use_global_stats: true
  }
}
layer {
  name: "scale5a_branch2b"
  type: "Scale"
  bottom: "res5a_branch2b"
  top: "res5a_branch2b"
  scale_param {
    bias_term: true
  }
}
layer {
  name: "res5a_branch2b_relu"
  type: "ReLU"
  bottom: "res5a_branch2b"
  top: "res5a_branch2b"
}
layer {
  name: "res5a_branch2c"
  type: "Convolution"
  bottom: "res5a_branch2b"
  top: "res5a_branch2c"
  convolution_param {
    num_output: 2048
    bias_term: false
    pad: 0
    kernel_size: 1
    stride: 1
  }
}
layer {
  name: "bn5a_branch2c
I0503 20:29:48.366266 124174 layer_factory.hpp:77] Creating layer data
I0503 20:29:48.387815 124174 net.cpp:106] Creating Layer data
I0503 20:29:48.387850 124174 net.cpp:411] data -> data
I0503 20:29:48.387881 124174 net.cpp:411] data -> label
I0503 20:29:48.387897 124174 data_transformer.cpp:25] Loading mean file from: /home/hzhang57/NEW_WORLD/Project_4_ROOT/CODES/RC_497/Param/mean.binaryproto
I0503 20:29:48.389255 124250 db_lmdb.cpp:38] Opened lmdb /home/hzhang57/NEW_WORLD/Project_4_ROOT/CODES/RC_497/Param/RC-train.leveldb
I0503 20:29:48.398223 124174 data_layer.cpp:41] output data size: 20,3,224,224
I0503 20:29:48.416349 124174 net.cpp:150] Setting up data
I0503 20:29:48.416400 124174 net.cpp:157] Top shape: 20 3 224 224 (3010560)
I0503 20:29:48.416409 124174 net.cpp:157] Top shape: 20 (20)
I0503 20:29:48.416414 124174 net.cpp:165] Memory required for data: 12042320
I0503 20:29:48.416427 124174 layer_factory.hpp:77] Creating layer conv1
I0503 20:29:48.416460 124174 net.cpp:106] Creating Layer conv1
I0503 20:29:48.416471 124174 net.cpp:454] conv1 <- data
I0503 20:29:48.416486 124174 net.cpp:411] conv1 -> conv1
I0503 20:29:48.417399 124174 net.cpp:150] Setting up conv1
I0503 20:29:48.417417 124174 net.cpp:157] Top shape: 20 64 112 112 (16056320)
I0503 20:29:48.417423 124174 net.cpp:165] Memory required for data: 76267600
I0503 20:29:48.417439 124174 layer_factory.hpp:77] Creating layer bn_conv1
I0503 20:29:48.417455 124174 net.cpp:106] Creating Layer bn_conv1
I0503 20:29:48.417461 124174 net.cpp:454] bn_conv1 <- conv1
I0503 20:29:48.417469 124174 net.cpp:397] bn_conv1 -> conv1 (in-place)
I0503 20:29:48.417623 124174 net.cpp:150] Setting up bn_conv1
I0503 20:29:48.417634 124174 net.cpp:157] Top shape: 20 64 112 112 (16056320)
I0503 20:29:48.417652 124174 net.cpp:165] Memory required for data: 140492880
I0503 20:29:48.417666 124174 layer_factory.hpp:77] Creating layer scale_conv1
I0503 20:29:48.417680 124174 net.cpp:106] Creating Layer scale_conv1
I0503 20:29:48.417685 124174 net.cpp:454] scale_conv1 <- conv1
I0503 20:29:48.417692 124174 net.cpp:397] scale_conv1 -> conv1 (in-place)
I0503 20:29:48.417734 124174 layer_factory.hpp:77] Creating layer scale_conv1
I0503 20:29:48.417845 124174 net.cpp:150] Setting up scale_conv1
I0503 20:29:48.417855 124174 net.cpp:157] Top shape: 20 64 112 112 (16056320)
I0503 20:29:48.417860 124174 net.cpp:165] Memory required for data: 204718160
I0503 20:29:48.417867 124174 layer_factory.hpp:77] Creating layer conv1_relu
I0503 20:29:48.417877 124174 net.cpp:106] Creating Layer conv1_relu
I0503 20:29:48.417882 124174 net.cpp:454] conv1_relu <- conv1
I0503 20:29:48.417889 124174 net.cpp:397] conv1_relu -> conv1 (in-place)
I0503 20:29:48.417897 124174 net.cpp:150] Setting up conv1_relu
I0503 20:29:48.417903 124174 net.cpp:157] Top shape: 20 64 112 112 (16056320)
I0503 20:29:48.417908 124174 net.cpp:165] Memory required for data: 268943440
I0503 20:29:48.417912 124174 layer_factory.hpp:77] Creating layer pool1
I0503 20:29:48.417920 124174 net.cpp:106] Creating Layer pool1
I0503 20:29:48.417925 124174 net.cpp:454] pool1 <- conv1
I0503 20:29:48.417932 124174 net.cpp:411] pool1 -> pool1
I0503 20:29:48.417978 124174 net.cpp:150] Setting up pool1
I0503 20:29:48.417987 124174 net.cpp:157] Top shape: 20 64 56 56 (4014080)
I0503 20:29:48.417991 124174 net.cpp:165] Memory required for data: 284999760
I0503 20:29:48.417996 124174 layer_factory.hpp:77] Creating layer pool1_pool1_0_split
I0503 20:29:48.418004 124174 net.cpp:106] Creating Layer pool1_pool1_0_split
I0503 20:29:48.418009 124174 net.cpp:454] pool1_pool1_0_split <- pool1
I0503 20:29:48.418015 124174 net.cpp:411] pool1_pool1_0_split -> pool1_pool1_0_split_0
I0503 20:29:48.418025 124174 net.cpp:411] pool1_pool1_0_split -> pool1_pool1_0_split_1
I0503 20:29:48.418054 124174 net.cpp:150] Setting up pool1_pool1_0_split
I0503 20:29:48.418062 124174 net.cpp:157] Top shape: 20 64 56 56 (4014080)
I0503 20:29:48.418068 124174 net.cpp:157] Top shape: 20 64 56 56 (4014080)
I0503 20:29:48.418072 124174 net.cpp:165] Memory required for data: 317112400
I0503 20:29:48.418077 124174 layer_factory.hpp:77] Creating layer res2a_branch1
I0503 20:29:48.418087 124174 net.cpp:106] Creating Layer res2a_branch1
I0503 20:29:48.418092 124174 net.cpp:454] res2a_branch1 <- pool1_pool1_0_split_0
I0503 20:29:48.418098 124174 net.cpp:411] res2a_branch1 -> res2a_branch1
I0503 20:29:48.418241 124174 net.cpp:150] Setting up res2a_branch1
I0503 20:29:48.418251 124174 net.cpp:157] Top shape: 20 256 56 56 (16056320)
I0503 20:29:48.418256 124174 net.cpp:165] Memory required for data: 381337680
I0503 20:29:48.418262 124174 layer_factory.hpp:77] Creating layer bn2a_branch1
I0503 20:29:48.418270 124174 net.cpp:106] Creating Layer bn2a_branch1
I0503 20:29:48.418275 124174 net.cpp:454] bn2a_branch1 <- res2a_branch1
I0503 20:29:48.418283 124174 net.cpp:397] bn2a_branch1 -> res2a_branch1 (in-place)
I0503 20:29:48.419033 124174 net.cpp:150] Setting up bn2a_branch1
I0503 20:29:48.419049 124174 net.cpp:157] Top shape: 20 256 56 56 (16056320)
I0503 20:29:48.419066 124174 net.cpp:165] Memory required for data: 445562960
I0503 20:29:48.419080 124174 layer_factory.hpp:77] Creating layer scale2a_branch1
I0503 20:29:48.419088 124174 net.cpp:106] Creating Layer scale2a_branch1
I0503 20:29:48.419093 124174 net.cpp:454] scale2a_branch1 <- res2a_branch1
I0503 20:29:48.419100 124174 net.cpp:397] scale2a_branch1 -> res2a_branch1 (in-place)
I0503 20:29:48.420364 124174 layer_factory.hpp:77] Creating layer scale2a_branch1
I0503 20:29:48.420480 124174 net.cpp:150] Setting up scale2a_branch1
I0503 20:29:48.420491 124174 net.cpp:157] Top shape: 20 256 56 56 (16056320)
I0503 20:29:48.420495 124174 net.cpp:165] Memory required for data: 509788240
I0503 20:29:48.420503 124174 layer_factory.hpp:77] Creating layer res2a_branch2a
I0503 20:29:48.420518 124174 net.cpp:106] Creating Layer res2a_branch2a
I0503 20:29:48.420529 124174 net.cpp:454] res2a_branch2a <- pool1_pool1_0_split_1
I0503 20:29:48.420538 124174 net.cpp:411] res2a_branch2a -> res2a_branch2a
I0503 20:29:48.420677 124174 net.cpp:150] Setting up res2a_branch2a
I0503 20:29:48.420687 124174 net.cpp:157] Top shape: 20 64 56 56 (4014080)
I0503 20:29:48.420692 124174 net.cpp:165] Memory required for data: 525844560
I0503 20:29:48.420698 124174 layer_factory.hpp:77] Creating layer bn2a_branch2a
I0503 20:29:48.420706 124174 net.cpp:106] Creating Layer bn2a_branch2a
I0503 20:29:48.420711 124174 net.cpp:454] bn2a_branch2a <- res2a_branch2a
I0503 20:29:48.420718 124174 net.cpp:397] bn2a_branch2a -> res2a_branch2a (in-place)
I0503 20:29:48.420851 124174 net.cpp:150] Setting up bn2a_branch2a
I0503 20:29:48.420861 124174 net.cpp:157] Top shape: 20 64 56 56 (4014080)
I0503 20:29:48.420864 124174 net.cpp:165] Memory required for data: 541900880
I0503 20:29:48.420876 124174 layer_factory.hpp:77] Creating layer scale2a_branch2a
I0503 20:29:48.420884 124174 net.cpp:106] Creating Layer scale2a_branch2a
I0503 20:29:48.420889 124174 net.cpp:454] scale2a_branch2a <- res2a_branch2a
I0503 20:29:48.420897 124174 net.cpp:397] scale2a_branch2a -> res2a_branch2a (in-place)
I0503 20:29:48.420931 124174 layer_factory.hpp:77] Creating layer scale2a_branch2a
I0503 20:29:48.421023 124174 net.cpp:150] Setting up scale2a_branch2a
I0503 20:29:48.421032 124174 net.cpp:157] Top shape: 20 64 56 56 (4014080)
I0503 20:29:48.421037 124174 net.cpp:165] Memory required for data: 557957200
I0503 20:29:48.421044 124174 layer_factory.hpp:77] Creating layer res2a_branch2a_relu
I0503 20:29:48.421052 124174 net.cpp:106] Creating Layer res2a_branch2a_relu
I0503 20:29:48.421057 124174 net.cpp:454] res2a_branch2a_relu <- res2a_branch2a
I0503 20:29:48.421063 124174 net.cpp:397] res2a_branch2a_relu -> res2a_branch2a (in-place)
I0503 20:29:48.421071 124174 net.cpp:150] Setting up res2a_branch2a_relu
I0503 20:29:48.421077 124174 net.cpp:157] Top shape: 20 64 56 56 (4014080)
I0503 20:29:48.421080 124174 net.cpp:165] Memory required for data: 574013520
I0503 20:29:48.421085 124174 layer_factory.hpp:77] Creating layer res2a_branch2b
I0503 20:29:48.421093 124174 net.cpp:106] Creating Layer res2a_branch2b
I0503 20:29:48.421098 124174 net.cpp:454] res2a_branch2b <- res2a_branch2a
I0503 20:29:48.421105 124174 net.cpp:411] res2a_branch2b -> res2a_branch2b
I0503 20:29:48.421730 124174 net.cpp:150] Setting up res2a_branch2b
I0503 20:29:48.421746 124174 net.cpp:157] Top shape: 20 64 56 56 (4014080)
I0503 20:29:48.421751 124174 net.cpp:165] Memory required for data: 590069840
I0503 20:29:48.421757 124174 layer_factory.hpp:77] Creating layer bn2a_branch2b
I0503 20:29:48.421766 124174 net.cpp:106] Creating Layer bn2a_branch2b
I0503 20:29:48.421771 124174 net.cpp:454] bn2a_branch2b <- res2a_branch2b
I0503 20:29:48.421777 124174 net.cpp:397] bn2a_branch2b -> res2a_branch2b (in-place)
I0503 20:29:48.421939 124174 net.cpp:150] Setting up bn2a_branch2b
I0503 20:29:48.421948 124174 net.cpp:157] Top shape: 20 64 56 56 (4014080)
I0503 20:29:48.421953 124174 net.cpp:165] Memory required for data: 606126160
I0503 20:29:48.421962 124174 layer_factory.hpp:77] Creating layer scale2a_branch2b
I0503 20:29:48.421972 124174 net.cpp:106] Creating Layer scale2a_branch2b
I0503 20:29:48.421977 124174 net.cpp:454] scale2a_branch2b <- res2a_branch2b
I0503 20:29:48.421983 124174 net.cpp:397] scale2a_branch2b -> res2a_branch2b (in-place)
I0503 20:29:48.422019 124174 layer_factory.hpp:77] Creating layer scale2a_branch2b
I0503 20:29:48.422125 124174 net.cpp:150] Setting up scale2a_branch2b
I0503 20:29:48.422134 124174 net.cpp:157] Top shape: 20 64 56 56 (4014080)
I0503 20:29:48.422139 124174 net.cpp:165] Memory required for data: 622182480
I0503 20:29:48.422147 124174 layer_factory.hpp:77] Creating layer res2a_branch2b_relu
I0503 20:29:48.422153 124174 net.cpp:106] Creating Layer res2a_branch2b_relu
I0503 20:29:48.422158 124174 net.cpp:454] res2a_branch2b_relu <- res2a_branch2b
I0503 20:29:48.422164 124174 net.cpp:397] res2a_branch2b_relu -> res2a_branch2b (in-place)
I0503 20:29:48.422178 124174 net.cpp:150] Setting up res2a_branch2b_relu
I0503 20:29:48.422184 124174 net.cpp:157] Top shape: 20 64 56 56 (4014080)
I0503 20:29:48.422188 124174 net.cpp:165] Memory required for data: 638238800
I0503 20:29:48.422193 124174 layer_factory.hpp:77] Creating layer res2a_branch2c
I0503 20:29:48.422201 124174 net.cpp:106] Creating Layer res2a_branch2c
I0503 20:29:48.422205 124174 net.cpp:454] res2a_branch2c <- res2a_branch2b
I0503 20:29:48.422212 124174 net.cpp:411] res2a_branch2c -> res2a_branch2c
I0503 20:29:48.422351 124174 net.cpp:150] Setting up res2a_branch2c
I0503 20:29:48.422361 124174 net.cpp:157] Top shape: 20 256 56 56 (16056320)
I0503 20:29:48.422365 124174 net.cpp:165] Memory required for data: 702464080
I0503 20:29:48.422371 124174 layer_factory.hpp:77] Creating layer bn2a_branch2c
I0503 20:29:48.422379 124174 net.cpp:106] Creating Layer bn2a_branch2c
I0503 20:29:48.422384 124174 net.cpp:454] bn2a_branch2c <- res2a_branch2c
I0503 20:29:48.422391 124174 net.cpp:397] bn2a_branch2c -> res2a_branch2c (in-place)
I0503 20:29:48.422524 124174 net.cpp:150] Setting up bn2a_branch2c
I0503 20:29:48.422533 124174 net.cpp:157] Top shape: 20 256 56 56 (16056320)
I0503 20:29:48.422538 124174 net.cpp:165] Memory required for data: 766689360
I0503 20:29:48.422545 124174 layer_factory.hpp:77] Creating layer scale2a_branch2c
I0503 20:29:48.422554 124174 net.cpp:106] Creating Layer scale2a_branch2c
I0503 20:29:48.422559 124174 net.cpp:454] scale2a_branch2c <- res2a_branch2c
I0503 20:29:48.422565 124174 net.cpp:397] scale2a_branch2c -> res2a_branch2c (in-place)
I0503 20:29:48.422600 124174 layer_factory.hpp:77] Creating layer scale2a_branch2c
I0503 20:29:48.422688 124174 net.cpp:150] Setting up scale2a_branch2c
I0503 20:29:48.422696 124174 net.cpp:157] Top shape: 20 256 56 56 (16056320)
I0503 20:29:48.422700 124174 net.cpp:165] Memory required for data: 830914640
I0503 20:29:48.422708 124174 layer_factory.hpp:77] Creating layer res2a
I0503 20:29:48.422715 124174 net.cpp:106] Creating Layer res2a
I0503 20:29:48.422720 124174 net.cpp:454] res2a <- res2a_branch1
I0503 20:29:48.422725 124174 net.cpp:454] res2a <- res2a_branch2c
I0503 20:29:48.422732 124174 net.cpp:411] res2a -> res2a
I0503 20:29:48.422756 124174 net.cpp:150] Setting up res2a
I0503 20:29:48.422765 124174 net.cpp:157] Top shape: 20 256 56 56 (16056320)
I0503 20:29:48.422768 124174 net.cpp:165] Memory required for data: 895139920
I0503 20:29:48.422773 124174 layer_factory.hpp:77] Creating layer res2a_relu
I0503 20:29:48.422780 124174 net.cpp:106] Creating Layer res2a_relu
I0503 20:29:48.422785 124174 net.cpp:454] res2a_relu <- res2a
I0503 20:29:48.422791 124174 net.cpp:397] res2a_relu -> res2a (in-place)
I0503 20:29:48.422798 124174 net.cpp:150] Setting up res2a_relu
I0503 20:29:48.422804 124174 net.cpp:157] Top shape: 20 256 56 56 (16056320)
I0503 20:29:48.422808 124174 net.cpp:165] Memory required for data: 959365200
I0503 20:29:48.422812 124174 layer_factory.hpp:77] Creating layer res2a_res2a_relu_0_split
I0503 20:29:48.422818 124174 net.cpp:106] Creating Layer res2a_res2a_relu_0_split
I0503 20:29:48.422823 124174 net.cpp:454] res2a_res2a_relu_0_split <- res2a
I0503 20:29:48.422829 124174 net.cpp:411] res2a_res2a_relu_0_split -> res2a_res2a_relu_0_split_0
I0503 20:29:48.422837 124174 net.cpp:411] res2a_res2a_relu_0_split -> res2a_res2a_relu_0_split_1
I0503 20:29:48.422865 124174 net.cpp:150] Setting up res2a_res2a_relu_0_split
I0503 20:29:48.422873 124174 net.cpp:157] Top shape: 20 256 56 56 (16056320)
I0503 20:29:48.422878 124174 net.cpp:157] Top shape: 20 256 56 56 (16056320)
I0503 20:29:48.422883 124174 net.cpp:165] Memory required for data: 1087815760
I0503 20:29:48.422888 124174 layer_factory.hpp:77] Creating layer res2b_branch2a
I0503 20:29:48.422895 124174 net.cpp:106] Creating Layer res2b_branch2a
I0503 20:29:48.422900 124174 net.cpp:454] res2b_branch2a <- res2a_res2a_relu_0_split_0
I0503 20:29:48.422907 124174 net.cpp:411] res2b_branch2a -> res2b_branch2a
I0503 20:29:48.423054 124174 net.cpp:150] Setting up res2b_branch2a
I0503 20:29:48.423065 124174 net.cpp:157] Top shape: 20 64 56 56 (4014080)
I0503 20:29:48.423069 124174 net.cpp:165] Memory required for data: 1103872080
I0503 20:29:48.423075 124174 layer_factory.hpp:77] Creating layer bn2b_branch2a
I0503 20:29:48.423084 124174 net.cpp:106] Creating Layer bn2b_branch2a
I0503 20:29:48.423089 124174 net.cpp:454] bn2b_branch2a <- res2b_branch2a
I0503 20:29:48.423095 124174 net.cpp:397] bn2b_branch2a -> res2b_branch2a (in-place)
I0503 20:29:48.423249 124174 net.cpp:150] Setting up bn2b_branch2a
I0503 20:29:48.423260 124174 net.cpp:157] Top shape: 20 64 56 56 (4014080)
I0503 20:29:48.423264 124174 net.cpp:165] Memory required for data: 1119928400
I0503 20:29:48.423280 124174 layer_factory.hpp:77] Creating layer scale2b_branch2a
I0503 20:29:48.423287 124174 net.cpp:106] Creating Layer scale2b_branch2a
I0503 20:29:48.423292 124174 net.cpp:454] scale2b_branch2a <- res2b_branch2a
I0503 20:29:48.423300 124174 net.cpp:397] scale2b_branch2a -> res2b_branch2a (in-place)
I0503 20:29:48.423336 124174 layer_factory.hpp:77] Creating layer scale2b_branch2a
I0503 20:29:48.423444 124174 net.cpp:150] Setting up scale2b_branch2a
I0503 20:29:48.423454 124174 net.cpp:157] Top shape: 20 64 56 56 (4014080)
I0503 20:29:48.423457 124174 net.cpp:165] Memory required for data: 1135984720
I0503 20:29:48.423465 124174 layer_factory.hpp:77] Creating layer res2b_branch2a_relu
I0503 20:29:48.423471 124174 net.cpp:106] Creating Layer res2b_branch2a_relu
I0503 20:29:48.423476 124174 net.cpp:454] res2b_branch2a_relu <- res2b_branch2a
I0503 20:29:48.423482 124174 net.cpp:397] res2b_branch2a_relu -> res2b_branch2a (in-place)
I0503 20:29:48.423490 124174 net.cpp:150] Setting up res2b_branch2a_relu
I0503 20:29:48.423496 124174 net.cpp:157] Top shape: 20 64 56 56 (4014080)
I0503 20:29:48.423499 124174 net.cpp:165] Memory required for data: 1152041040
I0503 20:29:48.423503 124174 layer_factory.hpp:77] Creating layer res2b_branch2b
I0503 20:29:48.423512 124174 net.cpp:106] Creating Layer res2b_branch2b
I0503 20:29:48.423516 124174 net.cpp:454] res2b_branch2b <- res2b_branch2a
I0503 20:29:48.423523 124174 net.cpp:411] res2b_branch2b -> res2b_branch2b
I0503 20:29:48.423677 124174 net.cpp:150] Setting up res2b_branch2b
I0503 20:29:48.423687 124174 net.cpp:157] Top shape: 20 64 56 56 (4014080)
I0503 20:29:48.423691 124174 net.cpp:165] Memory required for data: 1168097360
I0503 20:29:48.423697 124174 layer_factory.hpp:77] Creating layer bn2b_branch2b
I0503 20:29:48.423705 124174 net.cpp:106] Creating Layer bn2b_branch2b
I0503 20:29:48.423710 124174 net.cpp:454] bn2b_branch2b <- res2b_branch2b
I0503 20:29:48.423717 124174 net.cpp:397] bn2b_branch2b -> res2b_branch2b (in-place)
I0503 20:29:48.423858 124174 net.cpp:150] Setting up bn2b_branch2b
I0503 20:29:48.423867 124174 net.cpp:157] Top shape: 20 64 56 56 (4014080)
I0503 20:29:48.423872 124174 net.cpp:165] Memory required for data: 1184153680
I0503 20:29:48.423880 124174 layer_factory.hpp:77] Creating layer scale2b_branch2b
I0503 20:29:48.423887 124174 net.cpp:106] Creating Layer scale2b_branch2b
I0503 20:29:48.423892 124174 net.cpp:454] scale2b_branch2b <- res2b_branch2b
I0503 20:29:48.423898 124174 net.cpp:397] scale2b_branch2b -> res2b_branch2b (in-place)
I0503 20:29:48.423933 124174 layer_factory.hpp:77] Creating layer scale2b_branch2b
I0503 20:29:48.424026 124174 net.cpp:150] Setting up scale2b_branch2b
I0503 20:29:48.424033 124174 net.cpp:157] Top shape: 20 64 56 56 (4014080)
I0503 20:29:48.424038 124174 net.cpp:165] Memory required for data: 1200210000
I0503 20:29:48.424046 124174 layer_factory.hpp:77] Creating layer res2b_branch2b_relu
I0503 20:29:48.424052 124174 net.cpp:106] Creating Layer res2b_branch2b_relu
I0503 20:29:48.424057 124174 net.cpp:454] res2b_branch2b_relu <- res2b_branch2b
I0503 20:29:48.424063 124174 net.cpp:397] res2b_branch2b_relu -> res2b_branch2b (in-place)
I0503 20:29:48.424070 124174 net.cpp:150] Setting up res2b_branch2b_relu
I0503 20:29:48.424077 124174 net.cpp:157] Top shape: 20 64 56 56 (4014080)
I0503 20:29:48.424085 124174 net.cpp:165] Memory required for data: 1216266320
I0503 20:29:48.424090 124174 layer_factory.hpp:77] Creating layer res2b_branch2c
I0503 20:29:48.424100 124174 net.cpp:106] Creating Layer res2b_branch2c
I0503 20:29:48.424105 124174 net.cpp:454] res2b_branch2c <- res2b_branch2b
I0503 20:29:48.424111 124174 net.cpp:411] res2b_branch2c -> res2b_branch2c
I0503 20:29:48.424252 124174 net.cpp:150] Setting up res2b_branch2c
I0503 20:29:48.424262 124174 net.cpp:157] Top shape: 20 256 56 56 (16056320)
I0503 20:29:48.424265 124174 net.cpp:165] Memory required for data: 1280491600
I0503 20:29:48.424271 124174 layer_factory.hpp:77] Creating layer bn2b_branch2c
I0503 20:29:48.424279 124174 net.cpp:106] Creating Layer bn2b_branch2c
I0503 20:29:48.424284 124174 net.cpp:454] bn2b_branch2c <- res2b_branch2c
I0503 20:29:48.424290 124174 net.cpp:397] bn2b_branch2c -> res2b_branch2c (in-place)
I0503 20:29:48.424423 124174 net.cpp:150] Setting up bn2b_branch2c
I0503 20:29:48.424432 124174 net.cpp:157] Top shape: 20 256 56 56 (16056320)
I0503 20:29:48.424451 124174 net.cpp:165] Memory required for data: 1344716880
I0503 20:29:48.424459 124174 layer_factory.hpp:77] Creating layer scale2b_branch2c
I0503 20:29:48.424468 124174 net.cpp:106] Creating Layer scale2b_branch2c
I0503 20:29:48.424473 124174 net.cpp:454] scale2b_branch2c <- res2b_branch2c
I0503 20:29:48.424479 124174 net.cpp:397] scale2b_branch2c -> res2b_branch2c (in-place)
I0503 20:29:48.424513 124174 layer_factory.hpp:77] Creating layer scale2b_branch2c
I0503 20:29:48.424604 124174 net.cpp:150] Setting up scale2b_branch2c
I0503 20:29:48.424613 124174 net.cpp:157] Top shape: 20 256 56 56 (16056320)
I0503 20:29:48.424618 124174 net.cpp:165] Memory required for data: 1408942160
I0503 20:29:48.424626 124174 layer_factory.hpp:77] Creating layer res2b
I0503 20:29:48.424646 124174 net.cpp:106] Creating Layer res2b
I0503 20:29:48.424651 124174 net.cpp:454] res2b <- res2a_res2a_relu_0_split_1
I0503 20:29:48.424657 124174 net.cpp:454] res2b <- res2b_branch2c
I0503 20:29:48.424664 124174 net.cpp:411] res2b -> res2b
I0503 20:29:48.424688 124174 net.cpp:150] Setting up res2b
I0503 20:29:48.424697 124174 net.cpp:157] Top shape: 20 256 56 56 (16056320)
I0503 20:29:48.424702 124174 net.cpp:165] Memory required for data: 1473167440
I0503 20:29:48.424706 124174 layer_factory.hpp:77] Creating layer res2b_relu
I0503 20:29:48.424715 124174 net.cpp:106] Creating Layer res2b_relu
I0503 20:29:48.424718 124174 net.cpp:454] res2b_relu <- res2b
I0503 20:29:48.424726 124174 net.cpp:397] res2b_relu -> res2b (in-place)
I0503 20:29:48.424732 124174 net.cpp:150] Setting up res2b_relu
I0503 20:29:48.424738 124174 net.cpp:157] Top shape: 20 256 56 56 (16056320)
I0503 20:29:48.424743 124174 net.cpp:165] Memory required for data: 1537392720
I0503 20:29:48.424747 124174 layer_factory.hpp:77] Creating layer res2b_res2b_relu_0_split
I0503 20:29:48.424753 124174 net.cpp:106] Creating Layer res2b_res2b_relu_0_split
I0503 20:29:48.424758 124174 net.cpp:454] res2b_res2b_relu_0_split <- res2b
I0503 20:29:48.424764 124174 net.cpp:411] res2b_res2b_relu_0_split -> res2b_res2b_relu_0_split_0
I0503 20:29:48.424772 124174 net.cpp:411] res2b_res2b_relu_0_split -> res2b_res2b_relu_0_split_1
I0503 20:29:48.424801 124174 net.cpp:150] Setting up res2b_res2b_relu_0_split
I0503 20:29:48.424809 124174 net.cpp:157] Top shape: 20 256 56 56 (16056320)
I0503 20:29:48.424815 124174 net.cpp:157] Top shape: 20 256 56 56 (16056320)
I0503 20:29:48.424819 124174 net.cpp:165] Memory required for data: 1665843280
I0503 20:29:48.424824 124174 layer_factory.hpp:77] Creating layer res2c_branch2a
I0503 20:29:48.424832 124174 net.cpp:106] Creating Layer res2c_branch2a
I0503 20:29:48.424850 124174 net.cpp:454] res2c_branch2a <- res2b_res2b_relu_0_split_0
I0503 20:29:48.424859 124174 net.cpp:411] res2c_branch2a -> res2c_branch2a
I0503 20:29:48.425000 124174 net.cpp:150] Setting up res2c_branch2a
I0503 20:29:48.425009 124174 net.cpp:157] Top shape: 20 64 56 56 (4014080)
I0503 20:29:48.425014 124174 net.cpp:165] Memory required for data: 1681899600
I0503 20:29:48.425025 124174 layer_factory.hpp:77] Creating layer bn2c_branch2a
I0503 20:29:48.425034 124174 net.cpp:106] Creating Layer bn2c_branch2a
I0503 20:29:48.425039 124174 net.cpp:454] bn2c_branch2a <- res2c_branch2a
I0503 20:29:48.425045 124174 net.cpp:397] bn2c_branch2a -> res2c_branch2a (in-place)
I0503 20:29:48.425186 124174 net.cpp:150] Setting up bn2c_branch2a
I0503 20:29:48.425195 124174 net.cpp:157] Top shape: 20 64 56 56 (4014080)
I0503 20:29:48.425199 124174 net.cpp:165] Memory required for data: 1697955920
I0503 20:29:48.425207 124174 layer_factory.hpp:77] Creating layer scale2c_branch2a
I0503 20:29:48.425215 124174 net.cpp:106] Creating Layer scale2c_branch2a
I0503 20:29:48.425220 124174 net.cpp:454] scale2c_branch2a <- res2c_branch2a
I0503 20:29:48.425230 124174 net.cpp:397] scale2c_branch2a -> res2c_branch2a (in-place)
I0503 20:29:48.425266 124174 layer_factory.hpp:77] Creating layer scale2c_branch2a
I0503 20:29:48.425362 124174 net.cpp:150] Setting up scale2c_branch2a
I0503 20:29:48.425371 124174 net.cpp:157] Top shape: 20 64 56 56 (4014080)
I0503 20:29:48.425376 124174 net.cpp:165] Memory required for data: 1714012240
I0503 20:29:48.425384 124174 layer_factory.hpp:77] Creating layer res2c_branch2a_relu
I0503 20:29:48.425392 124174 net.cpp:106] Creating Layer res2c_branch2a_relu
I0503 20:29:48.425397 124174 net.cpp:454] res2c_branch2a_relu <- res2c_branch2a
I0503 20:29:48.425403 124174 net.cpp:397] res2c_branch2a_relu -> res2c_branch2a (in-place)
I0503 20:29:48.425410 124174 net.cpp:150] Setting up res2c_branch2a_relu
I0503 20:29:48.425417 124174 net.cpp:157] Top shape: 20 64 56 56 (4014080)
I0503 20:29:48.425421 124174 net.cpp:165] Memory required for data: 1730068560
I0503 20:29:48.425426 124174 layer_factory.hpp:77] Creating layer res2c_branch2b
I0503 20:29:48.425433 124174 net.cpp:106] Creating Layer res2c_branch2b
I0503 20:29:48.425438 124174 net.cpp:454] res2c_branch2b <- res2c_branch2a
I0503 20:29:48.425446 124174 net.cpp:411] res2c_branch2b -> res2c_branch2b
I0503 20:29:48.425606 124174 net.cpp:150] Setting up res2c_branch2b
I0503 20:29:48.425617 124174 net.cpp:157] Top shape: 20 64 56 56 (4014080)
I0503 20:29:48.425621 124174 net.cpp:165] Memory required for data: 1746124880
I0503 20:29:48.425627 124174 layer_factory.hpp:77] Creating layer bn2c_branch2b
I0503 20:29:48.425635 124174 net.cpp:106] Creating Layer bn2c_branch2b
I0503 20:29:48.425639 124174 net.cpp:454] bn2c_branch2b <- res2c_branch2b
I0503 20:29:48.425647 124174 net.cpp:397] bn2c_branch2b -> res2c_branch2b (in-place)
I0503 20:29:48.425797 124174 net.cpp:150] Setting up bn2c_branch2b
I0503 20:29:48.425806 124174 net.cpp:157] Top shape: 20 64 56 56 (4014080)
I0503 20:29:48.425812 124174 net.cpp:165] Memory required for data: 1762181200
I0503 20:29:48.425819 124174 layer_factory.hpp:77] Creating layer scale2c_branch2b
I0503 20:29:48.425827 124174 net.cpp:106] Creating Layer scale2c_branch2b
I0503 20:29:48.425830 124174 net.cpp:454] scale2c_branch2b <- res2c_branch2b
I0503 20:29:48.425838 124174 net.cpp:397] scale2c_branch2b -> res2c_branch2b (in-place)
I0503 20:29:48.425873 124174 layer_factory.hpp:77] Creating layer scale2c_branch2b
I0503 20:29:48.425969 124174 net.cpp:150] Setting up scale2c_branch2b
I0503 20:29:48.425978 124174 net.cpp:157] Top shape: 20 64 56 56 (4014080)
I0503 20:29:48.425982 124174 net.cpp:165] Memory required for data: 1778237520
I0503 20:29:48.425989 124174 layer_factory.hpp:77] Creating layer res2c_branch2b_relu
I0503 20:29:48.425997 124174 net.cpp:106] Creating Layer res2c_branch2b_relu
I0503 20:29:48.426002 124174 net.cpp:454] res2c_branch2b_relu <- res2c_branch2b
I0503 20:29:48.426009 124174 net.cpp:397] res2c_branch2b_relu -> res2c_branch2b (in-place)
I0503 20:29:48.426017 124174 net.cpp:150] Setting up res2c_branch2b_relu
I0503 20:29:48.426023 124174 net.cpp:157] Top shape: 20 64 56 56 (4014080)
I0503 20:29:48.426028 124174 net.cpp:165] Memory required for data: 1794293840
I0503 20:29:48.426033 124174 layer_factory.hpp:77] Creating layer res2c_branch2c
I0503 20:29:48.426061 124174 net.cpp:106] Creating Layer res2c_branch2c
I0503 20:29:48.426070 124174 net.cpp:454] res2c_branch2c <- res2c_branch2b
I0503 20:29:48.426077 124174 net.cpp:411] res2c_branch2c -> res2c_branch2c
I0503 20:29:48.426229 124174 net.cpp:150] Setting up res2c_branch2c
I0503 20:29:48.426240 124174 net.cpp:157] Top shape: 20 256 56 56 (16056320)
I0503 20:29:48.426257 124174 net.cpp:165] Memory required for data: 1858519120
I0503 20:29:48.426265 124174 layer_factory.hpp:77] Creating layer bn2c_branch2c
I0503 20:29:48.426271 124174 net.cpp:106] Creating Layer bn2c_branch2c
I0503 20:29:48.426276 124174 net.cpp:454] bn2c_branch2c <- res2c_branch2c
I0503 20:29:48.426285 124174 net.cpp:397] bn2c_branch2c -> res2c_branch2c (in-place)
I0503 20:29:48.426426 124174 net.cpp:150] Setting up bn2c_branch2c
I0503 20:29:48.426435 124174 net.cpp:157] Top shape: 20 256 56 56 (16056320)
I0503 20:29:48.426440 124174 net.cpp:165] Memory required for data: 1922744400
I0503 20:29:48.426457 124174 layer_factory.hpp:77] Creating layer scale2c_branch2c
I0503 20:29:48.426465 124174 net.cpp:106] Creating Layer scale2c_branch2c
I0503 20:29:48.426470 124174 net.cpp:454] scale2c_branch2c <- res2c_branch2c
I0503 20:29:48.426476 124174 net.cpp:397] scale2c_branch2c -> res2c_branch2c (in-place)
I0503 20:29:48.426512 124174 layer_factory.hpp:77] Creating layer scale2c_branch2c
I0503 20:29:48.426604 124174 net.cpp:150] Setting up scale2c_branch2c
I0503 20:29:48.426614 124174 net.cpp:157] Top shape: 20 256 56 56 (16056320)
I0503 20:29:48.426619 124174 net.cpp:165] Memory required for data: 1986969680
I0503 20:29:48.426625 124174 layer_factory.hpp:77] Creating layer res2c
I0503 20:29:48.426633 124174 net.cpp:106] Creating Layer res2c
I0503 20:29:48.426638 124174 net.cpp:454] res2c <- res2b_res2b_relu_0_split_1
I0503 20:29:48.426645 124174 net.cpp:454] res2c <- res2c_branch2c
I0503 20:29:48.426651 124174 net.cpp:411] res2c -> res2c
I0503 20:29:48.426672 124174 net.cpp:150] Setting up res2c
I0503 20:29:48.426681 124174 net.cpp:157] Top shape: 20 256 56 56 (16056320)
I0503 20:29:48.426684 124174 net.cpp:165] Memory required for data: 2051194960
I0503 20:29:48.426689 124174 layer_factory.hpp:77] Creating layer res2c_relu
I0503 20:29:48.426697 124174 net.cpp:106] Creating Layer res2c_relu
I0503 20:29:48.426702 124174 net.cpp:454] res2c_relu <- res2c
I0503 20:29:48.426708 124174 net.cpp:397] res2c_relu -> res2c (in-place)
I0503 20:29:48.426714 124174 net.cpp:150] Setting up res2c_relu
I0503 20:29:48.426720 124174 net.cpp:157] Top shape: 20 256 56 56 (16056320)
I0503 20:29:48.426724 124174 net.cpp:165] Memory required for data: 2115420240
I0503 20:29:48.426729 124174 layer_factory.hpp:77] Creating layer res2c_res2c_relu_0_split
I0503 20:29:48.426735 124174 net.cpp:106] Creating Layer res2c_res2c_relu_0_split
I0503 20:29:48.426739 124174 net.cpp:454] res2c_res2c_relu_0_split <- res2c
I0503 20:29:48.426745 124174 net.cpp:411] res2c_res2c_relu_0_split -> res2c_res2c_relu_0_split_0
I0503 20:29:48.426753 124174 net.cpp:411] res2c_res2c_relu_0_split -> res2c_res2c_relu_0_split_1
I0503 20:29:48.426782 124174 net.cpp:150] Setting up res2c_res2c_relu_0_split
I0503 20:29:48.426790 124174 net.cpp:157] Top shape: 20 256 56 56 (16056320)
I0503 20:29:48.426796 124174 net.cpp:157] Top shape: 20 256 56 56 (16056320)
I0503 20:29:48.426800 124174 net.cpp:165] Memory required for data: 2243870800
I0503 20:29:48.426805 124174 layer_factory.hpp:77] Creating layer res3a_branch1
I0503 20:29:48.426812 124174 net.cpp:106] Creating Layer res3a_branch1
I0503 20:29:48.426817 124174 net.cpp:454] res3a_branch1 <- res2c_res2c_relu_0_split_0
I0503 20:29:48.426825 124174 net.cpp:411] res3a_branch1 -> res3a_branch1
I0503 20:29:48.427521 124174 net.cpp:150] Setting up res3a_branch1
I0503 20:29:48.427537 124174 net.cpp:157] Top shape: 20 512 28 28 (8028160)
I0503 20:29:48.427542 124174 net.cpp:165] Memory required for data: 2275983440
I0503 20:29:48.427549 124174 layer_factory.hpp:77] Creating layer bn3a_branch1
I0503 20:29:48.427557 124174 net.cpp:106] Creating Layer bn3a_branch1
I0503 20:29:48.427562 124174 net.cpp:454] bn3a_branch1 <- res3a_branch1
I0503 20:29:48.427573 124174 net.cpp:397] bn3a_branch1 -> res3a_branch1 (in-place)
I0503 20:29:48.428201 124174 net.cpp:150] Setting up bn3a_branch1
I0503 20:29:48.428217 124174 net.cpp:157] Top shape: 20 512 28 28 (8028160)
I0503 20:29:48.428222 124174 net.cpp:165] Memory required for data: 2308096080
I0503 20:29:48.428231 124174 layer_factory.hpp:77] Creating layer scale3a_branch1
I0503 20:29:48.428239 124174 net.cpp:106] Creating Layer scale3a_branch1
I0503 20:29:48.428244 124174 net.cpp:454] scale3a_branch1 <- res3a_branch1
I0503 20:29:48.428252 124174 net.cpp:397] scale3a_branch1 -> res3a_branch1 (in-place)
I0503 20:29:48.428292 124174 layer_factory.hpp:77] Creating layer scale3a_branch1
I0503 20:29:48.428385 124174 net.cpp:150] Setting up scale3a_branch1
I0503 20:29:48.428395 124174 net.cpp:157] Top shape: 20 512 28 28 (8028160)
I0503 20:29:48.428400 124174 net.cpp:165] Memory required for data: 2340208720
I0503 20:29:48.428406 124174 layer_factory.hpp:77] Creating layer res3a_branch2a
I0503 20:29:48.428417 124174 net.cpp:106] Creating Layer res3a_branch2a
I0503 20:29:48.428423 124174 net.cpp:454] res3a_branch2a <- res2c_res2c_relu_0_split_1
I0503 20:29:48.428429 124174 net.cpp:411] res3a_branch2a -> res3a_branch2a
I0503 20:29:48.428601 124174 net.cpp:150] Setting up res3a_branch2a
I0503 20:29:48.428612 124174 net.cpp:157] Top shape: 20 128 28 28 (2007040)
I0503 20:29:48.428617 124174 net.cpp:165] Memory required for data: 2348236880
I0503 20:29:48.428623 124174 layer_factory.hpp:77] Creating layer bn3a_branch2a
I0503 20:29:48.428632 124174 net.cpp:106] Creating Layer bn3a_branch2a
I0503 20:29:48.428638 124174 net.cpp:454] bn3a_branch2a <- res3a_branch2a
I0503 20:29:48.428644 124174 net.cpp:397] bn3a_branch2a -> res3a_branch2a (in-place)
I0503 20:29:48.428791 124174 net.cpp:150] Setting up bn3a_branch2a
I0503 20:29:48.428799 124174 net.cpp:157] Top shape: 20 128 28 28 (2007040)
I0503 20:29:48.428803 124174 net.cpp:165] Memory required for data: 2356265040
I0503 20:29:48.428812 124174 layer_factory.hpp:77] Creating layer scale3a_branch2a
I0503 20:29:48.428819 124174 net.cpp:106] Creating Layer scale3a_branch2a
I0503 20:29:48.428823 124174 net.cpp:454] scale3a_branch2a <- res3a_branch2a
I0503 20:29:48.428833 124174 net.cpp:397] scale3a_branch2a -> res3a_branch2a (in-place)
I0503 20:29:48.428865 124174 layer_factory.hpp:77] Creating layer scale3a_branch2a
I0503 20:29:48.428971 124174 net.cpp:150] Setting up scale3a_branch2a
I0503 20:29:48.428982 124174 net.cpp:157] Top shape: 20 128 28 28 (2007040)
I0503 20:29:48.428987 124174 net.cpp:165] Memory required for data: 2364293200
I0503 20:29:48.428993 124174 layer_factory.hpp:77] Creating layer res3a_branch2a_relu
I0503 20:29:48.429000 124174 net.cpp:106] Creating Layer res3a_branch2a_relu
I0503 20:29:48.429005 124174 net.cpp:454] res3a_branch2a_relu <- res3a_branch2a
I0503 20:29:48.429011 124174 net.cpp:397] res3a_branch2a_relu -> res3a_branch2a (in-place)
I0503 20:29:48.429018 124174 net.cpp:150] Setting up res3a_branch2a_relu
I0503 20:29:48.429024 124174 net.cpp:157] Top shape: 20 128 28 28 (2007040)
I0503 20:29:48.429028 124174 net.cpp:165] Memory required for data: 2372321360
I0503 20:29:48.429033 124174 layer_factory.hpp:77] Creating layer res3a_branch2b
I0503 20:29:48.429042 124174 net.cpp:106] Creating Layer res3a_branch2b
I0503 20:29:48.429046 124174 net.cpp:454] res3a_branch2b <- res3a_branch2a
I0503 20:29:48.429054 124174 net.cpp:411] res3a_branch2b -> res3a_branch2b
I0503 20:29:48.429797 124174 net.cpp:150] Setting up res3a_branch2b
I0503 20:29:48.429813 124174 net.cpp:157] Top shape: 20 128 28 28 (2007040)
I0503 20:29:48.429817 124174 net.cpp:165] Memory required for data: 2380349520
I0503 20:29:48.429824 124174 layer_factory.hpp:77] Creating layer bn3a_branch2b
I0503 20:29:48.429846 124174 net.cpp:106] Creating Layer bn3a_branch2b
I0503 20:29:48.429850 124174 net.cpp:454] bn3a_branch2b <- res3a_branch2b
I0503 20:29:48.429858 124174 net.cpp:397] bn3a_branch2b -> res3a_branch2b (in-place)
I0503 20:29:48.430007 124174 net.cpp:150] Setting up bn3a_branch2b
I0503 20:29:48.430022 124174 net.cpp:157] Top shape: 20 128 28 28 (2007040)
I0503 20:29:48.430027 124174 net.cpp:165] Memory required for data: 2388377680
I0503 20:29:48.430034 124174 layer_factory.hpp:77] Creating layer scale3a_branch2b
I0503 20:29:48.430042 124174 net.cpp:106] Creating Layer scale3a_branch2b
I0503 20:29:48.430047 124174 net.cpp:454] scale3a_branch2b <- res3a_branch2b
I0503 20:29:48.430052 124174 net.cpp:397] scale3a_branch2b -> res3a_branch2b (in-place)
I0503 20:29:48.430088 124174 layer_factory.hpp:77] Creating layer scale3a_branch2b
I0503 20:29:48.430179 124174 net.cpp:150] Setting up scale3a_branch2b
I0503 20:29:48.430188 124174 net.cpp:157] Top shape: 20 128 28 28 (2007040)
I0503 20:29:48.430192 124174 net.cpp:165] Memory required for data: 2396405840
I0503 20:29:48.430199 124174 layer_factory.hpp:77] Creating layer res3a_branch2b_relu
I0503 20:29:48.430208 124174 net.cpp:106] Creating Layer res3a_branch2b_relu
I0503 20:29:48.430212 124174 net.cpp:454] res3a_branch2b_relu <- res3a_branch2b
I0503 20:29:48.430218 124174 net.cpp:397] res3a_branch2b_relu -> res3a_branch2b (in-place)
I0503 20:29:48.430225 124174 net.cpp:150] Setting up res3a_branch2b_relu
I0503 20:29:48.430232 124174 net.cpp:157] Top shape: 20 128 28 28 (2007040)
I0503 20:29:48.430235 124174 net.cpp:165] Memory required for data: 2404434000
I0503 20:29:48.430259 124174 layer_factory.hpp:77] Creating layer res3a_branch2c
I0503 20:29:48.430269 124174 net.cpp:106] Creating Layer res3a_branch2c
I0503 20:29:48.430274 124174 net.cpp:454] res3a_branch2c <- res3a_branch2b
I0503 20:29:48.430281 124174 net.cpp:411] res3a_branch2c -> res3a_branch2c
I0503 20:29:48.430482 124174 net.cpp:150] Setting up res3a_branch2c
I0503 20:29:48.430495 124174 net.cpp:157] Top shape: 20 512 28 28 (8028160)
I0503 20:29:48.430498 124174 net.cpp:165] Memory required for data: 2436546640
I0503 20:29:48.430505 124174 layer_factory.hpp:77] Creating layer bn3a_branch2c
I0503 20:29:48.430518 124174 net.cpp:106] Creating Layer bn3a_branch2c
I0503 20:29:48.430524 124174 net.cpp:454] bn3a_branch2c <- res3a_branch2c
I0503 20:29:48.430531 124174 net.cpp:397] bn3a_branch2c -> res3a_branch2c (in-place)
I0503 20:29:48.430675 124174 net.cpp:150] Setting up bn3a_branch2c
I0503 20:29:48.430682 124174 net.cpp:157] Top shape: 20 512 28 28 (8028160)
I0503 20:29:48.430687 124174 net.cpp:165] Memory required for data: 2468659280
I0503 20:29:48.430696 124174 layer_factory.hpp:77] Creating layer scale3a_branch2c
I0503 20:29:48.430702 124174 net.cpp:106] Creating Layer scale3a_branch2c
I0503 20:29:48.430707 124174 net.cpp:454] scale3a_branch2c <- res3a_branch2c
I0503 20:29:48.430712 124174 net.cpp:397] scale3a_branch2c -> res3a_branch2c (in-place)
I0503 20:29:48.430750 124174 layer_factory.hpp:77] Creating layer scale3a_branch2c
I0503 20:29:48.430841 124174 net.cpp:150] Setting up scale3a_branch2c
I0503 20:29:48.430850 124174 net.cpp:157] Top shape: 20 512 28 28 (8028160)
I0503 20:29:48.430853 124174 net.cpp:165] Memory required for data: 2500771920
I0503 20:29:48.430861 124174 layer_factory.hpp:77] Creating layer res3a
I0503 20:29:48.430869 124174 net.cpp:106] Creating Layer res3a
I0503 20:29:48.430874 124174 net.cpp:454] res3a <- res3a_branch1
I0503 20:29:48.430879 124174 net.cpp:454] res3a <- res3a_branch2c
I0503 20:29:48.430887 124174 net.cpp:411] res3a -> res3a
I0503 20:29:48.430909 124174 net.cpp:150] Setting up res3a
I0503 20:29:48.430917 124174 net.cpp:157] Top shape: 20 512 28 28 (8028160)
I0503 20:29:48.430922 124174 net.cpp:165] Memory required for data: 2532884560
I0503 20:29:48.430925 124174 layer_factory.hpp:77] Creating layer res3a_relu
I0503 20:29:48.430933 124174 net.cpp:106] Creating Layer res3a_relu
I0503 20:29:48.430938 124174 net.cpp:454] res3a_relu <- res3a
I0503 20:29:48.430943 124174 net.cpp:397] res3a_relu -> res3a (in-place)
I0503 20:29:48.430950 124174 net.cpp:150] Setting up res3a_relu
I0503 20:29:48.430956 124174 net.cpp:157] Top shape: 20 512 28 28 (8028160)
I0503 20:29:48.430960 124174 net.cpp:165] Memory required for data: 2564997200
I0503 20:29:48.430968 124174 layer_factory.hpp:77] Creating layer res3a_res3a_relu_0_split
I0503 20:29:48.430974 124174 net.cpp:106] Creating Layer res3a_res3a_relu_0_split
I0503 20:29:48.430979 124174 net.cpp:454] res3a_res3a_relu_0_split <- res3a
I0503 20:29:48.430984 124174 net.cpp:411] res3a_res3a_relu_0_split -> res3a_res3a_relu_0_split_0
I0503 20:29:48.430991 124174 net.cpp:411] res3a_res3a_relu_0_split -> res3a_res3a_relu_0_split_1
I0503 20:29:48.431022 124174 net.cpp:150] Setting up res3a_res3a_relu_0_split
I0503 20:29:48.431030 124174 net.cpp:157] Top shape: 20 512 28 28 (8028160)
I0503 20:29:48.431035 124174 net.cpp:157] Top shape: 20 512 28 28 (8028160)
I0503 20:29:48.431040 124174 net.cpp:165] Memory required for data: 2629222480
I0503 20:29:48.431044 124174 layer_factory.hpp:77] Creating layer res3b_branch2a
I0503 20:29:48.431051 124174 net.cpp:106] Creating Layer res3b_branch2a
I0503 20:29:48.431056 124174 net.cpp:454] res3b_branch2a <- res3a_res3a_relu_0_split_0
I0503 20:29:48.431064 124174 net.cpp:411] res3b_branch2a -> res3b_branch2a
I0503 20:29:48.431735 124174 net.cpp:150] Setting up res3b_branch2a
I0503 20:29:48.431762 124174 net.cpp:157] Top shape: 20 128 28 28 (2007040)
I0503 20:29:48.431768 124174 net.cpp:165] Memory required for data: 2637250640
I0503 20:29:48.431776 124174 layer_factory.hpp:77] Creating layer bn3b_branch2a
I0503 20:29:48.431783 124174 net.cpp:106] Creating Layer bn3b_branch2a
I0503 20:29:48.431787 124174 net.cpp:454] bn3b_branch2a <- res3b_branch2a
I0503 20:29:48.431795 124174 net.cpp:397] bn3b_branch2a -> res3b_branch2a (in-place)
I0503 20:29:48.431943 124174 net.cpp:150] Setting up bn3b_branch2a
I0503 20:29:48.431952 124174 net.cpp:157] Top shape: 20 128 28 28 (2007040)
I0503 20:29:48.431957 124174 net.cpp:165] Memory required for data: 2645278800
I0503 20:29:48.431964 124174 layer_factory.hpp:77] Creating layer scale3b_branch2a
I0503 20:29:48.431972 124174 net.cpp:106] Creating Layer scale3b_branch2a
I0503 20:29:48.431977 124174 net.cpp:454] scale3b_branch2a <- res3b_branch2a
I0503 20:29:48.431982 124174 net.cpp:397] scale3b_branch2a -> res3b_branch2a (in-place)
I0503 20:29:48.432018 124174 layer_factory.hpp:77] Creating layer scale3b_branch2a
I0503 20:29:48.432114 124174 net.cpp:150] Setting up scale3b_branch2a
I0503 20:29:48.432124 124174 net.cpp:157] Top shape: 20 128 28 28 (2007040)
I0503 20:29:48.432128 124174 net.cpp:165] Memory required for data: 2653306960
I0503 20:29:48.432135 124174 layer_factory.hpp:77] Creating layer res3b_branch2a_relu
I0503 20:29:48.432144 124174 net.cpp:106] Creating Layer res3b_branch2a_relu
I0503 20:29:48.432149 124174 net.cpp:454] res3b_branch2a_relu <- res3b_branch2a
I0503 20:29:48.432154 124174 net.cpp:397] res3b_branch2a_relu -> res3b_branch2a (in-place)
I0503 20:29:48.432162 124174 net.cpp:150] Setting up res3b_branch2a_relu
I0503 20:29:48.432168 124174 net.cpp:157] Top shape: 20 128 28 28 (2007040)
I0503 20:29:48.432171 124174 net.cpp:165] Memory required for data: 2661335120
I0503 20:29:48.432175 124174 layer_factory.hpp:77] Creating layer res3b_branch2b
I0503 20:29:48.432183 124174 net.cpp:106] Creating Layer res3b_branch2b
I0503 20:29:48.432188 124174 net.cpp:454] res3b_branch2b <- res3b_branch2a
I0503 20:29:48.432194 124174 net.cpp:411] res3b_branch2b -> res3b_branch2b
I0503 20:29:48.432924 124174 net.cpp:150] Setting up res3b_branch2b
I0503 20:29:48.432940 124174 net.cpp:157] Top shape: 20 128 28 28 (2007040)
I0503 20:29:48.432945 124174 net.cpp:165] Memory required for data: 2669363280
I0503 20:29:48.432957 124174 layer_factory.hpp:77] Creating layer bn3b_branch2b
I0503 20:29:48.432965 124174 net.cpp:106] Creating Layer bn3b_branch2b
I0503 20:29:48.432970 124174 net.cpp:454] bn3b_branch2b <- res3b_branch2b
I0503 20:29:48.432977 124174 net.cpp:397] bn3b_branch2b -> res3b_branch2b (in-place)
I0503 20:29:48.433145 124174 net.cpp:150] Setting up bn3b_branch2b
I0503 20:29:48.433154 124174 net.cpp:157] Top shape: 20 128 28 28 (2007040)
I0503 20:29:48.433158 124174 net.cpp:165] Memory required for data: 2677391440
I0503 20:29:48.433172 124174 layer_factory.hpp:77] Creating layer scale3b_branch2b
I0503 20:29:48.433181 124174 net.cpp:106] Creating Layer scale3b_branch2b
I0503 20:29:48.433185 124174 net.cpp:454] scale3b_branch2b <- res3b_branch2b
I0503 20:29:48.433190 124174 net.cpp:397] scale3b_branch2b -> res3b_branch2b (in-place)
I0503 20:29:48.433228 124174 layer_factory.hpp:77] Creating layer scale3b_branch2b
I0503 20:29:48.433320 124174 net.cpp:150] Setting up scale3b_branch2b
I0503 20:29:48.433329 124174 net.cpp:157] Top shape: 20 128 28 28 (2007040)
I0503 20:29:48.433334 124174 net.cpp:165] Memory required for data: 2685419600
I0503 20:29:48.433341 124174 layer_factory.hpp:77] Creating layer res3b_branch2b_relu
I0503 20:29:48.433347 124174 net.cpp:106] Creating Layer res3b_branch2b_relu
I0503 20:29:48.433351 124174 net.cpp:454] res3b_branch2b_relu <- res3b_branch2b
I0503 20:29:48.433362 124174 net.cpp:397] res3b_branch2b_relu -> res3b_branch2b (in-place)
I0503 20:29:48.433369 124174 net.cpp:150] Setting up res3b_branch2b_relu
I0503 20:29:48.433375 124174 net.cpp:157] Top shape: 20 128 28 28 (2007040)
I0503 20:29:48.433379 124174 net.cpp:165] Memory required for data: 2693447760
I0503 20:29:48.433383 124174 layer_factory.hpp:77] Creating layer res3b_branch2c
I0503 20:29:48.433392 124174 net.cpp:106] Creating Layer res3b_branch2c
I0503 20:29:48.433395 124174 net.cpp:454] res3b_branch2c <- res3b_branch2b
I0503 20:29:48.433403 124174 net.cpp:411] res3b_branch2c -> res3b_branch2c
I0503 20:29:48.433588 124174 net.cpp:150] Setting up res3b_branch2c
I0503 20:29:48.433598 124174 net.cpp:157] Top shape: 20 512 28 28 (8028160)
I0503 20:29:48.433601 124174 net.cpp:165] Memory required for data: 2725560400
I0503 20:29:48.433607 124174 layer_factory.hpp:77] Creating layer bn3b_branch2c
I0503 20:29:48.433616 124174 net.cpp:106] Creating Layer bn3b_branch2c
I0503 20:29:48.433621 124174 net.cpp:454] bn3b_branch2c <- res3b_branch2c
I0503 20:29:48.433627 124174 net.cpp:397] bn3b_branch2c -> res3b_branch2c (in-place)
I0503 20:29:48.433776 124174 net.cpp:150] Setting up bn3b_branch2c
I0503 20:29:48.433785 124174 net.cpp:157] Top shape: 20 512 28 28 (8028160)
I0503 20:29:48.433789 124174 net.cpp:165] Memory required for data: 2757673040
I0503 20:29:48.433797 124174 layer_factory.hpp:77] Creating layer scale3b_branch2c
I0503 20:29:48.433804 124174 net.cpp:106] Creating Layer scale3b_branch2c
I0503 20:29:48.433809 124174 net.cpp:454] scale3b_branch2c <- res3b_branch2c
I0503 20:29:48.433820 124174 net.cpp:397] scale3b_branch2c -> res3b_branch2c (in-place)
I0503 20:29:48.433856 124174 layer_factory.hpp:77] Creating layer scale3b_branch2c
I0503 20:29:48.433946 124174 net.cpp:150] Setting up scale3b_branch2c
I0503 20:29:48.433956 124174 net.cpp:157] Top shape: 20 512 28 28 (8028160)
I0503 20:29:48.433960 124174 net.cpp:165] Memory required for data: 2789785680
I0503 20:29:48.433967 124174 layer_factory.hpp:77] Creating layer res3b
I0503 20:29:48.433974 124174 net.cpp:106] Creating Layer res3b
I0503 20:29:48.433979 124174 net.cpp:454] res3b <- res3a_res3a_relu_0_split_1
I0503 20:29:48.433984 124174 net.cpp:454] res3b <- res3b_branch2c
I0503 20:29:48.433990 124174 net.cpp:411] res3b -> res3b
I0503 20:29:48.434013 124174 net.cpp:150] Setting up res3b
I0503 20:29:48.434021 124174 net.cpp:157] Top shape: 20 512 28 28 (8028160)
I0503 20:29:48.434026 124174 net.cpp:165] Memory required for data: 2821898320
I0503 20:29:48.434031 124174 layer_factory.hpp:77] Creating layer res3b_relu
I0503 20:29:48.434038 124174 net.cpp:106] Creating Layer res3b_relu
I0503 20:29:48.434042 124174 net.cpp:454] res3b_relu <- res3b
I0503 20:29:48.434048 124174 net.cpp:397] res3b_relu -> res3b (in-place)
I0503 20:29:48.434054 124174 net.cpp:150] Setting up res3b_relu
I0503 20:29:48.434061 124174 net.cpp:157] Top shape: 20 512 28 28 (8028160)
I0503 20:29:48.434064 124174 net.cpp:165] Memory required for data: 2854010960
I0503 20:29:48.434069 124174 layer_factory.hpp:77] Creating layer res3b_res3b_relu_0_split
I0503 20:29:48.434074 124174 net.cpp:106] Creating Layer res3b_res3b_relu_0_split
I0503 20:29:48.434082 124174 net.cpp:454] res3b_res3b_relu_0_split <- res3b
I0503 20:29:48.434088 124174 net.cpp:411] res3b_res3b_relu_0_split -> res3b_res3b_relu_0_split_0
I0503 20:29:48.434098 124174 net.cpp:411] res3b_res3b_relu_0_split -> res3b_res3b_relu_0_split_1
I0503 20:29:48.434129 124174 net.cpp:150] Setting up res3b_res3b_relu_0_split
I0503 20:29:48.434137 124174 net.cpp:157] Top shape: 20 512 28 28 (8028160)
I0503 20:29:48.434142 124174 net.cpp:157] Top shape: 20 512 28 28 (8028160)
I0503 20:29:48.434146 124174 net.cpp:165] Memory required for data: 2918236240
I0503 20:29:48.434150 124174 layer_factory.hpp:77] Creating layer res3c_branch2a
I0503 20:29:48.434159 124174 net.cpp:106] Creating Layer res3c_branch2a
I0503 20:29:48.434178 124174 net.cpp:454] res3c_branch2a <- res3b_res3b_relu_0_split_0
I0503 20:29:48.434185 124174 net.cpp:411] res3c_branch2a -> res3c_branch2a
I0503 20:29:48.434372 124174 net.cpp:150] Setting up res3c_branch2a
I0503 20:29:48.434396 124174 net.cpp:157] Top shape: 20 128 28 28 (2007040)
I0503 20:29:48.434401 124174 net.cpp:165] Memory required for data: 2926264400
I0503 20:29:48.434407 124174 layer_factory.hpp:77] Creating layer bn3c_branch2a
I0503 20:29:48.434414 124174 net.cpp:106] Creating Layer bn3c_branch2a
I0503 20:29:48.434418 124174 net.cpp:454] bn3c_branch2a <- res3c_branch2a
I0503 20:29:48.434424 124174 net.cpp:397] bn3c_branch2a -> res3c_branch2a (in-place)
I0503 20:29:48.434576 124174 net.cpp:150] Setting up bn3c_branch2a
I0503 20:29:48.434586 124174 net.cpp:157] Top shape: 20 128 28 28 (2007040)
I0503 20:29:48.434589 124174 net.cpp:165] Memory required for data: 2934292560
I0503 20:29:48.434597 124174 layer_factory.hpp:77] Creating layer scale3c_branch2a
I0503 20:29:48.434604 124174 net.cpp:106] Creating Layer scale3c_branch2a
I0503 20:29:48.434609 124174 net.cpp:454] scale3c_branch2a <- res3c_branch2a
I0503 20:29:48.434615 124174 net.cpp:397] scale3c_branch2a -> res3c_branch2a (in-place)
I0503 20:29:48.434653 124174 layer_factory.hpp:77] Creating layer scale3c_branch2a
I0503 20:29:48.434744 124174 net.cpp:150] Setting up scale3c_branch2a
I0503 20:29:48.434753 124174 net.cpp:157] Top shape: 20 128 28 28 (2007040)
I0503 20:29:48.434757 124174 net.cpp:165] Memory required for data: 2942320720
I0503 20:29:48.434764 124174 layer_factory.hpp:77] Creating layer res3c_branch2a_relu
I0503 20:29:48.434773 124174 net.cpp:106] Creating Layer res3c_branch2a_relu
I0503 20:29:48.434778 124174 net.cpp:454] res3c_branch2a_relu <- res3c_branch2a
I0503 20:29:48.434783 124174 net.cpp:397] res3c_branch2a_relu -> res3c_branch2a (in-place)
I0503 20:29:48.434790 124174 net.cpp:150] Setting up res3c_branch2a_relu
I0503 20:29:48.434797 124174 net.cpp:157] Top shape: 20 128 28 28 (2007040)
I0503 20:29:48.434800 124174 net.cpp:165] Memory required for data: 2950348880
I0503 20:29:48.434804 124174 layer_factory.hpp:77] Creating layer res3c_branch2b
I0503 20:29:48.434813 124174 net.cpp:106] Creating Layer res3c_branch2b
I0503 20:29:48.434818 124174 net.cpp:454] res3c_branch2b <- res3c_branch2a
I0503 20:29:48.434824 124174 net.cpp:411] res3c_branch2b -> res3c_branch2b
I0503 20:29:48.435535 124174 net.cpp:150] Setting up res3c_branch2b
I0503 20:29:48.435550 124174 net.cpp:157] Top shape: 20 128 28 28 (2007040)
I0503 20:29:48.435555 124174 net.cpp:165] Memory required for data: 2958377040
I0503 20:29:48.435562 124174 layer_factory.hpp:77] Creating layer bn3c_branch2b
I0503 20:29:48.435570 124174 net.cpp:106] Creating Layer bn3c_branch2b
I0503 20:29:48.435575 124174 net.cpp:454] bn3c_branch2b <- res3c_branch2b
I0503 20:29:48.435582 124174 net.cpp:397] bn3c_branch2b -> res3c_branch2b (in-place)
I0503 20:29:48.435751 124174 net.cpp:150] Setting up bn3c_branch2b
I0503 20:29:48.435761 124174 net.cpp:157] Top shape: 20 128 28 28 (2007040)
I0503 20:29:48.435766 124174 net.cpp:165] Memory required for data: 2966405200
I0503 20:29:48.435776 124174 layer_factory.hpp:77] Creating layer scale3c_branch2b
I0503 20:29:48.435784 124174 net.cpp:106] Creating Layer scale3c_branch2b
I0503 20:29:48.435789 124174 net.cpp:454] scale3c_branch2b <- res3c_branch2b
I0503 20:29:48.435801 124174 net.cpp:397] scale3c_branch2b -> res3c_branch2b (in-place)
I0503 20:29:48.435843 124174 layer_factory.hpp:77] Creating layer scale3c_branch2b
I0503 20:29:48.435945 124174 net.cpp:150] Setting up scale3c_branch2b
I0503 20:29:48.435955 124174 net.cpp:157] Top shape: 20 128 28 28 (2007040)
I0503 20:29:48.435959 124174 net.cpp:165] Memory required for data: 2974433360
I0503 20:29:48.435966 124174 layer_factory.hpp:77] Creating layer res3c_branch2b_relu
I0503 20:29:48.435976 124174 net.cpp:106] Creating Layer res3c_branch2b_relu
I0503 20:29:48.435981 124174 net.cpp:454] res3c_branch2b_relu <- res3c_branch2b
I0503 20:29:48.435986 124174 net.cpp:397] res3c_branch2b_relu -> res3c_branch2b (in-place)
I0503 20:29:48.435993 124174 net.cpp:150] Setting up res3c_branch2b_relu
I0503 20:29:48.435999 124174 net.cpp:157] Top shape: 20 128 28 28 (2007040)
I0503 20:29:48.436004 124174 net.cpp:165] Memory required for data: 2982461520
I0503 20:29:48.436008 124174 layer_factory.hpp:77] Creating layer res3c_branch2c
I0503 20:29:48.436017 124174 net.cpp:106] Creating Layer res3c_branch2c
I0503 20:29:48.436022 124174 net.cpp:454] res3c_branch2c <- res3c_branch2b
I0503 20:29:48.436028 124174 net.cpp:411] res3c_branch2c -> res3c_branch2c
I0503 20:29:48.436204 124174 net.cpp:150] Setting up res3c_branch2c
I0503 20:29:48.436215 124174 net.cpp:157] Top shape: 20 512 28 28 (8028160)
I0503 20:29:48.436220 124174 net.cpp:165] Memory required for data: 3014574160
I0503 20:29:48.436226 124174 layer_factory.hpp:77] Creating layer bn3c_branch2c
I0503 20:29:48.436233 124174 net.cpp:106] Creating Layer bn3c_branch2c
I0503 20:29:48.436238 124174 net.cpp:454] bn3c_branch2c <- res3c_branch2c
I0503 20:29:48.436244 124174 net.cpp:397] bn3c_branch2c -> res3c_branch2c (in-place)
I0503 20:29:48.436393 124174 net.cpp:150] Setting up bn3c_branch2c
I0503 20:29:48.436401 124174 net.cpp:157] Top shape: 20 512 28 28 (8028160)
I0503 20:29:48.436406 124174 net.cpp:165] Memory required for data: 3046686800
I0503 20:29:48.436415 124174 layer_factory.hpp:77] Creating layer scale3c_branch2c
I0503 20:29:48.436422 124174 net.cpp:106] Creating Layer scale3c_branch2c
I0503 20:29:48.436427 124174 net.cpp:454] scale3c_branch2c <- res3c_branch2c
I0503 20:29:48.436439 124174 net.cpp:397] scale3c_branch2c -> res3c_branch2c (in-place)
I0503 20:29:48.436481 124174 layer_factory.hpp:77] Creating layer scale3c_branch2c
I0503 20:29:48.436573 124174 net.cpp:150] Setting up scale3c_branch2c
I0503 20:29:48.436583 124174 net.cpp:157] Top shape: 20 512 28 28 (8028160)
I0503 20:29:48.436586 124174 net.cpp:165] Memory required for data: 3078799440
I0503 20:29:48.436594 124174 layer_factory.hpp:77] Creating layer res3c
I0503 20:29:48.436601 124174 net.cpp:106] Creating Layer res3c
I0503 20:29:48.436605 124174 net.cpp:454] res3c <- res3b_res3b_relu_0_split_1
I0503 20:29:48.436611 124174 net.cpp:454] res3c <- res3c_branch2c
I0503 20:29:48.436619 124174 net.cpp:411] res3c -> res3c
I0503 20:29:48.436640 124174 net.cpp:150] Setting up res3c
I0503 20:29:48.436647 124174 net.cpp:157] Top shape: 20 512 28 28 (8028160)
I0503 20:29:48.436652 124174 net.cpp:165] Memory required for data: 3110912080
I0503 20:29:48.436656 124174 layer_factory.hpp:77] Creating layer res3c_relu
I0503 20:29:48.436666 124174 net.cpp:106] Creating Layer res3c_relu
I0503 20:29:48.436669 124174 net.cpp:454] res3c_relu <- res3c
I0503 20:29:48.436676 124174 net.cpp:397] res3c_relu -> res3c (in-place)
I0503 20:29:48.436682 124174 net.cpp:150] Setting up res3c_relu
I0503 20:29:48.436688 124174 net.cpp:157] Top shape: 20 512 28 28 (8028160)
I0503 20:29:48.436692 124174 net.cpp:165] Memory required for data: 3143024720
I0503 20:29:48.436697 124174 layer_factory.hpp:77] Creating layer res3c_res3c_relu_0_split
I0503 20:29:48.436702 124174 net.cpp:106] Creating Layer res3c_res3c_relu_0_split
I0503 20:29:48.436707 124174 net.cpp:454] res3c_res3c_relu_0_split <- res3c
I0503 20:29:48.436714 124174 net.cpp:411] res3c_res3c_relu_0_split -> res3c_res3c_relu_0_split_0
I0503 20:29:48.436722 124174 net.cpp:411] res3c_res3c_relu_0_split -> res3c_res3c_relu_0_split_1
I0503 20:29:48.436758 124174 net.cpp:150] Setting up res3c_res3c_relu_0_split
I0503 20:29:48.436766 124174 net.cpp:157] Top shape: 20 512 28 28 (8028160)
I0503 20:29:48.436772 124174 net.cpp:157] Top shape: 20 512 28 28 (8028160)
I0503 20:29:48.436776 124174 net.cpp:165] Memory required for data: 3207250000
I0503 20:29:48.436780 124174 layer_factory.hpp:77] Creating layer res3d_branch2a
I0503 20:29:48.436810 124174 net.cpp:106] Creating Layer res3d_branch2a
I0503 20:29:48.436815 124174 net.cpp:454] res3d_branch2a <- res3c_res3c_relu_0_split_0
I0503 20:29:48.436823 124174 net.cpp:411] res3d_branch2a -> res3d_branch2a
I0503 20:29:48.437505 124174 net.cpp:150] Setting up res3d_branch2a
I0503 20:29:48.437520 124174 net.cpp:157] Top shape: 20 128 28 28 (2007040)
I0503 20:29:48.437525 124174 net.cpp:165] Memory required for data: 3215278160
I0503 20:29:48.437530 124174 layer_factory.hpp:77] Creating layer bn3d_branch2a
I0503 20:29:48.437538 124174 net.cpp:106] Creating Layer bn3d_branch2a
I0503 20:29:48.437543 124174 net.cpp:454] bn3d_branch2a <- res3d_branch2a
I0503 20:29:48.437549 124174 net.cpp:397] bn3d_branch2a -> res3d_branch2a (in-place)
I0503 20:29:48.437702 124174 net.cpp:150] Setting up bn3d_branch2a
I0503 20:29:48.437712 124174 net.cpp:157] Top shape: 20 128 28 28 (2007040)
I0503 20:29:48.437716 124174 net.cpp:165] Memory required for data: 3223306320
I0503 20:29:48.437744 124174 layer_factory.hpp:77] Creating layer scale3d_branch2a
I0503 20:29:48.437753 124174 net.cpp:106] Creating Layer scale3d_branch2a
I0503 20:29:48.437758 124174 net.cpp:454] scale3d_branch2a <- res3d_branch2a
I0503 20:29:48.437764 124174 net.cpp:397] scale3d_branch2a -> res3d_branch2a (in-place)
I0503 20:29:48.437805 124174 layer_factory.hpp:77] Creating layer scale3d_branch2a
I0503 20:29:48.437901 124174 net.cpp:150] Setting up scale3d_branch2a
I0503 20:29:48.437909 124174 net.cpp:157] Top shape: 20 128 28 28 (2007040)
I0503 20:29:48.437913 124174 net.cpp:165] Memory required for data: 3231334480
I0503 20:29:48.437921 124174 layer_factory.hpp:77] Creating layer res3d_branch2a_relu
I0503 20:29:48.437929 124174 net.cpp:106] Creating Layer res3d_branch2a_relu
I0503 20:29:48.437934 124174 net.cpp:454] res3d_branch2a_relu <- res3d_branch2a
I0503 20:29:48.437940 124174 net.cpp:397] res3d_branch2a_relu -> res3d_branch2a (in-place)
I0503 20:29:48.437948 124174 net.cpp:150] Setting up res3d_branch2a_relu
I0503 20:29:48.437954 124174 net.cpp:157] Top shape: 20 128 28 28 (2007040)
I0503 20:29:48.437958 124174 net.cpp:165] Memory required for data: 3239362640
I0503 20:29:48.437963 124174 layer_factory.hpp:77] Creating layer res3d_branch2b
I0503 20:29:48.437970 124174 net.cpp:106] Creating Layer res3d_branch2b
I0503 20:29:48.437975 124174 net.cpp:454] res3d_branch2b <- res3d_branch2a
I0503 20:29:48.437981 124174 net.cpp:411] res3d_branch2b -> res3d_branch2b
I0503 20:29:48.438714 124174 net.cpp:150] Setting up res3d_branch2b
I0503 20:29:48.438730 124174 net.cpp:157] Top shape: 20 128 28 28 (2007040)
I0503 20:29:48.438733 124174 net.cpp:165] Memory required for data: 3247390800
I0503 20:29:48.438740 124174 layer_factory.hpp:77] Creating layer bn3d_branch2b
I0503 20:29:48.438748 124174 net.cpp:106] Creating Layer bn3d_branch2b
I0503 20:29:48.438753 124174 net.cpp:454] bn3d_branch2b <- res3d_branch2b
I0503 20:29:48.438760 124174 net.cpp:397] bn3d_branch2b -> res3d_branch2b (in-place)
I0503 20:29:48.438912 124174 net.cpp:150] Setting up bn3d_branch2b
I0503 20:29:48.438921 124174 net.cpp:157] Top shape: 20 128 28 28 (2007040)
I0503 20:29:48.438926 124174 net.cpp:165] Memory required for data: 3255418960
I0503 20:29:48.438935 124174 layer_factory.hpp:77] Creating layer scale3d_branch2b
I0503 20:29:48.438943 124174 net.cpp:106] Creating Layer scale3d_branch2b
I0503 20:29:48.438948 124174 net.cpp:454] scale3d_branch2b <- res3d_branch2b
I0503 20:29:48.438954 124174 net.cpp:397] scale3d_branch2b -> res3d_branch2b (in-place)
I0503 20:29:48.438992 124174 layer_factory.hpp:77] Creating layer scale3d_branch2b
I0503 20:29:48.439092 124174 net.cpp:150] Setting up scale3d_branch2b
I0503 20:29:48.439102 124174 net.cpp:157] Top shape: 20 128 28 28 (2007040)
I0503 20:29:48.439106 124174 net.cpp:165] Memory required for data: 3263447120
I0503 20:29:48.439113 124174 layer_factory.hpp:77] Creating layer res3d_branch2b_relu
I0503 20:29:48.439121 124174 net.cpp:106] Creating Layer res3d_branch2b_relu
I0503 20:29:48.439126 124174 net.cpp:454] res3d_branch2b_relu <- res3d_branch2b
I0503 20:29:48.439136 124174 net.cpp:397] res3d_branch2b_relu -> res3d_branch2b (in-place)
I0503 20:29:48.439143 124174 net.cpp:150] Setting up res3d_branch2b_relu
I0503 20:29:48.439149 124174 net.cpp:157] Top shape: 20 128 28 28 (2007040)
I0503 20:29:48.439154 124174 net.cpp:165] Memory required for data: 3271475280
I0503 20:29:48.439158 124174 layer_factory.hpp:77] Creating layer res3d_branch2c
I0503 20:29:48.439167 124174 net.cpp:106] Creating Layer res3d_branch2c
I0503 20:29:48.439172 124174 net.cpp:454] res3d_branch2c <- res3d_branch2b
I0503 20:29:48.439178 124174 net.cpp:411] res3d_branch2c -> res3d_branch2c
I0503 20:29:48.439363 124174 net.cpp:150] Setting up res3d_branch2c
I0503 20:29:48.439373 124174 net.cpp:157] Top shape: 20 512 28 28 (8028160)
I0503 20:29:48.439378 124174 net.cpp:165] Memory required for data: 3303587920
I0503 20:29:48.439384 124174 layer_factory.hpp:77] Creating layer bn3d_branch2c
I0503 20:29:48.439391 124174 net.cpp:106] Creating Layer bn3d_branch2c
I0503 20:29:48.439409 124174 net.cpp:454] bn3d_branch2c <- res3d_branch2c
I0503 20:29:48.439415 124174 net.cpp:397] bn3d_branch2c -> res3d_branch2c (in-place)
I0503 20:29:48.439579 124174 net.cpp:150] Setting up bn3d_branch2c
I0503 20:29:48.439587 124174 net.cpp:157] Top shape: 20 512 28 28 (8028160)
I0503 20:29:48.439592 124174 net.cpp:165] Memory required for data: 3335700560
I0503 20:29:48.439601 124174 layer_factory.hpp:77] Creating layer scale3d_branch2c
I0503 20:29:48.439622 124174 net.cpp:106] Creating Layer scale3d_branch2c
I0503 20:29:48.439627 124174 net.cpp:454] scale3d_branch2c <- res3d_branch2c
I0503 20:29:48.439633 124174 net.cpp:397] scale3d_branch2c -> res3d_branch2c (in-place)
I0503 20:29:48.439674 124174 layer_factory.hpp:77] Creating layer scale3d_branch2c
I0503 20:29:48.439769 124174 net.cpp:150] Setting up scale3d_branch2c
I0503 20:29:48.439777 124174 net.cpp:157] Top shape: 20 512 28 28 (8028160)
I0503 20:29:48.439781 124174 net.cpp:165] Memory required for data: 3367813200
I0503 20:29:48.439788 124174 layer_factory.hpp:77] Creating layer res3d
I0503 20:29:48.439795 124174 net.cpp:106] Creating Layer res3d
I0503 20:29:48.439800 124174 net.cpp:454] res3d <- res3c_res3c_relu_0_split_1
I0503 20:29:48.439805 124174 net.cpp:454] res3d <- res3d_branch2c
I0503 20:29:48.439813 124174 net.cpp:411] res3d -> res3d
I0503 20:29:48.439836 124174 net.cpp:150] Setting up res3d
I0503 20:29:48.439843 124174 net.cpp:157] Top shape: 20 512 28 28 (8028160)
I0503 20:29:48.439847 124174 net.cpp:165] Memory required for data: 3399925840
I0503 20:29:48.439851 124174 layer_factory.hpp:77] Creating layer res3d_relu
I0503 20:29:48.439860 124174 net.cpp:106] Creating Layer res3d_relu
I0503 20:29:48.439865 124174 net.cpp:454] res3d_relu <- res3d
I0503 20:29:48.439870 124174 net.cpp:397] res3d_relu -> res3d (in-place)
I0503 20:29:48.439877 124174 net.cpp:150] Setting up res3d_relu
I0503 20:29:48.439883 124174 net.cpp:157] Top shape: 20 512 28 28 (8028160)
I0503 20:29:48.439888 124174 net.cpp:165] Memory required for data: 3432038480
I0503 20:29:48.439893 124174 layer_factory.hpp:77] Creating layer res3d_res3d_relu_0_split
I0503 20:29:48.439898 124174 net.cpp:106] Creating Layer res3d_res3d_relu_0_split
I0503 20:29:48.439903 124174 net.cpp:454] res3d_res3d_relu_0_split <- res3d
I0503 20:29:48.439909 124174 net.cpp:411] res3d_res3d_relu_0_split -> res3d_res3d_relu_0_split_0
I0503 20:29:48.439916 124174 net.cpp:411] res3d_res3d_relu_0_split -> res3d_res3d_relu_0_split_1
I0503 20:29:48.439949 124174 net.cpp:150] Setting up res3d_res3d_relu_0_split
I0503 20:29:48.439957 124174 net.cpp:157] Top shape: 20 512 28 28 (8028160)
I0503 20:29:48.439967 124174 net.cpp:157] Top shape: 20 512 28 28 (8028160)
I0503 20:29:48.439971 124174 net.cpp:165] Memory required for data: 3496263760
I0503 20:29:48.439976 124174 layer_factory.hpp:77] Creating layer res4a_branch1
I0503 20:29:48.439985 124174 net.cpp:106] Creating Layer res4a_branch1
I0503 20:29:48.439990 124174 net.cpp:454] res4a_branch1 <- res3d_res3d_relu_0_split_0
I0503 20:29:48.439997 124174 net.cpp:411] res4a_branch1 -> res4a_branch1
I0503 20:29:48.441309 124174 net.cpp:150] Setting up res4a_branch1
I0503 20:29:48.441326 124174 net.cpp:157] Top shape: 20 1024 14 14 (4014080)
I0503 20:29:48.441331 124174 net.cpp:165] Memory required for data: 3512320080
I0503 20:29:48.441339 124174 layer_factory.hpp:77] Creating layer bn4a_branch1
I0503 20:29:48.441346 124174 net.cpp:106] Creating Layer bn4a_branch1
I0503 20:29:48.441351 124174 net.cpp:454] bn4a_branch1 <- res4a_branch1
I0503 20:29:48.441357 124174 net.cpp:397] bn4a_branch1 -> res4a_branch1 (in-place)
I0503 20:29:48.441522 124174 net.cpp:150] Setting up bn4a_branch1
I0503 20:29:48.441532 124174 net.cpp:157] Top shape: 20 1024 14 14 (4014080)
I0503 20:29:48.441537 124174 net.cpp:165] Memory required for data: 3528376400
I0503 20:29:48.441546 124174 layer_factory.hpp:77] Creating layer scale4a_branch1
I0503 20:29:48.441553 124174 net.cpp:106] Creating Layer scale4a_branch1
I0503 20:29:48.441558 124174 net.cpp:454] scale4a_branch1 <- res4a_branch1
I0503 20:29:48.441565 124174 net.cpp:397] scale4a_branch1 -> res4a_branch1 (in-place)
I0503 20:29:48.441603 124174 layer_factory.hpp:77] Creating layer scale4a_branch1
I0503 20:29:48.441701 124174 net.cpp:150] Setting up scale4a_branch1
I0503 20:29:48.441711 124174 net.cpp:157] Top shape: 20 1024 14 14 (4014080)
I0503 20:29:48.441715 124174 net.cpp:165] Memory required for data: 3544432720
I0503 20:29:48.441722 124174 layer_factory.hpp:77] Creating layer res4a_branch2a
I0503 20:29:48.441732 124174 net.cpp:106] Creating Layer res4a_branch2a
I0503 20:29:48.441738 124174 net.cpp:454] res4a_branch2a <- res3d_res3d_relu_0_split_1
I0503 20:29:48.441745 124174 net.cpp:411] res4a_branch2a -> res4a_branch2a
I0503 20:29:48.442018 124174 net.cpp:150] Setting up res4a_branch2a
I0503 20:29:48.442030 124174 net.cpp:157] Top shape: 20 256 14 14 (1003520)
I0503 20:29:48.442035 124174 net.cpp:165] Memory required for data: 3548446800
I0503 20:29:48.442041 124174 layer_factory.hpp:77] Creating layer bn4a_branch2a
I0503 20:29:48.442049 124174 net.cpp:106] Creating Layer bn4a_branch2a
I0503 20:29:48.442054 124174 net.cpp:454] bn4a_branch2a <- res4a_branch2a
I0503 20:29:48.442060 124174 net.cpp:397] bn4a_branch2a -> res4a_branch2a (in-place)
I0503 20:29:48.442230 124174 net.cpp:150] Setting up bn4a_branch2a
I0503 20:29:48.442240 124174 net.cpp:157] Top shape: 20 256 14 14 (1003520)
I0503 20:29:48.442245 124174 net.cpp:165] Memory required for data: 3552460880
I0503 20:29:48.442252 124174 layer_factory.hpp:77] Creating layer scale4a_branch2a
I0503 20:29:48.442260 124174 net.cpp:106] Creating Layer scale4a_branch2a
I0503 20:29:48.442265 124174 net.cpp:454] scale4a_branch2a <- res4a_branch2a
I0503 20:29:48.442270 124174 net.cpp:397] scale4a_branch2a -> res4a_branch2a (in-place)
I0503 20:29:48.442308 124174 layer_factory.hpp:77] Creating layer scale4a_branch2a
I0503 20:29:48.442400 124174 net.cpp:150] Setting up scale4a_branch2a
I0503 20:29:48.442409 124174 net.cpp:157] Top shape: 20 256 14 14 (1003520)
I0503 20:29:48.442414 124174 net.cpp:165] Memory required for data: 3556474960
I0503 20:29:48.442420 124174 layer_factory.hpp:77] Creating layer res4a_branch2a_relu
I0503 20:29:48.442428 124174 net.cpp:106] Creating Layer res4a_branch2a_relu
I0503 20:29:48.442432 124174 net.cpp:454] res4a_branch2a_relu <- res4a_branch2a
I0503 20:29:48.442440 124174 net.cpp:397] res4a_branch2a_relu -> res4a_branch2a (in-place)
I0503 20:29:48.442447 124174 net.cpp:150] Setting up res4a_branch2a_relu
I0503 20:29:48.442453 124174 net.cpp:157] Top shape: 20 256 14 14 (1003520)
I0503 20:29:48.442457 124174 net.cpp:165] Memory required for data: 3560489040
I0503 20:29:48.442466 124174 layer_factory.hpp:77] Creating layer res4a_branch2b
I0503 20:29:48.442476 124174 net.cpp:106] Creating Layer res4a_branch2b
I0503 20:29:48.442479 124174 net.cpp:454] res4a_branch2b <- res4a_branch2a
I0503 20:29:48.442488 124174 net.cpp:411] res4a_branch2b -> res4a_branch2b
I0503 20:29:48.443899 124174 net.cpp:150] Setting up res4a_branch2b
I0503 20:29:48.443914 124174 net.cpp:157] Top shape: 20 256 14 14 (1003520)
I0503 20:29:48.443919 124174 net.cpp:165] Memory required for data: 3564503120
I0503 20:29:48.443927 124174 layer_factory.hpp:77] Creating layer bn4a_branch2b
I0503 20:29:48.443934 124174 net.cpp:106] Creating Layer bn4a_branch2b
I0503 20:29:48.443938 124174 net.cpp:454] bn4a_branch2b <- res4a_branch2b
I0503 20:29:48.443944 124174 net.cpp:397] bn4a_branch2b -> res4a_branch2b (in-place)
I0503 20:29:48.444108 124174 net.cpp:150] Setting up bn4a_branch2b
I0503 20:29:48.444119 124174 net.cpp:157] Top shape: 20 256 14 14 (1003520)
I0503 20:29:48.444123 124174 net.cpp:165] Memory required for data: 3568517200
I0503 20:29:48.444133 124174 layer_factory.hpp:77] Creating layer scale4a_branch2b
I0503 20:29:48.444141 124174 net.cpp:106] Creating Layer scale4a_branch2b
I0503 20:29:48.444147 124174 net.cpp:454] scale4a_branch2b <- res4a_branch2b
I0503 20:29:48.444154 124174 net.cpp:397] scale4a_branch2b -> res4a_branch2b (in-place)
I0503 20:29:48.444192 124174 layer_factory.hpp:77] Creating layer scale4a_branch2b
I0503 20:29:48.444284 124174 net.cpp:150] Setting up scale4a_branch2b
I0503 20:29:48.444294 124174 net.cpp:157] Top shape: 20 256 14 14 (1003520)
I0503 20:29:48.444298 124174 net.cpp:165] Memory required for data: 3572531280
I0503 20:29:48.444305 124174 layer_factory.hpp:77] Creating layer res4a_branch2b_relu
I0503 20:29:48.444313 124174 net.cpp:106] Creating Layer res4a_branch2b_relu
I0503 20:29:48.444317 124174 net.cpp:454] res4a_branch2b_relu <- res4a_branch2b
I0503 20:29:48.444324 124174 net.cpp:397] res4a_branch2b_relu -> res4a_branch2b (in-place)
I0503 20:29:48.444332 124174 net.cpp:150] Setting up res4a_branch2b_relu
I0503 20:29:48.444339 124174 net.cpp:157] Top shape: 20 256 14 14 (1003520)
I0503 20:29:48.444342 124174 net.cpp:165] Memory required for data: 3576545360
I0503 20:29:48.444347 124174 layer_factory.hpp:77] Creating layer res4a_branch2c
I0503 20:29:48.444356 124174 net.cpp:106] Creating Layer res4a_branch2c
I0503 20:29:48.444375 124174 net.cpp:454] res4a_branch2c <- res4a_branch2b
I0503 20:29:48.444381 124174 net.cpp:411] res4a_branch2c -> res4a_branch2c
I0503 20:29:48.445184 124174 net.cpp:150] Setting up res4a_branch2c
I0503 20:29:48.445200 124174 net.cpp:157] Top shape: 20 1024 14 14 (4014080)
I0503 20:29:48.445204 124174 net.cpp:165] Memory required for data: 3592601680
I0503 20:29:48.445211 124174 layer_factory.hpp:77] Creating layer bn4a_branch2c
I0503 20:29:48.445220 124174 net.cpp:106] Creating Layer bn4a_branch2c
I0503 20:29:48.445226 124174 net.cpp:454] bn4a_branch2c <- res4a_branch2c
I0503 20:29:48.445231 124174 net.cpp:397] bn4a_branch2c -> res4a_branch2c (in-place)
I0503 20:29:48.445394 124174 net.cpp:150] Setting up bn4a_branch2c
I0503 20:29:48.445402 124174 net.cpp:157] Top shape: 20 1024 14 14 (4014080)
I0503 20:29:48.445407 124174 net.cpp:165] Memory required for data: 3608658000
I0503 20:29:48.445415 124174 layer_factory.hpp:77] Creating layer scale4a_branch2c
I0503 20:29:48.445422 124174 net.cpp:106] Creating Layer scale4a_branch2c
I0503 20:29:48.445427 124174 net.cpp:454] scale4a_branch2c <- res4a_branch2c
I0503 20:29:48.445435 124174 net.cpp:397] scale4a_branch2c -> res4a_branch2c (in-place)
I0503 20:29:48.445471 124174 layer_factory.hpp:77] Creating layer scale4a_branch2c
I0503 20:29:48.445569 124174 net.cpp:150] Setting up scale4a_branch2c
I0503 20:29:48.445580 124174 net.cpp:157] Top shape: 20 1024 14 14 (4014080)
I0503 20:29:48.445583 124174 net.cpp:165] Memory required for data: 3624714320
I0503 20:29:48.445590 124174 layer_factory.hpp:77] Creating layer res4a
I0503 20:29:48.445608 124174 net.cpp:106] Creating Layer res4a
I0503 20:29:48.445619 124174 net.cpp:454] res4a <- res4a_branch1
I0503 20:29:48.445626 124174 net.cpp:454] res4a <- res4a_branch2c
I0503 20:29:48.445632 124174 net.cpp:411] res4a -> res4a
I0503 20:29:48.445658 124174 net.cpp:150] Setting up res4a
I0503 20:29:48.445667 124174 net.cpp:157] Top shape: 20 1024 14 14 (4014080)
I0503 20:29:48.445672 124174 net.cpp:165] Memory required for data: 3640770640
I0503 20:29:48.445675 124174 layer_factory.hpp:77] Creating layer res4a_relu
I0503 20:29:48.445683 124174 net.cpp:106] Creating Layer res4a_relu
I0503 20:29:48.445688 124174 net.cpp:454] res4a_relu <- res4a
I0503 20:29:48.445694 124174 net.cpp:397] res4a_relu -> res4a (in-place)
I0503 20:29:48.445701 124174 net.cpp:150] Setting up res4a_relu
I0503 20:29:48.445708 124174 net.cpp:157] Top shape: 20 1024 14 14 (4014080)
I0503 20:29:48.445711 124174 net.cpp:165] Memory required for data: 3656826960
I0503 20:29:48.445715 124174 layer_factory.hpp:77] Creating layer res4a_res4a_relu_0_split
I0503 20:29:48.445721 124174 net.cpp:106] Creating Layer res4a_res4a_relu_0_split
I0503 20:29:48.445725 124174 net.cpp:454] res4a_res4a_relu_0_split <- res4a
I0503 20:29:48.445731 124174 net.cpp:411] res4a_res4a_relu_0_split -> res4a_res4a_relu_0_split_0
I0503 20:29:48.445740 124174 net.cpp:411] res4a_res4a_relu_0_split -> res4a_res4a_relu_0_split_1
I0503 20:29:48.445771 124174 net.cpp:150] Setting up res4a_res4a_relu_0_split
I0503 20:29:48.445780 124174 net.cpp:157] Top shape: 20 1024 14 14 (4014080)
I0503 20:29:48.445785 124174 net.cpp:157] Top shape: 20 1024 14 14 (4014080)
I0503 20:29:48.445790 124174 net.cpp:165] Memory required for data: 3688939600
I0503 20:29:48.445793 124174 layer_factory.hpp:77] Creating layer res4b_branch2a
I0503 20:29:48.445830 124174 net.cpp:106] Creating Layer res4b_branch2a
I0503 20:29:48.445837 124174 net.cpp:454] res4b_branch2a <- res4a_res4a_relu_0_split_0
I0503 20:29:48.445843 124174 net.cpp:411] res4b_branch2a -> res4b_branch2a
I0503 20:29:48.446609 124174 net.cpp:150] Setting up res4b_branch2a
I0503 20:29:48.446625 124174 net.cpp:157] Top shape: 20 256 14 14 (1003520)
I0503 20:29:48.446630 124174 net.cpp:165] Memory required for data: 3692953680
I0503 20:29:48.446637 124174 layer_factory.hpp:77] Creating layer bn4b_branch2a
I0503 20:29:48.446645 124174 net.cpp:106] Creating Layer bn4b_branch2a
I0503 20:29:48.446650 124174 net.cpp:454] bn4b_branch2a <- res4b_branch2a
I0503 20:29:48.446655 124174 net.cpp:397] bn4b_branch2a -> res4b_branch2a (in-place)
I0503 20:29:48.446825 124174 net.cpp:150] Setting up bn4b_branch2a
I0503 20:29:48.446835 124174 net.cpp:157] Top shape: 20 256 14 14 (1003520)
I0503 20:29:48.446841 124174 net.cpp:165] Memory required for data: 3696967760
I0503 20:29:48.446849 124174 layer_factory.hpp:77] Creating layer scale4b_branch2a
I0503 20:29:48.446856 124174 net.cpp:106] Creating Layer scale4b_branch2a
I0503 20:29:48.446861 124174 net.cpp:454] scale4b_branch2a <- res4b_branch2a
I0503 20:29:48.446867 124174 net.cpp:397] scale4b_branch2a -> res4b_branch2a (in-place)
I0503 20:29:48.446909 124174 layer_factory.hpp:77] Creating layer scale4b_branch2a
I0503 20:29:48.447005 124174 net.cpp:150] Setting up scale4b_branch2a
I0503 20:29:48.447015 124174 net.cpp:157] Top shape: 20 256 14 14 (1003520)
I0503 20:29:48.447019 124174 net.cpp:165] Memory required for data: 3700981840
I0503 20:29:48.447026 124174 layer_factory.hpp:77] Creating layer res4b_branch2a_relu
I0503 20:29:48.447048 124174 net.cpp:106] Creating Layer res4b_branch2a_relu
I0503 20:29:48.447054 124174 net.cpp:454] res4b_branch2a_relu <- res4b_branch2a
I0503 20:29:48.447059 124174 net.cpp:397] res4b_branch2a_relu -> res4b_branch2a (in-place)
I0503 20:29:48.447067 124174 net.cpp:150] Setting up res4b_branch2a_relu
I0503 20:29:48.447074 124174 net.cpp:157] Top shape: 20 256 14 14 (1003520)
I0503 20:29:48.447078 124174 net.cpp:165] Memory required for data: 3704995920
I0503 20:29:48.447082 124174 layer_factory.hpp:77] Creating layer res4b_branch2b
I0503 20:29:48.447090 124174 net.cpp:106] Creating Layer res4b_branch2b
I0503 20:29:48.447099 124174 net.cpp:454] res4b_branch2b <- res4b_branch2a
I0503 20:29:48.447106 124174 net.cpp:411] res4b_branch2b -> res4b_branch2b
I0503 20:29:48.449432 124174 net.cpp:150] Setting up res4b_branch2b
I0503 20:29:48.449450 124174 net.cpp:157] Top shape: 20 256 14 14 (1003520)
I0503 20:29:48.449455 124174 net.cpp:165] Memory required for data: 3709010000
I0503 20:29:48.449461 124174 layer_factory.hpp:77] Creating layer bn4b_branch2b
I0503 20:29:48.449468 124174 net.cpp:106] Creating Layer bn4b_branch2b
I0503 20:29:48.449473 124174 net.cpp:454] bn4b_branch2b <- res4b_branch2b
I0503 20:29:48.449479 124174 net.cpp:397] bn4b_branch2b -> res4b_branch2b (in-place)
I0503 20:29:48.449635 124174 net.cpp:150] Setting up bn4b_branch2b
I0503 20:29:48.449643 124174 net.cpp:157] Top shape: 20 256 14 14 (1003520)
I0503 20:29:48.449648 124174 net.cpp:165] Memory required for data: 3713024080
I0503 20:29:48.449656 124174 layer_factory.hpp:77] Creating layer scale4b_branch2b
I0503 20:29:48.449666 124174 net.cpp:106] Creating Layer scale4b_branch2b
I0503 20:29:48.449671 124174 net.cpp:454] scale4b_branch2b <- res4b_branch2b
I0503 20:29:48.449676 124174 net.cpp:397] scale4b_branch2b -> res4b_branch2b (in-place)
I0503 20:29:48.449714 124174 layer_factory.hpp:77] Creating layer scale4b_branch2b
I0503 20:29:48.449808 124174 net.cpp:150] Setting up scale4b_branch2b
I0503 20:29:48.449817 124174 net.cpp:157] Top shape: 20 256 14 14 (1003520)
I0503 20:29:48.449821 124174 net.cpp:165] Memory required for data: 3717038160
I0503 20:29:48.449828 124174 layer_factory.hpp:77] Creating layer res4b_branch2b_relu
I0503 20:29:48.449836 124174 net.cpp:106] Creating Layer res4b_branch2b_relu
I0503 20:29:48.449841 124174 net.cpp:454] res4b_branch2b_relu <- res4b_branch2b
I0503 20:29:48.449847 124174 net.cpp:397] res4b_branch2b_relu -> res4b_branch2b (in-place)
I0503 20:29:48.449854 124174 net.cpp:150] Setting up res4b_branch2b_relu
I0503 20:29:48.449861 124174 net.cpp:157] Top shape: 20 256 14 14 (1003520)
I0503 20:29:48.449865 124174 net.cpp:165] Memory required for data: 3721052240
I0503 20:29:48.449869 124174 layer_factory.hpp:77] Creating layer res4b_branch2c
I0503 20:29:48.449879 124174 net.cpp:106] Creating Layer res4b_branch2c
I0503 20:29:48.449883 124174 net.cpp:454] res4b_branch2c <- res4b_branch2b
I0503 20:29:48.449889 124174 net.cpp:411] res4b_branch2c -> res4b_branch2c
I0503 20:29:48.450676 124174 net.cpp:150] Setting up res4b_branch2c
I0503 20:29:48.450692 124174 net.cpp:157] Top shape: 20 1024 14 14 (4014080)
I0503 20:29:48.450697 124174 net.cpp:165] Memory required for data: 3737108560
I0503 20:29:48.450705 124174 layer_factory.hpp:77] Creating layer bn4b_branch2c
I0503 20:29:48.450713 124174 net.cpp:106] Creating Layer bn4b_branch2c
I0503 20:29:48.450719 124174 net.cpp:454] bn4b_branch2c <- res4b_branch2c
I0503 20:29:48.450726 124174 net.cpp:397] bn4b_branch2c -> res4b_branch2c (in-place)
I0503 20:29:48.450908 124174 net.cpp:150] Setting up bn4b_branch2c
I0503 20:29:48.450918 124174 net.cpp:157] Top shape: 20 1024 14 14 (4014080)
I0503 20:29:48.450923 124174 net.cpp:165] Memory required for data: 3753164880
I0503 20:29:48.450932 124174 layer_factory.hpp:77] Creating layer scale4b_branch2c
I0503 20:29:48.450939 124174 net.cpp:106] Creating Layer scale4b_branch2c
I0503 20:29:48.450943 124174 net.cpp:454] scale4b_branch2c <- res4b_branch2c
I0503 20:29:48.450951 124174 net.cpp:397] scale4b_branch2c -> res4b_branch2c (in-place)
I0503 20:29:48.450987 124174 layer_factory.hpp:77] Creating layer scale4b_branch2c
I0503 20:29:48.451087 124174 net.cpp:150] Setting up scale4b_branch2c
I0503 20:29:48.451098 124174 net.cpp:157] Top shape: 20 1024 14 14 (4014080)
I0503 20:29:48.451102 124174 net.cpp:165] Memory required for data: 3769221200
I0503 20:29:48.451109 124174 layer_factory.hpp:77] Creating layer res4b
I0503 20:29:48.451117 124174 net.cpp:106] Creating Layer res4b
I0503 20:29:48.451122 124174 net.cpp:454] res4b <- res4a_res4a_relu_0_split_1
I0503 20:29:48.451127 124174 net.cpp:454] res4b <- res4b_branch2c
I0503 20:29:48.451133 124174 net.cpp:411] res4b -> res4b
I0503 20:29:48.451162 124174 net.cpp:150] Setting up res4b
I0503 20:29:48.451171 124174 net.cpp:157] Top shape: 20 1024 14 14 (4014080)
I0503 20:29:48.451175 124174 net.cpp:165] Memory required for data: 3785277520
I0503 20:29:48.451180 124174 layer_factory.hpp:77] Creating layer res4b_relu
I0503 20:29:48.451186 124174 net.cpp:106] Creating Layer res4b_relu
I0503 20:29:48.451191 124174 net.cpp:454] res4b_relu <- res4b
I0503 20:29:48.451198 124174 net.cpp:397] res4b_relu -> res4b (in-place)
I0503 20:29:48.451205 124174 net.cpp:150] Setting up res4b_relu
I0503 20:29:48.451211 124174 net.cpp:157] Top shape: 20 1024 14 14 (4014080)
I0503 20:29:48.451215 124174 net.cpp:165] Memory required for data: 3801333840
I0503 20:29:48.451220 124174 layer_factory.hpp:77] Creating layer res4b_res4b_relu_0_split
I0503 20:29:48.451225 124174 net.cpp:106] Creating Layer res4b_res4b_relu_0_split
I0503 20:29:48.451230 124174 net.cpp:454] res4b_res4b_relu_0_split <- res4b
I0503 20:29:48.451234 124174 net.cpp:411] res4b_res4b_relu_0_split -> res4b_res4b_relu_0_split_0
I0503 20:29:48.451241 124174 net.cpp:411] res4b_res4b_relu_0_split -> res4b_res4b_relu_0_split_1
I0503 20:29:48.451274 124174 net.cpp:150] Setting up res4b_res4b_relu_0_split
I0503 20:29:48.451282 124174 net.cpp:157] Top shape: 20 1024 14 14 (4014080)
I0503 20:29:48.451288 124174 net.cpp:157] Top shape: 20 1024 14 14 (4014080)
I0503 20:29:48.451292 124174 net.cpp:165] Memory required for data: 3833446480
I0503 20:29:48.451297 124174 layer_factory.hpp:77] Creating layer res4c_branch2a
I0503 20:29:48.451305 124174 net.cpp:106] Creating Layer res4c_branch2a
I0503 20:29:48.451310 124174 net.cpp:454] res4c_branch2a <- res4b_res4b_relu_0_split_0
I0503 20:29:48.451316 124174 net.cpp:411] res4c_branch2a -> res4c_branch2a
I0503 20:29:48.452112 124174 net.cpp:150] Setting up res4c_branch2a
I0503 20:29:48.452127 124174 net.cpp:157] Top shape: 20 256 14 14 (1003520)
I0503 20:29:48.452132 124174 net.cpp:165] Memory required for data: 3837460560
I0503 20:29:48.452138 124174 layer_factory.hpp:77] Creating layer bn4c_branch2a
I0503 20:29:48.452147 124174 net.cpp:106] Creating Layer bn4c_branch2a
I0503 20:29:48.452152 124174 net.cpp:454] bn4c_branch2a <- res4c_branch2a
I0503 20:29:48.452158 124174 net.cpp:397] bn4c_branch2a -> res4c_branch2a (in-place)
I0503 20:29:48.452317 124174 net.cpp:150] Setting up bn4c_branch2a
I0503 20:29:48.452327 124174 net.cpp:157] Top shape: 20 256 14 14 (1003520)
I0503 20:29:48.452332 124174 net.cpp:165] Memory required for data: 3841474640
I0503 20:29:48.452339 124174 layer_factory.hpp:77] Creating layer scale4c_branch2a
I0503 20:29:48.452347 124174 net.cpp:106] Creating Layer scale4c_branch2a
I0503 20:29:48.452352 124174 net.cpp:454] scale4c_branch2a <- res4c_branch2a
I0503 20:29:48.452358 124174 net.cpp:397] scale4c_branch2a -> res4c_branch2a (in-place)
I0503 20:29:48.452396 124174 layer_factory.hpp:77] Creating layer scale4c_branch2a
I0503 20:29:48.452500 124174 net.cpp:150] Setting up scale4c_branch2a
I0503 20:29:48.452512 124174 net.cpp:157] Top shape: 20 256 14 14 (1003520)
I0503 20:29:48.452517 124174 net.cpp:165] Memory required for data: 3845488720
I0503 20:29:48.452523 124174 layer_factory.hpp:77] Creating layer res4c_branch2a_relu
I0503 20:29:48.452530 124174 net.cpp:106] Creating Layer res4c_branch2a_relu
I0503 20:29:48.452535 124174 net.cpp:454] res4c_branch2a_relu <- res4c_branch2a
I0503 20:29:48.452543 124174 net.cpp:397] res4c_branch2a_relu -> res4c_branch2a (in-place)
I0503 20:29:48.452549 124174 net.cpp:150] Setting up res4c_branch2a_relu
I0503 20:29:48.452556 124174 net.cpp:157] Top shape: 20 256 14 14 (1003520)
I0503 20:29:48.452560 124174 net.cpp:165] Memory required for data: 3849502800
I0503 20:29:48.452564 124174 layer_factory.hpp:77] Creating layer res4c_branch2b
I0503 20:29:48.452572 124174 net.cpp:106] Creating Layer res4c_branch2b
I0503 20:29:48.452576 124174 net.cpp:454] res4c_branch2b <- res4c_branch2a
I0503 20:29:48.452584 124174 net.cpp:411] res4c_branch2b -> res4c_branch2b
I0503 20:29:48.454079 124174 net.cpp:150] Setting up res4c_branch2b
I0503 20:29:48.454100 124174 net.cpp:157] Top shape: 20 256 14 14 (1003520)
I0503 20:29:48.454105 124174 net.cpp:165] Memory required for data: 3853516880
I0503 20:29:48.454113 124174 layer_factory.hpp:77] Creating layer bn4c_branch2b
I0503 20:29:48.454123 124174 net.cpp:106] Creating Layer bn4c_branch2b
I0503 20:29:48.454128 124174 net.cpp:454] bn4c_branch2b <- res4c_branch2b
I0503 20:29:48.454133 124174 net.cpp:397] bn4c_branch2b -> res4c_branch2b (in-place)
I0503 20:29:48.454311 124174 net.cpp:150] Setting up bn4c_branch2b
I0503 20:29:48.454321 124174 net.cpp:157] Top shape: 20 256 14 14 (1003520)
I0503 20:29:48.454326 124174 net.cpp:165] Memory required for data: 3857530960
I0503 20:29:48.454334 124174 layer_factory.hpp:77] Creating layer scale4c_branch2b
I0503 20:29:48.454342 124174 net.cpp:106] Creating Layer scale4c_branch2b
I0503 20:29:48.454346 124174 net.cpp:454] scale4c_branch2b <- res4c_branch2b
I0503 20:29:48.454352 124174 net.cpp:397] scale4c_branch2b -> res4c_branch2b (in-place)
I0503 20:29:48.454406 124174 layer_factory.hpp:77] Creating layer scale4c_branch2b
I0503 20:29:48.454501 124174 net.cpp:150] Setting up scale4c_branch2b
I0503 20:29:48.454510 124174 net.cpp:157] Top shape: 20 256 14 14 (1003520)
I0503 20:29:48.454514 124174 net.cpp:165] Memory required for data: 3861545040
I0503 20:29:48.454521 124174 layer_factory.hpp:77] Creating layer res4c_branch2b_relu
I0503 20:29:48.454530 124174 net.cpp:106] Creating Layer res4c_branch2b_relu
I0503 20:29:48.454535 124174 net.cpp:454] res4c_branch2b_relu <- res4c_branch2b
I0503 20:29:48.454540 124174 net.cpp:397] res4c_branch2b_relu -> res4c_branch2b (in-place)
I0503 20:29:48.454546 124174 net.cpp:150] Setting up res4c_branch2b_relu
I0503 20:29:48.454552 124174 net.cpp:157] Top shape: 20 256 14 14 (1003520)
I0503 20:29:48.454556 124174 net.cpp:165] Memory required for data: 3865559120
I0503 20:29:48.454560 124174 layer_factory.hpp:77] Creating layer res4c_branch2c
I0503 20:29:48.454571 124174 net.cpp:106] Creating Layer res4c_branch2c
I0503 20:29:48.454574 124174 net.cpp:454] res4c_branch2c <- res4c_branch2b
I0503 20:29:48.454581 124174 net.cpp:411] res4c_branch2c -> res4c_branch2c
I0503 20:29:48.455368 124174 net.cpp:150] Setting up res4c_branch2c
I0503 20:29:48.455384 124174 net.cpp:157] Top shape: 20 1024 14 14 (4014080)
I0503 20:29:48.455389 124174 net.cpp:165] Memory required for data: 3881615440
I0503 20:29:48.455396 124174 layer_factory.hpp:77] Creating layer bn4c_branch2c
I0503 20:29:48.455404 124174 net.cpp:106] Creating Layer bn4c_branch2c
I0503 20:29:48.455410 124174 net.cpp:454] bn4c_branch2c <- res4c_branch2c
I0503 20:29:48.455415 124174 net.cpp:397] bn4c_branch2c -> res4c_branch2c (in-place)
I0503 20:29:48.455606 124174 net.cpp:150] Setting up bn4c_branch2c
I0503 20:29:48.455617 124174 net.cpp:157] Top shape: 20 1024 14 14 (4014080)
I0503 20:29:48.455621 124174 net.cpp:165] Memory required for data: 3897671760
I0503 20:29:48.455631 124174 layer_factory.hpp:77] Creating layer scale4c_branch2c
I0503 20:29:48.455637 124174 net.cpp:106] Creating Layer scale4c_branch2c
I0503 20:29:48.455642 124174 net.cpp:454] scale4c_branch2c <- res4c_branch2c
I0503 20:29:48.455648 124174 net.cpp:397] scale4c_branch2c -> res4c_branch2c (in-place)
I0503 20:29:48.455687 124174 layer_factory.hpp:77] Creating layer scale4c_branch2c
I0503 20:29:48.455788 124174 net.cpp:150] Setting up scale4c_branch2c
I0503 20:29:48.455797 124174 net.cpp:157] Top shape: 20 1024 14 14 (4014080)
I0503 20:29:48.455802 124174 net.cpp:165] Memory required for data: 3913728080
I0503 20:29:48.455808 124174 layer_factory.hpp:77] Creating layer res4c
I0503 20:29:48.455817 124174 net.cpp:106] Creating Layer res4c
I0503 20:29:48.455822 124174 net.cpp:454] res4c <- res4b_res4b_relu_0_split_1
I0503 20:29:48.455827 124174 net.cpp:454] res4c <- res4c_branch2c
I0503 20:29:48.455834 124174 net.cpp:411] res4c -> res4c
I0503 20:29:48.455858 124174 net.cpp:150] Setting up res4c
I0503 20:29:48.455865 124174 net.cpp:157] Top shape: 20 1024 14 14 (4014080)
I0503 20:29:48.455870 124174 net.cpp:165] Memory required for data: 3929784400
I0503 20:29:48.455879 124174 layer_factory.hpp:77] Creating layer res4c_relu
I0503 20:29:48.455888 124174 net.cpp:106] Creating Layer res4c_relu
I0503 20:29:48.455893 124174 net.cpp:454] res4c_relu <- res4c
I0503 20:29:48.455899 124174 net.cpp:397] res4c_relu -> res4c (in-place)
I0503 20:29:48.455904 124174 net.cpp:150] Setting up res4c_relu
I0503 20:29:48.455911 124174 net.cpp:157] Top shape: 20 1024 14 14 (4014080)
I0503 20:29:48.455915 124174 net.cpp:165] Memory required for data: 3945840720
I0503 20:29:48.455919 124174 layer_factory.hpp:77] Creating layer res4c_res4c_relu_0_split
I0503 20:29:48.455924 124174 net.cpp:106] Creating Layer res4c_res4c_relu_0_split
I0503 20:29:48.455929 124174 net.cpp:454] res4c_res4c_relu_0_split <- res4c
I0503 20:29:48.455935 124174 net.cpp:411] res4c_res4c_relu_0_split -> res4c_res4c_relu_0_split_0
I0503 20:29:48.455941 124174 net.cpp:411] res4c_res4c_relu_0_split -> res4c_res4c_relu_0_split_1
I0503 20:29:48.455974 124174 net.cpp:150] Setting up res4c_res4c_relu_0_split
I0503 20:29:48.455982 124174 net.cpp:157] Top shape: 20 1024 14 14 (4014080)
I0503 20:29:48.455987 124174 net.cpp:157] Top shape: 20 1024 14 14 (4014080)
I0503 20:29:48.455991 124174 net.cpp:165] Memory required for data: 3977953360
I0503 20:29:48.455996 124174 layer_factory.hpp:77] Creating layer res4d_branch2a
I0503 20:29:48.456003 124174 net.cpp:106] Creating Layer res4d_branch2a
I0503 20:29:48.456008 124174 net.cpp:454] res4d_branch2a <- res4c_res4c_relu_0_split_0
I0503 20:29:48.456017 124174 net.cpp:411] res4d_branch2a -> res4d_branch2a
I0503 20:29:48.456828 124174 net.cpp:150] Setting up res4d_branch2a
I0503 20:29:48.456845 124174 net.cpp:157] Top shape: 20 256 14 14 (1003520)
I0503 20:29:48.456848 124174 net.cpp:165] Memory required for data: 3981967440
I0503 20:29:48.456856 124174 layer_factory.hpp:77] Creating layer bn4d_branch2a
I0503 20:29:48.456863 124174 net.cpp:106] Creating Layer bn4d_branch2a
I0503 20:29:48.456868 124174 net.cpp:454] bn4d_branch2a <- res4d_branch2a
I0503 20:29:48.456873 124174 net.cpp:397] bn4d_branch2a -> res4d_branch2a (in-place)
I0503 20:29:48.457032 124174 net.cpp:150] Setting up bn4d_branch2a
I0503 20:29:48.457042 124174 net.cpp:157] Top shape: 20 256 14 14 (1003520)
I0503 20:29:48.457046 124174 net.cpp:165] Memory required for data: 3985981520
I0503 20:29:48.457056 124174 layer_factory.hpp:77] Creating layer scale4d_branch2a
I0503 20:29:48.457064 124174 net.cpp:106] Creating Layer scale4d_branch2a
I0503 20:29:48.457069 124174 net.cpp:454] scale4d_branch2a <- res4d_branch2a
I0503 20:29:48.457075 124174 net.cpp:397] scale4d_branch2a -> res4d_branch2a (in-place)
I0503 20:29:48.457113 124174 layer_factory.hpp:77] Creating layer scale4d_branch2a
I0503 20:29:48.457209 124174 net.cpp:150] Setting up scale4d_branch2a
I0503 20:29:48.457218 124174 net.cpp:157] Top shape: 20 256 14 14 (1003520)
I0503 20:29:48.457222 124174 net.cpp:165] Memory required for data: 3989995600
I0503 20:29:48.457228 124174 layer_factory.hpp:77] Creating layer res4d_branch2a_relu
I0503 20:29:48.457237 124174 net.cpp:106] Creating Layer res4d_branch2a_relu
I0503 20:29:48.457242 124174 net.cpp:454] res4d_branch2a_relu <- res4d_branch2a
I0503 20:29:48.457248 124174 net.cpp:397] res4d_branch2a_relu -> res4d_branch2a (in-place)
I0503 20:29:48.457255 124174 net.cpp:150] Setting up res4d_branch2a_relu
I0503 20:29:48.457260 124174 net.cpp:157] Top shape: 20 256 14 14 (1003520)
I0503 20:29:48.457264 124174 net.cpp:165] Memory required for data: 3994009680
I0503 20:29:48.457268 124174 layer_factory.hpp:77] Creating layer res4d_branch2b
I0503 20:29:48.457278 124174 net.cpp:106] Creating Layer res4d_branch2b
I0503 20:29:48.457283 124174 net.cpp:454] res4d_branch2b <- res4d_branch2a
I0503 20:29:48.457288 124174 net.cpp:411] res4d_branch2b -> res4d_branch2b
I0503 20:29:48.458688 124174 net.cpp:150] Setting up res4d_branch2b
I0503 20:29:48.458719 124174 net.cpp:157] Top shape: 20 256 14 14 (1003520)
I0503 20:29:48.458724 124174 net.cpp:165] Memory required for data: 3998023760
I0503 20:29:48.458735 124174 layer_factory.hpp:77] Creating layer bn4d_branch2b
I0503 20:29:48.458765 124174 net.cpp:106] Creating Layer bn4d_branch2b
I0503 20:29:48.458775 124174 net.cpp:454] bn4d_branch2b <- res4d_branch2b
I0503 20:29:48.458781 124174 net.cpp:397] bn4d_branch2b -> res4d_branch2b (in-place)
I0503 20:29:48.458964 124174 net.cpp:150] Setting up bn4d_branch2b
I0503 20:29:48.458974 124174 net.cpp:157] Top shape: 20 256 14 14 (1003520)
I0503 20:29:48.458978 124174 net.cpp:165] Memory required for data: 4002037840
I0503 20:29:48.458987 124174 layer_factory.hpp:77] Creating layer scale4d_branch2b
I0503 20:29:48.458994 124174 net.cpp:106] Creating Layer scale4d_branch2b
I0503 20:29:48.458999 124174 net.cpp:454] scale4d_branch2b <- res4d_branch2b
I0503 20:29:48.459007 124174 net.cpp:397] scale4d_branch2b -> res4d_branch2b (in-place)
I0503 20:29:48.459044 124174 layer_factory.hpp:77] Creating layer scale4d_branch2b
I0503 20:29:48.459141 124174 net.cpp:150] Setting up scale4d_branch2b
I0503 20:29:48.459151 124174 net.cpp:157] Top shape: 20 256 14 14 (1003520)
I0503 20:29:48.459156 124174 net.cpp:165] Memory required for data: 4006051920
I0503 20:29:48.459162 124174 layer_factory.hpp:77] Creating layer res4d_branch2b_relu
I0503 20:29:48.459168 124174 net.cpp:106] Creating Layer res4d_branch2b_relu
I0503 20:29:48.459173 124174 net.cpp:454] res4d_branch2b_relu <- res4d_branch2b
I0503 20:29:48.459178 124174 net.cpp:397] res4d_branch2b_relu -> res4d_branch2b (in-place)
I0503 20:29:48.459185 124174 net.cpp:150] Setting up res4d_branch2b_relu
I0503 20:29:48.459192 124174 net.cpp:157] Top shape: 20 256 14 14 (1003520)
I0503 20:29:48.459195 124174 net.cpp:165] Memory required for data: 4010066000
I0503 20:29:48.459199 124174 layer_factory.hpp:77] Creating layer res4d_branch2c
I0503 20:29:48.459209 124174 net.cpp:106] Creating Layer res4d_branch2c
I0503 20:29:48.459214 124174 net.cpp:454] res4d_branch2c <- res4d_branch2b
I0503 20:29:48.459221 124174 net.cpp:411] res4d_branch2c -> res4d_branch2c
I0503 20:29:48.460012 124174 net.cpp:150] Setting up res4d_branch2c
I0503 20:29:48.460027 124174 net.cpp:157] Top shape: 20 1024 14 14 (4014080)
I0503 20:29:48.460032 124174 net.cpp:165] Memory required for data: 4026122320
I0503 20:29:48.460039 124174 layer_factory.hpp:77] Creating layer bn4d_branch2c
I0503 20:29:48.460047 124174 net.cpp:106] Creating Layer bn4d_branch2c
I0503 20:29:48.460052 124174 net.cpp:454] bn4d_branch2c <- res4d_branch2c
I0503 20:29:48.460075 124174 net.cpp:397] bn4d_branch2c -> res4d_branch2c (in-place)
I0503 20:29:48.460242 124174 net.cpp:150] Setting up bn4d_branch2c
I0503 20:29:48.460252 124174 net.cpp:157] Top shape: 20 1024 14 14 (4014080)
I0503 20:29:48.460255 124174 net.cpp:165] Memory required for data: 4042178640
I0503 20:29:48.460263 124174 layer_factory.hpp:77] Creating layer scale4d_branch2c
I0503 20:29:48.460271 124174 net.cpp:106] Creating Layer scale4d_branch2c
I0503 20:29:48.460275 124174 net.cpp:454] scale4d_branch2c <- res4d_branch2c
I0503 20:29:48.460281 124174 net.cpp:397] scale4d_branch2c -> res4d_branch2c (in-place)
I0503 20:29:48.460319 124174 layer_factory.hpp:77] Creating layer scale4d_branch2c
I0503 20:29:48.460422 124174 net.cpp:150] Setting up scale4d_branch2c
I0503 20:29:48.460430 124174 net.cpp:157] Top shape: 20 1024 14 14 (4014080)
I0503 20:29:48.460448 124174 net.cpp:165] Memory required for data: 4058234960
I0503 20:29:48.460458 124174 layer_factory.hpp:77] Creating layer res4d
I0503 20:29:48.460469 124174 net.cpp:106] Creating Layer res4d
I0503 20:29:48.460476 124174 net.cpp:454] res4d <- res4c_res4c_relu_0_split_1
I0503 20:29:48.460482 124174 net.cpp:454] res4d <- res4d_branch2c
I0503 20:29:48.460489 124174 net.cpp:411] res4d -> res4d
I0503 20:29:48.460512 124174 net.cpp:150] Setting up res4d
I0503 20:29:48.460520 124174 net.cpp:157] Top shape: 20 1024 14 14 (4014080)
I0503 20:29:48.460525 124174 net.cpp:165] Memory required for data: 4074291280
I0503 20:29:48.460530 124174 layer_factory.hpp:77] Creating layer res4d_relu
I0503 20:29:48.460538 124174 net.cpp:106] Creating Layer res4d_relu
I0503 20:29:48.460547 124174 net.cpp:454] res4d_relu <- res4d
I0503 20:29:48.460553 124174 net.cpp:397] res4d_relu -> res4d (in-place)
I0503 20:29:48.460561 124174 net.cpp:150] Setting up res4d_relu
I0503 20:29:48.460566 124174 net.cpp:157] Top shape: 20 1024 14 14 (4014080)
I0503 20:29:48.460571 124174 net.cpp:165] Memory required for data: 4090347600
I0503 20:29:48.460574 124174 layer_factory.hpp:77] Creating layer res4d_res4d_relu_0_split
I0503 20:29:48.460582 124174 net.cpp:106] Creating Layer res4d_res4d_relu_0_split
I0503 20:29:48.460587 124174 net.cpp:454] res4d_res4d_relu_0_split <- res4d
I0503 20:29:48.460592 124174 net.cpp:411] res4d_res4d_relu_0_split -> res4d_res4d_relu_0_split_0
I0503 20:29:48.460599 124174 net.cpp:411] res4d_res4d_relu_0_split -> res4d_res4d_relu_0_split_1
I0503 20:29:48.460633 124174 net.cpp:150] Setting up res4d_res4d_relu_0_split
I0503 20:29:48.460641 124174 net.cpp:157] Top shape: 20 1024 14 14 (4014080)
I0503 20:29:48.460647 124174 net.cpp:157] Top shape: 20 1024 14 14 (4014080)
I0503 20:29:48.460651 124174 net.cpp:165] Memory required for data: 4122460240
I0503 20:29:48.460655 124174 layer_factory.hpp:77] Creating layer res4e_branch2a
I0503 20:29:48.460666 124174 net.cpp:106] Creating Layer res4e_branch2a
I0503 20:29:48.460672 124174 net.cpp:454] res4e_branch2a <- res4d_res4d_relu_0_split_0
I0503 20:29:48.460678 124174 net.cpp:411] res4e_branch2a -> res4e_branch2a
I0503 20:29:48.461475 124174 net.cpp:150] Setting up res4e_branch2a
I0503 20:29:48.461490 124174 net.cpp:157] Top shape: 20 256 14 14 (1003520)
I0503 20:29:48.461495 124174 net.cpp:165] Memory required for data: 4126474320
I0503 20:29:48.461503 124174 layer_factory.hpp:77] Creating layer bn4e_branch2a
I0503 20:29:48.461509 124174 net.cpp:106] Creating Layer bn4e_branch2a
I0503 20:29:48.461514 124174 net.cpp:454] bn4e_branch2a <- res4e_branch2a
I0503 20:29:48.461520 124174 net.cpp:397] bn4e_branch2a -> res4e_branch2a (in-place)
I0503 20:29:48.461683 124174 net.cpp:150] Setting up bn4e_branch2a
I0503 20:29:48.461691 124174 net.cpp:157] Top shape: 20 256 14 14 (1003520)
I0503 20:29:48.461696 124174 net.cpp:165] Memory required for data: 4130488400
I0503 20:29:48.461704 124174 layer_factory.hpp:77] Creating layer scale4e_branch2a
I0503 20:29:48.461712 124174 net.cpp:106] Creating Layer scale4e_branch2a
I0503 20:29:48.461716 124174 net.cpp:454] scale4e_branch2a <- res4e_branch2a
I0503 20:29:48.461722 124174 net.cpp:397] scale4e_branch2a -> res4e_branch2a (in-place)
I0503 20:29:48.461762 124174 layer_factory.hpp:77] Creating layer scale4e_branch2a
I0503 20:29:48.461858 124174 net.cpp:150] Setting up scale4e_branch2a
I0503 20:29:48.461868 124174 net.cpp:157] Top shape: 20 256 14 14 (1003520)
I0503 20:29:48.461871 124174 net.cpp:165] Memory required for data: 4134502480
I0503 20:29:48.461879 124174 layer_factory.hpp:77] Creating layer res4e_branch2a_relu
I0503 20:29:48.461887 124174 net.cpp:106] Creating Layer res4e_branch2a_relu
I0503 20:29:48.461892 124174 net.cpp:454] res4e_branch2a_relu <- res4e_branch2a
I0503 20:29:48.461899 124174 net.cpp:397] res4e_branch2a_relu -> res4e_branch2a (in-place)
I0503 20:29:48.461905 124174 net.cpp:150] Setting up res4e_branch2a_relu
I0503 20:29:48.461910 124174 net.cpp:157] Top shape: 20 256 14 14 (1003520)
I0503 20:29:48.461915 124174 net.cpp:165] Memory required for data: 4138516560
I0503 20:29:48.461920 124174 layer_factory.hpp:77] Creating layer res4e_branch2b
I0503 20:29:48.461928 124174 net.cpp:106] Creating Layer res4e_branch2b
I0503 20:29:48.461932 124174 net.cpp:454] res4e_branch2b <- res4e_branch2a
I0503 20:29:48.461938 124174 net.cpp:411] res4e_branch2b -> res4e_branch2b
I0503 20:29:48.463407 124174 net.cpp:150] Setting up res4e_branch2b
I0503 20:29:48.463423 124174 net.cpp:157] Top shape: 20 256 14 14 (1003520)
I0503 20:29:48.463428 124174 net.cpp:165] Memory required for data: 4142530640
I0503 20:29:48.463433 124174 layer_factory.hpp:77] Creating layer bn4e_branch2b
I0503 20:29:48.463443 124174 net.cpp:106] Creating Layer bn4e_branch2b
I0503 20:29:48.463448 124174 net.cpp:454] bn4e_branch2b <- res4e_branch2b
I0503 20:29:48.463457 124174 net.cpp:397] bn4e_branch2b -> res4e_branch2b (in-place)
I0503 20:29:48.463630 124174 net.cpp:150] Setting up bn4e_branch2b
I0503 20:29:48.463640 124174 net.cpp:157] Top shape: 20 256 14 14 (1003520)
I0503 20:29:48.463645 124174 net.cpp:165] Memory required for data: 4146544720
I0503 20:29:48.463654 124174 layer_factory.hpp:77] Creating layer scale4e_branch2b
I0503 20:29:48.463662 124174 net.cpp:106] Creating Layer scale4e_branch2b
I0503 20:29:48.463667 124174 net.cpp:454] scale4e_branch2b <- res4e_branch2b
I0503 20:29:48.463673 124174 net.cpp:397] scale4e_branch2b -> res4e_branch2b (in-place)
I0503 20:29:48.463714 124174 layer_factory.hpp:77] Creating layer scale4e_branch2b
I0503 20:29:48.463812 124174 net.cpp:150] Setting up scale4e_branch2b
I0503 20:29:48.463820 124174 net.cpp:157] Top shape: 20 256 14 14 (1003520)
I0503 20:29:48.463824 124174 net.cpp:165] Memory required for data: 4150558800
I0503 20:29:48.463831 124174 layer_factory.hpp:77] Creating layer res4e_branch2b_relu
I0503 20:29:48.463838 124174 net.cpp:106] Creating Layer res4e_branch2b_relu
I0503 20:29:48.463843 124174 net.cpp:454] res4e_branch2b_relu <- res4e_branch2b
I0503 20:29:48.463850 124174 net.cpp:397] res4e_branch2b_relu -> res4e_branch2b (in-place)
I0503 20:29:48.463857 124174 net.cpp:150] Setting up res4e_branch2b_relu
I0503 20:29:48.463863 124174 net.cpp:157] Top shape: 20 256 14 14 (1003520)
I0503 20:29:48.463867 124174 net.cpp:165] Memory required for data: 4154572880
I0503 20:29:48.463871 124174 layer_factory.hpp:77] Creating layer res4e_branch2c
I0503 20:29:48.463881 124174 net.cpp:106] Creating Layer res4e_branch2c
I0503 20:29:48.463886 124174 net.cpp:454] res4e_branch2c <- res4e_branch2b
I0503 20:29:48.463891 124174 net.cpp:411] res4e_branch2c -> res4e_branch2c
I0503 20:29:48.464697 124174 net.cpp:150] Setting up res4e_branch2c
I0503 20:29:48.464714 124174 net.cpp:157] Top shape: 20 1024 14 14 (4014080)
I0503 20:29:48.464718 124174 net.cpp:165] Memory required for data: 4170629200
I0503 20:29:48.464725 124174 layer_factory.hpp:77] Creating layer bn4e_branch2c
I0503 20:29:48.464735 124174 net.cpp:106] Creating Layer bn4e_branch2c
I0503 20:29:48.464740 124174 net.cpp:454] bn4e_branch2c <- res4e_branch2c
I0503 20:29:48.464745 124174 net.cpp:397] bn4e_branch2c -> res4e_branch2c (in-place)
I0503 20:29:48.464920 124174 net.cpp:150] Setting up bn4e_branch2c
I0503 20:29:48.464931 124174 net.cpp:157] Top shape: 20 1024 14 14 (4014080)
I0503 20:29:48.464934 124174 net.cpp:165] Memory required for data: 4186685520
I0503 20:29:48.464943 124174 layer_factory.hpp:77] Creating layer scale4e_branch2c
I0503 20:29:48.464951 124174 net.cpp:106] Creating Layer scale4e_branch2c
I0503 20:29:48.464956 124174 net.cpp:454] scale4e_branch2c <- res4e_branch2c
I0503 20:29:48.464964 124174 net.cpp:397] scale4e_branch2c -> res4e_branch2c (in-place)
I0503 20:29:48.465003 124174 layer_factory.hpp:77] Creating layer scale4e_branch2c
I0503 20:29:48.465102 124174 net.cpp:150] Setting up scale4e_branch2c
I0503 20:29:48.465113 124174 net.cpp:157] Top shape: 20 1024 14 14 (4014080)
I0503 20:29:48.465118 124174 net.cpp:165] Memory required for data: 4202741840
I0503 20:29:48.465126 124174 layer_factory.hpp:77] Creating layer res4e
I0503 20:29:48.465132 124174 net.cpp:106] Creating Layer res4e
I0503 20:29:48.465137 124174 net.cpp:454] res4e <- res4d_res4d_relu_0_split_1
I0503 20:29:48.465142 124174 net.cpp:454] res4e <- res4e_branch2c
I0503 20:29:48.465148 124174 net.cpp:411] res4e -> res4e
I0503 20:29:48.465173 124174 net.cpp:150] Setting up res4e
I0503 20:29:48.465181 124174 net.cpp:157] Top shape: 20 1024 14 14 (4014080)
I0503 20:29:48.465186 124174 net.cpp:165] Memory required for data: 4218798160
I0503 20:29:48.465190 124174 layer_factory.hpp:77] Creating layer res4e_relu
I0503 20:29:48.465198 124174 net.cpp:106] Creating Layer res4e_relu
I0503 20:29:48.465201 124174 net.cpp:454] res4e_relu <- res4e
I0503 20:29:48.465209 124174 net.cpp:397] res4e_relu -> res4e (in-place)
I0503 20:29:48.465215 124174 net.cpp:150] Setting up res4e_relu
I0503 20:29:48.465226 124174 net.cpp:157] Top shape: 20 1024 14 14 (4014080)
I0503 20:29:48.465230 124174 net.cpp:165] Memory required for data: 4234854480
I0503 20:29:48.465235 124174 layer_factory.hpp:77] Creating layer res4e_res4e_relu_0_split
I0503 20:29:48.465240 124174 net.cpp:106] Creating Layer res4e_res4e_relu_0_split
I0503 20:29:48.465245 124174 net.cpp:454] res4e_res4e_relu_0_split <- res4e
I0503 20:29:48.465250 124174 net.cpp:411] res4e_res4e_relu_0_split -> res4e_res4e_relu_0_split_0
I0503 20:29:48.465257 124174 net.cpp:411] res4e_res4e_relu_0_split -> res4e_res4e_relu_0_split_1
I0503 20:29:48.465292 124174 net.cpp:150] Setting up res4e_res4e_relu_0_split
I0503 20:29:48.465301 124174 net.cpp:157] Top shape: 20 1024 14 14 (4014080)
I0503 20:29:48.465306 124174 net.cpp:157] Top shape: 20 1024 14 14 (4014080)
I0503 20:29:48.465311 124174 net.cpp:165] Memory required for data: 4266967120
I0503 20:29:48.465314 124174 layer_factory.hpp:77] Creating layer res4f_branch2a
I0503 20:29:48.465324 124174 net.cpp:106] Creating Layer res4f_branch2a
I0503 20:29:48.465329 124174 net.cpp:454] res4f_branch2a <- res4e_res4e_relu_0_split_0
I0503 20:29:48.465335 124174 net.cpp:411] res4f_branch2a -> res4f_branch2a
I0503 20:29:48.466133 124174 net.cpp:150] Setting up res4f_branch2a
I0503 20:29:48.466148 124174 net.cpp:157] Top shape: 20 256 14 14 (1003520)
I0503 20:29:48.466153 124174 net.cpp:165] Memory required for data: 4270981200
I0503 20:29:48.466161 124174 layer_factory.hpp:77] Creating layer bn4f_branch2a
I0503 20:29:48.466167 124174 net.cpp:106] Creating Layer bn4f_branch2a
I0503 20:29:48.466172 124174 net.cpp:454] bn4f_branch2a <- res4f_branch2a
I0503 20:29:48.466179 124174 net.cpp:397] bn4f_branch2a -> res4f_branch2a (in-place)
I0503 20:29:48.466342 124174 net.cpp:150] Setting up bn4f_branch2a
I0503 20:29:48.466351 124174 net.cpp:157] Top shape: 20 256 14 14 (1003520)
I0503 20:29:48.466356 124174 net.cpp:165] Memory required for data: 4274995280
I0503 20:29:48.466364 124174 layer_factory.hpp:77] Creating layer scale4f_branch2a
I0503 20:29:48.466372 124174 net.cpp:106] Creating Layer scale4f_branch2a
I0503 20:29:48.466377 124174 net.cpp:454] scale4f_branch2a <- res4f_branch2a
I0503 20:29:48.466382 124174 net.cpp:397] scale4f_branch2a -> res4f_branch2a (in-place)
I0503 20:29:48.466421 124174 layer_factory.hpp:77] Creating layer scale4f_branch2a
I0503 20:29:48.466518 124174 net.cpp:150] Setting up scale4f_branch2a
I0503 20:29:48.466527 124174 net.cpp:157] Top shape: 20 256 14 14 (1003520)
I0503 20:29:48.466531 124174 net.cpp:165] Memory required for data: 4279009360
I0503 20:29:48.466538 124174 layer_factory.hpp:77] Creating layer res4f_branch2a_relu
I0503 20:29:48.466545 124174 net.cpp:106] Creating Layer res4f_branch2a_relu
I0503 20:29:48.466550 124174 net.cpp:454] res4f_branch2a_relu <- res4f_branch2a
I0503 20:29:48.466557 124174 net.cpp:397] res4f_branch2a_relu -> res4f_branch2a (in-place)
I0503 20:29:48.466564 124174 net.cpp:150] Setting up res4f_branch2a_relu
I0503 20:29:48.466570 124174 net.cpp:157] Top shape: 20 256 14 14 (1003520)
I0503 20:29:48.466574 124174 net.cpp:165] Memory required for data: 4283023440
I0503 20:29:48.466591 124174 layer_factory.hpp:77] Creating layer res4f_branch2b
I0503 20:29:48.466599 124174 net.cpp:106] Creating Layer res4f_branch2b
I0503 20:29:48.466604 124174 net.cpp:454] res4f_branch2b <- res4f_branch2a
I0503 20:29:48.466612 124174 net.cpp:411] res4f_branch2b -> res4f_branch2b
I0503 20:29:48.468036 124174 net.cpp:150] Setting up res4f_branch2b
I0503 20:29:48.468051 124174 net.cpp:157] Top shape: 20 256 14 14 (1003520)
I0503 20:29:48.468055 124174 net.cpp:165] Memory required for data: 4287037520
I0503 20:29:48.468062 124174 layer_factory.hpp:77] Creating layer bn4f_branch2b
I0503 20:29:48.468070 124174 net.cpp:106] Creating Layer bn4f_branch2b
I0503 20:29:48.468075 124174 net.cpp:454] bn4f_branch2b <- res4f_branch2b
I0503 20:29:48.468080 124174 net.cpp:397] bn4f_branch2b -> res4f_branch2b (in-place)
I0503 20:29:48.468240 124174 net.cpp:150] Setting up bn4f_branch2b
I0503 20:29:48.468255 124174 net.cpp:157] Top shape: 20 256 14 14 (1003520)
I0503 20:29:48.468261 124174 net.cpp:165] Memory required for data: 4291051600
I0503 20:29:48.468271 124174 layer_factory.hpp:77] Creating layer scale4f_branch2b
I0503 20:29:48.468278 124174 net.cpp:106] Creating Layer scale4f_branch2b
I0503 20:29:48.468283 124174 net.cpp:454] scale4f_branch2b <- res4f_branch2b
I0503 20:29:48.468289 124174 net.cpp:397] scale4f_branch2b -> res4f_branch2b (in-place)
I0503 20:29:48.468329 124174 layer_factory.hpp:77] Creating layer scale4f_branch2b
I0503 20:29:48.468427 124174 net.cpp:150] Setting up scale4f_branch2b
I0503 20:29:48.468451 124174 net.cpp:157] Top shape: 20 256 14 14 (1003520)
I0503 20:29:48.468456 124174 net.cpp:165] Memory required for data: 4295065680
I0503 20:29:48.468462 124174 layer_factory.hpp:77] Creating layer res4f_branch2b_relu
I0503 20:29:48.468477 124174 net.cpp:106] Creating Layer res4f_branch2b_relu
I0503 20:29:48.468482 124174 net.cpp:454] res4f_branch2b_relu <- res4f_branch2b
I0503 20:29:48.468488 124174 net.cpp:397] res4f_branch2b_relu -> res4f_branch2b (in-place)
I0503 20:29:48.468495 124174 net.cpp:150] Setting up res4f_branch2b_relu
I0503 20:29:48.468502 124174 net.cpp:157] Top shape: 20 256 14 14 (1003520)
I0503 20:29:48.468505 124174 net.cpp:165] Memory required for data: 4299079760
I0503 20:29:48.468509 124174 layer_factory.hpp:77] Creating layer res4f_branch2c
I0503 20:29:48.468518 124174 net.cpp:106] Creating Layer res4f_branch2c
I0503 20:29:48.468523 124174 net.cpp:454] res4f_branch2c <- res4f_branch2b
I0503 20:29:48.468529 124174 net.cpp:411] res4f_branch2c -> res4f_branch2c
I0503 20:29:48.469336 124174 net.cpp:150] Setting up res4f_branch2c
I0503 20:29:48.469352 124174 net.cpp:157] Top shape: 20 1024 14 14 (4014080)
I0503 20:29:48.469355 124174 net.cpp:165] Memory required for data: 4315136080
I0503 20:29:48.469362 124174 layer_factory.hpp:77] Creating layer bn4f_branch2c
I0503 20:29:48.469372 124174 net.cpp:106] Creating Layer bn4f_branch2c
I0503 20:29:48.469377 124174 net.cpp:454] bn4f_branch2c <- res4f_branch2c
I0503 20:29:48.469383 124174 net.cpp:397] bn4f_branch2c -> res4f_branch2c (in-place)
I0503 20:29:48.469550 124174 net.cpp:150] Setting up bn4f_branch2c
I0503 20:29:48.469560 124174 net.cpp:157] Top shape: 20 1024 14 14 (4014080)
I0503 20:29:48.469564 124174 net.cpp:165] Memory required for data: 4331192400
I0503 20:29:48.469614 124174 layer_factory.hpp:77] Creating layer scale4f_branch2c
I0503 20:29:48.469624 124174 net.cpp:106] Creating Layer scale4f_branch2c
I0503 20:29:48.469630 124174 net.cpp:454] scale4f_branch2c <- res4f_branch2c
I0503 20:29:48.469635 124174 net.cpp:397] scale4f_branch2c -> res4f_branch2c (in-place)
I0503 20:29:48.469674 124174 layer_factory.hpp:77] Creating layer scale4f_branch2c
I0503 20:29:48.469780 124174 net.cpp:150] Setting up scale4f_branch2c
I0503 20:29:48.469789 124174 net.cpp:157] Top shape: 20 1024 14 14 (4014080)
I0503 20:29:48.469812 124174 net.cpp:165] Memory required for data: 4347248720
I0503 20:29:48.469820 124174 layer_factory.hpp:77] Creating layer res4f
I0503 20:29:48.469827 124174 net.cpp:106] Creating Layer res4f
I0503 20:29:48.469832 124174 net.cpp:454] res4f <- res4e_res4e_relu_0_split_1
I0503 20:29:48.469838 124174 net.cpp:454] res4f <- res4f_branch2c
I0503 20:29:48.469846 124174 net.cpp:411] res4f -> res4f
I0503 20:29:48.469871 124174 net.cpp:150] Setting up res4f
I0503 20:29:48.469879 124174 net.cpp:157] Top shape: 20 1024 14 14 (4014080)
I0503 20:29:48.469884 124174 net.cpp:165] Memory required for data: 4363305040
I0503 20:29:48.469888 124174 layer_factory.hpp:77] Creating layer res4f_relu
I0503 20:29:48.469897 124174 net.cpp:106] Creating Layer res4f_relu
I0503 20:29:48.469902 124174 net.cpp:454] res4f_relu <- res4f
I0503 20:29:48.469907 124174 net.cpp:397] res4f_relu -> res4f (in-place)
I0503 20:29:48.469914 124174 net.cpp:150] Setting up res4f_relu
I0503 20:29:48.469921 124174 net.cpp:157] Top shape: 20 1024 14 14 (4014080)
I0503 20:29:48.469925 124174 net.cpp:165] Memory required for data: 4379361360
I0503 20:29:48.469939 124174 layer_factory.hpp:77] Creating layer res4f_res4f_relu_0_split
I0503 20:29:48.469945 124174 net.cpp:106] Creating Layer res4f_res4f_relu_0_split
I0503 20:29:48.469950 124174 net.cpp:454] res4f_res4f_relu_0_split <- res4f
I0503 20:29:48.469957 124174 net.cpp:411] res4f_res4f_relu_0_split -> res4f_res4f_relu_0_split_0
I0503 20:29:48.469965 124174 net.cpp:411] res4f_res4f_relu_0_split -> res4f_res4f_relu_0_split_1
I0503 20:29:48.470001 124174 net.cpp:150] Setting up res4f_res4f_relu_0_split
I0503 20:29:48.470010 124174 net.cpp:157] Top shape: 20 1024 14 14 (4014080)
I0503 20:29:48.470016 124174 net.cpp:157] Top shape: 20 1024 14 14 (4014080)
I0503 20:29:48.470033 124174 net.cpp:165] Memory required for data: 4411474000
I0503 20:29:48.470038 124174 layer_factory.hpp:77] Creating layer res5a_branch1
I0503 20:29:48.470046 124174 net.cpp:106] Creating Layer res5a_branch1
I0503 20:29:48.470051 124174 net.cpp:454] res5a_branch1 <- res4f_res4f_relu_0_split_0
I0503 20:29:48.470059 124174 net.cpp:411] res5a_branch1 -> res5a_branch1
I0503 20:29:48.474390 124174 net.cpp:150] Setting up res5a_branch1
I0503 20:29:48.474416 124174 net.cpp:157] Top shape: 20 2048 7 7 (2007040)
I0503 20:29:48.474421 124174 net.cpp:165] Memory required for data: 4419502160
I0503 20:29:48.474427 124174 layer_factory.hpp:77] Creating layer bn5a_branch1
I0503 20:29:48.474434 124174 net.cpp:106] Creating Layer bn5a_branch1
I0503 20:29:48.474439 124174 net.cpp:454] bn5a_branch1 <- res5a_branch1
I0503 20:29:48.474445 124174 net.cpp:397] bn5a_branch1 -> res5a_branch1 (in-place)
I0503 20:29:48.475843 124174 net.cpp:150] Setting up bn5a_branch1
I0503 20:29:48.475862 124174 net.cpp:157] Top shape: 20 2048 7 7 (2007040)
I0503 20:29:48.475868 124174 net.cpp:165] Memory required for data: 4427530320
I0503 20:29:48.475878 124174 layer_factory.hpp:77] Creating layer scale5a_branch1
I0503 20:29:48.475886 124174 net.cpp:106] Creating Layer scale5a_branch1
I0503 20:29:48.475891 124174 net.cpp:454] scale5a_branch1 <- res5a_branch1
I0503 20:29:48.475898 124174 net.cpp:397] scale5a_branch1 -> res5a_branch1 (in-place)
I0503 20:29:48.475941 124174 layer_factory.hpp:77] Creating layer scale5a_branch1
I0503 20:29:48.476053 124174 net.cpp:150] Setting up scale5a_branch1
I0503 20:29:48.476063 124174 net.cpp:157] Top shape: 20 2048 7 7 (2007040)
I0503 20:29:48.476068 124174 net.cpp:165] Memory required for data: 4435558480
I0503 20:29:48.476074 124174 layer_factory.hpp:77] Creating layer res5a_branch2a
I0503 20:29:48.476085 124174 net.cpp:106] Creating Layer res5a_branch2a
I0503 20:29:48.476090 124174 net.cpp:454] res5a_branch2a <- res4f_res4f_relu_0_split_1
I0503 20:29:48.476097 124174 net.cpp:411] res5a_branch2a -> res5a_branch2a
I0503 20:29:48.477429 124174 net.cpp:150] Setting up res5a_branch2a
I0503 20:29:48.477445 124174 net.cpp:157] Top shape: 20 512 7 7 (501760)
I0503 20:29:48.477450 124174 net.cpp:165] Memory required for data: 4437565520
I0503 20:29:48.477458 124174 layer_factory.hpp:77] Creating layer bn5a_branch2a
I0503 20:29:48.477468 124174 net.cpp:106] Creating Layer bn5a_branch2a
I0503 20:29:48.477473 124174 net.cpp:454] bn5a_branch2a <- res5a_branch2a
I0503 20:29:48.477478 124174 net.cpp:397] bn5a_branch2a -> res5a_branch2a (in-place)
I0503 20:29:48.477650 124174 net.cpp:150] Setting up bn5a_branch2a
I0503 20:29:48.477660 124174 net.cpp:157] Top shape: 20 512 7 7 (501760)
I0503 20:29:48.477664 124174 net.cpp:165] Memory required for data: 4439572560
I0503 20:29:48.477674 124174 layer_factory.hpp:77] Creating layer scale5a_branch2a
I0503 20:29:48.477680 124174 net.cpp:106] Creating Layer scale5a_branch2a
I0503 20:29:48.477685 124174 net.cpp:454] scale5a_branch2a <- res5a_branch2a
I0503 20:29:48.477694 124174 net.cpp:397] scale5a_branch2a -> res5a_branch2a (in-place)
I0503 20:29:48.477743 124174 layer_factory.hpp:77] Creating layer scale5a_branch2a
I0503 20:29:48.477854 124174 net.cpp:150] Setting up scale5a_branch2a
I0503 20:29:48.477865 124174 net.cpp:157] Top shape: 20 512 7 7 (501760)
I0503 20:29:48.477870 124174 net.cpp:165] Memory required for data: 4441579600
I0503 20:29:48.477883 124174 layer_factory.hpp:77] Creating layer res5a_branch2a_relu
I0503 20:29:48.477891 124174 net.cpp:106] Creating Layer res5a_branch2a_relu
I0503 20:29:48.477896 124174 net.cpp:454] res5a_branch2a_relu <- res5a_branch2a
I0503 20:29:48.477902 124174 net.cpp:397] res5a_branch2a_relu -> res5a_branch2a (in-place)
I0503 20:29:48.477910 124174 net.cpp:150] Setting up res5a_branch2a_relu
I0503 20:29:48.477916 124174 net.cpp:157] Top shape: 20 512 7 7 (501760)
I0503 20:29:48.477921 124174 net.cpp:165] Memory required for data: 4443586640
I0503 20:29:48.477924 124174 layer_factory.hpp:77] Creating layer res5a_branch2b
I0503 20:29:48.477934 124174 net.cpp:106] Creating Layer res5a_branch2b
I0503 20:29:48.477952 124174 net.cpp:454] res5a_branch2b <- res5a_branch2a
I0503 20:29:48.477959 124174 net.cpp:411] res5a_branch2b -> res5a_branch2b
I0503 20:29:48.482867 124174 net.cpp:150] Setting up res5a_branch2b
I0503 20:29:48.482888 124174 net.cpp:157] Top shape: 20 512 7 7 (501760)
I0503 20:29:48.482893 124174 net.cpp:165] Memory required for data: 4445593680
I0503 20:29:48.482900 124174 layer_factory.hpp:77] Creating layer bn5a_branch2b
I0503 20:29:48.482909 124174 net.cpp:106] Creating Layer bn5a_branch2b
I0503 20:29:48.482914 124174 net.cpp:454] bn5a_branch2b <- res5a_branch2b
I0503 20:29:48.482923 124174 net.cpp:397] bn5a_branch2b -> res5a_branch2b (in-place)
I0503 20:29:48.483109 124174 net.cpp:150] Setting up bn5a_branch2b
I0503 20:29:48.483119 124174 net.cpp:157] Top shape: 20 512 7 7 (501760)
I0503 20:29:48.483124 124174 net.cpp:165] Memory required for data: 4447600720
I0503 20:29:48.483132 124174 layer_factory.hpp:77] Creating layer scale5a_branch2b
I0503 20:29:48.483140 124174 net.cpp:106] Creating Layer scale5a_branch2b
I0503 20:29:48.483145 124174 net.cpp:454] scale5a_branch2b <- res5a_branch2b
I0503 20:29:48.483151 124174 net.cpp:397] scale5a_branch2b -> res5a_branch2b (in-place)
I0503 20:29:48.483191 124174 layer_factory.hpp:77] Creating layer scale5a_branch2b
I0503 20:29:48.483295 124174 net.cpp:150] Setting up scale5a_branch2b
I0503 20:29:48.483305 124174 net.cpp:157] Top shape: 20 512 7 7 (501760)
I0503 20:29:48.483309 124174 net.cpp:165] Memory required for data: 4449607760
I0503 20:29:48.483316 124174 layer_factory.hpp:77] Creating layer res5a_branch2b_relu
I0503 20:29:48.483324 124174 net.cpp:106] Creating Layer res5a_branch2b_relu
I0503 20:29:48.483328 124174 net.cpp:454] res5a_branch2b_relu <- res5a_branch2b
I0503 20:29:48.483335 124174 net.cpp:397] res5a_branch2b_relu -> res5a_branch2b (in-place)
I0503 20:29:48.483342 124174 net.cpp:150] Setting up res5a_branch2b_relu
I0503 20:29:48.483348 124174 net.cpp:157] Top shape: 20 512 7 7 (501760)
I0503 20:29:48.483352 124174 net.cpp:165] Memory required for data: 4451614800
I0503 20:29:48.483357 124174 layer_factory.hpp:77] Creating layer res5a_branch2c
I0503 20:29:48.483364 124174 net.cpp:106] Creating Layer res5a_branch2c
I0503 20:29:48.483369 124174 net.cpp:454] res5a_branch2c <- res5a_branch2b
I0503 20:29:48.483377 124174 net.cpp:411] res5a_branch2c -> res5a_branch2c
I0503 20:29:48.485715 124174 net.cpp:150] Setting up res5a_branch2c
I0503 20:29:48.485733 124174 net.cpp:157] Top shape: 20 2048 7 7 (2007040)
I0503 20:29:48.485738 124174 net.cpp:165] Memory required for data: 4459642960
…
I0503 20:29:48.596719 124174 net.cpp:397] bn4d_branch2a -> res4d_branch2a (in-place)
I0503 20:29:48.596907 124174 net.cpp:150] Setting up bn4d_branch2a
I0503 20:29:48.596917 124174 net.cpp:157] Top shape: 16 256 14 14 (802816)
I0503 20:29:48.596921 124174 net.cpp:165] Memory required for data: 3188785344
I0503 20:29:48.596930 124174 layer_factory.hpp:77] Creating layer scale4d_branch2a
I0503 20:29:48.596937 124174 net.cpp:106] Creating Layer scale4d_branch2a
I0503 20:29:48.596942 124174 net.cpp:454] scale4d_branch2a <- res4d_branch2a
I0503 20:29:48.596948 124174 net.cpp:397] scale4d_branch2a -> res4d_branch2a (in-place)
I0503 20:29:48.596988 124174 layer_factory.hpp:77] Creating layer scale4d_branch2a
I0503 20:29:48.597089 124174 net.cpp:150] Setting up scale4d_branch2a
I0503 20:29:48.597098 124174 net.cpp:157] Top shape: 16 256 14 14 (802816)
I0503 20:29:48.597102 124174 net.cpp:165] Memory required for data: 3191996608
I0503 20:29:48.597110 124174 layer_factory.hpp:77] Creating layer res4d_branch2a_relu
I0503 20:29:48.597116 124174 net.cpp:106] Creating Layer res4d_branch2a_relu
I0503 20:29:48.597121 124174 net.cpp:454] res4d_branch2a_relu <- res4d_branch2a
I0503 20:29:48.597128 124174 net.cpp:397] res4d_branch2a_relu -> res4d_branch2a (in-place)
I0503 20:29:48.597136 124174 net.cpp:150] Setting up res4d_branch2a_relu
I0503 20:29:48.597141 124174 net.cpp:157] Top shape: 16 256 14 14 (802816)
I0503 20:29:48.597146 124174 net.cpp:165] Memory required for data: 3195207872
I0503 20:29:48.597149 124174 layer_factory.hpp:77] Creating layer res4d_branch2b
I0503 20:29:48.597157 124174 net.cpp:106] Creating Layer res4d_branch2b
I0503 20:29:48.597162 124174 net.cpp:454] res4d_branch2b <- res4d_branch2a
I0503 20:29:48.597169 124174 net.cpp:411] res4d_branch2b -> res4d_branch2b
I0503 20:29:48.598593 124174 net.cpp:150] Setting up res4d_branch2b
I0503 20:29:48.598609 124174 net.cpp:157] Top shape: 16 256 14 14 (802816)
I0503 20:29:48.598613 124174 net.cpp:165] Memory required for data: 3198419136
I0503 20:29:48.598620 124174 layer_factory.hpp:77] Creating layer bn4d_branch2b
I0503 20:29:48.598628 124174 net.cpp:106] Creating Layer bn4d_branch2b
I0503 20:29:48.598633 124174 net.cpp:454] bn4d_branch2b <- res4d_branch2b
I0503 20:29:48.598639 124174 net.cpp:397] bn4d_branch2b -> res4d_branch2b (in-place)
I0503 20:29:48.598808 124174 net.cpp:150] Setting up bn4d_branch2b
I0503 20:29:48.598822 124174 net.cpp:157] Top shape: 16 256 14 14 (802816)
I0503 20:29:48.598841 124174 net.cpp:165] Memory required for data: 3201630400
I0503 20:29:48.598851 124174 layer_factory.hpp:77] Creating layer scale4d_branch2b
I0503 20:29:48.598881 124174 net.cpp:106] Creating Layer scale4d_branch2b
I0503 20:29:48.598889 124174 net.cpp:454] scale4d_branch2b <- res4d_branch2b
I0503 20:29:48.598896 124174 net.cpp:397] scale4d_branch2b -> res4d_branch2b (in-place)
I0503 20:29:48.598944 124174 layer_factory.hpp:77] Creating layer scale4d_branch2b
I0503 20:29:48.599056 124174 net.cpp:150] Setting up scale4d_branch2b
I0503 20:29:48.599066 124174 net.cpp:157] Top shape: 16 256 14 14 (802816)
I0503 20:29:48.599076 124174 net.cpp:165] Memory required for data: 3204841664
I0503 20:29:48.599083 124174 layer_factory.hpp:77] Creating layer res4d_branch2b_relu
I0503 20:29:48.599092 124174 net.cpp:106] Creating Layer res4d_branch2b_relu
I0503 20:29:48.599109 124174 net.cpp:454] res4d_branch2b_relu <- res4d_branch2b
I0503 20:29:48.599117 124174 net.cpp:397] res4d_branch2b_relu -> res4d_branch2b (in-place)
I0503 20:29:48.599124 124174 net.cpp:150] Setting up res4d_branch2b_relu
I0503 20:29:48.599130 124174 net.cpp:157] Top shape: 16 256 14 14 (802816)
I0503 20:29:48.599134 124174 net.cpp:165] Memory required for data: 3208052928
I0503 20:29:48.599138 124174 layer_factory.hpp:77] Creating layer res4d_branch2c
I0503 20:29:48.599148 124174 net.cpp:106] Creating Layer res4d_branch2c
I0503 20:29:48.599153 124174 net.cpp:454] res4d_branch2c <- res4d_branch2b
I0503 20:29:48.599159 124174 net.cpp:411] res4d_branch2c -> res4d_branch2c
I0503 20:29:48.599956 124174 net.cpp:150] Setting up res4d_branch2c
I0503 20:29:48.599970 124174 net.cpp:157] Top shape: 16 1024 14 14 (3211264)
I0503 20:29:48.599987 124174 net.cpp:165] Memory required for data: 3220897984
I0503 20:29:48.599994 124174 layer_factory.hpp:77] Creating layer bn4d_branch2c
I0503 20:29:48.600004 124174 net.cpp:106] Creating Layer bn4d_branch2c
I0503 20:29:48.600010 124174 net.cpp:454] bn4d_branch2c <- res4d_branch2c
I0503 20:29:48.600016 124174 net.cpp:397] bn4d_branch2c -> res4d_branch2c (in-place)
I0503 20:29:48.600206 124174 net.cpp:150] Setting up bn4d_branch2c
I0503 20:29:48.600217 124174 net.cpp:157] Top shape: 16 1024 14 14 (3211264)
I0503 20:29:48.600221 124174 net.cpp:165] Memory required for data: 3233743040
I0503 20:29:48.600230 124174 layer_factory.hpp:77] Creating layer scale4d_branch2c
I0503 20:29:48.600250 124174 net.cpp:106] Creating Layer scale4d_branch2c
I0503 20:29:48.600256 124174 net.cpp:454] scale4d_branch2c <- res4d_branch2c
I0503 20:29:48.600265 124174 net.cpp:397] scale4d_branch2c -> res4d_branch2c (in-place)
I0503 20:29:48.600306 124174 layer_factory.hpp:77] Creating layer scale4d_branch2c
I0503 20:29:48.600417 124174 net.cpp:150] Setting up scale4d_branch2c
I0503 20:29:48.600426 124174 net.cpp:157] Top shape: 16 1024 14 14 (3211264)
I0503 20:29:48.600430 124174 net.cpp:165] Memory required for data: 3246588096
I0503 20:29:48.600448 124174 layer_factory.hpp:77] Creating layer res4d
I0503 20:29:48.600456 124174 net.cpp:106] Creating Layer res4d
I0503 20:29:48.600461 124174 net.cpp:454] res4d <- res4c_res4c_relu_0_split_1
I0503 20:29:48.600471 124174 net.cpp:454] res4d <- res4d_branch2c
I0503 20:29:48.600476 124174 net.cpp:411] res4d -> res4d
I0503 20:29:48.600503 124174 net.cpp:150] Setting up res4d
I0503 20:29:48.600512 124174 net.cpp:157] Top shape: 16 1024 14 14 (3211264)
I0503 20:29:48.600517 124174 net.cpp:165] Memory required for data: 3259433152
I0503 20:29:48.600522 124174 layer_factory.hpp:77] Creating layer res4d_relu
I0503 20:29:48.600529 124174 net.cpp:106] Creating Layer res4d_relu
I0503 20:29:48.600533 124174 net.cpp:454] res4d_relu <- res4d
I0503 20:29:48.600539 124174 net.cpp:397] res4d_relu -> res4d (in-place)
I0503 20:29:48.600546 124174 net.cpp:150] Setting up res4d_relu
I0503 20:29:48.600553 124174 net.cpp:157] Top shape: 16 1024 14 14 (3211264)
I0503 20:29:48.600556 124174 net.cpp:165] Memory required for data: 3272278208
I0503 20:29:48.600560 124174 layer_factory.hpp:77] Creating layer res4d_res4d_relu_0_split
I0503 20:29:48.600565 124174 net.cpp:106] Creating Layer res4d_res4d_relu_0_split
I0503 20:29:48.600569 124174 net.cpp:454] res4d_res4d_relu_0_split <- res4d
I0503 20:29:48.600577 124174 net.cpp:411] res4d_res4d_relu_0_split -> res4d_res4d_relu_0_split_0
I0503 20:29:48.600584 124174 net.cpp:411] res4d_res4d_relu_0_split -> res4d_res4d_relu_0_split_1
I0503 20:29:48.600617 124174 net.cpp:150] Setting up res4d_res4d_relu_0_split
I0503 20:29:48.600625 124174 net.cpp:157] Top shape: 16 1024 14 14 (3211264)
I0503 20:29:48.600630 124174 net.cpp:157] Top shape: 16 1024 14 14 (3211264)
I0503 20:29:48.600639 124174 net.cpp:165] Memory required for data: 3297968320
I0503 20:29:48.600644 124174 layer_factory.hpp:77] Creating layer res4e_branch2a
I0503 20:29:48.600654 124174 net.cpp:106] Creating Layer res4e_branch2a
I0503 20:29:48.600659 124174 net.cpp:454] res4e_branch2a <- res4d_res4d_relu_0_split_0
I0503 20:29:48.600666 124174 net.cpp:411] res4e_branch2a -> res4e_branch2a
I0503 20:29:48.601485 124174 net.cpp:150] Setting up res4e_branch2a
I0503 20:29:48.601500 124174 net.cpp:157] Top shape: 16 256 14 14 (802816)
I0503 20:29:48.601505 124174 net.cpp:165] Memory required for data: 3301179584
I0503 20:29:48.601511 124174 layer_factory.hpp:77] Creating layer bn4e_branch2a
I0503 20:29:48.601522 124174 net.cpp:106] Creating Layer bn4e_branch2a
I0503 20:29:48.601528 124174 net.cpp:454] bn4e_branch2a <- res4e_branch2a
I0503 20:29:48.601534 124174 net.cpp:397] bn4e_branch2a -> res4e_branch2a (in-place)
I0503 20:29:48.601706 124174 net.cpp:150] Setting up bn4e_branch2a
I0503 20:29:48.601716 124174 net.cpp:157] Top shape: 16 256 14 14 (802816)
I0503 20:29:48.601719 124174 net.cpp:165] Memory required for data: 3304390848
I0503 20:29:48.601728 124174 layer_factory.hpp:77] Creating layer scale4e_branch2a
I0503 20:29:48.601735 124174 net.cpp:106] Creating Layer scale4e_branch2a
I0503 20:29:48.601740 124174 net.cpp:454] scale4e_branch2a <- res4e_branch2a
I0503 20:29:48.601747 124174 net.cpp:397] scale4e_branch2a -> res4e_branch2a (in-place)
I0503 20:29:48.601788 124174 layer_factory.hpp:77] Creating layer scale4e_branch2a
I0503 20:29:48.601887 124174 net.cpp:150] Setting up scale4e_branch2a
I0503 20:29:48.601897 124174 net.cpp:157] Top shape: 16 256 14 14 (802816)
I0503 20:29:48.601900 124174 net.cpp:165] Memory required for data: 3307602112
I0503 20:29:48.601907 124174 layer_factory.hpp:77] Creating layer res4e_branch2a_relu
I0503 20:29:48.601917 124174 net.cpp:106] Creating Layer res4e_branch2a_relu
I0503 20:29:48.601920 124174 net.cpp:454] res4e_branch2a_relu <- res4e_branch2a
I0503 20:29:48.601927 124174 net.cpp:397] res4e_branch2a_relu -> res4e_branch2a (in-place)
I0503 20:29:48.601933 124174 net.cpp:150] Setting up res4e_branch2a_relu
I0503 20:29:48.601939 124174 net.cpp:157] Top shape: 16 256 14 14 (802816)
I0503 20:29:48.601944 124174 net.cpp:165] Memory required for data: 3310813376
I0503 20:29:48.601948 124174 layer_factory.hpp:77] Creating layer res4e_branch2b
I0503 20:29:48.601958 124174 net.cpp:106] Creating Layer res4e_branch2b
I0503 20:29:48.601963 124174 net.cpp:454] res4e_branch2b <- res4e_branch2a
I0503 20:29:48.601969 124174 net.cpp:411] res4e_branch2b -> res4e_branch2b
I0503 20:29:48.603416 124174 net.cpp:150] Setting up res4e_branch2b
I0503 20:29:48.603432 124174 net.cpp:157] Top shape: 16 256 14 14 (802816)
I0503 20:29:48.603436 124174 net.cpp:165] Memory required for data: 3314024640
I0503 20:29:48.603443 124174 layer_factory.hpp:77] Creating layer bn4e_branch2b
I0503 20:29:48.603451 124174 net.cpp:106] Creating Layer bn4e_branch2b
I0503 20:29:48.603456 124174 net.cpp:454] bn4e_branch2b <- res4e_branch2b
I0503 20:29:48.603462 124174 net.cpp:397] bn4e_branch2b -> res4e_branch2b (in-place)
I0503 20:29:48.603644 124174 net.cpp:150] Setting up bn4e_branch2b
I0503 20:29:48.603654 124174 net.cpp:157] Top shape: 16 256 14 14 (802816)
I0503 20:29:48.603672 124174 net.cpp:165] Memory required for data: 3317235904
I0503 20:29:48.603680 124174 layer_factory.hpp:77] Creating layer scale4e_branch2b
I0503 20:29:48.603688 124174 net.cpp:106] Creating Layer scale4e_branch2b
I0503 20:29:48.603693 124174 net.cpp:454] scale4e_branch2b <- res4e_branch2b
I0503 20:29:48.603698 124174 net.cpp:397] scale4e_branch2b -> res4e_branch2b (in-place)
I0503 20:29:48.603740 124174 layer_factory.hpp:77] Creating layer scale4e_branch2b
I0503 20:29:48.603842 124174 net.cpp:150] Setting up scale4e_branch2b
I0503 20:29:48.603850 124174 net.cpp:157] Top shape: 16 256 14 14 (802816)
I0503 20:29:48.603854 124174 net.cpp:165] Memory required for data: 3320447168
I0503 20:29:48.603862 124174 layer_factory.hpp:77] Creating layer res4e_branch2b_relu
I0503 20:29:48.603875 124174 net.cpp:106] Creating Layer res4e_branch2b_relu
I0503 20:29:48.603881 124174 net.cpp:454] res4e_branch2b_relu <- res4e_branch2b
I0503 20:29:48.603888 124174 net.cpp:397] res4e_branch2b_relu -> res4e_branch2b (in-place)
I0503 20:29:48.603894 124174 net.cpp:150] Setting up res4e_branch2b_relu
I0503 20:29:48.603900 124174 net.cpp:157] Top shape: 16 256 14 14 (802816)
I0503 20:29:48.603904 124174 net.cpp:165] Memory required for data: 3323658432
I0503 20:29:48.603909 124174 layer_factory.hpp:77] Creating layer res4e_branch2c
I0503 20:29:48.603919 124174 net.cpp:106] Creating Layer res4e_branch2c
I0503 20:29:48.603924 124174 net.cpp:454] res4e_branch2c <- res4e_branch2b
I0503 20:29:48.603929 124174 net.cpp:411] res4e_branch2c -> res4e_branch2c
I0503 20:29:48.605571 124174 net.cpp:150] Setting up res4e_branch2c
I0503 20:29:48.605587 124174 net.cpp:157] Top shape: 16 1024 14 14 (3211264)
I0503 20:29:48.605592 124174 net.cpp:165] Memory required for data: 3336503488
I0503 20:29:48.605599 124174 layer_factory.hpp:77] Creating layer bn4e_branch2c
I0503 20:29:48.605609 124174 net.cpp:106] Creating Layer bn4e_branch2c
I0503 20:29:48.605614 124174 net.cpp:454] bn4e_branch2c <- res4e_branch2c
I0503 20:29:48.605621 124174 net.cpp:397] bn4e_branch2c -> res4e_branch2c (in-place)
I0503 20:29:48.605804 124174 net.cpp:150] Setting up bn4e_branch2c
I0503 20:29:48.605814 124174 net.cpp:157] Top shape: 16 1024 14 14 (3211264)
I0503 20:29:48.605819 124174 net.cpp:165] Memory required for data: 3349348544
I0503 20:29:48.605828 124174 layer_factory.hpp:77] Creating layer scale4e_branch2c
I0503 20:29:48.605837 124174 net.cpp:106] Creating Layer scale4e_branch2c
I0503 20:29:48.605842 124174 net.cpp:454] scale4e_branch2c <- res4e_branch2c
I0503 20:29:48.605847 124174 net.cpp:397] scale4e_branch2c -> res4e_branch2c (in-place)
I0503 20:29:48.605891 124174 layer_factory.hpp:77] Creating layer scale4e_branch2c
I0503 20:29:48.606005 124174 net.cpp:150] Setting up scale4e_branch2c
I0503 20:29:48.606014 124174 net.cpp:157] Top shape: 16 1024 14 14 (3211264)
I0503 20:29:48.606019 124174 net.cpp:165] Memory required for data: 3362193600
I0503 20:29:48.606026 124174 layer_factory.hpp:77] Creating layer res4e
I0503 20:29:48.606034 124174 net.cpp:106] Creating Layer res4e
I0503 20:29:48.606037 124174 net.cpp:454] res4e <- res4d_res4d_relu_0_split_1
I0503 20:29:48.606043 124174 net.cpp:454] res4e <- res4e_branch2c
I0503 20:29:48.606051 124174 net.cpp:411] res4e -> res4e
I0503 20:29:48.606077 124174 net.cpp:150] Setting up res4e
I0503 20:29:48.606086 124174 net.cpp:157] Top shape: 16 1024 14 14 (3211264)
I0503 20:29:48.606091 124174 net.cpp:165] Memory required for data: 3375038656
I0503 20:29:48.606096 124174 layer_factory.hpp:77] Creating layer res4e_relu
I0503 20:29:48.606102 124174 net.cpp:106] Creating Layer res4e_relu
I0503 20:29:48.606106 124174 net.cpp:454] res4e_relu <- res4e
I0503 20:29:48.606112 124174 net.cpp:397] res4e_relu -> res4e (in-place)
I0503 20:29:48.606118 124174 net.cpp:150] Setting up res4e_relu
I0503 20:29:48.606124 124174 net.cpp:157] Top shape: 16 1024 14 14 (3211264)
I0503 20:29:48.606128 124174 net.cpp:165] Memory required for data: 3387883712
I0503 20:29:48.606132 124174 layer_factory.hpp:77] Creating layer res4e_res4e_relu_0_split
I0503 20:29:48.606138 124174 net.cpp:106] Creating Layer res4e_res4e_relu_0_split
I0503 20:29:48.606142 124174 net.cpp:454] res4e_res4e_relu_0_split <- res4e
I0503 20:29:48.606150 124174 net.cpp:411] res4e_res4e_relu_0_split -> res4e_res4e_relu_0_split_0
I0503 20:29:48.606158 124174 net.cpp:411] res4e_res4e_relu_0_split -> res4e_res4e_relu_0_split_1
I0503 20:29:48.606194 124174 net.cpp:150] Setting up res4e_res4e_relu_0_split
I0503 20:29:48.606202 124174 net.cpp:157] Top shape: 16 1024 14 14 (3211264)
I0503 20:29:48.606209 124174 net.cpp:157] Top shape: 16 1024 14 14 (3211264)
I0503 20:29:48.606212 124174 net.cpp:165] Memory required for data: 3413573824
I0503 20:29:48.606216 124174 layer_factory.hpp:77] Creating layer res4f_branch2a
I0503 20:29:48.606225 124174 net.cpp:106] Creating Layer res4f_branch2a
I0503 20:29:48.606235 124174 net.cpp:454] res4f_branch2a <- res4e_res4e_relu_0_split_0
I0503 20:29:48.606241 124174 net.cpp:411] res4f_branch2a -> res4f_branch2a
I0503 20:29:48.607056 124174 net.cpp:150] Setting up res4f_branch2a
I0503 20:29:48.607071 124174 net.cpp:157] Top shape: 16 256 14 14 (802816)
I0503 20:29:48.607076 124174 net.cpp:165] Memory required for data: 3416785088
I0503 20:29:48.607084 124174 layer_factory.hpp:77] Creating layer bn4f_branch2a
I0503 20:29:48.607094 124174 net.cpp:106] Creating Layer bn4f_branch2a
I0503 20:29:48.607098 124174 net.cpp:454] bn4f_branch2a <- res4f_branch2a
I0503 20:29:48.607105 124174 net.cpp:397] bn4f_branch2a -> res4f_branch2a (in-place)
I0503 20:29:48.607278 124174 net.cpp:150] Setting up bn4f_branch2a
I0503 20:29:48.607288 124174 net.cpp:157] Top shape: 16 256 14 14 (802816)
I0503 20:29:48.607292 124174 net.cpp:165] Memory required for data: 3419996352
I0503 20:29:48.607300 124174 layer_factory.hpp:77] Creating layer scale4f_branch2a
I0503 20:29:48.607308 124174 net.cpp:106] Creating Layer scale4f_branch2a
I0503 20:29:48.607312 124174 net.cpp:454] scale4f_branch2a <- res4f_branch2a
I0503 20:29:48.607321 124174 net.cpp:397] scale4f_branch2a -> res4f_branch2a (in-place)
I0503 20:29:48.607362 124174 layer_factory.hpp:77] Creating layer scale4f_branch2a
I0503 20:29:48.607468 124174 net.cpp:150] Setting up scale4f_branch2a
I0503 20:29:48.607478 124174 net.cpp:157] Top shape: 16 256 14 14 (802816)
I0503 20:29:48.607483 124174 net.cpp:165] Memory required for data: 3423207616
I0503 20:29:48.607491 124174 layer_factory.hpp:77] Creating layer res4f_branch2a_relu
I0503 20:29:48.607497 124174 net.cpp:106] Creating Layer res4f_branch2a_relu
I0503 20:29:48.607501 124174 net.cpp:454] res4f_branch2a_relu <- res4f_branch2a
I0503 20:29:48.607507 124174 net.cpp:397] res4f_branch2a_relu -> res4f_branch2a (in-place)
I0503 20:29:48.607514 124174 net.cpp:150] Setting up res4f_branch2a_relu
I0503 20:29:48.607520 124174 net.cpp:157] Top shape: 16 256 14 14 (802816)
I0503 20:29:48.607524 124174 net.cpp:165] Memory required for data: 3426418880
I0503 20:29:48.607528 124174 layer_factory.hpp:77] Creating layer res4f_branch2b
I0503 20:29:48.607538 124174 net.cpp:106] Creating Layer res4f_branch2b
I0503 20:29:48.607542 124174 net.cpp:454] res4f_branch2b <- res4f_branch2a
I0503 20:29:48.607550 124174 net.cpp:411] res4f_branch2b -> res4f_branch2b
I0503 20:29:48.608999 124174 net.cpp:150] Setting up res4f_branch2b
I0503 20:29:48.609016 124174 net.cpp:157] Top shape: 16 256 14 14 (802816)
I0503 20:29:48.609021 124174 net.cpp:165] Memory required for data: 3429630144
I0503 20:29:48.609028 124174 layer_factory.hpp:77] Creating layer bn4f_branch2b
I0503 20:29:48.609035 124174 net.cpp:106] Creating Layer bn4f_branch2b
I0503 20:29:48.609040 124174 net.cpp:454] bn4f_branch2b <- res4f_branch2b
I0503 20:29:48.609050 124174 net.cpp:397] bn4f_branch2b -> res4f_branch2b (in-place)
I0503 20:29:48.609239 124174 net.cpp:150] Setting up bn4f_branch2b
I0503 20:29:48.609249 124174 net.cpp:157] Top shape: 16 256 14 14 (802816)
I0503 20:29:48.609254 124174 net.cpp:165] Memory required for data: 3432841408
I0503 20:29:48.609262 124174 layer_factory.hpp:77] Creating layer scale4f_branch2b
I0503 20:29:48.609271 124174 net.cpp:106] Creating Layer scale4f_branch2b
I0503 20:29:48.609274 124174 net.cpp:454] scale4f_branch2b <- res4f_branch2b
I0503 20:29:48.609280 124174 net.cpp:397] scale4f_branch2b -> res4f_branch2b (in-place)
I0503 20:29:48.609323 124174 layer_factory.hpp:77] Creating layer scale4f_branch2b
I0503 20:29:48.609424 124174 net.cpp:150] Setting up scale4f_branch2b
I0503 20:29:48.609434 124174 net.cpp:157] Top shape: 16 256 14 14 (802816)
I0503 20:29:48.609438 124174 net.cpp:165] Memory required for data: 3436052672
I0503 20:29:48.609446 124174 layer_factory.hpp:77] Creating layer res4f_branch2b_relu
I0503 20:29:48.609452 124174 net.cpp:106] Creating Layer res4f_branch2b_relu
I0503 20:29:48.609457 124174 net.cpp:454] res4f_branch2b_relu <- res4f_branch2b
I0503 20:29:48.609469 124174 net.cpp:397] res4f_branch2b_relu -> res4f_branch2b (in-place)
I0503 20:29:48.609477 124174 net.cpp:150] Setting up res4f_branch2b_relu
I0503 20:29:48.609483 124174 net.cpp:157] Top shape: 16 256 14 14 (802816)
I0503 20:29:48.609488 124174 net.cpp:165] Memory required for data: 3439263936
I0503 20:29:48.609493 124174 layer_factory.hpp:77] Creating layer res4f_branch2c
I0503 20:29:48.609499 124174 net.cpp:106] Creating Layer res4f_branch2c
I0503 20:29:48.609504 124174 net.cpp:454] res4f_branch2c <- res4f_branch2b
I0503 20:29:48.609513 124174 net.cpp:411] res4f_branch2c -> res4f_branch2c
I0503 20:29:48.610339 124174 net.cpp:150] Setting up res4f_branch2c
I0503 20:29:48.610354 124174 net.cpp:157] Top shape: 16 1024 14 14 (3211264)
I0503 20:29:48.610359 124174 net.cpp:165] Memory required for data: 3452108992
I0503 20:29:48.610366 124174 layer_factory.hpp:77] Creating layer bn4f_branch2c
I0503 20:29:48.610374 124174 net.cpp:106] Creating Layer bn4f_branch2c
I0503 20:29:48.610379 124174 net.cpp:454] bn4f_branch2c <- res4f_branch2c
I0503 20:29:48.610385 124174 net.cpp:397] bn4f_branch2c -> res4f_branch2c (in-place)
I0503 20:29:48.610569 124174 net.cpp:150] Setting up bn4f_branch2c
I0503 20:29:48.610579 124174 net.cpp:157] Top shape: 16 1024 14 14 (3211264)
I0503 20:29:48.610584 124174 net.cpp:165] Memory required for data: 3464954048
I0503 20:29:48.610638 124174 layer_factory.hpp:77] Creating layer scale4f_branch2c
I0503 20:29:48.610648 124174 net.cpp:106] Creating Layer scale4f_branch2c
I0503 20:29:48.610656 124174 net.cpp:454] scale4f_branch2c <- res4f_branch2c
I0503 20:29:48.610661 124174 net.cpp:397] scale4f_branch2c -> res4f_branch2c (in-place)
I0503 20:29:48.610707 124174 layer_factory.hpp:77] Creating layer scale4f_branch2c
I0503 20:29:48.610816 124174 net.cpp:150] Setting up scale4f_branch2c
I0503 20:29:48.610828 124174 net.cpp:157] Top shape: 16 1024 14 14 (3211264)
I0503 20:29:48.610832 124174 net.cpp:165] Memory required for data: 3477799104
I0503 20:29:48.610841 124174 layer_factory.hpp:77] Creating layer res4f
I0503 20:29:48.610846 124174 net.cpp:106] Creating Layer res4f
I0503 20:29:48.610852 124174 net.cpp:454] res4f <- res4e_res4e_relu_0_split_1
I0503 20:29:48.610857 124174 net.cpp:454] res4f <- res4f_branch2c
I0503 20:29:48.610863 124174 net.cpp:411] res4f -> res4f
I0503 20:29:48.610889 124174 net.cpp:150] Setting up res4f
I0503 20:29:48.610898 124174 net.cpp:157] Top shape: 16 1024 14 14 (3211264)
I0503 20:29:48.610903 124174 net.cpp:165] Memory required for data: 3490644160
I0503 20:29:48.610908 124174 layer_factory.hpp:77] Creating layer res4f_relu
I0503 20:29:48.610913 124174 net.cpp:106] Creating Layer res4f_relu
I0503 20:29:48.610918 124174 net.cpp:454] res4f_relu <- res4f
I0503 20:29:48.610925 124174 net.cpp:397] res4f_relu -> res4f (in-place)
I0503 20:29:48.610932 124174 net.cpp:150] Setting up res4f_relu
I0503 20:29:48.610939 124174 net.cpp:157] Top shape: 16 1024 14 14 (3211264)
I0503 20:29:48.610944 124174 net.cpp:165] Memory required for data: 3503489216
I0503 20:29:48.610947 124174 layer_factory.hpp:77] Creating layer res4f_res4f_relu_0_split
I0503 20:29:48.610954 124174 net.cpp:106] Creating Layer res4f_res4f_relu_0_split
I0503 20:29:48.610957 124174 net.cpp:454] res4f_res4f_relu_0_split <- res4f
I0503 20:29:48.610963 124174 net.cpp:411] res4f_res4f_relu_0_split -> res4f_res4f_relu_0_split_0
I0503 20:29:48.610970 124174 net.cpp:411] res4f_res4f_relu_0_split -> res4f_res4f_relu_0_split_1
I0503 20:29:48.611007 124174 net.cpp:150] Setting up res4f_res4f_relu_0_split
I0503 20:29:48.611016 124174 net.cpp:157] Top shape: 16 1024 14 14 (3211264)
I0503 20:29:48.611021 124174 net.cpp:157] Top shape: 16 1024 14 14 (3211264)
I0503 20:29:48.611026 124174 net.cpp:165] Memory required for data: 3529179328
I0503 20:29:48.611029 124174 layer_factory.hpp:77] Creating layer res5a_branch1
I0503 20:29:48.611039 124174 net.cpp:106] Creating Layer res5a_branch1
I0503 20:29:48.611044 124174 net.cpp:454] res5a_branch1 <- res4f_res4f_relu_0_split_0
I0503 20:29:48.611050 124174 net.cpp:411] res5a_branch1 -> res5a_branch1
I0503 20:29:48.615420 124174 net.cpp:150] Setting up res5a_branch1
I0503 20:29:48.615438 124174 net.cpp:157] Top shape: 16 2048 7 7 (1605632)
I0503 20:29:48.615443 124174 net.cpp:165] Memory required for data: 3535601856
I0503 20:29:48.615450 124174 layer_factory.hpp:77] Creating layer bn5a_branch1
I0503 20:29:48.615459 124174 net.cpp:106] Creating Layer bn5a_branch1
I0503 20:29:48.615464 124174 net.cpp:454] bn5a_branch1 <- res5a_branch1
I0503 20:29:48.615473 124174 net.cpp:397] bn5a_branch1 -> res5a_branch1 (in-place)
I0503 20:29:48.615701 124174 net.cpp:150] Setting up bn5a_branch1
I0503 20:29:48.615712 124174 net.cpp:157] Top shape: 16 2048 7 7 (1605632)
I0503 20:29:48.615716 124174 net.cpp:165] Memory required for data: 3542024384
I0503 20:29:48.615725 124174 layer_factory.hpp:77] Creating layer scale5a_branch1
I0503 20:29:48.615733 124174 net.cpp:106] Creating Layer scale5a_branch1
I0503 20:29:48.615737 124174 net.cpp:454] scale5a_branch1 <- res5a_branch1
I0503 20:29:48.615743 124174 net.cpp:397] scale5a_branch1 -> res5a_branch1 (in-place)
I0503 20:29:48.615787 124174 layer_factory.hpp:77] Creating layer scale5a_branch1
I0503 20:29:48.615903 124174 net.cpp:150] Setting up scale5a_branch1
I0503 20:29:48.615913 124174 net.cpp:157] Top shape: 16 2048 7 7 (1605632)
I0503 20:29:48.615918 124174 net.cpp:165] Memory required for data: 3548446912
I0503 20:29:48.615926 124174 layer_factory.hpp:77] Creating layer res5a_branch2a
I0503 20:29:48.615936 124174 net.cpp:106] Creating Layer res5a_branch2a
I0503 20:29:48.615942 124174 net.cpp:454] res5a_branch2a <- res4f_res4f_relu_0_split_1
I0503 20:29:48.615949 124174 net.cpp:411] res5a_branch2a -> res5a_branch2a
I0503 20:29:48.617285 124174 net.cpp:150] Setting up res5a_branch2a
I0503 20:29:48.617301 124174 net.cpp:157] Top shape: 16 512 7 7 (401408)
I0503 20:29:48.617306 124174 net.cpp:165] Memory required for data: 3550052544
I0503 20:29:48.617313 124174 layer_factory.hpp:77] Creating layer bn5a_branch2a
I0503 20:29:48.617321 124174 net.cpp:106] Creating Layer bn5a_branch2a
I0503 20:29:48.617326 124174 net.cpp:454] bn5a_branch2a <- res5a_branch2a
I0503 20:29:48.617332 124174 net.cpp:397] bn5a_branch2a -> res5a_branch2a (in-place)
I0503 20:29:48.617543 124174 net.cpp:150] Setting up bn5a_branch2a
I0503 20:29:48.617557 124174 net.cpp:157] Top shape: 16 512 7 7 (401408)
I0503 20:29:48.617561 124174 net.cpp:165] Memory required for data: 3551658176
I0503 20:29:48.617570 124174 layer_factory.hpp:77] Creating layer scale5a_branch2a
I0503 20:29:48.617580 124174 net.cpp:106] Creating Layer scale5a_branch2a
I0503 20:29:48.617586 124174 net.cpp:454] scale5a_branch2a <- res5a_branch2a
I0503 20:29:48.617593 124174 net.cpp:397] scale5a_branch2a -> res5a_branch2a (in-place)
I0503 20:29:48.617642 124174 layer_factory.hpp:77] Creating layer scale5a_branch2a
I0503 20:29:48.617782 124174 net.cpp:150] Setting up scale5a_branch2a
I0503 20:29:48.617794 124174 net.cpp:157] Top shape: 16 512 7 7 (401408)
I0503 20:29:48.617797 124174 net.cpp:165] Memory required for data: 3553263808
I0503 20:29:48.617805 124174 layer_factory.hpp:77] Creating layer res5a_branch2a_relu
I0503 20:29:48.617811 124174 net.cpp:106] Creating Layer res5a_branch2a_relu
I0503 20:29:48.617816 124174 net.cpp:454] res5a_branch2a_relu <- res5a_branch2a
I0503 20:29:48.617825 124174 net.cpp:397] res5a_branch2a_relu -> res5a_branch2a (in-place)
I0503 20:29:48.617832 124174 net.cpp:150] Setting up res5a_branch2a_relu
I0503 20:29:48.617838 124174 net.cpp:157] Top shape: 16 512 7 7 (401408)
I0503 20:29:48.617842 124174 net.cpp:165] Memory required for data: 3554869440
I0503 20:29:48.617846 124174 layer_factory.hpp:77] Creating layer res5a_branch2b
I0503 20:29:48.617856 124174 net.cpp:106] Creating Layer res5a_branch2b
I0503 20:29:48.617861 124174 net.cpp:454] res5a_branch2b <- res5a_branch2a
I0503 20:29:48.617867 124174 net.cpp:411] res5a_branch2b -> res5a_branch2b
I0503 20:29:48.622851 124174 net.cpp:150] Setting up res5a_branch2b
I0503 20:29:48.622875 124174 net.cpp:157] Top shape: 16 512 7 7 (401408)
I0503 20:29:48.622880 124174 net.cpp:165] Memory required for data: 3556475072
I0503 20:29:48.622895 124174 layer_factory.hpp:77] Creating layer bn5a_branch2b
I0503 20:29:48.622907 124174 net.cpp:106] Creating Layer bn5a_branch2b
I0503 20:29:48.622915 124174 net.cpp:454] bn5a_branch2b <- res5a_branch2b
I0503 20:29:48.622925 124174 net.cpp:397] bn5a_branch2b -> res5a_branch2b (in-place)
I0503 20:29:48.623143 124174 net.cpp:150] Setting up bn5a_branch2b
I0503 20:29:48.623154 124174 net.cpp:157] Top shape: 16 512 7 7 (401408)
I0503 20:29:48.623158 124174 net.cpp:165] Memory required for data: 3558080704
I0503 20:29:48.623167 124174 layer_factory.hpp:77] Creating layer scale5a_branch2b
I0503 20:29:48.623175 124174 net.cpp:106] Creating Layer scale5a_branch2b
I0503 20:29:48.623180 124174 net.cpp:454] scale5a_branch2b <- res5a_branch2b
I0503 20:29:48.623188 124174 net.cpp:397] scale5a_branch2b -> res5a_branch2b (in-place)
I0503 20:29:48.623234 124174 layer_factory.hpp:77] Creating layer scale5a_branch2b
I0503 20:29:48.623347 124174 net.cpp:150] Setting up scale5a_branch2b
I0503 20:29:48.623358 124174 net.cpp:157] Top shape: 16 512 7 7 (401408)
I0503 20:29:48.623363 124174 net.cpp:165] Memory required for data: 3559686336
I0503 20:29:48.623371 124174 layer_factory.hpp:77] Creating layer res5a_branch2b_relu
I0503 20:29:48.623378 124174 net.cpp:106] Creating Layer res5a_branch2b_relu
I0503 20:29:48.623384 124174 net.cpp:454] res5a_branch2b_relu <- res5a_branch2b
I0503 20:29:48.623389 124174 net.cpp:397] res5a_branch2b_relu -> res5a_branch2b (in-place)
I0503 20:29:48.623397 124174 net.cpp:150] Setting up res5a_branch2b_relu
I0503 20:29:48.623404 124174 net.cpp:157] Top shape: 16 512 7 7 (401408)
I0503 20:29:48.623409 124174 net.cpp:165] Memory required for data: 3561291968
I0503 20:29:48.623412 124174 layer_factory.hpp:77] Creating layer res5a_branch2c
I0503 20:29:48.623423 124174 net.cpp:106] Creating Layer res5a_branch2c
I0503 20:29:48.623428 124174 net.cpp:454] res5a_branch2c <- res5a_branch2b
I0503 20:29:48.623435 124174 net.cpp:411] res5a_branch2c -> res5a_branch2c
I0503 20:29:48.625772 124174 net.cpp:150] Setting up res5a_branch2c
I0503 20:29:48.625790 124174 net.cpp:157] Top shape: 16 2048 7 7 (1605632)
I0503 20:29:48.625795 124174 net.cpp:165] Memory required for data: 3567714496
I0503 20:29:48.625802 124174 layer_factory.hpp:77] Creating layer bn5a_branch2c
I0503 20:29:48.625810 124174 net.cpp:106] Creating Layer bn5a_branch2c
I0503 20:29:48.625815 124174 net.cpp:454] bn5a_branch2c <- res5a_branch2c
I0503 20:29:48.625824 124174 net.cpp:397] bn5a_branch2c -> res5a_branch2c (in-place)
I0503 20:29:48.626024 124174 net.cpp:150] Setting up bn5a_branch2c
I0503 20:29:48.626035 124174 net.cpp:157] Top shape: 16 2048 7 7 (1605632)
I0503 20:29:48.626039 124174 net.cpp:165] Memory required for data: 3574137024
I0503 20:29:48.626049 124174 layer_factory.hpp:77] Creating layer scale5a_branch2c
I0503 20:29:48.626056 124174 net.cpp:106] Creating Layer scale5a_branch2c
I0503 20:29:48.626060 124174 net.cpp:454] scale5a_branch2c <- res5a_branch2c
I0503 20:29:48.626066 124174 net.cpp:397] scale5a_branch2c -> res5a_branch2c (in-place)
I0503 20:29:48.626116 124174 layer_factory.hpp:77] Creating layer scale5a_branch2c
I0503 20:29:48.626235 124174 net.cpp:150] Setting up scale5a_branch2c
I0503 20:29:48.626245 124174 net.cpp:157] Top shape: 16 2048 7 7 (1605632)
I0503 20:29:48.626250 124174 net.cpp:165] Memory required for data: 3580559552
I0503 20:29:48.626257 124174 layer_factory.hpp:77] Creating layer res5a
I0503 20:29:48.626266 124174 net.cpp:106] Creating Layer res5a
I0503 20:29:48.626271 124174 net.cpp:454] res5a <- res5a_branch1
I0503 20:29:48.626276 124174 net.cpp:454] res5a <- res5a_branch2c
I0503 20:29:48.626286 124174 net.cpp:411] res5a -> res5a
I0503 20:29:48.626313 124174 net.cpp:150] Setting up res5a
I0503 20:29:48.626322 124174 net.cpp:157] Top shape: 16 2048 7 7 (1605632)
I0503 20:29:48.626327 124174 net.cpp:165] Memory required for data: 3586982080
I0503 20:29:48.626332 124174 layer_factory.hpp:77] Creating layer res5a_relu
I0503 20:29:48.626339 124174 net.cpp:106] Creating Layer res5a_relu
I0503 20:29:48.626349 124174 net.cpp:454] res5a_relu <- res5a
I0503 20:29:48.626355 124174 net.cpp:397] res5a_relu -> res5a (in-place)
I0503 20:29:48.626363 124174 net.cpp:150] Setting up res5a_relu
I0503 20:29:48.626369 124174 net.cpp:157] Top shape: 16 2048 7 7 (1605632)
I0503 20:29:48.626374 124174 net.cpp:165] Memory required for data: 3593404608
I0503 20:29:48.626379 124174 layer_factory.hpp:77] Creating layer res5a_res5a_relu_0_split
I0503 20:29:48.626384 124174 net.cpp:106] Creating Layer res5a_res5a_relu_0_split
I0503 20:29:48.626391 124174 net.cpp:454] res5a_res5a_relu_0_split <- res5a
I0503 20:29:48.626397 124174 net.cpp:411] res5a_res5a_relu_0_split -> res5a_res5a_relu_0_split_0
I0503 20:29:48.626405 124174 net.cpp:411] res5a_res5a_relu_0_split -> res5a_res5a_relu_0_split_1
I0503 20:29:48.626442 124174 net.cpp:150] Setting up res5a_res5a_relu_0_split
I0503 20:29:48.626451 124174 net.cpp:157] Top shape: 16 2048 7 7 (1605632)
I0503 20:29:48.626456 124174 net.cpp:157] Top shape: 16 2048 7 7 (1605632)
I0503 20:29:48.626461 124174 net.cpp:165] Memory required for data: 3606249664
I0503 20:29:48.626466 124174 layer_factory.hpp:77] Creating layer res5b_branch2a
I0503 20:29:48.626473 124174 net.cpp:106] Creating Layer res5b_branch2a
I0503 20:29:48.626479 124174 net.cpp:454] res5b_branch2a <- res5a_res5a_relu_0_split_0
I0503 20:29:48.626487 124174 net.cpp:411] res5b_branch2a -> res5b_branch2a
I0503 20:29:48.628865 124174 net.cpp:150] Setting up res5b_branch2a
I0503 20:29:48.628882 124174 net.cpp:157] Top shape: 16 512 7 7 (401408)
I0503 20:29:48.628887 124174 net.cpp:165] Memory required for data: 3607855296
I0503 20:29:48.628895 124174 layer_factory.hpp:77] Creating layer bn5b_branch2a
I0503 20:29:48.628902 124174 net.cpp:106] Creating Layer bn5b_branch2a
I0503 20:29:48.628907 124174 net.cpp:454] bn5b_branch2a <- res5b_branch2a
I0503 20:29:48.628913 124174 net.cpp:397] bn5b_branch2a -> res5b_branch2a (in-place)
I0503 20:29:48.629104 124174 net.cpp:150] Setting up bn5b_branch2a
I0503 20:29:48.629114 124174 net.cpp:157] Top shape: 16 512 7 7 (401408)
I0503 20:29:48.629118 124174 net.cpp:165] Memory required for data: 3609460928
I0503 20:29:48.629129 124174 layer_factory.hpp:77] Creating layer scale5b_branch2a
I0503 20:29:48.629137 124174 net.cpp:106] Creating Layer scale5b_branch2a
I0503 20:29:48.629142 124174 net.cpp:454] scale5b_branch2a <- res5b_branch2a
I0503 20:29:48.629148 124174 net.cpp:397] scale5b_branch2a -> res5b_branch2a (in-place)
I0503 20:29:48.629192 124174 layer_factory.hpp:77] Creating layer scale5b_branch2a
I0503 20:29:48.629308 124174 net.cpp:150] Setting up scale5b_branch2a
I0503 20:29:48.629318 124174 net.cpp:157] Top shape: 16 512 7 7 (401408)
I0503 20:29:48.629323 124174 net.cpp:165] Memory required for data: 3611066560
I0503 20:29:48.629330 124174 layer_factory.hpp:77] Creating layer res5b_branch2a_relu
I0503 20:29:48.629338 124174 net.cpp:106] Creating Layer res5b_branch2a_relu
I0503 20:29:48.629344 124174 net.cpp:454] res5b_branch2a_relu <- res5b_branch2a
I0503 20:29:48.629349 124174 net.cpp:397] res5b_branch2a_relu -> res5b_branch2a (in-place)
I0503 20:29:48.629356 124174 net.cpp:150] Setting up res5b_branch2a_relu
I0503 20:29:48.629362 124174 net.cpp:157] Top shape: 16 512 7 7 (401408)
I0503 20:29:48.629367 124174 net.cpp:165] Memory required for data: 3612672192
I0503 20:29:48.629371 124174 layer_factory.hpp:77] Creating layer res5b_branch2b
I0503 20:29:48.629381 124174 net.cpp:106] Creating Layer res5b_branch2b
I0503 20:29:48.629385 124174 net.cpp:454] res5b_branch2b <- res5b_branch2a
I0503 20:29:48.629392 124174 net.cpp:411] res5b_branch2b -> res5b_branch2b
I0503 20:29:48.634089 124174 net.cpp:150] Setting up res5b_branch2b
I0503 20:29:48.634107 124174 net.cpp:157] Top shape: 16 512 7 7 (401408)
I0503 20:29:48.634112 124174 net.cpp:165] Memory required for data: 3614277824
I0503 20:29:48.634119 124174 layer_factory.hpp:77] Creating layer bn5b_branch2b
I0503 20:29:48.634133 124174 net.cpp:106] Creating Layer bn5b_branch2b
I0503 20:29:48.634140 124174 net.cpp:454] bn5b_branch2b <- res5b_branch2b
I0503 20:29:48.634151 124174 net.cpp:397] bn5b_branch2b -> res5b_branch2b (in-place)
I0503 20:29:48.634342 124174 net.cpp:150] Setting up bn5b_branch2b
I0503 20:29:48.634352 124174 net.cpp:157] Top shape: 16 512 7 7 (401408)
I0503 20:29:48.634357 124174 net.cpp:165] Memory required for data: 3615883456
I0503 20:29:48.634366 124174 layer_factory.hpp:77] Creating layer scale5b_branch2b
I0503 20:29:48.634376 124174 net.cpp:106] Creating Layer scale5b_branch2b
I0503 20:29:48.634380 124174 net.cpp:454] scale5b_branch2b <- res5b_branch2b
I0503 20:29:48.634387 124174 net.cpp:397] scale5b_branch2b -> res5b_branch2b (in-place)
I0503 20:29:48.634429 124174 layer_factory.hpp:77] Creating layer scale5b_branch2b
I0503 20:29:48.634546 124174 net.cpp:150] Setting up scale5b_branch2b
I0503 20:29:48.634554 124174 net.cpp:157] Top shape: 16 512 7 7 (401408)
I0503 20:29:48.634558 124174 net.cpp:165] Memory required for data: 3617489088
I0503 20:29:48.634567 124174 layer_factory.hpp:77] Creating layer res5b_branch2b_relu
I0503 20:29:48.634573 124174 net.cpp:106] Creating Layer res5b_branch2b_relu
I0503 20:29:48.634577 124174 net.cpp:454] res5b_branch2b_relu <- res5b_branch2b
I0503 20:29:48.634583 124174 net.cpp:397] res5b_branch2b_relu -> res5b_branch2b (in-place)
I0503 20:29:48.634590 124174 net.cpp:150] Setting up res5b_branch2b_relu
I0503 20:29:48.634596 124174 net.cpp:157] Top shape: 16 512 7 7 (401408)
I0503 20:29:48.634600 124174 net.cpp:165] Memory required for data: 3619094720
I0503 20:29:48.634605 124174 layer_factory.hpp:77] Creating layer res5b_branch2c
I0503 20:29:48.634614 124174 net.cpp:106] Creating Layer res5b_branch2c
I0503 20:29:48.634619 124174 net.cpp:454] res5b_branch2c <- res5b_branch2b
I0503 20:29:48.634627 124174 net.cpp:411] res5b_branch2c -> res5b_branch2c
I0503 20:29:48.637068 124174 net.cpp:150] Setting up res5b_branch2c
I0503 20:29:48.637084 124174 net.cpp:157] Top shape: 16 2048 7 7 (1605632)
I0503 20:29:48.637089 124174 net.cpp:165] Memory required for data: 3625517248
I0503 20:29:48.637095 124174 layer_factory.hpp:77] Creating layer bn5b_branch2c
I0503 20:29:48.637104 124174 net.cpp:106] Creating Layer bn5b_branch2c
I0503 20:29:48.637109 124174 net.cpp:454] bn5b_branch2c <- res5b_branch2c
I0503 20:29:48.637116 124174 net.cpp:397] bn5b_branch2c -> res5b_branch2c (in-place)
I0503 20:29:48.637312 124174 net.cpp:150] Setting up bn5b_branch2c
I0503 20:29:48.637323 124174 net.cpp:157] Top shape: 16 2048 7 7 (1605632)
I0503 20:29:48.637327 124174 net.cpp:165] Memory required for data: 3631939776
I0503 20:29:48.637336 124174 layer_factory.hpp:77] Creating layer scale5b_branch2c
I0503 20:29:48.637343 124174 net.cpp:106] Creating Layer scale5b_branch2c
I0503 20:29:48.637348 124174 net.cpp:454] scale5b_branch2c <- res5b_branch2c
I0503 20:29:48.637354 124174 net.cpp:397] scale5b_branch2c -> res5b_branch2c (in-place)
I0503 20:29:48.637399 124174 layer_factory.hpp:77] Creating layer scale5b_branch2c
I0503 20:29:48.637517 124174 net.cpp:150] Setting up scale5b_branch2c
I0503 20:29:48.637527 124174 net.cpp:157] Top shape: 16 2048 7 7 (1605632)
I0503 20:29:48.637532 124174 net.cpp:165] Memory required for data: 3638362304
I0503 20:29:48.637539 124174 layer_factory.hpp:77] Creating layer res5b
I0503 20:29:48.637548 124174 net.cpp:106] Creating Layer res5b
I0503 20:29:48.637553 124174 net.cpp:454] res5b <- res5a_res5a_relu_0_split_1
I0503 20:29:48.637559 124174 net.cpp:454] res5b <- res5b_branch2c
I0503 20:29:48.637565 124174 net.cpp:411] res5b -> res5b
I0503 20:29:48.637593 124174 net.cpp:150] Setting up res5b
I0503 20:29:48.637603 124174 net.cpp:157] Top shape: 16 2048 7 7 (1605632)
I0503 20:29:48.637606 124174 net.cpp:165] Memory required for data: 3644784832
I0503 20:29:48.637611 124174 layer_factory.hpp:77] Creating layer res5b_relu
I0503 20:29:48.637617 124174 net.cpp:106] Creating Layer res5b_relu
I0503 20:29:48.637622 124174 net.cpp:454] res5b_relu <- res5b
I0503 20:29:48.637629 124174 net.cpp:397] res5b_relu -> res5b (in-place)
I0503 20:29:48.637636 124174 net.cpp:150] Setting up res5b_relu
I0503 20:29:48.637646 124174 net.cpp:157] Top shape: 16 2048 7 7 (1605632)
I0503 20:29:48.637651 124174 net.cpp:165] Memory required for data: 3651207360
I0503 20:29:48.637656 124174 layer_factory.hpp:77] Creating layer res5b_res5b_relu_0_split
I0503 20:29:48.637662 124174 net.cpp:106] Creating Layer res5b_res5b_relu_0_split
I0503 20:29:48.637666 124174 net.cpp:454] res5b_res5b_relu_0_split <- res5b
I0503 20:29:48.637672 124174 net.cpp:411] res5b_res5b_relu_0_split -> res5b_res5b_relu_0_split_0
I0503 20:29:48.637679 124174 net.cpp:411] res5b_res5b_relu_0_split -> res5b_res5b_relu_0_split_1
I0503 20:29:48.637717 124174 net.cpp:150] Setting up res5b_res5b_relu_0_split
I0503 20:29:48.637725 124174 net.cpp:157] Top shape: 16 2048 7 7 (1605632)
I0503 20:29:48.637732 124174 net.cpp:157] Top shape: 16 2048 7 7 (1605632)
I0503 20:29:48.637735 124174 net.cpp:165] Memory required for data: 3664052416
I0503 20:29:48.637739 124174 layer_factory.hpp:77] Creating layer res5c_branch2a
I0503 20:29:48.637751 124174 net.cpp:106] Creating Layer res5c_branch2a
I0503 20:29:48.637758 124174 net.cpp:454] res5c_branch2a <- res5b_res5b_relu_0_split_0
I0503 20:29:48.637763 124174 net.cpp:411] res5c_branch2a -> res5c_branch2a
I0503 20:29:48.640008 124174 net.cpp:150] Setting up res5c_branch2a
I0503 20:29:48.640023 124174 net.cpp:157] Top shape: 16 512 7 7 (401408)
I0503 20:29:48.640028 124174 net.cpp:165] Memory required for data: 3665658048
I0503 20:29:48.640035 124174 layer_factory.hpp:77] Creating layer bn5c_branch2a
I0503 20:29:48.640043 124174 net.cpp:106] Creating Layer bn5c_branch2a
I0503 20:29:48.640048 124174 net.cpp:454] bn5c_branch2a <- res5c_branch2a
I0503 20:29:48.640055 124174 net.cpp:397] bn5c_branch2a -> res5c_branch2a (in-place)
I0503 20:29:48.640245 124174 net.cpp:150] Setting up bn5c_branch2a
I0503 20:29:48.640255 124174 net.cpp:157] Top shape: 16 512 7 7 (401408)
I0503 20:29:48.640259 124174 net.cpp:165] Memory required for data: 3667263680
I0503 20:29:48.640269 124174 layer_factory.hpp:77] Creating layer scale5c_branch2a
I0503 20:29:48.640275 124174 net.cpp:106] Creating Layer scale5c_branch2a
I0503 20:29:48.640280 124174 net.cpp:454] scale5c_branch2a <- res5c_branch2a
I0503 20:29:48.640285 124174 net.cpp:397] scale5c_branch2a -> res5c_branch2a (in-place)
I0503 20:29:48.640331 124174 layer_factory.hpp:77] Creating layer scale5c_branch2a
I0503 20:29:48.640455 124174 net.cpp:150] Setting up scale5c_branch2a
I0503 20:29:48.640466 124174 net.cpp:157] Top shape: 16 512 7 7 (401408)
I0503 20:29:48.640471 124174 net.cpp:165] Memory required for data: 3668869312
I0503 20:29:48.640478 124174 layer_factory.hpp:77] Creating layer res5c_branch2a_relu
I0503 20:29:48.640486 124174 net.cpp:106] Creating Layer res5c_branch2a_relu
I0503 20:29:48.640489 124174 net.cpp:454] res5c_branch2a_relu <- res5c_branch2a
I0503 20:29:48.640497 124174 net.cpp:397] res5c_branch2a_relu -> res5c_branch2a (in-place)
I0503 20:29:48.640504 124174 net.cpp:150] Setting up res5c_branch2a_relu
I0503 20:29:48.640511 124174 net.cpp:157] Top shape: 16 512 7 7 (401408)
I0503 20:29:48.640516 124174 net.cpp:165] Memory required for data: 3670474944
I0503 20:29:48.640519 124174 layer_factory.hpp:77] Creating layer res5c_branch2b
I0503 20:29:48.640527 124174 net.cpp:106] Creating Layer res5c_branch2b
I0503 20:29:48.640532 124174 net.cpp:454] res5c_branch2b <- res5c_branch2a
I0503 20:29:48.640540 124174 net.cpp:411] res5c_branch2b -> res5c_branch2b
I0503 20:29:48.645211 124174 net.cpp:150] Setting up res5c_branch2b
I0503 20:29:48.645229 124174 net.cpp:157] Top shape: 16 512 7 7 (401408)
I0503 20:29:48.645233 124174 net.cpp:165] Memory required for data: 3672080576
I0503 20:29:48.645241 124174 layer_factory.hpp:77] Creating layer bn5c_branch2b
I0503 20:29:48.645248 124174 net.cpp:106] Creating Layer bn5c_branch2b
I0503 20:29:48.645253 124174 net.cpp:454] bn5c_branch2b <- res5c_branch2b
I0503 20:29:48.645259 124174 net.cpp:397] bn5c_branch2b -> res5c_branch2b (in-place)
I0503 20:29:48.645447 124174 net.cpp:150] Setting up bn5c_branch2b
I0503 20:29:48.645457 124174 net.cpp:157] Top shape: 16 512 7 7 (401408)
I0503 20:29:48.645467 124174 net.cpp:165] Memory required for data: 3673686208
I0503 20:29:48.645476 124174 layer_factory.hpp:77] Creating layer scale5c_branch2b
I0503 20:29:48.645488 124174 net.cpp:106] Creating Layer scale5c_branch2b
I0503 20:29:48.645493 124174 net.cpp:454] scale5c_branch2b <- res5c_branch2b
I0503 20:29:48.645500 124174 net.cpp:397] scale5c_branch2b -> res5c_branch2b (in-place)
I0503 20:29:48.645548 124174 layer_factory.hpp:77] Creating layer scale5c_branch2b
I0503 20:29:48.645665 124174 net.cpp:150] Setting up scale5c_branch2b
I0503 20:29:48.645675 124174 net.cpp:157] Top shape: 16 512 7 7 (401408)
I0503 20:29:48.645679 124174 net.cpp:165] Memory required for data: 3675291840
I0503 20:29:48.645686 124174 layer_factory.hpp:77] Creating layer res5c_branch2b_relu
I0503 20:29:48.645694 124174 net.cpp:106] Creating Layer res5c_branch2b_relu
I0503 20:29:48.645699 124174 net.cpp:454] res5c_branch2b_relu <- res5c_branch2b
I0503 20:29:48.645705 124174 net.cpp:397] res5c_branch2b_relu -> res5c_branch2b (in-place)
I0503 20:29:48.645714 124174 net.cpp:150] Setting up res5c_branch2b_relu
I0503 20:29:48.645720 124174 net.cpp:157] Top shape: 16 512 7 7 (401408)
I0503 20:29:48.645723 124174 net.cpp:165] Memory required for data: 3676897472
I0503 20:29:48.645728 124174 layer_factory.hpp:77] Creating layer res5c_branch2c
I0503 20:29:48.645737 124174 net.cpp:106] Creating Layer res5c_branch2c
I0503 20:29:48.645742 124174 net.cpp:454] res5c_branch2c <- res5c_branch2b
I0503 20:29:48.645748 124174 net.cpp:411] res5c_branch2c -> res5c_branch2c
I0503 20:29:48.647985 124174 net.cpp:150] Setting up res5c_branch2c
I0503 20:29:48.648001 124174 net.cpp:157] Top shape: 16 2048 7 7 (1605632)
I0503 20:29:48.648006 124174 net.cpp:165] Memory required for data: 3683320000
I0503 20:29:48.648012 124174 layer_factory.hpp:77] Creating layer bn5c_branch2c
I0503 20:29:48.648022 124174 net.cpp:106] Creating Layer bn5c_branch2c
I0503 20:29:48.648028 124174 net.cpp:454] bn5c_branch2c <- res5c_branch2c
I0503 20:29:48.648035 124174 net.cpp:397] bn5c_branch2c -> res5c_branch2c (in-place)
I0503 20:29:48.648232 124174 net.cpp:150] Setting up bn5c_branch2c
I0503 20:29:48.648242 124174 net.cpp:157] Top shape: 16 2048 7 7 (1605632)
I0503 20:29:48.648247 124174 net.cpp:165] Memory required for data: 3689742528
I0503 20:29:48.648255 124174 layer_factory.hpp:77] Creating layer scale5c_branch2c
I0503 20:29:48.648262 124174 net.cpp:106] Creating Layer scale5c_branch2c
I0503 20:29:48.648267 124174 net.cpp:454] scale5c_branch2c <- res5c_branch2c
I0503 20:29:48.648274 124174 net.cpp:397] scale5c_branch2c -> res5c_branch2c (in-place)
I0503 20:29:48.648790 124174 layer_factory.hpp:77] Creating layer scale5c_branch2c
I0503 20:29:48.648919 124174 net.cpp:150] Setting up scale5c_branch2c
I0503 20:29:48.648931 124174 net.cpp:157] Top shape: 16 2048 7 7 (1605632)
I0503 20:29:48.648934 124174 net.cpp:165] Memory required for data: 3696165056
I0503 20:29:48.648942 124174 layer_factory.hpp:77] Creating layer res5c
I0503 20:29:48.648952 124174 net.cpp:106] Creating Layer res5c
I0503 20:29:48.648957 124174 net.cpp:454] res5c <- res5b_res5b_relu_0_split_1
I0503 20:29:48.648963 124174 net.cpp:454] res5c <- res5c_branch2c
I0503 20:29:48.648969 124174 net.cpp:411] res5c -> res5c
I0503 20:29:48.648999 124174 net.cpp:150] Setting up res5c
I0503 20:29:48.649008 124174 net.cpp:157] Top shape: 16 2048 7 7 (1605632)
I0503 20:29:48.649013 124174 net.cpp:165] Memory required for data: 3702587584
I0503 20:29:48.649018 124174 layer_factory.hpp:77] Creating layer res5c_relu
I0503 20:29:48.649024 124174 net.cpp:106] Creating Layer res5c_relu
I0503 20:29:48.649029 124174 net.cpp:454] res5c_relu <- res5c
I0503 20:29:48.649035 124174 net.cpp:397] res5c_relu -> res5c (in-place)
I0503 20:29:48.649042 124174 net.cpp:150] Setting up res5c_relu
I0503 20:29:48.649049 124174 net.cpp:157] Top shape: 16 2048 7 7 (1605632)
I0503 20:29:48.649052 124174 net.cpp:165] Memory required for data: 3709010112
I0503 20:29:48.649057 124174 layer_factory.hpp:77] Creating layer pool5
I0503 20:29:48.649070 124174 net.cpp:106] Creating Layer pool5
I0503 20:29:48.649075 124174 net.cpp:454] pool5 <- res5c
I0503 20:29:48.649081 124174 net.cpp:411] pool5 -> pool5
I0503 20:29:48.649109 124174 net.cpp:150] Setting up pool5
I0503 20:29:48.649117 124174 net.cpp:157] Top shape: 16 2048 1 1 (32768)
I0503 20:29:48.649121 124174 net.cpp:165] Memory required for data: 3709141184
I0503 20:29:48.649127 124174 layer_factory.hpp:77] Creating layer fc497
I0503 20:29:48.649133 124174 net.cpp:106] Creating Layer fc497
I0503 20:29:48.649137 124174 net.cpp:454] fc497 <- pool5
I0503 20:29:48.649147 124174 net.cpp:411] fc497 -> fc497
I0503 20:29:48.651729 124174 net.cpp:150] Setting up fc497
I0503 20:29:48.651746 124174 net.cpp:157] Top shape: 16 497 (7952)
I0503 20:29:48.651751 124174 net.cpp:165] Memory required for data: 3709172992
I0503 20:29:48.651758 124174 layer_factory.hpp:77] Creating layer fc497_fc497_0_split
I0503 20:29:48.651767 124174 net.cpp:106] Creating Layer fc497_fc497_0_split
I0503 20:29:48.651772 124174 net.cpp:454] fc497_fc497_0_split <- fc497
I0503 20:29:48.651779 124174 net.cpp:411] fc497_fc497_0_split -> fc497_fc497_0_split_0
I0503 20:29:48.651788 124174 net.cpp:411] fc497_fc497_0_split -> fc497_fc497_0_split_1
I0503 20:29:48.651823 124174 net.cpp:150] Setting up fc497_fc497_0_split
I0503 20:29:48.651831 124174 net.cpp:157] Top shape: 16 497 (7952)
I0503 20:29:48.651836 124174 net.cpp:157] Top shape: 16 497 (7952)
I0503 20:29:48.651840 124174 net.cpp:165] Memory required for data: 3709236608
I0503 20:29:48.651845 124174 layer_factory.hpp:77] Creating layer accuracy
I0503 20:29:48.651855 124174 net.cpp:106] Creating Layer accuracy
I0503 20:29:48.651859 124174 net.cpp:454] accuracy <- fc497_fc497_0_split_0
I0503 20:29:48.651865 124174 net.cpp:454] accuracy <- label_data_1_split_0
I0503 20:29:48.651871 124174 net.cpp:411] accuracy -> accuracy
…
